FinNet/Models/F2_model_FinNet_2.pt (torch, 6515 bytes, 7 tensors)

weight f4 [16, 1]
000000 d0 db 6b 3f 90 ca 70 bb 31 45 eb 3d b1 ef e7 be
       0.9213228 -0.003674183 0.114878066 -0.45300058
000010 11 3d 80 bf 95 41 87 3f bd 72 80 bf 66 4f 7d 3f
       -1.0018636 1.0566889 -1.0035015 0.9894928
000020 5a 7c 91 3f ce 35 eb be 6f 40 ea 3e 58 cd ca 3e
       1.1366074 -0.45939487 0.45752284 0.3960979
000030 26 e5 62 3f 13 97 7d bf 16 9d 1f 3f 2d 2e 01 bf
       0.886309 -0.99058646 0.6234907 -0.50461084

bias f4 [16]
000000 16 df 87 3f c1 7b 88 bf 50 7b 86 bf 31 10 83 3d
       1.0614955 -1.0662767 -1.0506382 0.06399573
000010 28 f0 1d bf 3e f5 e9 be 86 c4 e9 3e 55 79 60 3f
       -0.61694574 -0.45694917 0.45657748 0.8768514
000020 d5 22 b1 be e3 eb 1c bd 20 ef c8 3e 38 39 55 3b
       -0.34596887 -0.038310897 0.39244938 0.0032535326
000030 ac 88 97 3f bb 12 c6 be c9 1b 7c 3e 37 c1 40 3f
       1.1838584 -0.38686165 0.24619974 0.7529482

weight f4 [16, 16]
000000 5f 22 da bd b8 a7 1b 3e 4a 10 c0 bd 6a bb fb bc
       -0.10651087 0.15200698 -0.09378107 -0.030729014
000010 56 a4 fc bd 01 43 6b be 2b 00 0e bd 03 d3 78 3d
       -0.12336032 -0.22974779 -0.03466813 0.06074811
000020 f1 8e 39 be b5 16 61 be 55 a3 0d be 24 22 19 be
       -0.18120934 -0.21981318 -0.13831837 -0.1495443
000030 af d1 87 3e 6d e8 4a be af aa f5 bd 95 90 f0 3b
       0.26527163 -0.19815226 -0.11995446 0.0073414543
000040 c1 d7 0e 3e 6d 48 69 be 73 7a 30 bd ed 3f 0d be
       0.13949491 -0.22781534 -0.043085527 -0.13793917
000050 24 74 4f be 41 1d d2 bd 8d af 12 3b 4b 99 02 3e
       -0.20259148 -0.10259486 0.0022382468 0.12753789
000060 da 52 2e 3d 5b a8 1d 3e 11 d1 e1 bd 7b f3 08 be
       0.042559482 0.15396254 -0.110262044 -0.1337413
000070 72 8f e1 bd 58 d3 4e be 52 01 dd 3c a5 69 66 3e
       -0.11013688 -0.20197809 0.026978169 0.22501238
000080 5f 34 d3 3d 9b 61 6e 3e eb 2a 6c 3d 4e 1c 19 be
       0.10312723 0.23279421 0.057658117 -0.14952204
000090 98 43 c0 bc 42 8b 63 bd b0 e9 9c bd f4 e9 93 bd
       -0.023469731 -0.05555273 -0.0766176 -0.072223574
0000a0 08 69 54 3d 85 57 22 bc 73 3e 7b be 6b c9 23 3e
       0.051857978 -0.009908562 -0.24535541 0.15994804
0000b0 8f c0 65 be 89 a3 e7 bb 94 ee 20 be 10 36 34 be
       -0.22436737 -0.0070690555 -0.1571601 -0.17598748
0000c0 fc 5f 89 bd ee de 9d 3e 52 15 f0 3d 35 73 3b be
       -0.06707761 0.30834144 0.117228165 -0.18305667
0000d0 11 d6 58 3e ee 28 80 3e 9a cd 7c 3c 90 99 ac bd
       0.2117541 0.25031227 0.015429879 -0.08427727
0000e0 e8 70 58 be 57 75 66 bd 07 38 7f 3d 81 c7 74 be
       -0.2113682 -0.056264248 0.06230929 -0.2390423
0000f0 2c 9f 8f 3d d4 7f 21 3e 3d 71 21 3e f6 6b 63 3b
       0.070127815 0.15771419 0.15765853 0.00347018
000100 89 5c b0 3c e8 c6 3c be b6 88 8e bd 9c 0e 38 3e
       0.0215285 -0.18435252 -0.06959669 0.17974323
000110 00 2f 7c 3d 0c 9d 28 3d 8d e5 8c 3e 1f 48 fe 3d
       0.06156826 0.041165397 0.27518883 0.124161
000120 18 8d ed bd 3a b0 bb 3d c9 da ca bd b5 b7 68 bd
       -0.11599177 0.09164472 -0.09905011 -0.05681582
000130 db 68 45 bd bc c8 87 3d 0e 5f df bd bd 2b 6d 3b
       -0.0481957 0.06630084 -0.10906802 0.00361894
000140 7a 18 81 be 51 a9 da 3c 61 85 81 3e 2e 71 fa 3d
       -0.25213987 0.026692064 0.25297073 0.122286186
000150 ed 3a 55 3e 63 a2 53 3d 8e 20 10 be c8 c9 06 be
       0.2082326 0.051668536 -0.14074919 -0.13162911
000160 cb 85 58 3e f4 bd ed 3d ae 8d 1a be 41 18 40 3e
       0.21144788 0.11608496 -0.15093109 0.18759252
000170 10 e8 29 be c2 77 94 bd f1 f7 d0 bd 9e 4d 13 3e
       -0.16592431 -0.072494045 -0.10203541 0.14385077
000180 c8 0d 61 bc 6b 90 a6 3d ca bc 94 be be 4d c8 3d
       -0.013736196 0.08133014 -0.29050285 0.09780453
000190 39 91 93 3d 70 b0 4a be a9 e7 00 bc 8a e2 a4 3d
       0.072054334 -0.19793868 -0.007867732 0.080510214
0001a0 f3 62 64 bc d5 b5 4c 3e a5 ba df bd 81 2d 17 be
       -0.013939607 0.19991238 -0.109242715 -0.14763452
0001b0 73 b6 7d 3e db 22 2d 3d ac 4f 56 3c 16 a3 d2 bb
       0.2477663 0.04226957 0.013080519 -0.0064281328
0001c0 af 82 0d 3e 00 fc b6 3d ef e0 03 be 33 c4 9f bd
       0.13819383 0.08934784 -0.12878774 -0.07801094
0001d0 98 ce 08 bd 46 a5 54 3e 62 78 44 bd 26 38 2c 3e
       -0.03340015 0.20766172 -0.04796637 0.16818294
0001e0 4c 92 48 3e 5a c2 00 be 40 bd 41 be 5e 2c e3 bd
       0.19587058 -0.12574139 -0.1891985 -0.11092447
0001f0 3e 44 1d 3e d0 b7 cf 3d 20 28 af 3d fb d5 89 bb
       0.15358064 0.10142481 0.08552575 -0.0042064167
000200 d5 8e 05 3e 93 37 ab bd 06 96 90 3d 9e d0 aa bd
       0.13042767 -0.08360209 0.07059865 -0.08340572
000210 eb ed 90 3d 8f 2a e1 3d 40 fe 67 bd c7 66 19 3e
       0.07076629 0.109944455 -0.056638956 0.14980613
000220 19 b1 8d 3e b0 23 0e 3e 9e 5e 58 3d 82 05 de bd
       0.27674177 0.13880801 0.05282461 -0.10840894
000230 25 48 2b be e4 2e 5a 3e f2 43 7d bd 2f 1f c0 bd
       -0.1672674 0.2130695 -0.061832376 -0.09380948
000240 00 af 68 be 7c 37 3e 3d 0f ca ba bd d1 dd c7 3d
       -0.22723007 0.046439633 -0.09120571 0.09759105
000250 4a 2b dc 3d c6 f8 95 3e 97 1b 5b be 64 82 13 bc
       0.10750444 0.29291362 -0.21397243 -0.0090032555
000260 f9 16 11 be ec f1 78 bd a3 64 4c 3e 3d 30 fb bc
       -0.1416892 -0.06077759 0.19960265 -0.03066265
000270 29 46 ba 3c 7e aa 04 be 5e 0c 7e 3c 95 23 cd b9
       0.022738533 -0.12955663 0.015505878 -0.00039127158
000280 37 46 68 be d5 75 91 3e f2 ce cd 3d 71 3f 92 3e
       -0.22683035 0.2841021 0.10049237 0.28564027
000290 c0 89 10 be a1 10 25 bc 5e d7 b2 be f1 f9 5e be
       -0.14115047 -0.010074765 -0.34929937 -0.21775033
0002a0 30 c2 ef bd b8 21 86 3e 6a 2b 11 bb 23 af 18 3d
       -0.1170696 0.261976 -0.002215112 0.0372764
0002b0 11 1b 98 be 5f 35 f9 3d d1 72 70 be 99 c9 4d be
       -0.2970815 0.12168383 -0.23481299 -0.20096435
0002c0 95 ce 28 bd ba f9 86 be e9 c3 5f be 6f c7 92 bc
       -0.041212637 -0.263624 -0.21852078 -0.017917363
0002d0 a9 bd 13 bd 85 5f 09 be ec c1 75 3c da 6d d4 3d
       -0.036069546 -0.13415344 0.014999848 0.10372515
0002e0 95 6d 0e 3e 72 88 10 ba a0 8a 95 3e 3d 0d 70 3e
       0.1390899 -0.0005513496 0.29207325 0.2344255
0002f0 85 cb 5c 3d b7 67 41 be b6 1b 32 be 2c f9 a4 3e
       0.05390503 -0.1888722 -0.17393383 0.32221353
000300 a3 36 86 3e e2 f7 4f be b6 74 9b 3d e9 73 38 3e
       0.2621356 -0.20309404 0.0759062 0.18012966
000310 17 38 3c 3e 9b 6a 52 be 62 a0 f6 bb bd 1e 33 3e
       0.18380772 -0.2054848 -0.0075264433 0.17492194
000320 58 00 00 be 39 51 22 bd c3 9f a0 3d cc ef 4c 3e
       -0.12500131 -0.03962824 0.07842972 0.2001335
000330 49 96 8b 3e 09 f7 0c 3e e8 49 2b be 90 7e 42 be
       0.27263096 0.13766111 -0.16727412 -0.18993592
000340 ec 4e ac bd 25 35 4f 3e 56 41 f4 bd 44 bc 56 3b
       -0.08413491 0.20235117 -0.11926524 0.0032766024
000350 59 4b 34 3e ef 1d 92 3d 18 b0 f4 bc 1f ee 3a be
       0.17606868 0.07134616 -0.029869124 -0.18254898
000360 64 a6 60 be f0 a4 df bd e6 12 87 3c e5 f4 cf 3d
       -0.21938473 -0.10920131 0.016488504 0.10154132
000370 c6 c6 17 be 43 84 92 bd 49 ef 89 be f2 de 19 be
       -0.1482192 -0.07154133 -0.26940373 -0.15026453
000380 02 7e 8a be 0f 83 ac 3e e0 b9 1b 3e fd 54 6e 3e
       -0.2704926 0.3369374 0.15207624 0.23274608
000390 b9 2d 44 3e 93 84 80 3d b4 97 17 bd 57 15 1a 3e
       0.19158067 0.062752865 -0.03700991 0.15047203
0003a0 2e 9e ef bd d0 05 a1 bd 13 bc 46 be 42 4b 18 bd
       -0.11700092 -0.07862437 -0.19407682 -0.037181146
0003b0 65 9f aa bd 19 32 0e 3e f4 83 9e bc 61 59 cb bc
       -0.08331183 0.13886298 -0.01935003 -0.024822893
0003c0 27 4f 06 be 12 ad 8b 3e b8 71 78 3d 4e 59 69 3e
       -0.13116132 0.2728048 0.060655326 0.22787973
0003d0 0d d1 89 3e 22 7b 77 3d bd e5 87 be 1b 26 4c 3b
       0.26917306 0.060420163 -0.26542464 0.0031150642
0003e0 53 2d 61 3d f3 9d 90 bd 06 9a 84 be 13 cf 13 3d
       0.054974865 -0.070613764 -0.2589876 0.036086153
0003f0 00 0d 6c 3d d7 c3 99 3d 4f d1 8b be f9 4b cd bc
       0.057629585 0.075080566 -0.27308127 -0.02506064

bias f4 [16]
000000 fc 4f 0b 3e 9a 54 65 3e e7 36 3c bd be 19 94 bd
       0.1360473 0.22395554 -0.045950796 -0.072314724
000010 a2 e0 81 3e 86 3b 97 be ec 64 54 3e 87 6b 54 be
       0.25366694 -0.295376 0.20741624 -0.20744143
000020 de 3f 50 be bb b3 93 be c2 43 a0 3d 34 7a 87 3e
       -0.20336863 -0.2884806 0.07825424 0.2646042
000030 ab aa 53 3e 8e 04 09 be a4 3c bb bc f9 0e 51 be
       0.20670573 -0.13380644 -0.022856064 -0.20415868

weight f4 [16, 16]
000000 d8 cf 1d be ef 55 7b 3c a1 b8 b3 3d cb 92 14 3e
       -0.15411317 0.015340312 0.087754495 0.14509122
000010 4a 37 10 be 3a 45 07 3d 3e 02 36 be c3 7b 54 3e
       -0.14083591 0.033025004 -0.17774293 0.20750336
000020 f9 8e e4 3d 82 c1 c1 3d 60 8e d9 3d 98 f5 d5 3b
       0.11160082 0.09460737 0.10622859 0.006529521
000030 fd af 7c bc 25 b0 7d bd 13 0a 17 bc 0e 16 5a 3e
       -0.015422818 -0.061935563 -0.0092187105 0.21297476
000040 9f ad e0 bd 76 0c 30 3e a0 68 94 bd 39 19 53 3d
       -0.109706156 0.17192253 -0.07246518 0.051537726
000050 dd a9 f6 bd 07 c9 66 3e 3d fa 1b be 66 05 5c be
       -0.120441176 0.22537623 -0.15232177 -0.21486434
000060 75 32 f8 3d b3 99 bb 3d 70 cb 8a bc 19 14 8c be
       0.12118999 0.09160175 -0.01694271 -0.27359083
000070 71 22 b3 be e8 4f 34 be c7 cc 1c bd 09 90 34 be
       -0.34987214 -0.17608607 -0.03828123 -0.1763307
000080 87 25 94 be c5 6c 8c be 06 05 9c 3e ad 1e 93 3e
       -0.2893488 -0.27426735 0.30472583 0.2873434
000090 f0 03 b3 3c a5 53 38 bd 48 91 90 be 39 20 58 3e
       0.021852463 -0.045001645 -0.2823584 0.21106042
0000a0 33 ee 24 be bb d5 a0 bd fe e4 b3 3d 3c 96 db bc
       -0.16106491 -0.07853266 0.08783911 -0.026805036
0000b0 ca 8d da 3d f7 c4 4d 3e b0 bf 5b 3e 0d 30 81 3e
       0.10671575 0.20094667 0.21459842 0.25231972
0000c0 48 21 84 be 87 8f c0 3d 8b 66 ae bb 3e 38 3f 3e
       -0.25806642 0.09402376 -0.0053222827 0.18673798
0000d0 65 3d 7d be f7 07 60 3e 90 43 06 3e 8f 8e 33 be
       -0.24730451 0.21878038 0.1311171 -0.1753485
0000e0 16 bc 98 3e d4 be 33 bc fa 84 1c 3e e8 34 9b bd
       0.29830998 -0.01097079 0.15285102 -0.075784504
0000f0 f6 5b a3 be 12 31 2c be 8a 6f 1c 3e 6a 79 a6 3c
       -0.31906098 -0.16815594 0.15276924 0.020321567
000100 4b f5 54 bc 6e cf d8 bd 2d a5 dd bc 03 ae 6a be
       -0.0129979355 -0.10586439 -0.027056301 -0.22917943
000110 fb 78 b3 3e cc 5c 22 3d 9b 79 e7 bb 23 2d 5f be
       0.35053238 0.03963928 -0.007064057 -0.21794562
000120 d0 cc ba 3d 40 95 ca 3c 23 a5 53 be 7a bf 30 be
       0.09121096 0.024729371 -0.20668463 -0.17260543
000130 f6 c7 d2 3c c5 77 ad 3d eb 18 fa bd dd b0 97 3c
       0.025730114 0.0847011 -0.12211784 0.018516952
000140 8d 4c 08 3e 9d 40 32 be 6f 27 97 3e c0 4f b4 3d
       0.13310452 -0.1740746 0.29522273 0.088042736
000150 8a f4 ef bd b7 4d 43 3c 7d c4 2c bd 5a ea d7 bd
       -0.11716564 0.011920384 -0.042179573 -0.10542746
000160 76 f0 84 3e 57 fa 05 3e d5 8e 80 3e 8d 59 39 be
       0.25964707 0.13083778 0.25108972 -0.18100567
000170 a1 34 0c bd 15 60 5a 3c ed 15 8e 3e b2 83 8e 3e
       -0.03422988 0.013328572 0.27751103 0.2783485
000180 85 7f ef 3c cb af 42 3e ab ae b5 3d f3 c1 97 be
       0.02923561 0.19012372 0.08871206 -0.2964016
000190 fb 9f 4f 3e 33 b0 ee 3d d7 4d f2 3c 48 f8 74 bd
       0.20275871 0.11654701 0.029578133 -0.059807092
0001a0 b8 b7 ea 3c f6 79 9c be f9 5d 68 be 16 42 97 3e
       0.028652057 -0.305618 -0.22692098 0.29542607
0001b0 90 3c 6c 3e 10 7f 92 be 0b 09 3d be df 94 00 be
       0.23069978 -0.28612566 -0.18460481 -0.1255679
0001c0 45 cb 86 3d 5b 9c 6d 3d 9f f5 ac be 20 93 69 be
       0.06581739 0.05801044 -0.33781144 -0.2281003
0001d0 96 1d a0 3d 85 60 52 be c2 26 4b 3c 03 ab 57 be
       0.07818143 -0.20544632 0.012399377 -0.2106133
0001e0 b2 10 d0 3d 98 45 c4 bc cc 8d a6 be d3 1a 44 3e
       0.101594344 -0.023958966 -0.32530057 0.19150858
0001f0 83 f2 aa bd 80 74 55 bd 4b 58 b7 bd 00 6c 00 be
       -0.08347037 -0.052113056 -0.089523874 -0.12541199
000200 03 02 6b be 2a 7f b0 bc d6 48 bc 3b 83 a4 8d 3b
       -0.22949986 -0.021545012 0.0057459874 0.00432259
000210 f1 a3 ac be 4a b8 3e 3d b7 ee f9 3d 84 e2 57 bd
       -0.33718827 0.04656247 0.12203734 -0.052706257
000220 97 0a ea 3d e3 2c ca 3d 64 6b d4 bc af 82 25 be
       0.11427801 0.09871843 -0.025930114 -0.16163133
000230 3b eb 40 3d 13 9e f2 bc f4 fb d3 3d 17 62 17 3e
       0.047099333 -0.029616391 0.103507906 0.14783512
000240 0c e3 81 3d ae 00 60 3e c7 d4 62 3d 47 4c 94 be
       0.06342134 0.2187526 0.0553787 -0.28964445
000250 3f dd 32 bd c9 ff 9b be 2e 01 52 3e a6 55 b6 bd
       -0.043668028 -0.30468586 0.20508263 -0.08903055
000260 c0 2d 65 3b b1 80 6a 3d 0f 23 3f be e0 5d 0a 3e
       0.0034969896 0.057251636 -0.18665718 0.13512373
000270 5b 42 90 3e 45 55 46 3a 1c 82 88 be b4 5d fd bd
       0.28175625 0.0007565807 -0.26661766 -0.12371388
000280 82 4f 19 be d0 2c de bc 3b b5 c7 bd fd 76 64 bd
       -0.14971736 -0.027120978 -0.09751364 -0.05577754
000290 e1 8c a8 be f8 76 08 3e 0d 18 95 be a6 68 2a 3e
       -0.32919982 0.13326633 -0.29119912 0.16641483
0002a0 42 08 83 3e 99 72 7d 3e 5f c1 86 bd dd cf 1c 3e
       0.25592238 0.24750747 -0.06579851 0.15313669
0002b0 e8 6a b5 3d 5b 87 4f 3e ce 96 14 be 48 f7 33 be
       0.088582814 0.20266478 -0.14510652 -0.17574799
0002c0 0f a5 5a 3e 48 2c 95 3d 03 2b 9b bd 2c d9 88 3e
       0.21352027 0.072838366 -0.07576563 0.2672819
0002d0 20 f6 5f 3e 57 ba 27 be 64 12 b7 bd 72 61 6f be
       0.21871233 -0.16379677 -0.089390546 -0.23377016
0002e0 9c 7c b5 3b f8 f0 77 be 48 84 e4 bd 5e 3c 31 be
       0.0055385362 -0.24213016 -0.11158043 -0.17308185
0002f0 fd 39 7b 3d 8f 07 4f 3e 85 9c 39 be 41 1d 25 bc
       0.0613346 0.20217727 -0.18126114 -0.010077775
000300 03 7c 35 be 82 85 9d bc c8 18 be 3d 61 94 06 3e
       -0.17723088 -0.0192287 0.092820704 0.1314254
000310 1e 07 0e be e9 37 f7 3d b6 99 7d 3d bb 61 91 bc
       -0.13869902 0.12071211 0.06191417 -0.017746797
000320 3b 26 d3 3d 28 e8 14 3e af 12 c3 bb e7 13 66 be
       0.10310026 0.14541686 -0.005953155 -0.2246853
000330 1c ed 69 be 66 8b 8f 3e 08 62 b4 3c ae 8d 29 3e
       -0.22844356 0.2803604 0.022019401 0.16557953
000340 e3 e0 34 be b2 84 e5 bc 37 d4 cd 3d 70 e9 8e 3e
       -0.17663912 -0.028017376 0.100502424 0.27912474
000350 79 be 8b 3d 25 3a 1f 3d 10 27 69 3d bc 3c b0 3d
       0.06823439 0.03887381 0.05692202 0.08605334
000360 1d 5f c8 bc 8e 92 45 3e c6 3d 77 3e 87 93 88 be
       -0.024459416 0.19294187 0.24144658 -0.26675054
000370 5f 19 a6 be 32 ac 16 3e f9 0a d4 3c b9 9b 43 3e
       -0.32441232 0.14714125 0.025884138 0.19102372
000380 aa 05 98 bd 06 a8 8e 3d 63 92 94 3e 99 99 1d 3e
       -0.07422955 0.06965642 0.29017934 0.15390624
000390 bf 8c bc bd 79 22 95 bd ef 7b 87 be b2 11 6f be
       -0.09206533 -0.07281966 -0.2646174 -0.23346594
0003a0 12 71 23 3e 59 e5 bc 3c 29 b8 0c be 31 45 c0 bd
       0.15961102 0.02305858 -0.13742127 -0.09388197
0003b0 25 53 37 be 74 4c d3 bb 53 cc 7d bd 78 24 54 bc
       -0.17902811 -0.006448323 -0.061962437 -0.012948148
0003c0 75 cb 40 3e 44 b1 88 bd af 27 3a 3d 69 14 d8 bd
       0.18827613 -0.06674436 0.045448 -0.10550768
0003d0 93 4b 09 3e e6 6d 3a 3d 27 61 98 3e 3e b1 86 3c
       0.13407736 0.045514964 0.2976162 0.016441938
0003e0 50 71 c6 bd f3 cc 2c be 6e 13 0d 3e 0b 9e 3a be
       -0.096895814 -0.16875057 0.13776943 -0.18224351
0003f0 bd 9e a0 3e 1e 4b eb 3d 60 89 1d 3d 66 62 d3 bd
       0.31371108 0.11488937 0.03846109 -0.103215024

bias f4 [16]
000000 fb 42 47 3d 5c 37 8e bb 85 d9 63 be 31 0b 65 be
       0.048647862 -0.0043400954 -0.22250946 -0.2236755
000010 99 0d a1 3d 3f c6 4e be 24 28 d7 bd 52 55 47 bd
       0.07863922 -0.20192812 -0.10505703 -0.048665352
000020 bd b3 4f be 8f a2 b9 bd ef fc 09 3e 86 b4 28 3e
       -0.20283408 -0.09064209 0.13475393 0.16475114
000030 74 21 21 3e 91 b8 2b 3e 5f 6e 03 3e 75 e2 ba 3d
       0.15735418 0.16769625 0.12835072 0.091252245

weight f4 [1, 16]
000000 aa d3 4f be 26 98 19 be 83 d0 f4 bd ec b4 31 be
       -0.20295587 -0.14999446 -0.11953833 -0.17354172
000010 8b ee c9 3c 5a 5c 44 be 50 4c a3 3e a9 25 07 3e
       0.024649879 -0.19175854 0.3189416 0.1319796
000020 70 53 8b be c0 b7 60 3e 88 94 3d be 2f fe b5 3d
       -0.27212095 0.21945095 -0.18513691 0.08886372
000030 f2 e6 94 be 0d 30 2c be c8 0d fe bd 5f e0 35 3e
       -0.29082447 -0.16815205 -0.12404972 0.17761372
