WeakLossExample/weak_loss_model.pt (torch, 86103 bytes, 6 tensors)

weight f8 [100, 1]
0	0xbf8099a5df9d797f	-0.008105560194675785
1	0xbfb48f4db0e58c8f	-0.08031163758055214
2	0x3fd7ca1f57660c4d	0.3717115739347648
3	0xbfb483e4e7c669c5	-0.08013754519053069
4	0x3fe2de936ed73a52	0.5896699108942107
5	0x3fe30abb8678b48f	0.5950601221462807
6	0x3fe8095d46875618	0.7511431100380745
7	0x3fe8b2507047ea30	0.771766871737162
8	0xbfe62c0d901f93f8	-0.6928775610837183
9	0x3fb45d2f4956be15	0.07954688587664578
10	0xbfb380c39cc8f744	-0.07618353441008902
11	0xbfaa70e03d3c8a98	-0.05164242503658051
12	0xbfd5ccf571498b60	-0.3406346899338839
13	0xbfb18d4e30cc41af	-0.06856239978174615
14	0xbfdb36468a327532	-0.4251877164441168
15	0xbfbf34fb54a15bfb	-0.12190218750161812
16	0xbfeabcef5eee510d	-0.8355633596534361
17	0x3fb0e1ff6f56e91b	0.06594845264672637
18	0xbfdd2053ec5609ac	-0.45509813384719666
19	0xbfba702cc7ef2376	-0.10327415353016342
20	0x3fd1c0601960c10c	0.27736666181864744
21	0xbfe647b62484131f	-0.6962538445664882
22	0xbfe6f9d84acad8d1	-0.7179986439503186
23	0xbfca099319fe43af	-0.20341719407272538
24	0xbfbce7bc2e50254f	-0.112910996729757
25	0x3fceec54dd906be8	0.24158726519166795
26	0x3fdfa765a29784f3	0.49459210279572047
27	0x3fb1b40c85df2e9f	0.06915357845644586
28	0x3fd18cec5be20155	0.2742262742322244
29	0x3fdd566aeb52c3f2	0.4583995149687886
30	0x3fe80b0b2ca567b4	0.7513481018061072
31	0x3fdad2d516e17c43	0.41911818727925637
32	0xbfe56d1102088aba	-0.6695637740816303
33	0x3fd86267c0ab0a00	0.38100618186231827
34	0xbfe1239d5c04bb63	-0.5355974957691213
35	0xbfeae4c4b2269801	-0.840425823164651
36	0xbfd777bd32b68cf1	-0.36668329193544397
37	0xbfedcdf079fe3c99	-0.9313890822103473
38	0xbfd8fa0b3bcc2dc7	-0.39026146735770023
39	0x3fec8c3ad4c9c156	0.8921178966539098
40	0xbfdb1540c910291f	-0.423172184324942
41	0xbfe68949ffd6cab9	-0.7042589184623785
42	0x3fcb0640d2107326	0.2111283326820736
43	0x3fd7ed87ea58a118	0.3738727367913426
44	0x3fc01ea817395c51	0.12593556531894248
45	0xbfe28e6da2d5f433	-0.5798862629304778
46	0xbfc3033e34f876bf	-0.1485364683766672
47	0xbfc8afcfbbe31bc6	-0.19286533998658068
48	0x3f914865da5cb1bf	0.016877738430751906
49	0x3fde44b2f0353504	0.47294305284306426
50	0xbfe9326023b6f0ba	-0.7873993585158339
51	0xbfb443463c4c0c10	-0.07915152523132485
52	0xbfb064c3a9da7ebf	-0.06403754135908012
53	0xbfe3f14551740ad7	-0.6232019987949923
54	0xbfe2279895cd45a8	-0.5673335004632252
55	0xbfd6fa466b96abfb	-0.3590255785626934
56	0xbfeb1badfb181d38	-0.847128858965255
57	0xbfdf80aeeeb6709f	-0.492229207151249
58	0xbfb23dedfd08fe0b	-0.07125747134795561
59	0x3fe22c5eec019681	0.5679163560386798
60	0x3fe31276b1f53bf1	0.5960038638821726
61	0xbff1668ee2b9e434	-1.0875386101236133
62	0x3fd5d4a4f4d1f259	0.3411037817784624
63	0xbfba7b2beca36b38	-0.1034419491510733
64	0x3fde6cda5f24780a	0.4753938607335618
65	0x3fbb26e49329a0df	0.10606220810734922
66	0x3fd014e6966e809d	0.2512756794985849
67	0xbfac36943d320681	-0.05510390517248443
68	0xbfeaaaaa0977449b	-0.8333330330734897
69	0x3fc0f3a41bb77f97	0.13243533471449773
70	0xbfbb5c96d6b6e34e	-0.10688154928255963
71	0xbfb29483a8c07afd	-0.07257864828032363
72	0xbfa3270cdd1642fa	-0.03740730475249694
73	0xbfe2da1ce420c757	-0.5891251044870199
74	0xbfe1baba73b60f0b	-0.5540439853652698
75	0x3fdfc90d5f83b319	0.49664625480254326
76	0x3fd67b89bd4b2fdd	0.3512901638575821
77	0xbfc641f127447c1f	-0.17388739030227016
78	0xbfcc2529aa97cb86	-0.21988411741002895
79	0x3fe2ac7fa0a3e39c	0.5835569512847658
80	0xbfece19981beeb5e	-0.9025390180680508
81	0xbfe7337b950ec99d	-0.7250345145496798
82	0x3fd025a715d009b5	0.25229813699857156
83	0x3f92e67528bbaf1e	0.01845725117793428
84	0xbfca0c60e6ad38d7	-0.203502762446482
85	0xbfd714625ef18ef8	-0.36061915656885857
86	0x3fc7579a82e5e6f7	0.18236094848162285
87	0xbfe7548c0e1684cb	-0.7290706896930258
88	0xbfea8f8c918bec36	-0.8300230829912667
89	0xbfe9b2dfd8c5e942	-0.8030852540826248
90	0x3fe3907d298394d6	0.6113878069706071
91	0x3fe5f1fd3c8bbc9c	0.685789697888953
92	0xbfdf28b39ee9bdf5	-0.4868592311749745
93	0xbfef20ac63cbebb8	-0.9727384518767996
94	0x3fd21172cc9fb9df	0.2823149679451528
95	0x3fe4fdc3ec0d6f36	0.6559772119903531
96	0x3fd5342d76b74f6d	0.3313096675240022
97	0x3fdf5bcf5f9774b6	0.489978640891262
98	0xbfd1f9188c8c52ff	-0.28082860684780536
99	0x3fe5ccdd7c484e78	0.6812579562560606

bias f8 [100]
0	0xbfe7a6d62aef088e	-0.7391157949971487
1	0xbfe2977ba9771d24	-0.5809915838116564
2	0xbff13e2367b8b894	-1.0776704837440194
3	0x3fe18b161a73b3ea	0.5482283131256029
4	0xbff034352f87b00f	-1.0127460343019299
5	0x3fe4743d91c5cbbc	0.6391895148393512
6	0x3fd006df394972cc	0.2504194316332302
7	0x3fd064727761cc05	0.2561308065261872
8	0x3fd028f52c80a871	0.25249986024812815
9	0xbfe1c543d27046f8	-0.5553301916245053
10	0x3fd43bc3a64937dd	0.3161477207075885
11	0x3fe7b7c385fb2bb6	0.7411820999926622
12	0x3fe1d2db477c7d3c	0.5569893261162302
13	0xbfc6fa29030ebce8	-0.17950928353591356
14	0x3ff1afe7641b7ad8	1.1054452810710043
15	0x3fe496dcad9c53c5	0.6434157744248458
16	0xbfedcaf60edce3fc	-0.9310255327501404
17	0xbfe03fb064ed2805	-0.507774541017398
18	0x3ff0af62e698bfd2	1.0428189284975713
19	0x3fdad04ea6e03655	0.41896406456439667
20	0xbfd486579c194731	-0.32069959873216464
21	0xbfc10d85dd2cd7a0	-0.1332251863438474
22	0xbfedfb4f987ddd18	-0.9369276026108393
23	0xbfe3297cf06227dc	-0.5988144583691297
24	0xbfb02a4dc6675e10	-0.06314550489275228
25	0x3fe5cefc5f70b0d0	0.6815168251100889
26	0xbfd2e0ffe453b563	-0.2949828843837478
27	0xbfec4d064f71dbba	-0.8844024230628442
28	0xbfad13e2f30e4ec4	-0.05679234711638295
29	0xbfe2415700c8b533	-0.5704760566056052
30	0x3fe2f66c3be58397	0.592580906854084
31	0xbfeb233e8ee9f39c	-0.8480522910391417
32	0x3fdce42095d84c99	0.4514237845734868
33	0x3feb45cad5969d54	0.852269570507739
34	0x3fcc3dc1184028ad	0.22063459095108354
35	0xbfbab7c1a61d3380	-0.10436640077132431
36	0x3fe8b5e466ca8833	0.77220363689799
37	0xbfeb4d4e7ebfbfe4	-0.8531868434492904
38	0xbfec2d39c70685bc	-0.880520714494359
39	0x3fdb8a0b0f5a0563	0.4303004884642034
40	0xbfdcb6dbed820ad0	-0.4486608333028643
41	0xbfd2c7ce0d37fda8	-0.2934451226319319
42	0xbfc22a10d44f1f5f	-0.1419087444939988
43	0xbfed41fe0a0e5d7f	-0.9143057056816558
44	0xbfdb806cd339b277	-0.42971344592550714
45	0xbfec3d28ed136164	-0.8824658041367397
46	0xbfe9bc76db53c0a8	-0.8042558940633358
47	0x3fe905d2710fab84	0.7819606979586387
48	0xbfef07d136bfa02e	-0.969704253130663
49	0x3fa121b3f5efb9b8	0.033460258266007015
50	0x3fd1bb77c055d56d	0.2770671251558586
51	0x3fd3f0052dfdc39f	0.31152467242559995
52	0xbf8e1efae4a50700	-0.014707527258568387
53	0xbfe4f887d2de1556	-0.6553382032877078
54	0x3ff0f83e3582f077	1.0606062021534208
55	0xbfca7a4cf2edc400	-0.20685731755978054
56	0x3fef7d93d9ca685e	0.984079289791463
57	0xbfebf09a6fbbc732	-0.8731205160422404
58	0xbfa32e66ecad9ea2	-0.037463394538290076
59	0xbff3eee07015d83b	-1.24581950934727
60	0x3fe3a29948ad9ba8	0.6135984820838205
61	0x3fe045348d32694e	0.5084479100944834
62	0xbff078b65c881a8b	-1.0294707884328627
63	0x3fd8e374a6937d30	0.3888827921600351
64	0xbfdf1330acf9765d	-0.4855462731555685
65	0xbfe614e6a2106a36	-0.6900513806643349
66	0x3fe22303404162cd	0.5667740111340095
67	0x3fcec1d2428a3a8f	0.24028995751401225
68	0x3fd5fd39f64f3efc	0.34358071378390753
69	0xbfe2c1394adf6430	-0.5860868894916447
70	0x3fdbd54fec65c431	0.43489454351135054
71	0x3fdd83c02925a676	0.4611664201571338
72	0x3fae06e00f46145f	0.05864620386550067
73	0xbfc7c7b558069370	-0.18578211591843852
74	0xbfe17ed1966f6244	-0.546730798548261
75	0xbff30482967d77f9	-1.1886011007804866
76	0xbfee5af96b299d0c	-0.9486052601832013
77	0xbfd05471dc5d3908	-0.2551540996545474
78	0x3fdc21024ab8cc28	0.43951470658356806
79	0x3fe8c60522dd0d85	0.774172370999097
80	0x3fdd4dbd2fad991c	0.45786981254640735
81	0xbfed3bd2b33b675e	-0.9135526180864237
82	0x3fe7e8bdc645d159	0.747160804034631
83	0x3fe513ea7fb38999	0.6586811536947607
84	0xbfdfc200459e4fc0	-0.4962158851496916
85	0x3ff00e6ce81aa319	1.003521830231142
86	0x3faf4dd1e64ade9d	0.06114059387385604
87	0xbfefce60469d54fe	-0.9939423922720889
88	0x3fe6ed5452d0e744	0.7164708726406634
89	0x3fd2e07530c57f6a	0.29494981539573095
90	0x3fe34d2228973dc9	0.6031657021321105
91	0x3fa01149252852e4	0.0313818796022696
92	0x3fc0b844490d0c0d	0.13062337462369591
93	0x3fd6afe6e26589fa	0.35448619946524185
94	0xbfd9d569f9bdb26f	-0.40365075482149043
95	0xbfc6edff796da830	-0.1791381209289411
96	0xbfea421be7218346	-0.8205699457431386
97	0xbfefc091e051e9e2	-0.9922570592164528
98	0xbfe5b7a1d53f773a	-0.6786660351751614
99	0xbfe27ed031193bca	-0.5779801329571168

weight f8 [100, 100]
0	0xbfabef9eb326d96f	-0.05456252991591525
1	0x3fa1041c87ed1700	0.03323449286703628
2	0xbfb5bb875a02c020	-0.08489271113899166
3	0xbfafbfdfc1da48de	-0.06201075784078268
4	0xbfa1de044a5c21bc	-0.03489697845185755
5	0xbf9f1578f946b9d0	-0.030355348791710146
6	0xbfa78ba130693753	-0.045987164649530364
7	0xbfa91636ef41c209	-0.048997608858261606
8	0x3fa5f3f559eac7d9	0.04287687990780826
9	0x3f91aaca162003f1	0.017253072357565406
10	0x3fa80cf0ad05b170	0.04697372543418765
11	0xbfbe681ce026dbd0	-0.11877613518195962
12	0x3fb16f1f91f22468	0.06810185731059593
13	0xbf7517a64daac233	-0.005149507162670863
14	0x3fb78751d7c76d54	0.09190856473963055
15	0xbfb3092fc9a0029b	-0.07435892746435473
16	0x3fb0c8f54cbab15e	0.06556637881539504
17	0xbfb498f8198eeac4	-0.08045912384015269
18	0xbf99e91792b0d2a8	-0.025303238228121444
19	0x3f98ca90614dbb63	0.02421022027868548
20	0xbfc01b17d49bc00d	-0.12582681542653554
21	0x3f8cb2beda7695f3	0.014012805025070718
22	0xbfac54b55de828d9	-0.05533377429317605
23	0x3fb02614d1642a8b	0.06308107482997564
24	0x3fb0e7627b5c5570	0.0660306502507717
25	0x3fa7169bef81b3e6	0.04509436892190148
26	0xbfb8ac0a96c64056	-0.09637514287010282
27	0xbfa51fd3c3dabd76	-0.04125844732095178
28	0xbfb994ba50532aa1	-0.09992565594726922
29	0xbfb6ed956ce500ac	-0.08956273945387022
30	0xbf7f642fda756c61	-0.0076639050742769175
31	0xbfa2ee043389956e	-0.03697217110747429
32	0xbfb369d25f00c0c7	-0.07583346194656136
33	0x3f6fd73a7d395577	0.003886808621056555
34	0xbf9934656287d555	-0.02461393751032877
35	0x3f9caf291bc2d0d9	0.028011934584996154
36	0x3fa9087dd46b3c17	0.0488929101753614
37	0xbfa54467cfd06919	-0.04153751766007669
38	0xbfb1531bb36c7661	-0.06767438059292764
39	0xbfaea60e432c2a66	-0.05986065454461169
40	0xbfaf937280c4219c	-0.061671808451197324
41	0xbfb28fb2fbf9c839	-0.07250517513037459
42	0xbfb48f379e2b04f7	-0.08031032191776775
43	0xbfb69edfc2e737a8	-0.08836172588709579
44	0x3faa8cccf6a0292c	0.05185547361914397
45	0xbf9b4a434b991986	-0.026650477875841648
46	0x3fa5194a7a4a23a6	0.04120857947152183
47	0x3fb4af596906b5a6	0.0808006173526424
48	0x3f64f7ef042d9300	0.0025596302306659657
49	0x3fa9f6cd8b8cc325	0.05071108177651799
50	0x3fb16cc7acf4744b	0.06806610081226087
51	0x3fa7790a9b5be8d2	0.04584534784767559
52	0x3f96f95119e14739	0.022435443119611185
53	0x3fa5f7c665fa10ec	0.042905998180715915
54	0xbf9bde70503d698d	-0.027215723893598876
55	0x3fae27c805c24fd2	0.058897257521635674
56	0x3fa3b780b52d4230	0.03850938998823883
57	0xbf4dd479d030a599	-0.0009103388587209826
58	0x3fb67367c3b84a37	0.08769844559018557
59	0xbfb89c53168e8a60	-0.09613532353118037
60	0x3fa1987f87715047	0.034366593631290736
61	0xbfaca143e766f1c8	-0.05591785621388429
62	0xbfc14934e83d5832	-0.13504659023118532
63	0x3fa467818475e737	0.039852187556745404
64	0xbfa0094bf14c3611	-0.03132092781570973
65	0x3fb84f39dc636d59	0.09495889311385976
66	0xbf9c65c3ced0d0a1	-0.027731952188518098
67	0xbf78884068179fc7	-0.005989314640352412
68	0x3fb0d0244f3353c9	0.06567599233251466
69	0xbfb86417c6400a19	-0.09527729597179081
70	0xbfa60ae14a5afbe8	-0.043051758123958284
71	0xbfb9ed95ee9863a0	-0.10128151965217436
72	0xbfc037e755ba150e	-0.12670604406245228
73	0xbf8aa3b2e060968c	-0.013007543060733505
74	0xbfaa21015d0c4f26	-0.05103306065407613
75	0xbfc20a20e1ea2400	-0.14093409567820459
76	0xbfa1d046449cac81	-0.03479213321255604
77	0xbf8fb18fce6b663f	-0.015475390898632145
78	0xbfaf6f4524773146	-0.06139579839836755
79	0xbf65f41441629c6b	-0.0026798625577444854
80	0xbf8e50fc02cfb032	-0.014802903018754508
81	0x3fa015d1ce645379	0.03141646999771459
82	0xbfb6a9abb0f460ab	-0.08852646894627252
83	0x3fa28cb92cfcdbac	0.03622988390127743
84	0xbfb18428b4172190	-0.06842283627259449
85	0x3fb4e973362b5c5f	0.08168716499800287
86	0xbfc16afee470f73d	-0.13607774881705295
87	0x3f7e76b39942567f	0.007437421376513264
88	0x3fb4d18f55914ce7	0.08132263030102004
89	0x3fb7056a7decf122	0.08992639135698657
90	0x3f9d49990c56de7c	0.028601065996296957
91	0xbfae0b7d0319c3ed	-0.058681398991104895
92	0xbf5c6080414297ad	-0.0017319920052982594
93	0x3fc6d3ffe06e27be	0.17834471186171003
94	0x3f82c19bd0defc26	0.009158341705072525
95	0xbfc23e52977e848e	-0.14252693555048207
96	0x3fa30fee11bc1494	0.03723091093528655
97	0xbfad59d8d34fb26b	-0.05732610301479187
98	0xbfb8c38368788e9c	-0.09673329639968603
99	0xbfb29518679057ce	-0.07258751419462259
100	0xbf5a35f3b0529a66	-0.0015997772000361453
101	0x3fa11acc60157729	0.03340758011721185
102	0x3fae71e8ec48d9c2	0.05946281322796977
103	0xbf89309c4e2eefff	-0.01229974855038307
104	0x3fb521feab9a150c	0.08254996957301247
105	0x3fb249720083d450	0.07143318665096499
106	0xbfb8a98056b5bfd7	-0.0963363849348292
107	0x3f7d02839e6a0f99	0.007082475791893383
108	0xbfb7f8c1a3bec45e	-0.0936394715088382
109	0xbfb6029429269d9f	-0.08597684864672893
110	0xbfb126dad94e36a6	-0.06699912839232045
111	0x3fa9788534252663	0.04974762212311814
112	0x3fac58d4fa2674c9	0.0553652339324145
113	0x3fb05349505b3e7c	0.0637708493406936
114	0xbfa395f83a72977c	-0.03825355256530735
115	0x3f82a5320240138c	0.009104147618936208
116	0xbfa069083da9b3c0	-0.032051332022866585
117	0x3f9291965f918613	0.018133496840510754
118	0xbfad8cc94fec3ebf	-0.057714739805417185
119	0x3fb3aab600b6a2b6	0.07682359235208022
120	0x3f71d19032f3b319	0.004350245740380365
121	0xbfa92018c4a2a849	-0.04907300377210839
122	0xbf97616b7b373006	-0.022832564731103865
123	0x3fa8febdcafb711c	0.04881852248010629
124	0x3fb1a5b66d0e5d24	0.06893482363226561
125	0xbfa3270793e12349	-0.037407147218408605
126	0xbfa1f578128069a9	-0.03507590509271392
127	0x3fb4ccaefe7473f6	0.08124822342183777
128	0x3f77cd9c35d0b699	0.005811319538265324
129	0xbfa0a06ca50805ec	-0.03247394098799447
130	0x3fb63ab2a3f32fc4	0.08683315756496685
131	0x3fa03256580ce8b9	0.03163404297670653
132	0x3f9e3164938cc3ec	0.029485293870667492
133	0xbfb6c8c92e523153	-0.08900124913106326
134	0xbfa49e6cb88442bc	-0.04027118446731978
135	0xbf90b20f6f2e6db3	-0.01630424610230614
136	0x3fb1a07b6fc68204	0.06885501364605068
137	0xbfb66e48cf96f60b	-0.08762030666454039
138	0x3fb274d53f42de36	0.07209523004973381
139	0xbfacbec723ac5063	-0.056143019775988255
140	0x3fa33f0ed579523c	0.037590468939616234
141	0x3fb2ee6d880728c6	0.07395062037463437
142	0x3f96fd7c12e51d9f	0.02245134225202394
143	0xbfb8063e6df7f287	-0.09384527382639805
144	0xbfa07914b6607949	-0.03217377401618877
145	0xbfb551a6525d4f00	-0.08327712546207167
146	0x3fa476d66ad2a39c	0.03996915868749015
147	0xbfb437ac8ea5a14c	-0.07897451860992993
148	0x3fb64df46cbc74d4	0.08712699560824727
149	0xbf8d28f87611abff	-0.014238301375561589
150	0xbfb8606b47c2b969	-0.09522123815506735
151	0x3fabe3a27d9e1e33	0.05447109015863951
152	0x3fb1cd99ab59c339	0.0695434611641418
153	0xbfa2d28857ac25fc	-0.036762486173824244
154	0xbfa9c1893d7d337c	-0.05030468822096787
155	0xbf940e0e96ec968c	-0.0195848731629185
156	0x3fb66be884032e2f	0.08758404944381291
157	0xbf8df18650ec917f	-0.014620828003508944
158	0x3fa7619343e97d16	0.045666315116927134
159	0x3f94dd5050802880	0.020375494874351308
160	0xbfad671e9e520123	-0.05742736513730253
161	0x3f914928f2f70f13	0.016880645589267006
162	0xbf993c0a6662fdd3	-0.024643099307238913
163	0xbfb69fbe98834ffc	-0.08837500785313063
164	0xbfa6e0e21873fd93	-0.04468447254657373
165	0xbf9a9e38d21eab7f	-0.025994193863577927
166	0x3fac3db6053c83f9	0.05515831769867669
167	0x3fa9ecb4624bf7e9	0.05063403797065275
168	0x3fa4371c835aceb3	0.0394829664559472
169	0xbf9546b1ad767a99	-0.02077748891098938
170	0xbfb56bc4e6375d96	-0.08367567654146621
171	0x3faace49a35ccebc	0.05235509986087325
172	0x3f8302ae7fb47e59	0.009282458564995698
173	0x3fb47c8867b0ed21	0.08002522021790927
174	0xbfac79c8163b3193	-0.055616619790814024
175	0xbfa8839170d11d29	-0.047878785153950006
176	0x3fa922f783b25c29	0.04909490091920816
177	0xbfb7ebd5188da1b1	-0.0934422669357733
178	0x3fb297b62f6db60c	0.07262743623660856
179	0xbf8e4b0bbefbce26	-0.014791576162202235
180	0xbfb46b601bfe4b71	-0.07976341899329299
181	0x3fb280ecc89b9d06	0.07227973840382526
182	0xbfb75a3d84f0915f	-0.09122070785139645
183	0xbfa47baa5aed46a6	-0.04000599250742924
184	0x3fa0736cff660a99	0.03213062875422174
185	0xbf96688844a1dbf3	-0.02188313406847082
186	0xbf9a3053a9f9c626	-0.02557497715901582
187	0xbfb3d5718dfa8f91	-0.0774756404521766
188	0x3f9f83d09f9b4632	0.030776271573648546
189	0xbfac6ccb54f1f9f9	-0.05551753436974489
190	0x3f7d2a33840d11cc	0.00712032435769001
191	0x3fb4659cabccc3ab	0.0796754760201696
192	0x3fa749b1232a169f	0.04548409990551971
193	0x3faf4d85d41726f2	0.06113832677836041
194	0xbfa9637de833da13	-0.04958718738082637
195	0xbfa9f21b72b5beac	-0.05067525649326163
196	0x3f8b008243ac6ff3	0.013184564295038092
197	0xbf971624933b8753	-0.02254540585170812
198	0xbfa8ab8c556ada9c	-0.04818380873387193
199	0xbfa57cf17e5c4ba3	-0.0419688669918721
200	0xbfad4917b0aa4fb3	-0.05719827682074143
201	0xbfb25cf26042351e	-0.0717307553297428
202	0xbf96012b80df9bef	-0.021488837948620384
203	0x3f8b967a4dfe3721	0.013470607285650584
204	0xbfae62c8a6835c8b	-0.059347410513219755
205	0xbfc09293eada6e0f	-0.1294731995338769
206	0xbfaac12db4889a0c	-0.05225508526591591
207	0xbfb7e933cdf88fb1	-0.09340213564479317
208	0x3fbad7dd6291c88b	0.10485633522492514
209	0x3f80b4f5268fda3c	0.008157649268452187
210	0xbfc206b6130ab377	-0.14082981042647777
211	0xbfbc5ce523b087e1	-0.1107924663670299
212	0xbf949c5d16e19d76	-0.020127729913296
213	0xbf68a58bd7656866	-0.003008626105992329
214	0x3fb73569eeeff3d8	0.09065877993994265
215	0xbfb037c9fcdf946d	-0.06335127280870419
216	0xbfa4d4ca37140cdc	-0.040685958121707805
217	0xbf9738144a071fa2	-0.022674862879085496
218	0x3f91b64569585995	0.01729687171435897
219	0xbfa98943f7722d42	-0.04987537761288731
220	0x3f7737d75f72ddc2	0.00566848878877785
221	0x3fb3064f0e04a3e0	0.07431501476516145
222	0xbf870b26a6e3e1a6	-0.011251737564166597
223	0xbfb48f930ee279e6	-0.08031577218432737
224	0x3faf7c197cb52909	0.06149367949781676
225	0xbf855c1ccdf76f48	-0.010429596934890775
226	0xbfbc887bba13acf2	-0.11145757000820192
227	0x3f9b10da597d3053	0.02643147631833671
228	0xbf97a5b3d3628e10	-0.023093042160907074
229	0xbfb56a5bc0080026	-0.08365415037405963
230	0xbfc0703f9e57e52e	-0.1284255526696056
231	0xbfbe0d2bc6a5965c	-0.1173884735086061
232	0x3f62e95070e0bacd	0.0023085185157677214
233	0xbf9da8eb29d765df	-0.02896468584899547
234	0x3fbec4a542c9a807	0.12018807297286581
235	0x3faa200f7a1db279	0.05102585187600978
236	0x3fbb7b392b11446f	0.10734898854686191
237	0xbf9e6766ccf311cc	-0.029691320666431584
238	0xbfb73fcf0a95a719	-0.0908173943368208
239	0xbfa89d2971609e7f	-0.0480740500354928
240	0x3fb50916241da76c	0.08216989881262088
241	0x3fa058cf4fa47010	0.031927565071072306
242	0x3f8d40a6061b315c	0.014283463536593537
243	0xbf83a74eb27748f0	-0.009596457311009193
244	0xbfb69fa0f8b005cd	-0.08837324210619286
245	0x3fa4094734c61f50	0.03913328665936311
246	0xbfb11ae8d160db21	-0.06681685554290741
247	0x3f9c01c041deaef1	0.027350429554345138
248	0x3fb0b6463ad602dc	0.06528128563332863
249	0xbf25bddd3d2af17c	-0.0001658756796895192
250	0xbf97b5459e6e8a85	-0.02315243510714506
251	0x3f9fb8d58787a4ba	0.030978523633085266
252	0xbfb2bf45d632d0d0	-0.07323109130340133
253	0x3fa0e5174616bbbc	0.03299782496048162
254	0x3fa1c764638bcb91	0.03472436633264587
255	0x3f9cf1280baf0f66	0.02826368876755172

bias f8 [100]
0	0xbfc236e4141c8fc3	-0.14230013830194652
1	0x3fb96f79135a445f	0.09935719225383498
2	0xbfc373e55f4b3f93	-0.15197436478638035
3	0xbfbd77ded1006ba4	-0.11511032679156458
4	0x3fa7f4caed40f9f2	0.04678949495472641
5	0xbf8ae388df6016a3	-0.0131293004196878
6	0xbfc19716092b502c	-0.1374232811709829
7	0xbfa11d1a1788d82a	-0.033425155041570356
8	0xbfb9270c760d7a61	-0.09825208551544896
9	0xbfa355ad8d8851c5	-0.03776304581348059
10	0x3f84471b94c9a285	0.00990125224889594
11	0xbfb0e765888c4eb3	-0.0660308321351362
12	0x3fab60b1ff180b2d	0.05347210158290348
13	0x3f903dc7dc0bd04f	0.015860674672652227
14	0x3fa62723f8dd12ae	0.04326736843953448
15	0xbf9e800aa4f104f7	-0.029785314862469794
16	0x3f9385a1fb8a45ce	0.01906445596484279
17	0x3f8b7bf1e31a8f67	0.013419999831348851
18	0xbfb715e5c6338f1c	-0.09017788018132616
19	0xbfc200fd23e1d493	-0.14065517665918445
20	0xbfb3e687fb9f7ea8	-0.07773637669697087
21	0xbf7c84eb71bd48c6	-0.0069626996081117495
22	0x3f9f1756a4ef75cb	0.030362466637475365
23	0xbfb6c2d945cea691	-0.08891065553930334
24	0x3f92fa1b385221a6	0.018532204926062022
25	0x3fa6683e4075711a	0.04376406227922498
26	0xbfb87d5903b4fd45	-0.09566265430929828
27	0x3f9ba7472e716fb3	0.027005302629148974
28	0x3fc99c0680dd9b85	0.20007401745098377
29	0x3fb9817842492278	0.0996318017797736
30	0xbfb22fa5d424aa72	-0.07103954724576925
31	0xbf53f32a335888cd	-0.0012176429858148819
32	0xbf9d24495630cc07	-0.02845873440328364
33	0xbfb90e669a078ce7	-0.09787598858342826
34	0xbf9bcd893da0e88a	-0.027151245485790322
35	0xbfbd2cb6bc52c3c5	-0.1139635286115342
36	0xbfb1aa13873940cf	-0.06900140811308407
37	0xbfb37fe5962d8cc3	-0.07617030064061496
38	0xbf8787c7a2868c95	-0.011489448211085477
39	0xbf89d3334df7253e	-0.012609864060226014
40	0x3f969272882d52e5	0.022043027459704673
41	0xbfb2813677e128a1	-0.07228413035150762
42	0x3fb685931dbfdbd6	0.08797568775467765
43	0x3fa09706debefa7b	0.03240224331920146
44	0xbfb4c2f5fe6baf12	-0.08109986745301637
45	0xbfb1e455138a7233	-0.06989032485075412
46	0xbfb5d7b422a2bf22	-0.08532262654875614
47	0xbfb1dd090c31f15f	-0.06977898166400597
48	0xbfa25101676c2a22	-0.03577427279931934
49	0x3f918532be1ce759	0.017109673360415332
50	0x3f66a10a4d30fa19	0.00276233684556294
51	0x3f9154d8e394bc62	0.01692522896808802
52	0xbfc2975fdcdbcb8c	-0.1452445820246705
53	0xbfb75f6187df9627	-0.09129914824696837
54	0xbfa0bae283745143	-0.03267581801097432
55	0x3f7909499f0e8480	0.006112372954619194
56	0xbfb1c77e7e70698a	-0.06945028864757866
57	0xbfb682b18689cd74	-0.08793172392488718
58	0x3f80add7e165b71a	0.008144079748230438
59	0x3fbcc320b9e95fb1	0.11235241450174162
60	0xbfa0631b2384f2cf	-0.03200611885629245
61	0x3fa1844e8705f7d9	0.03421254537805369
62	0x3fbc341c21e102eb	0.11017013384936163
63	0x3f3b3a89f1a57c72	0.00041547649165880115
64	0xbfa01651245c21c0	-0.0314202649006492
65	0xbfb622e685feed74	-0.0864700390947542
66	0x3fa643e32d5e4f1b	0.04348668984235201
67	0x3fa759aa1db90a9c	0.0456059609682786
68	0xbfbc6d2978b4104d	-0.11104067990169249
69	0x3f8b554a4e97d779	0.013346272014114412
70	0xbfa0d62bc1b2c1c7	-0.03288399447899653
71	0xbfa5a78294ea5b8a	-0.04229362552467027
72	0x3f975b892f04d175	0.022810119147111025
73	0x3fb5925747c62ecd	0.08426423551844238
74	0xbf93e7b0745398c7	-0.019438511943825867
75	0xbf977f4f0e37aef8	-0.022946582072036897
76	0xbfa163751e81ef3a	-0.033961925481860125
77	0xbfa0abc3c7da268a	-0.032560461183561776
78	0xbfadbdef47ee8ea7	-0.05808971169542803
79	0x3fc7dc1734dbafc3	0.18640413361515415
80	0xbfa6a4a3226f1fea	-0.04422483249032878
81	0xbfb402ea6c8e8b27	-0.07816949034035457
82	0x3f9b202f2800c467	0.026489960495556988
83	0x3fb3df0387330269	0.07762167025340151
84	0xbf892bec642da453	-0.01229080849380374
85	0x3faf769a8017347d	0.061451748024048826
86	0xbf92c921670f5340	-0.018345376887583642
87	0xbf9caf8398855ac0	-0.02801328295148653
88	0xbfbd4b62ead0111a	-0.11443155510648176
89	0xbfc13fb0878a89ec	-0.13475615137311026
90	0xbfc0525d8794afdd	-0.12751359100491202
91	0xbfa6de3c29f1caa7	-0.04466426860826305
92	0x3f83886ff5b10c80	0.009537577329075342
93	0xbfaae372a8a97134	-0.052516539658173406
94	0xbfb93006c0c249c9	-0.09838907438305634
95	0xbfb5df7f9044d228	-0.08544156334102893
96	0x3f945ae3ef2010be	0.01987796923641904
97	0xbfb0127f403303bf	-0.06278224294057021
98	0xbfaacee87fb8c3a6	-0.05235983428099837
99	0xbfa24d1f65c4e5c2	-0.035744649098386386

weight f8 [1, 100]
0	0x3fa839261a0091e5	0.04731101100358951
1	0xbfb97ea73b467fae	-0.0995888251986787
2	0xbf8959b02691c565	-0.01237809770302318
3	0xbfa0988750a0c18f	-0.03241370066860149
4	0xbfa5e4e24bb3d0cc	-0.04276187109090443
5	0x3f49c35eadc1429c	0.0007862293528067723
6	0x3f9091b5c7c7ca38	0.0161808398424432
7	0x3fb5f0bbf62d758e	0.08570456276125624
8	0xbfac3acb4820f264	-0.05513606315114286
9	0x3f544a4a79a1d59e	0.0012384154602192786
10	0x3f9af3c1c1b91a30	0.026320483635823233
11	0xbf9bfcf1c0c8167e	-0.027332093612150825
12	0xbfb3aeb5d70fa82c	-0.07688461781040762
13	0xbf79a68f9cee6bfd	-0.006262360561687605
14	0xbf91733fff3d2c4b	-0.017041206315564755
15	0xbee2a50172965b70	-8.890415830004847e-06
16	0xbf9cb46379578a0e	-0.02803187778580179
17	0xbfa55e55ddd2ad63	-0.04173534710693152
18	0xbfb1300a91ff5646	-0.06713930191411874
19	0xbf9793eacf319171	-0.023025196930022532
20	0xbfaa6b38883d3a96	-0.05159928000522489
21	0x3f98caa2a950cdef	0.024210492691237148
22	0x3f93324d13d3350f	0.018746570906661705
23	0x3f65e81042916b1f	0.002674133069871756
24	0xbfab2cd5a548af80	-0.05307643549562524
25	0xbf7a8d605a605bcc	-0.006482483271631655
26	0x3f680e98fc44feb2	0.0029366481777797987
27	0xbfa4b952d6ea4dcf	-0.04047640679814501
28	0xbfb9dc080c517274	-0.10101366329895162
29	0xbfaf17311f5d377c	-0.06072381503928079
30	0xbfb53d7c6e783188	-0.08296945282945078
31	0x3f867ef504105dd9	0.01098433893825661
32	0x3f94c1f7ca3d37d9	0.020271178930947407
33	0xbf76e8394a632ee6	-0.005592559615432901
34	0xbf6979e12d29209f	-0.0031098745323881595
35	0x3fa8e92b08961cd5	0.048653931425229814
36	0x3fb904f08568255b	0.09773162133219186
37	0x3f797fe9479499f5	0.006225501297456128
38	0x3f67fe527477fb40	0.0029288874100069917
39	0x3fa1bbded66a5dca	0.03463646285416251
40	0xbf9a659fbe46b50c	-0.02577828978399048
41	0x3fa4d20ff458757c	0.0406651483319633
42	0x3f847c656cfb97df	0.01000289191092557
43	0x3fad22ce3fa9322a	0.05690617110358105
44	0x3fa5a77e842e0358	0.0422935043670864
45	0xbf8d7662e9a2dd02	-0.014385960345278285
46	0xbf7625c609a030f8	-0.005407117447259184
47	0xbfb0c557145fdf4e	-0.06551117179321617
48	0x3f7a03c93fec19a5	0.00635126698649061
49	0x3f738e3814267e34	0.004774302537412779
50	0x3f943c78bbb8c2e0	0.019761930902123193
51	0x3f7b472b03990a1b	0.00665966799130271
52	0x3f8ba9df2f80c744	0.013507598530938865
53	0x3faaabbd03ccfab3	0.05209150954623478
54	0xbf883143e4343187	-0.01181271591351486
55	0xbf95a8c2a4764ee8	-0.021151582038853173
56	0x3f579a7f70c27f87	0.0014406437431162282
57	0x3fb3ef47172b96eb	0.0778698379104658
58	0x3fa6da8b09fce523	0.04463610169336565
59	0x3f924555fadceb0c	0.017842620312175803
60	0xbf9be0e04b4138e4	-0.02722502192801181
61	0x3f97559dd5770d18	0.02278753867518643
62	0xbf73d09ee1088161	-0.004837628003344059
63	0xbfa743f6cfe3f3b3	-0.04544040000653329
64	0x3f831c428467573d	0.009331245103492253
65	0xbf9324e77e937de9	-0.018695466137499315
66	0x3f9ad1dbb86c0701	0.026191170817589263
67	0x3f85f9351ccb7468	0.010729231778379325
68	0xbfaba4eaf710f34f	-0.05399259820885637
69	0x3f5275f2b69fcab8	0.0011267538307008617
70	0x3fa8242f84ee0026	0.047151074387329836
71	0x3f77da9ab2bef4ff	0.005823711671778086
72	0x3fa3dd7edd23514a	0.03879925202787378
73	0xbf8674d27ba3f60c	-0.010965008161742971
74	0xbfb7190f4157e39b	-0.09022612901016062
75	0x3f98aa3a2b581c1f	0.024086865325468772
76	0x3fa00076f62ba056	0.03125354533204987
77	0xbf88ca6539ed14cc	-0.012104788618339767
78	0xbfa1818de01bb689	-0.03419154511162243
79	0xbfa3edbd92ddd694	-0.03892319124035484
80	0x3f97b691d9cc6b58	0.023157385748258846
81	0xbfa6f0cfb1abac49	-0.04480599445181405
82	0xbf912c18f7c02b2c	-0.016769781228542488
83	0x3f440fad0dcbccab	0.0006122202863409106
84	0x3f9b68c6450c7f52	0.026766870464711552
85	0xbfaeb80c0b993512	-0.05999791757185781
86	0x3f97a445d0699d79	0.023087588162892445
87	0x3fa64aefda6c72a6	0.04354047337821969
88	0x3f8fe19253052d6c	0.015566962393356497
89	0x3f8efa8519ecf3e9	0.015126266339956689
90	0xbfa96fd96f6c0057	-0.04968146786814092
91	0x3fb6a4a36a9f1a06	0.08844968178809873
92	0x3fb20762204618de	0.07042516029295906
93	0xbf8eaff0dc43be3b	-0.014984018060629647
94	0x3fa4583f6d6d0df8	0.03973577700392278
95	0x3fa21090263f5463	0.03528261629950504
96	0xbf9c589f30138cf6	-0.027681815442417844
97	0x3f4d627f0577be25	0.0008967514249302351
98	0x3f9d9376eecfa63c	0.028882845235705043
99	0x3f9ea82427be901f	0.029938282895855758

bias f8 [1]
0	0xbfc7a2794816d635	-0.18464580554943813
