WeakLossExample/weak_loss_model.pt (torch, 86103 bytes, 6 tensors)

weight f8 [100, 1]
00000000: 131f d1a5 eea9 ccbf e281 9001 7398 e9bf
00000010: 709b 6dae d96b c63f 450d c64d 07f6 db3f
00000020: c97c 2ec5 0c97 eabf abf2 91e7 fb60 e43f
00000030: c7e4 a62e 0a48 e43f 4cd8 3eb2 cdb4 d8bf
00000040: 0867 ec95 aa55 c2bf f824 c6dc 953e e1bf
00000050: f833 63fd 6f89 a13f 41b3 631f 4d31 d9bf
00000060: 00a4 7f3c edb6 f0bf fec5 cd1e 052f d0bf
00000070: efb0 3761 e82f bdbf 604a 31bf 87ce c63f
00000080: 33f5 5f30 4ba1 bbbf 4a89 be4c 203a d4bf
00000090: dd43 c6f0 aa0a eebf 60e3 7c71 c3ee e7bf
000000a0: 194c 7e3f 09d4 adbf dfa2 f79f f3a1 e33f
000000b0: 5474 04c9 2c19 ba3f 4957 ade7 4cd7 d63f
000000c0: 6f83 19ad 22c6 db3f 4403 b047 18ba efbf
000000d0: 756c 0e93 e50b e2bf a01a 190d 447e a8bf
000000e0: f46e 3644 faf4 d9bf bc23 af4f 8b2c d2bf
000000f0: a1a3 282a 290f c93f f207 51e6 2258 e8bf
00000100: e1ad d36f 6a66 dfbf 0441 4a5a a063 e4bf
00000110: d128 7245 9cb7 cc3f 401d e1ca 1d6c a4bf
00000120: b63f 6f75 7eb1 d43f 919c d2ec c878 c7bf
00000130: 1727 3c66 90de d2bf 40ca 29d0 dcc6 a2bf
00000140: 433a d60f f425 cb3f b4b7 f3d6 7552 e0bf
00000150: e010 b4fd 5cd2 aa3f 8ecd 9f8d 0f9d 95bf
00000160: 4ac9 ebe7 d37f cd3f 19bf 00ab 0946 efbf
00000170: 271f 3625 fcc9 efbf 6934 c75d 505d cdbf
00000180: 68df 0cce 3198 debf 7b29 1752 1bc2 d13f
00000190: cfb0 8751 3ee7 df3f 36b0 8f2a b52d e9bf
000001a0: b6ba 03cf 75af acbf 10db d5ea d2cb d13f
000001b0: 6d31 d9d1 61ee 823f bf3c 7eef 2335 e13f
000001c0: 1eb3 7792 9530 cb3f baa3 5831 8575 efbf
000001d0: d9da 5fe6 eb33 b7bf 686e f54d 01cd e4bf
000001e0: a1c8 348d 7334 e8bf 3094 7629 ce1a a33f
000001f0: 6b53 6fc6 57cb e8bf 4a80 b8f8 f98a cb3f
00000200: b5d6 8626 a0fc d4bf cf5b 6383 9d8b da3f
00000210: 6d6e e3d0 7a8d a93f 3d98 55bf df57 ea3f
00000220: e4b3 b311 3473 a43f 87f3 1926 1f15 ea3f
00000230: c742 d154 1c68 e3bf de29 8c42 4d42 d13f
00000240: ae70 f76f 5918 d93f a8e8 d4db 9350 d7bf
00000250: 7803 4565 9e54 d83f 73e7 c2c8 364e d53f
00000260: 2bbd 843a 0fec e03f f000 1e26 eae5 6cbf
00000270: 9df9 9801 6090 d93f 764f ba84 fc37 e23f
00000280: f0d3 cd4b 97af e7bf 72e7 de3f 6a2b dc3f
00000290: c6c5 5748 7ff5 edbf e0d8 7f07 d9a2 b1bf
000002a0: 0d16 b9eb 8a6e c7bf 8859 94c7 433b ecbf
000002b0: d8fb e033 44fe c3bf 0fe3 5865 0e57 df3f
000002c0: 3a6b 3afb b9c5 d4bf 8633 e2eb 15a7 da3f
000002d0: 4865 e6a4 6454 b93f 2c72 defd 51a4 eabf
000002e0: 2150 18d6 7e58 ecbf e60b 6ed4 0fa7 d43f
000002f0: 0cfa 09e3 fbeb a03f fc1a 8e62 d8c1 aabf
00000300: 575a 0099 889f e23f 8c8a 8d4e e302 a23f
00000310: 70a7 f44d 5f33 d6bf 2c07 d331 a8e7 d5bf
-0.22393591972854007 -0.7998595266872679 0.1751663304996458 0.43689138979990033 -0.8309387065127335 0.6368388674596493 0.6337939177675701 -0.38603536993776255
-0.14323932953339402 -0.5388898193351954 0.03425168960675501 -0.3936341101205479 -1.0446598399378217 -0.25286987312492204 -0.11401226399874863 0.17817780337880418
-0.10792989665056467 -0.3160477399307139 -0.9388022139192987 -0.7478959290084326 -0.05825833225312511 0.6135194897043127 0.10194663913394325 0.3568908941718872
0.4339682283808121 -0.9914666557452638 -0.5639522430605114 -0.047838331793675026 -0.40557724629773806 -0.2839687612691326 0.19577517088444288 -0.7607588289613416
-0.49062596245377504 -0.6371614230611446 0.22435334578432856 -0.039887362494989365 0.32333337276667906 -0.1833735615120742 -0.29483423217662746 -0.03667345086150364
0.2120957448318724 -0.5100659559518506 0.05238619420018309 -0.021106951731736205 0.23046349357862034 -0.9772995319271757 -0.9934063650880248 -0.22941021517764007
-0.4780392181596569 0.27747233406684985 0.4984889789764226 -0.7868295508647012 -0.056026155014355636 0.27806542332784634 0.009243740288319835 0.5377368619537249
0.21242017413842346 -0.983095737819091 -0.09063600897193726 -0.6500250361090822 -0.7564027555402114 0.03731388336317598 -0.7748221278840054 0.215178724713953
-0.3279190422284544 0.4147714408003908 0.04990752983004829 0.8232268082617861 0.03994143215263771 0.8150783294837404 -0.6064588219251953 0.26967174052029275
0.39211116728052786 -0.3642930647653295 0.3801647175751479 0.3328988037643434 0.5288158553065946 -0.0035276005955325804 0.3994369521714363 0.5693342773761134
-0.7401844482943698 0.4401498435723773 -0.9362179196306719 -0.06889110978213209 -0.18306099424278025 -0.8822344682728707 -0.1561970952334082 0.4896884908408063
-0.32456826719287657 0.41644809756763157 0.0989439871394967 -0.8325586279275448 -0.8858026677648959 0.3226966452131691 0.033050414528578015 -0.05226017191949059
0.5819743145282911 0.035178283061005095 -0.34688551533564915 -0.34226422181756067

bias f8 [100]
00000000: 775c 5b7a 7f87 e63f 5901 5bfc a3ed ca3f
00000010: d291 e47f a49f a9bf b9c0 5b21 5f94 9dbf
00000020: 23c6 adfc c37d f13f 7db8 a5e5 b790 f0bf
00000030: c700 3873 b01e e23f 31c5 6ab8 ff62 e43f
00000040: 46a7 75c7 947d e9bf 2c77 9062 9089 e9bf
00000050: 50de d46f 0873 e33f 3464 43d3 49cb f33f
00000060: 91ae c1e2 0932 db3f f74f 43e2 4970 e93f
00000070: e266 2d71 99f3 d63f 5379 90bc 8631 d43f
00000080: 5356 dadd 6825 ce3f f2c7 e29d 1dca ef3f
00000090: 0a9a 2006 ce85 b63f 8842 7a6b 0c79 efbf
000000a0: a03e 9c05 3716 e33f 65ed 7659 b947 f0bf
000000b0: e8ff 2256 fd96 d2bf 933c 5526 3bc0 e93f
000000c0: f32f 58fe ba58 ebbf 94ab c82d 8066 c43f
000000d0: b970 24cc 8e8c db3f 2a8a 1d50 2fac efbf
000000e0: 2b22 29e9 2709 e43f 86ae 17bb cf18 ebbf
000000f0: 0bf8 419f b0fc c33f 0590 dd87 5def dd3f
00000100: 4a83 3324 f5e1 ee3f 707f b57b c421 e1bf
00000110: cb4c a3fb 2089 b63f 10ec 9f47 0925 c3bf
00000120: eec3 d6d8 1e84 e6bf 05b0 fed4 9a72 e23f
00000130: 9f72 bb87 a083 ca3f a098 b4ad 3465 c0bf
00000140: e31c a341 a3e8 d1bf 88f2 b4be 2327 c5bf
00000150: 301f 2242 e596 db3f 280a 9905 5bae e63f
00000160: 0310 8ea5 56c3 e7bf e07b 2761 a470 e6bf
00000170: e4a7 e153 a0b6 d2bf dad8 3c54 9d13 e73f
00000180: 1481 d39c 7794 d7bf fb04 6e00 920d e5bf
00000190: 05ae f761 6bdd e7bf 5593 530a f119 d93f
000001a0: 63c0 00b1 f8e1 a73f 74d6 f3e2 1417 e5bf
000001b0: 83d7 2a09 0f83 e13f 9ba0 b677 7461 c53f
000001c0: 89cc ca90 a7a6 e9bf 2700 0fc0 60a7 d83f
000001d0: c917 d9b8 1989 e03f b8ca 6012 0e7d d9bf
000001e0: 201b 2936 833b edbf 52eb b13a 097c e2bf
000001f0: 90bc 7d30 e7d8 e2bf 8560 e117 365f e1bf
00000200: dc9e a9bf ce7d f03f f4a4 bbc1 5c70 c7bf
00000210: 99a6 85c0 0728 df3f c247 c9a6 abc1 a4bf
00000220: f53d db3b 248e c1bf acab bbc2 311a cd3f
00000230: b02d 8598 055c b23f c54a 9534 0260 e4bf
00000240: 6615 4c73 59a1 e4bf 6b46 cbed a394 f03f
00000250: a7b7 1bbe bace ecbf 3f38 ec20 5cea 7b3f
00000260: 2d50 0326 d6b8 f1bf 9a5a 39d2 ab6e a23f
00000270: 8a82 5821 a48b efbf d861 3242 b91a dc3f
00000280: 64b7 830b 3081 b03f 2766 115d 687e ea3f
00000290: e566 3692 c456 d23f b008 58f3 7213 eabf
000002a0: b3f8 e3ff aabf dd3f 7cd4 b0a2 8ae7 eb3f
000002b0: 7cef f7b8 1b49 d9bf 8ea7 3fd5 eeb7 e4bf
000002c0: 089f 2b5e ce15 d13f f583 c8e4 ea2c e23f
000002d0: 9c9b d716 045a ebbf 25ed 14e9 1831 c83f
000002e0: 5069 810a 6edc dbbf 3cdb 7ffc 2b4d dbbf
000002f0: e4e2 d969 51eb b4bf 0627 73ce 6c42 ae3f
00000300: e46a ff23 a215 df3f 8967 171e 4193 afbf
00000310: ecd2 6d6c 23ed eabf 72cc d2ca 27a3 b83f
0.7040402784140402 0.2103772146420038 -0.05004610120002763 -0.028886305247340902 1.0932044859185985 -1.0353316279029336 0.5662462473265116 0.6370848276039053
-0.79657973248434 -0.7980424809536308 0.6077921089371987 1.2371309521170248 0.4249291147632244 0.7949571055601145 0.35861812641597457 0.3155228463600867
0.23551665146503584 0.9934223254879255 0.08797919892877118 -0.9835264300509872 0.5964617833687562 -1.017510747404992 -0.29046567355908204 0.8047157047930277
-0.8545813529649408 0.15937807307758745 0.43045396743560677 -0.9897686543229771 0.6261176637572751 -0.8467787412786982 0.15614898468260238 0.467734701806194
0.9650827128462904 -0.5353720108214315 0.08802992003920733 -0.149567756627079 -0.7036279902587219 0.5764898452812309 0.20714193942594236 -0.1280885551615869
-0.27982407960776196 -0.16525694667679525 0.43108493288353866 0.7087836369831324 -0.7425950273031962 -0.7012502572578079 -0.29239662353086104 0.7211443562762512
-0.36843672099168256 -0.6579065330880945 -0.7457787431171147 0.3922083474010852 0.04664590035133711 -0.6590675766626206 0.5472483805703948 0.16703658910160332
-0.8015935733768781 0.3852159381458499 0.5167358980477214 -0.39825774950729054 -0.9135147149871479 -0.5776411196123752 -0.588977427205366 -0.5428724733747151
1.0307147490329305 -0.1831165262185902 0.4868182544802067 -0.040540088758134654 -0.1371503155009887 0.22736188896609855 0.07171664212835682 -0.6367198016181069
-0.6446959735773532 1.0362891472654165 -0.9002355301906747 0.006815299870835344 -1.1076261029129555 0.03600060406886492 -0.9857960368427297 0.4391310831502131
0.06447124749294414 0.8279306237920466 0.2865458896500129 -0.8148741486368376 0.4648234843188092 0.8720143487504539 -0.3950871759732235 -0.6474527516377167
0.26695594021156 0.5679830997870555 -0.8547382780205797 0.18899833088821896 -0.43532897020272276 -0.426585194188579 -0.08171566805129832 0.05910053272380193
0.48569539561655817 -0.06167033665015171 -0.8414475553277874 0.09623955442184398

weight f8 [100, 100]
00000000: 4799 a43e bbe4 a03f 0406 7dd2 aeb9 99bf
00000010: 26c2 33b8 dec7 c3bf 3976 896e 7365 a33f
00000020: 1dd0 111f 6415 b8bf 5097 15d0 1ff5 c3bf
00000030: d292 ed5c 8886 bfbf 3b24 92b2 143b 9a3f
00000040: f3c8 81a2 5b83 b9bf 869c 3af0 acb8 a63f
00000050: 0fbf d967 5f8e b5bf 6f63 3f23 ede9 93bf
00000060: 3a88 7a16 92f4 afbf 8c19 6746 0834 983f
00000070: d4e4 86cf 556f b3bf 0c13 81ae 0ca5 b9bf
00000080: 1839 7b55 2d27 783f b794 b09f 8e33 c0bf
00000090: e41f d3a3 4c0a a9bf e2fa 7913 c6a1 a83f
000000a0: 87b9 32e0 e15f b4bf c25e 5469 70db c1bf
000000b0: 618e 2591 d74d b1bf 578b 7da5 2227 883f
000000c0: adc3 c557 61f5 c3bf f14b 8d07 80fb b9bf
000000d0: 9d9e beeb 0dac bdbf e822 4628 af57 b2bf
000000e0: b187 7b32 3ef4 9cbf 2c50 b935 c7e9 96bf
000000f0: 9bce 43aa 3bef b6bf 972d f128 93d8 c3bf
00000100: f4be 5405 a6bb babf 6fe4 c827 1805 a9bf
00000110: ed68 f97d b94a 9d3f e7ea 38e3 dd71 b33f
00000120: 733d 9af5 b911 7abf 472e 5b0c f89c a9bf
00000130: 72bd 1490 b4ae 323f bc07 2145 5464 9f3f
00000140: 1600 89e0 f009 8a3f 94be bade d738 b3bf
00000150: 3e22 3d11 027e c3bf 919e 706d a191 97bf
00000160: 37ef 9bb3 8cb6 73bf 6477 01f5 8d8b 98bf
00000170: 00d0 dc8f f44c 83bf 0555 edaa 7ad7 8ebf
00000180: bf66 a348 24f3 b73f bede 6a41 be26 c2bf
00000190: b0fa dc87 fbcf b2bf 11c6 1d4c d88a bbbf
000001a0: ace7 d641 0334 c2bf 6973 fb64 388a c2bf
000001b0: 30ec 8963 123c b5bf b062 c64d 9515 b7bf
000001c0: 0ec3 b6a5 14f0 af3f 0365 f2b8 6d29 b7bf
000001d0: 3306 ff92 8448 b7bf d894 8ed2 ab67 8ebf
000001e0: a641 6f9a 8dab b7bf 7d26 ae3d 4a86 b53f
000001f0: 556c 9f79 db02 b73f 8001 7f59 80fc c0bf
00000200: 5ad3 b541 391e b2bf c813 6044 09d2 a03f
00000210: 6a97 016f c11b a0bf ccd1 0f9b b8fa bdbf
00000220: b2b9 1d14 2f09 c0bf 06eb b581 3d85 b3bf
00000230: 1a09 4353 4915 8ebf 04ba 197e 3358 9a3f
00000240: 403a d0d2 0309 b6bf f262 8dc2 0fd3 973f
00000250: 3304 2086 3a3b c3bf 09dd a5ae c909 9bbf
00000260: 5996 7838 414f 81bf 00ff 33f5 b629 a5bf
00000270: ed63 7803 5c50 c0bf c1c0 4449 37b5 9cbf
00000280: 55b8 8fed d939 bcbf 0d9b 9be8 e268 a5bf
00000290: 9a86 72f4 48d5 b1bf 0e77 d7e2 0672 ac3f
000002a0: aefe dda3 7ae5 b5bf 3cda 4387 6562 bebf
000002b0: 5e15 39dd f8dc ae3f f331 6f32 5b62 bcbf
000002c0: 8959 bceb c1c1 bebf 0933 f473 6207 71bf
000002d0: cc1a 8931 240e aebf b2b7 e4db 2776 a0bf
000002e0: 86a6 8fed 543a adbf eaa8 32b1 7d14 80bf
000002f0: de29 5bb6 a574 9e3f ca41 ed5a 470b b3bf
00000300: 38bf 596d eafd a33f f734 f85c 423a 9bbf
00000310: bd7a 15f3 1efb b23f c7a5 c79a 133f 533f
00000320: bd42 cd1d acaa b3bf 2dba d36b f619 9c3f
00000330: 4a7e dcde 65f7 a8bf 4e2f 559f bda9 67bf
00000340: 5c05 5909 7d8a c7bf 9cb0 381f 3013 b43f
00000350: 1d25 dd2b cdf7 b6bf c4f4 8c4b 2725 c8bf
00000360: 9244 4c58 5d3d a83f bc70 e1ba 670e 9c3f
00000370: 996c 732c f87d 78bf 6461 1644 1824 babf
00000380: b5d6 207a fdba 973f e043 55ae be03 ccbf
00000390: 341c 84c6 02e6 a33f 0441 8770 d81a 91bf
000003a0: 8bb4 4c10 df61 b4bf 7895 b7af 5e41 8c3f
000003b0: 5c2d d824 1272 c0bf 7679 1b59 c035 a73f
000003c0: d2f1 e9ae 451a 98bf 77aa 1e4e d896 a3bf
000003d0: d2d6 1a3c 51bb a9bf fa76 f2d9 a08f 913f
000003e0: d19a 8606 2869 b6bf ec2a 09e0 83d1 8abf
000003f0: ba2b 85b0 3ece c4bf 6dcb 63c4 bc8a b43f
00000400: b184 2245 5638 b8bf 0a7f 81f7 95d4 a03f
00000410: 8151 7716 36fb bbbf c076 7f46 ac61 94bf
00000420: 4f27 8af5 68da c3bf 2077 9c5c 27ab 78bf
00000430: 3efb b406 c3d4 8d3f 90c4 15fb 62a3 b0bf
00000440: 016c cfca cfe6 863f 26f6 8589 3d12 c1bf
00000450: 6d66 7e15 1310 903f 91ff 2e19 5edd b6bf
00000460: 67b6 651b 6634 b9bf a3ce 6cd2 4a72 adbf
00000470: 1020 0891 aa81 523f 7093 3605 f3cb 72bf
00000480: 6e03 f5fc 5cf1 a2bf 4e6d 9a8a a44c a73f
00000490: 63df 37b5 be56 b9bf 53d4 ec66 6bb0 b9bf
000004a0: a86c 0ef3 91da 90bf 4e55 38eb 44a7 b7bf
000004b0: 9d0a 7778 de92 b1bf 70e4 883b 3ca8 c1bf
000004c0: 97bb 1b70 e7ab ab3f ad17 47b7 fe7f b0bf
000004d0: f517 c9c4 b578 9a3f f034 503a a99b ab3f
000004e0: 1d9f 7904 c0b6 903f 94be ad7b 382d a0bf
000004f0: 3c0d 9ae2 52d1 953f 3975 6090 84e2 b23f
00000500: 1e92 8587 7928 b1bf 0096 91d8 673c b7bf
00000510: a498 ef76 e5cf b3bf b6c2 1b2a 031b a63f
00000520: ef1d 8b09 775b b9bf 921a 9a58 a10b acbf
00000530: b42e 5a7c b29d 9cbf 16bc 0995 5a58 62bf
00000540: e014 0703 3ebe bcbf a6cf 100f 29be 90bf
00000550: d5fb e35c ee82 663f 807d c29c ae7c aebf
00000560: 2dae 5a07 adb3 753f 6cf8 63fb ed49 c3bf
00000570: c9c0 06c3 b738 af3f 40d6 1a9b 48aa b2bf
00000580: 3788 64c7 16c7 bcbf e7e0 6930 9d9f a2bf
00000590: e69e c1d8 8b79 86bf c014 f2e3 2626 9e3f
000005a0: 0df3 e2e2 7a74 bcbf b2e4 7f0f 36d9 90bf
000005b0: 296b b2d8 d236 993f 59bb bebe dc91 aebf
000005c0: a71f 5e61 f7d8 b7bf 31d5 303a fba0 b2bf
000005d0: 1913 afbd b45b b9bf 98ea 9619 1c5a a7bf
000005e0: 9d12 c463 7a3e a6bf 510c e965 368a a53f
000005f0: b8aa aaf3 5afb 90bf 0477 e1bd dcf4 adbf
00000600: 6c35 b30d 0bc1 98bf 457c 7074 2516 af3f
00000610: 7f70 f387 a412 a23f 9fe9 5b92 38ce ac3f
00000620: 2977 2ae9 c0f9 b0bf b208 e74f 30bc c0bf
00000630: 4bb6 2b2b dc0f b03f c852 2e34 cfd1 c4bf
00000640: 18de 5124 8393 843f 0dce fa46 7937 b73f
00000650: 99b0 7f95 3fdb b4bf a0fe 89a2 fd76 9abf
00000660: b24f 750e c2ad a63f 60d7 1ca5 2cfc 9dbf
00000670: 56d2 6900 2b17 a73f 7955 5a21 82ae b63f
00000680: a4cd d91e 193d 91bf 6c07 c2f6 d229 afbf
00000690: 4e93 218f b987 b6bf 79bc cd38 99c5 b8bf
000006a0: 66dc 9d90 a902 a53f c419 28f6 e0e0 9e3f
000006b0: ca02 10ee 6d58 a2bf 2222 b440 76e5 a03f
000006c0: e0e0 cb23 4885 72bf 9c66 9ffe aabd b4bf
000006d0: 9f7f 44bb b343 b83f ac35 8d8f 5176 9a3f
000006e0: e79e d6a9 10a2 b03f 35b7 7707 8520 b23f
000006f0: 35cd 1cbf 9ae2 b43f 231e f19d 8a8c b6bf
00000700: bb68 9748 13c2 b73f f668 f4e0 713c b2bf
00000710: a0e8 f3f0 4945 67bf eada ae02 242b a53f
00000720: 7aa7 7d20 bbd3 a83f b4da 1c07 b6e5 9d3f
00000730: 84e1 4a61 c235 b5bf 2fcd 1dba 522d b23f
00000740: bb1c 4efe 3de5 b83f d6bd ec27 aa9d b1bf
00000750: 0ab1 2c05 561c ae3f 3a21 8f56 6be2 a53f
00000760: 6b5e f357 aa8f b93f b60c 1b19 3d6c b1bf
00000770: dc58 925b b3a0 b4bf 8c48 52ae 78c1 98bf
00000780: 5a9a fab5 236c ae3f f78a e770 547d b23f
00000790: 4ac8 10e4 b71a a1bf 86f4 ba71 a939 a1bf
000007a0: ed7b 3ac0 e668 b23f a87c e338 07ed 8c3f
000007b0: 3c45 bc13 6629 a3bf b6c2 4662 d665 a1bf
000007c0: cc12 3a79 dc36 b8bf 1b41 a71b a879 b5bf
000007d0: 0086 fad5 557a 2c3f 753b 1270 f635 b93f
000007e0: 6a10 d1c3 8b0d a83f 9971 a48e 9e63 abbf
000007f0: a005 6a88 e62d 96bf 7989 a226 cf3f b4bf
0.03299508228001229 -0.0251223865482242 -0.1545370482849801 0.03788338398292663 -0.09407640226874077 -0.15591809902542275 -0.12314655560255552 0.02561600055608813
-0.09966061322646506 0.04437771255953131 -0.08420368466772409 -0.019447045589774555 -0.06241280102155185 0.023635987565080493 -0.0759175902993719 -0.10017470608097429
0.005896737180320487 -0.1265733985648347 -0.04890670299351976 0.048109235646725215 -0.07958804820621 -0.13950925009770826 -0.06759402555103967 0.011793394732824742
-0.1559259108139747 -0.1014938372075418 -0.11590659146770084 -0.07165045483828758 -0.028275462943277044 -0.022376167921109566 -0.08958790690285882 -0.15504683970571584
-0.10442578916694939 -0.048866991859946356 0.028605364145143964 0.07595621869488021 -0.006364561466070884 -0.050025702961275224 0.0002850714518726961 0.030656162947941587
0.012714273311871731 -0.07508610904437268 -0.15228296128977264 -0.02301647406070956 -0.004812764754884394 -0.023969858244860545 -0.00942412437471063 -0.015059431401520227
0.09355379842181842 -0.14180734819614388 -0.07348606173489247 -0.10758735521610442 -0.1422123023492622 -0.14484314852497995 -0.08294787340302956 -0.09017308377077415
0.06237854502558636 -0.09047590031913803 -0.0909502848508275 -0.014846174586475788 -0.0924614431417071 0.08408035283914646 0.08988734931283322 -0.13270573015143938
-0.07077367643598845 0.03285244903239676 -0.03146175842338901 -0.11710695062340121 -0.12528027040702977 -0.07625183502925034 -0.014689038136911626 0.02572708565861072
-0.08607505699931384 0.02326607346489857 -0.15024501370501894 -0.026404525074636562 -0.008451947723254681 -0.041333882743854744 -0.12745237512061128 -0.028035034033735643
-0.11025774049605393 -0.04181584443522555 -0.06966072051957398 0.05555745619834172 -0.08553282261527315 -0.11868891289109568 0.06027963352657183 -0.11087579709346311
-0.1201440048720085 -0.0041574331110154706 -0.058701640173742214 -0.032151456444224805 -0.057085660933649016 -0.007851583452368211 0.02974184918893196 -0.07439084978000846
0.03904659828992724 -0.02658942882958556 0.07414430079141261 0.001174706597448215 -0.07682300307829855 0.027442789393655232 -0.048762496428250104 -0.0028885558664678906
-0.18391383129532357 0.07841778528444582 -0.08971865006346431 -0.1886338347339117 0.04734317496161923 0.02739870145920585 -0.0059795088083901765 -0.10211326277056326
0.02317424829398958 -0.21886428367955002 0.038864218457142746 -0.016703969829735335 -0.07961839816990073 0.013796558129750322 -0.12848116683049227 0.04533196532951227
-0.02353772049035447 -0.03826023057566357 -0.05025724276258149 0.01714946108096791 -0.08754205855675969 -0.013094930910616275 -0.162544094268325 0.08024196428941162
-0.09460963428365933 0.03287190100013333 -0.10930192993629896 -0.01990384273800916 -0.1551028441356785 -0.006022599942097334 0.014565967218570838 -0.06499308233266476
0.01118242585828533 -0.13336915221218354 0.015686319529413618 -0.08931530108293219 -0.09845579308395146 -0.05751260584511655 0.0011295476616641799 -0.0045890324576348535
-0.03699770534377121 0.04550661270078625 -0.09897987293504466 -0.1003481985361117 -0.016458778820020697 -0.09239607565571825 -0.06864729348220995 -0.1379466334053947
0.05404589885244276 -0.06445304846337647 0.025851097236476012 0.05392197453338976 0.016322136185777148 -0.03159500608205437 0.021306319313692187 0.07376888775657599
-0.06702384527813662 -0.09076546704599053 -0.07739099649151854 0.043174837961378484 -0.09905189497941767 -0.05477623182837478 -0.027945317115650695 -0.0022393960173796674
-0.11227786611478363 -0.01635040430501502 0.0027479796909797107 -0.05954499877520458 0.005298305409876342 -0.15069365286757674 0.060979597622805644 -0.07291082178820663
-0.11241285675035405 -0.036374008331167045 -0.010974018623712788 0.029442413008401003 -0.11115234412404736 -0.016453594871539585 0.024623198009616907 -0.05970659092360248
-0.09315439345493691 -0.07276888056442911 -0.09905557280496814 -0.045609357951851226 -0.043445419958549204 0.04207010263464695 -0.016583844301446077 -0.058508775881575686
-0.024173901282485685 0.06071583792094563 0.03529848250920597 0.0562608412419252 -0.06631093685652147 -0.13074306394088847 0.06274200490926167 -0.16265287444971066
0.010046982332126794 0.09069021208670609 -0.08147046470520748 -0.025844538732143207 0.044294418587610976 -0.029282281472851834 0.045098632622203524 0.08860028566626522
-0.01683463335798553 -0.060865967389886005 -0.08800849670803965 -0.09676511418159518 0.041035937217139204 0.030154719375809838 -0.035830912886017766 0.03300065555419375
-0.0045216386758897 -0.081019103206382 0.0947830517002317 0.02584197462720332 0.06497291704601658 0.07080871040645038 0.08158270994026824 -0.08808199268343535
0.09280510446788785 -0.0712348150449634 -0.002840656677674039 0.04134476216079526 0.048490379062811464 0.029196590599179742 -0.08285155177407516 0.0710040764222881
0.09724795778866994 -0.0688120219681346 0.05880993664900032 0.042743067089363554 0.09984841010315797 -0.0680578409474489 -0.08057709680210529 -0.02417553485845096
0.05941878887579284 0.0722248817105927 -0.03340696963313457 -0.033643050320713505 0.07191316788747289 0.014123970435717517 -0.0374252223101714 -0.033980082985526947
-0.09458711585655094 -0.08388758349542906 0.00021726892281485888 0.09847965465654147 0.04697834744777725 -0.05349441043128706 -0.0216594715843762 -0.07909865086779701

bias f8 [100]
00000000: e4b1 b650 6df5 b2bf 9718 3dc7 7822 adbf
00000010: c6ac 212b f3ab a1bf 06a4 14c0 6c94 b1bf
00000020: 6a91 5e0f 17d7 943f 976e d831 55a2 933f
00000030: 7294 26d3 9beb a83f c8ef 6a48 b54c 953f
00000040: 94fa f17e 2cbe ad3f b925 941a df0b a2bf
00000050: 7e3f a82d 8c20 713f 941c 495a 5123 b5bf
00000060: 0cfa 53af 5e3c babf 003a 03b1 081c b23f
00000070: 6a83 3778 00d6 9abf df47 7cc3 1cf6 a63f
00000080: a5bf 16bc 426d a43f cb2e 589a 7cbe 95bf
00000090: dd4a bf3a b460 a3bf 80ac 4337 4270 bfbf
000000a0: d88d 64ad ede2 8a3f cee6 4525 fc65 8fbf
000000b0: 69e4 4e7e edbf a6bf fcff 0524 fae0 a23f
000000c0: f8a9 c632 cfa8 cc3f b8a4 3137 fc34 bcbf
000000d0: d2a0 ffd0 e27f b33f 4b92 75b7 fa29 4f3f
000000e0: 38d4 edeb 1f30 b0bf 9c36 7a0e 2fb0 b5bf
000000f0: 8b94 830b 40ec c3bf b8da ca17 c6e0 923f
00000100: 148a 0aa6 75d1 a43f 8c54 9c66 f7e1 a93f
00000110: 109b 05d0 6035 97bf 599e 8300 598e b53f
00000120: 702d 19e9 aeb5 9d3f f3ec a81d 9c97 b6bf
00000130: 58f5 cdef bc08 ba3f 8096 3a4e 6275 4bbf
00000140: 9df9 1406 8914 b7bf c058 cc71 ec7e 56bf
00000150: e298 62f4 c125 923f 7da7 f41a caaf a53f
00000160: 2a8e 794b 1c6a a9bf 1b06 776c 3402 94bf
00000170: a052 6563 b47c 79bf 1a74 b789 6fea ad3f
00000180: 8e29 2ea5 bc6a b73f e6b3 51fb d253 803f
00000190: 35c3 c6e5 2e7a cabf 0004 33ad c94a 713f
000001a0: 80dd ec8f 1773 afbf 0458 86e8 7b1a b8bf
000001b0: be95 6673 90e8 a53f 1c85 b24f fe16 a53f
000001c0: 7e00 1e57 5d0f abbf b42e 43f4 336f 973f
000001d0: d6c2 c076 e423 ac3f d9c6 cfeb 68b4 b2bf
000001e0: 6adb 84db 85cf aebf d769 1e3a 8358 9ebf
000001f0: 7d8e 4fee 2ec7 77bf acd8 592c a4de b4bf
00000200: 671e 0a1c 4f0b b73f 7e91 0dbd deea a23f
00000210: 8d09 9b4e 2e18 b4bf 516c aebc 7b4b cc3f
00000220: abf5 da7d ba9d 803f ba82 fd8a f19a a2bf
00000230: 2647 17b4 10d1 bfbf 4efa b285 5a8b b9bf
00000240: 0251 f793 1e17 bcbf 6526 d6fe 14a6 b7bf
00000250: b03f 6f53 f535 76bf 18fd acb3 f04a b8bf
00000260: 7785 0aef 7dd3 a0bf 409c 9dc2 8948 b8bf
00000270: c0bb b9ac 40bf c5bf 3b84 109d 8672 c3bf
00000280: 54d7 f368 a424 b33f b4ee a876 7361 adbf
00000290: 5655 45a5 4776 b0bf 5007 a9b0 38a3 bfbf
000002a0: 2a66 f108 2a78 b6bf 5d5d fc85 245d babf
000002b0: 57f1 51b8 a9f9 aabf 5eef 5345 f1af b3bf
000002c0: 8752 6aea f60f a9bf aad9 1328 46c7 a6bf
000002d0: 168d 1996 146b b7bf 20cb 2422 7d9a 91bf
000002e0: f0b5 e2a1 a394 60bf e0ee 3321 b955 a03f
000002f0: c0ee 2016 4024 a73f 001c b70c 8ac2 9a3f
00000300: 5867 7a0c 53ec b83f 38fa 256b 2fd2 babf
00000310: d894 a018 e441 bcbf 1024 bd95 6eb3 aebf
-0.07405741901920454 -0.056903623887181336 -0.03451499845035637 -0.06867103280514195 0.020351753533434026 0.01917393795711905 0.04867255165599084 0.02080043081762975
0.058091536041492337 -0.03524682235190419 0.004181430408166762 -0.08257015661466688 -0.10248367100209793 0.07074026414486667 -0.02620697721238533 0.04484643827721845
0.03989609285360921 -0.02123446170848701 -0.03784716813210818 -0.12280668114878956 0.01312814412501144 -0.015331239593013104 -0.044433042210081215 0.036872689149276966
0.22390165309236898 -0.11018349025256924 0.07617013552192312 0.0009510492517788653 -0.06323432455049349 -0.08471960166408582 -0.15564728319364848 0.018435569002316327
0.04066054965848678 0.05055211188861461 -0.022664559075020796 0.08420330297996638 0.029013379075235546 -0.08825088237874805 0.10169583181955966 -0.000837967873356063
-0.09015709303364479 -0.0013730343845899523 0.017722158948026208 0.042356792250145305 -0.049637684071765456 -0.0195396605684036 -0.0062224432388872375 0.05842922741042163
0.09147242577288336 0.007972381872798761 -0.20685373515655106 0.00422171382814529 -0.061424957579613526 -0.09415411402582669 0.042789949500086064 0.04119105074756588
-0.0528515976757271 0.02288514307365004 0.05496133756276371 -0.07306533581847975 -0.0601770239322182 -0.029634523794450942 -0.005805190395196666 -0.08152223665988129
0.09001631197508574 0.036948166444548555 -0.07849397105295548 0.22105356896358555 0.008113343206214227 -0.036338375298105643 -0.12428383251906591 -0.09978261722697221
-0.10972777473881837 -0.09237796041102227 -0.005422552399025379 -0.09489349733938857 -0.03286355536443868 -0.09485684396132488 -0.16989906724799475 -0.1519325510899153
0.07477786600415232 -0.05738411735043539 -0.06430480751926856 -0.12358431160921879 -0.0877710601647769 -0.10298374434602438 -0.05268602728844723 -0.07690341894698124
-0.04894992457881125 -0.04448909033992561 -0.09147766747041816 -0.017190890511481816 -0.0020240016884460685 0.031904015830120036 0.04519844312787091 0.026132733369902184
0.09735602430955959 -0.10476967206884857 -0.11038041688205469 -0.05996270730845066

weight f8 [1, 100]
00000000: e716 a6ac 662a 8ebf ada6 1948 ab71 993f
00000010: 9b3c 458a 139c b13f 427a 6557 3251 a53f
00000020: 8cc6 07fd d2f0 97bf a2fa e7d2 f9ad 70bf
00000030: d6b6 c43b e83f 713f fdae c801 3d28 a33f
00000040: 240e 2c8a 62b2 b8bf 5bb4 45d4 be52 a2bf
00000050: 5262 4bd1 ca38 9dbf 7e18 e121 a0d0 a13f
00000060: 6bc1 5029 6aa0 90bf 9659 4432 0735 ad3f
00000070: 8512 897f 662b 923f 3057 dd24 d97a a73f
00000080: 835c d935 3ff8 783f 2505 333f 5e4e 9a3f
00000090: bbaa 3361 8fcd b73f 0bd7 3474 3ac1 98bf
000000a0: 0ab2 96ce c7bf aa3f 1ed9 b4d5 d750 73bf
000000b0: 1baa fec5 0b8c 7d3f 7ec4 3387 714d 723f
000000c0: 6e08 236a 6a3a b53f e2c8 a915 8937 543f
000000d0: eacd a3ed 4bcf b4bf bbbe 7627 7cfd 923f
000000e0: 88db fe5e e660 b1bf 5bc8 b8f1 c37b b7bf
000000f0: 6543 051b 7936 4e3f 0f0b 2102 e0e5 b33f
00000100: 6d63 45f6 d27d b43f 6b4a aacb 8019 b73f
00000110: f8b0 7f13 c1cc 893f e5e7 5f02 a662 763f
00000120: ff2b 6882 3719 adbf a525 427a ee07 703f
00000130: 6160 e0ce 8187 983f 4489 b3b4 5aee b8bf
00000140: 68f4 6c8a ffc7 6b3f 9a8c 9437 6181 903f
00000150: 8c5b c881 fb72 a0bf 8fe0 b528 0717 603f
00000160: 90ce 5cee 622a b0bf b63a 7559 9bed 5c3f
00000170: 98e8 9f00 cbba 83bf 19c7 38f3 0b01 5b3f
00000180: 66e6 a006 363d a03f 5627 2a06 882a 5a3f
00000190: 7ab8 a51a d5fa abbf 6b06 75a8 1f3b b33f
000001a0: 7246 9ad7 723b a03f 440f ac6b 1273 b8bf
000001b0: e3cd a625 7a58 af3f 3c37 0c2a 6aa2 9e3f
000001c0: 315d 775e d58b 4a3f 0b87 5cb6 8f3d b03f
000001d0: 3046 b540 1a53 973f 03be 1512 c14d 99bf
000001e0: 846d 6696 0a58 b0bf e220 f850 12a1 a33f
000001f0: 8e67 3826 5737 a3bf 82b3 5e6c 578a a23f
00000200: 74b9 3343 c32a b43f b640 7cc6 bc5f 8c3f
00000210: 416a 169a f665 9cbf c29e 13ab 0667 bb3f
00000220: 3be9 2338 0835 903f 264e c566 d468 a9bf
00000230: 2523 a364 bb7f a43f bf62 0a05 e72a 97bf
00000240: 18af c27b 46fa 983f a4ca 290b b3b4 b5bf
00000250: 36d9 3ee1 6166 a7bf 2ca0 0c90 50a7 a23f
00000260: 4d5f 6a1a c446 893f 4015 08eb 5b14 6ebf
00000270: cff8 2f97 9517 b0bf 7ec6 e793 a62e 9d3f
00000280: 7e11 6630 31a1 3c3f 6740 bc5a 9932 8d3f
00000290: b57c 212a 2055 46bf 38a6 bbd5 7042 873f
000002a0: 65c7 65b9 6a83 aa3f 784e 0ce9 b20b 7a3f
000002b0: 007b 172e cbf1 7bbf 1f72 e3f6 b7cc 983f
000002c0: 5c9b 040f 4491 9c3f 5110 96bb 9811 6f3f
000002d0: 06db 98c8 11ba 5f3f febc 4ae2 8268 b5bf
000002e0: ec37 e462 140d a43f 7482 5899 ca62 523f
000002f0: 007a 53c5 8748 213f f321 db61 95cb 823f
00000300: b027 5f16 8d05 7fbf 6124 42dd 91f1 87bf
00000310: d951 7887 f357 a2bf 9bfb 3742 b4f3 67bf
-0.014729311126540036 0.02484767558636374 0.0687877857756 0.04163510624743029 -0.02337960881590688 -0.004072166323111278 0.004211337244027743 0.03741636893059128
-0.09647193787900982 -0.03578754750456233 -0.02853695776397764 0.03479481137814931 -0.01623693349046233 0.05704519737826101 0.017743684324403226 0.045859132528376256
0.006096121707364624 0.025689575774554236 0.0929803478535786 -0.024174607603717962 0.05224441906770856 -0.004715769867564638 0.0072136363886934575 0.004468387097618208
0.08292260256988168 0.0012339438168536489 -0.08128809501413739 0.018545093449289434 -0.06788482493617043 -0.09173226024066265 0.000922021039551618 0.07772636463145609
0.08004492294766204 0.0902328965405929 0.012597568900638553 0.005465172265752803 -0.05683301417237629 0.00391381411839956 0.023954418422448834 -0.09738699828770786
0.0033912650136743057 0.01611854459509896 -0.03212724646817042 0.0019641055893622815 -0.06314676589391355 0.0017656342586921787 -0.0096336230817438 0.0016481987667131325
0.03171700316347596 0.0015970543251193257 -0.054648074629640456 0.07512090552065735 0.03170355684154637 -0.09550585869515965 0.061221901985301995 0.0299164379276171
0.0008101264801848915 0.06343935205634581 0.022777948569745188 -0.024710671166245046 -0.06384340450170184 0.03833825338739573 -0.03753158895069851 0.03621171186328011
0.07877750769305242 0.013854479605953745 -0.027732709078558185 0.10704080273319064 0.015827301432161916 -0.049627912087683065 0.04003701785547368 -0.022624597246791774
0.02439222460149812 -0.08478850386181108 -0.0457029902894867 0.0364327598420576 0.01234200673688659 -0.0036718173289524147 -0.06285986844156642 0.0284982707762027
0.00043685389427874216 0.014256666261218421 -0.0006815344861585056 0.011357194445241622 0.05178388131288506 0.006358813160449388 -0.006822389289907305 0.024218439525485743
0.027897895256639202 0.003792570406121278 0.0019364522617146287 -0.08362596535402031 0.039162289687837276 0.0011221865182805798 0.00013186128004512299 0.009177367256953927
-0.007573653338065187 -0.011691226544160384 -0.03582726505934248 -0.0029238243748745513

bias f8 [1]
00000000: a585 af71 4b7a d43f
0.31996427633392904
