WeakLossVectorClassExample/Models/F10_model.pt (torch, 45735 bytes, 6 tensors)

weight f4 [100, 1]
000000 20 e8 17 3f 18 5e 49 3d 21 a8 de 3e c4 ee 65 bf
       0.5933857 0.049162 0.43487647 -0.8981745
000010 d2 24 12 3f 46 ea 37 3f 90 4b 31 bf 4a 6e 85 be
       0.57087433 0.7184185 -0.69255924 -0.26060706
000020 f5 26 5a 3e a8 43 21 3e 80 89 8b 3c ea fe 5b bf
       0.21303923 0.15748465 0.017033339 -0.85935843
000030 9c de 83 3e b2 75 17 3f f1 48 37 bf 0c f1 2d bf
       0.25755775 0.59163964 -0.71595675 -0.67945933
000040 dc 60 7f bf fb cf 8b 3d cb 9c e5 be f3 d1 ad 3d
       -0.9975717 0.068267785 -0.44846186 0.0848731
000050 b9 85 e4 3e a0 dc 2e bf 47 02 0a 3f 11 c2 9a be
       0.44633272 -0.683054 0.53909725 -0.30226186
000060 52 69 1c 3f e5 13 80 bf 03 68 7b bd 52 9f 20 bf
       0.61098206 -1.0006071 -0.06137849 -0.62743104
000070 f3 35 39 3e 80 16 2b 3f f4 13 2d bf 30 a1 f4 be
       0.18086986 0.6683121 -0.6760857 -0.47779226
000080 c0 cf 15 bd 29 3e b1 3e 27 7c 95 bd e0 a1 33 3e
       -0.03657508 0.34617737 -0.07299071 0.17542219
000090 e9 55 4a bf b3 70 1f be 16 5d 33 be 2e 59 6e 3e
       -0.7903734 -0.15570335 -0.17515978 0.23276207
0000a0 a1 de 92 be 86 ee 40 3e 87 bc 1e be 4f 89 13 3f
       -0.28685477 0.1884099 -0.15501605 0.5763139
0000b0 20 2e 39 be e6 15 7a bf 7e 7d 6a bf 74 f6 19 bf
       -0.18084002 -0.97689664 -0.91597736 -0.6014168
0000c0 ca 54 20 bf 3c 1e 14 be d8 36 dc bd 5d 21 50 bf
       -0.6262938 -0.14464658 -0.10752648 -0.8130091
0000d0 c0 bf c9 be f9 c9 8a 3e 60 fd 1a bf 24 8f 39 bf
       -0.39404106 0.27107218 -0.6054287 -0.7248404
0000e0 85 21 0a 3e bd 08 0e bd d4 17 4d 3e 0f 25 02 bf
       0.13489349 -0.034676302 0.20028621 -0.50837797
0000f0 a5 6d df 3e c9 67 2e bf c1 6e 95 3e a0 a5 c9 bd
       0.4363834 -0.68127114 0.2918606 -0.098460436
000100 7f df db 3e d4 cb cc be 36 8a 37 bf 50 c3 33 be
       0.4294395 -0.3999926 -0.7169527 -0.17554975
000110 88 0d a2 be 0a a3 83 be ac df 46 bf f9 e7 07 3f
       -0.3165095 -0.25710326 -0.77685046 0.5308834
000120 ff 0f 0f be 8d 1f f0 3e 40 04 48 bd 27 31 09 3f
       -0.13970946 0.4689907 -0.048832178 0.53590626
000130 95 c9 02 bf 98 f0 40 bf ed 7d ec 3e 56 73 54 bf
       -0.5108884 -0.75367117 0.46189824 -0.8298849
000140 ac a9 91 be fa 5a 3a bf b0 75 62 be 7e 0c 9d 3e
       -0.28449762 -0.7279507 -0.22115207 0.30673593
000150 ca bc 2d bf 30 2e 8a 3d d2 87 35 bf eb 58 9c 3e
       -0.67866194 0.06747091 -0.7091037 0.3053659
000160 c8 0e c3 be c2 e4 22 bf 6c 46 9e be 8c 3f 8d 3e
       -0.38097215 -0.63630307 -0.30913103 0.27587545
000170 a2 5c 62 bf 8c 7c fc be f1 12 d3 be e1 b5 46 3e
       -0.88422596 -0.49313772 -0.4122539 0.19405319
000180 10 3b 40 3e 48 73 6f bc da c4 1b bf de d0 26 bf
       0.1877253 -0.014614888 -0.60847247 -0.65162456

bias f4 [100]
000000 c2 ee 3d 3f 1e 69 07 be 4a 05 a9 bd a9 cf b8 3e
       0.7419244 -0.13223693 -0.08252962 0.36095932
000010 8a 94 06 bf 9b a2 47 bf f0 1b d2 be 83 2c 48 3f
       -0.525704 -0.7798249 -0.4103694 0.7819292
000020 15 79 05 bf 5c a6 1a bf ce 68 29 bf 48 48 7b bf
       -0.5213788 -0.60410094 -0.66175544 -0.9815717
000030 cc 9d 29 bf 13 5c 76 bf 2a aa fd 3e 90 1a 2a bf
       -0.66256404 -0.96234244 0.49543887 -0.6644678
000040 f0 ef 45 bf 84 b5 2a be 7e 56 86 3e ec 7d 54 be
       -0.7731924 -0.16670805 0.26237863 -0.2075116
000050 36 3f 81 bf 88 47 61 3f 88 34 83 bf c9 33 68 3f
       -1.0097415 0.87999773 -1.0250406 0.9070402
000060 f1 2f c6 be a6 86 ae 3c 57 14 22 3e 5e 15 45 bf
       -0.3870845 0.02130444 0.15828072 -0.7698573
000070 00 b2 d3 be ca 66 0b 3f c1 2e f0 3e 58 b8 bc be
       -0.4134674 0.5445372 0.4691067 -0.36859393
000080 9c 90 9d be 05 97 0f 3f ed fd 0d 3e 8a ee 0c bf
       -0.3077439 0.5608981 0.13866396 -0.5505148
000090 df e7 36 3f 11 08 cf 3e d5 ab 22 3f ef 2c b2 3e
       0.7144756 0.40435842 0.63543445 0.34799907
0000a0 6d 62 5c 3f 51 9a 97 3e f3 1c ee 3e 2d 41 d7 3d
       0.86087686 0.29609922 0.46506462 0.10510478
0000b0 2d 58 51 3f a6 20 4a 3e e9 fa 65 3d 22 71 2a bf
       0.8177517 0.19739017 0.05614749 -0.66578877
0000c0 74 ef 32 bf 44 7f de 3e 35 66 02 3e 52 f3 ec 3e
       -0.69896626 0.4345647 0.12734301 0.4627939
0000d0 78 2c 11 bd 54 58 ce 3e e8 f0 af 3b 5f 22 84 3a
       -0.0354428 0.40301764 0.0053692944 0.0010081044
0000e0 65 fd be 3e 08 b6 c5 3c 28 52 14 bf a9 b5 c5 bb
       0.373027 0.02413465 -0.5793786 -0.0060336185
0000f0 4d a3 80 bf 7e a6 3d 3f de ac 1b bf e2 ba 52 bf
       -1.0049835 0.7408217 -0.6081065 -0.8231641
000100 c1 95 74 be 39 98 21 3e fc 1e 27 bf a4 0d 97 be
       -0.23885252 0.15780725 -0.65281653 -0.29502594
000110 82 b1 29 3f 5a 76 45 3f c9 99 16 3f b0 40 fa 3e
       0.6628648 0.77133715 0.5882841 0.48877478
000120 6f 89 94 3e a3 54 db 3d 1e 53 07 bf bc a0 6c bf
       0.29011104 0.107095025 -0.528612 -0.9243276
000130 8a 16 3e 3f e2 3f 56 bf 6a ad 27 bf 2c 81 36 bf
       0.7425314 -0.8369123 -0.65498984 -0.7129085
000140 44 6b 2a bf 85 fa 0f 3f c8 02 27 be 7b a5 3c be
       -0.66569924 0.5624164 -0.16309655 -0.18422501
000150 80 94 67 bc a4 09 24 bf 50 31 9b be ba 08 06 bf
       -0.014134526 -0.6407721 -0.3031106 -0.52357066
000160 be 73 7e bf fa 0b e9 3e e4 5d b7 be 26 63 20 bf
       -0.9939536 0.4551695 -0.3581382 -0.6265129
000170 a1 2c 70 3e c0 06 ce bd 30 3a 80 3e 5b 36 e5 be
       0.23454525 -0.10059881 0.25044394 -0.44768032
000180 e2 e8 2d 3f 6f 64 6b 3e 6a ed 7b 3f 4a dc 34 3b
       0.67933476 0.22987531 0.9840914 0.0027597123

weight f4 [100, 100]
000000 62 fb 11 3d 0a 55 f3 bc 1b 5e 47 bd 99 ae 9d bd
       0.035640128 -0.029703636 -0.04867373 -0.076993175
000010 47 6b 43 bc 86 0b 18 3d c6 c5 19 3d 92 04 84 bd
       -0.011927432 0.037120365 0.037542127 -0.06446184
000020 ce 3a 03 bb 10 08 59 bd 42 2d 6c 3d 92 5f 1b 3d
       -0.0020024064 -0.052986205 0.05766035 0.03793294
000030 52 d9 43 3d 97 bc d2 3c 6e 45 59 bd 07 cf c9 3d
       0.047814675 0.025724692 -0.05304473 0.098539405
000040 62 37 c9 bd dc 97 0a 3d b0 31 9e bd b9 2e 10 be
       -0.098250166 0.03383623 -0.07724321 -0.14080323
000050 d2 9b bc bd 17 b7 90 3c 9b cc 85 bc be 2e 3d bd
       -0.09209408 0.017665429 -0.016332915 -0.046187155
000060 2f 11 c5 bd 65 00 91 bd 01 e5 ba 3c 80 b6 c4 3a
       -0.09622418 -0.070801534 0.022814276 0.0015008003
000070 02 19 fd 3c e4 d6 10 3d 82 50 e8 bd 20 16 2e bd
       0.030895714 0.035361186 -0.11343481 -0.04250157
000080 10 31 19 3c b2 b3 38 bc 83 0a a0 bc 08 08 a5 bc
       0.009350076 -0.011273311 -0.019536262 -0.020145431
000090 39 79 cf bd c2 84 4b bd 07 9d 44 bd 9b 59 e3 bd
       -0.10130543 -0.049687155 -0.048001315 -0.11101075
0000a0 8b 9d 09 be bc 0e e9 bd 4a 05 85 bd 29 4b 12 be
       -0.13439004 -0.113797635 -0.064951494 -0.14286484
0000b0 d6 fb e4 bd e8 10 fa bd 89 45 01 3c 27 48 70 bd
       -0.111808464 -0.12210256 0.007890114 -0.05866256
0000c0 f4 0b a0 3c 73 14 c5 bc d5 1c 0f be 8a 14 6b 3b
       0.01953695 -0.024057603 -0.13975842 0.0035870397
0000d0 56 55 3b 3d 6c c7 fb 3c 19 c5 50 3c 42 bd 0b be
       0.04573568 0.03073474 0.012742304 -0.13646415
0000e0 d3 18 46 3d 75 7e 88 bd 85 23 fc bb c4 c3 64 3d
       0.048363518 -0.06664745 -0.007694664 0.05585076
0000f0 e7 4a b6 3c c8 09 0c 3d 82 2c 2e 3c d9 37 cb 3d
       0.022252513 0.034189016 0.010630729 0.099227615
000100 4f d5 b4 bd f6 17 1b be 1a 86 64 3d b7 15 51 bd
       -0.08829748 -0.15145859 0.05579195 -0.0510461
000110 ec 0b 92 bd 28 98 de bd eb a5 22 be 03 46 8d bd
       -0.0713118 -0.10868865 -0.15883605 -0.06898119
000120 96 14 e7 3c 01 73 19 3c 32 ad 29 3d ad da 56 bc
       0.028208058 0.009365798 0.041424938 -0.01311366
000130 14 ce ff bd 07 05 65 bd a0 27 5a bc ae d0 18 3d
       -0.12490478 -0.055912998 -0.013315111 0.037308387
000140 8a 2e 02 3d 39 21 5f bd 90 e7 8e bd bc b2 bb bd
       0.031782664 -0.054475043 -0.06977761 -0.0916495
000150 14 5e c8 bc 6e 4e 3b 3d f3 ba 31 bd ff c6 a8 bd
       -0.024458922 0.045729093 -0.04339118 -0.082410805
000160 9c 74 84 bd 3a 4e c3 bd 17 6d 3a bd 5f 04 4a 3d
       -0.06467554 -0.09536405 -0.045514192 0.049320575
000170 46 8b ce bd b4 07 e9 bc 0a b6 0c be af bb 12 be
       -0.10085158 -0.028446056 -0.13741317 -0.14329408
000180 e2 e6 d9 bd c1 48 85 bc 71 ee f1 bd 1b 2b c2 bd
       -0.106397405 -0.016270043 -0.11813057 -0.09480878
000190 4b 5b d8 3b 9b 97 11 3c a6 bd 99 3d d4 83 ac bd
       0.00660268 0.008886243 0.07506876 -0.08423582
0001a0 65 b4 5f bd 1f 7e 11 bd 86 92 5f 3d 10 94 76 3e
       -0.054615397 -0.03552067 0.054583095 0.24079919
0001b0 b3 a7 1a bd f6 69 00 3d b2 86 00 3d 33 b2 c3 bd
       -0.037757587 0.031351052 0.031378455 -0.09555473
0001c0 65 fe 3c be 28 24 5b be fd db 58 3d 80 1c 0c bd
       -0.18456419 -0.21400511 0.052944172 -0.034206867
0001d0 59 72 96 3d fe f8 d8 3c 79 2d 43 bd 90 40 fb 3c
       0.07346029 0.026485916 -0.047650788 0.030670434
0001e0 c1 17 83 be 87 30 7a 3d da 86 a0 be a3 d4 d5 3e
       -0.2560406 0.061081436 -0.31352884 0.4176379
0001f0 0d d9 14 bd f2 2c 87 3d 9a f0 9d 3d c0 ac 97 ba
       -0.03633981 0.066003695 0.07711907 -0.0011571869
000200 86 c8 a5 bd 55 7b 86 bd 4c c7 aa bc 9d d9 8f bd
       -0.080948874 -0.065664925 -0.020846985 -0.07023928
000210 5c b8 d8 3c b5 0f a0 3c 45 42 94 b9 b7 db 34 bd
       0.026455097 0.01953874 -0.00028278134 -0.04415485
000220 69 ed 1c bc a7 d0 2a 3e fa a8 43 3e 55 a4 b7 3d
       -0.009578087 0.16681157 0.19107428 0.08966891
000230 1b d0 99 3e ef 58 cb 3d 70 6f ce 3d 39 e4 de 3d
       0.30041584 0.09929072 0.10079849 0.10883374
000240 b8 ba 4d 3e 4d 80 d6 bd d7 89 90 bd 23 c5 7d bd
       0.20090759 -0.1047369 -0.07057541 -0.061955582
000250 c8 09 c1 bd 8f 1f ca 3e 5f bb 13 bd ed 78 8e bd
       -0.09425694 0.39477202 -0.036067363 -0.069566585
000260 73 24 4b 3d b7 e9 a0 3d 24 61 de 3d f6 23 c5 3d
       0.049595308 0.078570776 0.10858372 0.09626
000270 0c 9d ff 3d 8c b0 2b bd 3a bc da 3d 11 ed 5f bd
       0.12481126 -0.041916415 0.106804326 -0.054669444
000280 48 ef ed be 66 2b 54 3d a6 0b 5d be 78 e0 c1 bc
       -0.4647162 0.0517992 -0.21586475 -0.023666605
000290 9a 84 de 3b 18 38 72 3d e0 21 e2 3b 3d bd 42 bd
       0.0067907097 0.059135526 0.006901011 -0.047543753
0002a0 b0 3b 49 3e 5c 8b 6d 3e db ce 71 3d 83 a0 fc bb
       0.19651675 0.23197693 0.059035163 -0.007709564
0002b0 d6 ae 88 bc ef 82 58 3d 77 f4 50 bd 08 49 66 be
       -0.01668493 0.052859243 -0.05101439 -0.22488797
0002c0 e4 7e 2f 3d 69 59 9b 3d 1d 5c 98 bd 57 92 71 bd
       0.04284562 0.07585413 -0.07439444 -0.05897745
0002d0 6b 1e 8d bd 52 02 cd bb 80 47 32 bc 0d 21 aa 3d
       -0.068905674 -0.00625638 -0.010881305 0.08307085
0002e0 da d9 c6 bd 38 e9 b1 3c 53 41 30 bd 45 8c 9a bd
       -0.09709521 0.021717653 -0.043031048 -0.075462855
0002f0 80 5d 93 bb 12 1d 80 3d 55 0a 98 bd e5 8f 18 be
       -0.00449723 0.06255545 -0.07423846 -0.14898641
000300 f0 2b 50 ba ec 5b ba 3c 7b 98 4f bd e5 48 5a bd
       -0.00079411175 0.02274891 -0.050682526 -0.053292174
000310 69 5e 02 3e b1 a3 da bc f6 62 31 3e 35 dd 5f 3d
       0.12731327 -0.026689382 0.17322907 0.05465432
000320 e3 35 fe bd 8a 12 00 bd d1 2f 81 3c 1c 35 d9 bd
       -0.12412622 -0.03126768 0.015769871 -0.10605833
000330 b0 a9 b6 bd c1 61 03 be aa 34 6c bd 36 16 67 3d
       -0.08919084 -0.12830259 -0.057667412 0.056417666
000340 6b 36 ce bc 2c 71 c9 bc 2a 00 76 3d d0 61 1f bc
       -0.025172433 -0.024590097 0.06005875 -0.00972791
000350 8c 98 89 3c c1 b9 92 bd a7 fb cf 3d 68 ff 78 3c
       0.016796373 -0.07164336 0.10155421 0.015197612
000360 02 b1 79 3d 16 97 2e bd d9 9d bb 3d 2c dd a2 bc
       0.060959823 -0.042624556 0.091609664 -0.019880854
000370 71 ff f7 3c fc a1 00 bc 77 15 a3 bc 76 3b 3e 3d
       0.030273171 -0.00785112 -0.019907696 0.046443425
000380 fe 55 73 3c 7d de 87 3d b0 af 8d 3d 70 7c 3e bd
       0.014852045 0.06634233 0.06918275 -0.04650539
000390 c5 26 fb bd c6 2d c4 bb 3c c5 1f bd 81 25 98 3d
       -0.12263254 -0.005986902 -0.039006457 0.07429028
0003a0 b6 95 25 3d d2 08 ef bd 60 bd 17 ba 1a 8c 08 bd
       0.04042598 -0.11671604 -0.0005788412 -0.033336736
0003b0 98 16 02 3d 32 21 eb 3d 25 bb 01 bd 2e 47 75 3d
       0.03175983 0.11480941 -0.031672616 0.059882335
0003c0 31 2f be 3d 10 cd 99 3d 7d 01 aa bd 55 0f 59 bd
       0.09286345 0.07509816 -0.08301065 -0.052993137
0003d0 62 98 b7 bd 8c 34 97 bd 40 b1 7e bd 33 24 89 3d
       -0.089646116 -0.073830694 -0.062180758 0.066963576
0003e0 9d 78 31 bd 48 1c d3 3d 46 62 01 3d a1 25 94 bd
       -0.043327916 0.103081286 0.03158786 -0.0723374
0003f0 39 5d f9 3c 47 7e a6 bd 56 6b c3 bc c7 60 26 3e
       0.03043996 -0.08129554 -0.023854893 0.16247855

bias f4 [100]
000000 fd fb e8 3b 99 0a 59 3e 9d 24 11 3d 1e b7 54 bd
       0.0071101175 0.21195449 0.035435308 -0.051932447
000010 53 94 38 3d cd 89 06 be bb 8a f5 3c c3 95 6e bd
       0.045063328 -0.13138504 0.029973378 -0.058248293
000020 50 5a f5 3c ad 07 ff bd e9 1d fc 3b 4b c1 d5 bd
       0.02995029 -0.12452636 0.0076939953 -0.10437258
000030 f2 21 28 3d af 6c d8 bd aa 44 13 be 69 73 37 bc
       0.041047998 -0.10567605 -0.14381662 -0.0111969495
000040 00 67 43 bb cd b3 59 bd 95 a8 b4 bc 97 49 bb bd
       -0.0029816031 -0.053149987 -0.022053042 -0.091448955
000050 3b 75 a1 bd 50 d9 c0 bd b3 e8 17 bd 66 af 9d bd
       -0.07883688 -0.09416449 -0.037087154 -0.0769947
000060 69 94 5c bd 52 50 4f 3d 32 bb 33 3d 10 d0 09 bd
       -0.053852472 0.05061371 0.043879695 -0.03364569
000070 06 88 0a bb f5 9b ec 39 b4 b1 67 bd fd 8d c8 bd
       -0.0021138205 0.00045129625 -0.056565955 -0.09792707
000080 56 4e cc 3d b0 dc 3e 3c 6a 6b 08 be 12 43 e4 bc
       0.09975879 0.011649296 -0.13322225 -0.027864013
000090 83 e7 18 3d 00 95 97 b9 bf ae ca bd 0e 03 ac 3d
       0.03733016 -0.00028911978 -0.098966114 0.0839902
0000a0 56 ae 01 3d 1c ac 1b bd b4 dc 75 bd 58 41 97 3c
       0.0316604 -0.038005933 -0.060024932 0.018463776
0000b0 77 7b 19 3d 11 83 bb 3d 58 32 d7 bd 1d c3 85 bd
       0.03747126 0.09155858 -0.10507649 -0.065313555
0000c0 35 8c 5f bd d7 6f 96 bd 5a 8a 1a be 4d 83 fe 3d
       -0.05457707 -0.073455505 -0.1509184 0.124273874
0000d0 03 25 7b bd a5 7b f2 3d 19 41 af 3d 40 a5 86 3d
       -0.061314594 0.118399896 0.08557338 0.06574488
0000e0 e8 59 9b 3d 35 52 8a bc 78 6e 1f bd c7 43 42 3d
       0.07585508 -0.016884902 -0.03892371 0.04742792
0000f0 32 6a 22 be 06 70 0c bc 40 11 e2 bc 51 79 a4 3d
       -0.15860823 -0.00857163 -0.027596116 0.08030952
000100 78 f0 07 be 09 07 ec bc 91 d9 7b bd 56 8c 9b 3c
       -0.13275325 -0.028811948 -0.061486784 0.018987816
000110 ec a1 ca bc c5 1a d3 3d e9 03 93 3d b6 53 73 3d
       -0.024735413 0.1030784 0.0717848 0.059406005
000120 1a 38 28 3c 8e 77 e4 3c 3c 67 04 3e b1 2f 37 bc
       0.010267282 0.02788904 0.12930006 -0.011180804
000130 24 8f 18 bc a9 58 aa 3d ee 83 02 3d 0d 9d f4 bc
       -0.009311471 0.08317692 0.0318641 -0.029860044
000140 c8 6b 82 bd 5a e6 da bd fa 54 b6 bd f6 e9 ac bd
       -0.06368214 -0.10688467 -0.08902927 -0.08443062
000150 0b d3 ae bd b1 0a 0f 3d b2 a7 1a bd 15 88 8c bd
       -0.08536347 0.034922305 -0.037757583 -0.06861893
000160 dd 61 e7 bc 5c b5 e8 bc 1f 17 d7 3c d7 b1 24 bd
       -0.028244907 -0.028406791 0.026256142 -0.040208664
000170 97 fc 94 bd 51 34 49 bd 98 90 05 bc 4b cc 06 bc
       -0.0727474 -0.04912216 -0.00815215 -0.008227418
000180 88 77 b6 bc 6b 49 87 bd 4b e1 0a be 19 ab 29 bd
       -0.022273794 -0.066058 -0.13562505 -0.041422937

weight f4 [4, 100]
000000 20 50 ba bb 09 39 ad bc d3 7c 69 bd a6 d6 5a 3b
       -0.005685821 -0.02114536 -0.057003807 0.00333921
000010 e3 54 09 bd 13 1c 09 bc ae 18 1e 3d 1b c7 ba bd
       -0.03352822 -0.00836851 0.038597755 -0.091200076
000020 f1 34 2d bd 2e e1 81 3d 22 39 1a 3c 3b 9b 30 bd
       -0.042286817 0.06341778 0.009413036 -0.04311679
000030 95 b4 9f bd b4 ad 8e bd 6c b8 b8 3c 9e 3b 48 bd
       -0.07798115 -0.06966725 0.022548877 -0.04888498
000040 b0 a7 d5 bb 83 ce a7 bd 3c 20 27 bd e2 d9 37 3c
       -0.006520234 -0.08193686 -0.040802225 0.011221381
000050 00 33 c3 39 fb db b2 bd 50 38 f9 bc e4 c3 85 bb
       0.00037231296 -0.08733364 -0.03042236 -0.00408219
000060 56 a1 a5 3d 9d 22 12 bd de 61 cc ba aa e5 75 bb
       0.08087413 -0.03567754 -0.0015593132 -0.0037520924
000070 7c b1 28 bd dc b6 7e 3b 3e b9 af bc 90 26 a1 bc
       -0.041184887 0.0038866317 -0.021450635 -0.019671708
000080 f3 2b 85 3b 60 fc 1d bd 52 8a 86 3a 0d d6 2a bd
       0.004064077 -0.03857076 0.0010264611 -0.04170804
000090 5b a8 a3 3d a0 46 15 3b 0c 8c 4e bd 17 8f 4b 3b
       0.07991096 0.0022777691 -0.050426528 0.003106063
0000a0 73 86 62 bd 98 27 83 3c 27 74 06 bd 8d 8a 94 bd
       -0.055304002 0.01601009 -0.032825615 -0.07252989
0000b0 2f 9a b4 bd ca db 6c 3d be eb 90 bc bd 6f 70 bd
       -0.08818471 0.057826795 -0.017690536 -0.058700312
0000c0 48 07 85 3c 53 de 5e bd 33 70 04 bd b7 c4 84 bc
       0.016238824 -0.054411244 -0.032333564 -0.016207082
0000d0 13 18 84 bd 09 83 00 be 58 80 9c 3c 34 23 8b 3b
       -0.06449904 -0.12549986 0.019104168 0.00424614
0000e0 05 ad 72 3b 33 16 ff 3c b1 71 11 3d 80 37 0c 3d
       0.0037029397 0.031138515 0.035508815 0.034232616
0000f0 fc 16 2b 3e 51 21 7a bc 29 77 91 3d c6 bc 61 3c
       0.16707987 -0.015266732 0.07102806 0.013777917
000100 cd e8 1b 3c b3 4d 69 3d 25 ad 92 bd 72 d5 36 bd
       0.009515953 0.056958865 -0.07161931 -0.04463715
000110 74 32 e4 bc 22 99 dd bd 00 54 7e bd a0 df 80 3c
       -0.02785609 -0.108202234 -0.062091827 0.015731633
000120 79 b1 2b 3c 03 7e 18 3d 72 75 03 be 94 ed 60 3d
       0.0104793245 0.03722955 -0.1283777 0.054914072
000130 fc 21 04 3d ca cf 51 3d 9b 69 aa bc cb f0 21 bc
       0.032258973 0.051223554 -0.02080231 -0.00988407
000140 c0 94 bd bd 7b 1e 2f 3c 29 ce 81 3d 08 29 ea ba
       -0.092568874 0.010688419 0.0633815 -0.0017865011
000150 c0 7a 92 bd e7 bb 13 bc b9 ae f3 bc 00 3c a4 3c
       -0.07152319 -0.009016967 -0.0297464 0.020048141
000160 0e 6d 45 bc fe 88 9b bd f5 29 32 3c a3 13 bb bd
       -0.012049926 -0.075944886 0.010874261 -0.09134605
000170 43 4e 2e 3c 47 07 27 bd 88 ea fe bc d0 7b 02 3d
       0.010638776 -0.040778425 -0.031117693 0.031856358
000180 50 4a 00 3d 50 e9 29 3d bf e4 2a bd 48 99 76 3d
       0.03132087 0.04148227 -0.041722056 0.060204774
000190 e8 0d 92 bd 36 77 28 bc 22 3b 36 3d bb 68 01 3d
       -0.07131559 -0.010282328 0.044489987 0.03159402
0001a0 b2 de 3c 3b 21 c2 20 3d b3 dd a9 bc 60 f1 f2 bc
       0.002881926 0.039247636 -0.020735597 -0.029656112
0001b0 0d 6e 8b 3c 4b ad 74 bc 57 ca d2 bd 63 16 51 3d
       0.01702025 -0.014933894 -0.102924995 0.05104674
0001c0 76 b5 9b bd 55 c3 03 bd ee 04 e4 bd ba 0f 0b bd
       -0.0760297 -0.032168705 -0.11133753 -0.033950545
0001d0 d5 88 c7 3d f2 7b b8 bd 47 0e 62 bd c0 de 11 be
       0.097428955 -0.09008016 -0.055189397 -0.14245129
0001e0 0d 53 21 bd a1 d7 3d bc 52 62 ed 3c 56 b0 14 bd
       -0.039385844 -0.0115870545 0.028977547 -0.03630098
0001f0 b4 ae a6 3b 2e 96 09 bd 54 59 d1 3c d6 98 2b bd
       0.005086744 -0.033590488 0.02555529 -0.041893803
000200 dd c4 0d 3d dd b1 22 bd 50 41 99 3c c4 52 5c 3d
       0.03461157 -0.039720405 0.018707901 0.05378987
000210 d0 56 18 3c f4 81 ae 3c 92 b5 b8 bd 15 05 05 3d
       0.009298041 0.0213022 -0.09019007 0.03247555
000220 c8 31 87 bd 70 e9 b9 bd f1 4b 88 3d 81 ca 80 3b
       -0.06601292 -0.09077728 0.0665511 0.0039303903
000230 e2 b4 69 3d 1c 82 be 3c 6d 7a e8 3c a7 e9 c8 bd
       0.05705727 0.0232554 0.02837869 -0.09810191
000240 73 fd d0 bd 93 53 a6 bd 68 10 9a 3d c3 9c aa 3d
       -0.102045916 -0.08121409 0.075226605 0.08330681
000250 45 c9 c3 bd 00 88 37 bd 31 2a 2d bd 9d 54 e8 bc
       -0.095598735 -0.044807434 -0.042276565 -0.02836066
000260 63 18 87 bd 1b aa e8 bd 58 7d b2 3c 35 19 8f 3c
       -0.06596448 -0.1136057 0.021788284 0.017468074
000270 37 de 89 bd e5 1b 21 3d 79 53 90 bd 18 bf 1c 3d
       -0.06731837 0.039333243 -0.07047171 0.03826818
000280 1b 91 21 3e c3 9a d5 bd a8 13 ef bc 8b da 57 bd
       0.1577801 -0.10429909 -0.029184178 -0.052698653
000290 ea 15 72 3d f7 c3 2e 3d e3 00 ca 3d 0f 5f 0d 3d
       0.05910293 0.042667355 0.098634504 0.034514483
0002a0 0c da 83 3c 97 48 bd bd 3a 01 2a 3d 70 19 74 3c
       0.016095184 -0.09242361 0.041505076 0.014898643
0002b0 75 90 8d 3c ba bd 3d 3d c3 d9 03 be f2 ed 04 3d
       0.017280797 0.046323515 -0.12876038 0.032453485
0002c0 b4 a8 b2 3c 8a 0b 1c 3d 0a ff 02 be 00 9b a8 bc
       0.02180896 0.038096942 -0.12792602 -0.020581722
0002d0 5f 66 0e 3d 80 78 49 39 d2 ac 4c 3d 2c 7c 8c bd
       0.034765597 0.00019213744 0.0499695 -0.068596214
0002e0 45 79 b4 3d e4 46 ea bb 10 3f eb bc ef e2 42 bc
       0.08812193 -0.007149564 -0.028716594 -0.0118949255
0002f0 bb fb 42 bc ee 27 09 bd d0 b7 95 bd fd d8 ef 3c
       -0.0119008375 -0.033485346 -0.0731045 0.029278273
000300 07 5a 97 bd 23 29 f0 bb 60 d3 c8 3d ea fb 6e bd
       -0.07390218 -0.0073291226 0.098059416 -0.058345713
000310 e9 0c 54 ba 28 b1 30 3d 97 d4 9b bb b7 3f 72 3c
       -0.0008089082 0.0431377 -0.0047555673 0.014785699
000320 81 98 16 be 72 4b 1f be a8 97 b3 bd f0 1c 16 be
       -0.14706613 -0.15556124 -0.087691605 -0.14659476
000330 8d df 36 3d 2e 69 0a 3e 13 d8 e3 bc 68 24 2d bc
       0.04464679 0.13516685 -0.027812993 -0.010567762
000340 c8 9d 6d bd d8 e5 8e 3c 0a fe f7 bd 46 de e4 3d
       -0.0580118 0.017443582 -0.12109001 0.11175208
000350 80 f1 d5 ba 5f ca 02 3c bb 98 b5 bd eb c4 6b bc
       -0.0016322583 0.007982819 -0.08867022 -0.014390211
000360 f1 00 c0 3d 20 a1 05 bd e3 07 4c bd be 92 2c 3c
       0.093751796 -0.032624364 -0.04981221 0.010533033
000370 2b b4 ae bd 5c b1 ca bc ae dc a0 bd ec ef 41 bd
       -0.08530458 -0.024742775 -0.07854591 -0.047347948
000380 24 72 0a 3e ea 24 11 3d 24 74 8f bd f4 cd ba bc
       0.13520104 0.035435595 -0.07004574 -0.022803284
000390 c7 20 39 3c 13 83 b3 ba 09 14 b4 bb 0a fb 8a bd
       0.011299319 -0.0013695679 -0.0054955524 -0.06786163
0003a0 5a 94 bd bd 88 2a a8 bd 45 71 0f be c2 52 a1 bc
       -0.092568114 -0.08211237 -0.14008053 -0.019692782
0003b0 1d 25 99 3d 8f 47 a9 3d 65 68 a8 bd f2 3e e4 bc
       0.07477782 0.08265602 -0.08223037 -0.027862046
0003c0 8c a3 a9 bc 76 f8 1f bc 05 33 c3 3c c8 5c e4 bc
       -0.020707868 -0.009763828 0.023828039 -0.027876273
0003d0 01 98 01 be 3a d0 a1 bd 63 05 dc bd 20 29 85 bd
       -0.12655641 -0.07901044 -0.10743215 -0.065019846
0003e0 93 28 09 be c8 c7 bb 3c e4 2b 2b bc 7c 85 a3 bd
       -0.13394384 0.022922412 -0.010447476 -0.079844445
0003f0 dc 5d 4c bc 86 04 9e bd 71 d7 92 3d 24 12 e4 bc
       -0.01247355 -0.077157065 0.071699984 -0.027840681

bias f4 [4]
000000 f8 8a aa bd 9a cf f0 bd dc 08 87 be 12 cc 75 be
       -0.083272874 -0.11758347 -0.26373947 -0.24003628
