WeakLossVectorClassExample/Models/F11_model.pt (torch, 45735 bytes, 6 tensors)

weight f4 [100, 1]
000000 a0 3a 3a 3e 6b 50 87 be df aa 5a 3f b0 58 56 bf
       0.18186426 -0.26428542 0.8541698 -0.83729076
000010 26 1c 12 be 50 e7 57 bf 40 cf 1d bf 94 1b 0b bf
       -0.1426855 -0.8433733 -0.61644363 -0.54338956
000020 38 4f 36 bf da 9b e5 bc 10 7d 81 3e 99 67 0b bf
       -0.7121463 -0.028028417 0.25290728 -0.5445495
000030 2e a4 bf 3e ba c5 ac 3e 77 40 da be dc 03 00 bf
       0.37429947 0.33744603 -0.42627308 -0.5000589
000040 44 18 23 bf 38 47 3b bf e0 cf 24 3e a2 3b 8e 3e
       -0.637089 -0.73155546 0.16094923 0.2777987
000050 98 c2 2b be c0 f2 5d 3e 2d 22 d6 be 50 be d4 bd
       -0.1677345 0.21674633 -0.4182295 -0.10387862
000060 df 7f b0 3c f8 e3 41 3e 8a 1d 8a bc 4c af ab be
       0.021545349 0.1893462 -0.016859788 -0.33532178
000070 82 99 2f bf 62 2f f4 be 00 cd 2f 3d 7c 36 38 3f
       -0.6859361 -0.476924 0.042920113 0.71958137
000080 00 9c 9b 3b bd 20 ff be 20 8b 93 3d aa af 01 3f
       0.0047488213 -0.49829665 0.0720427 0.5065867
000090 ba 1c 49 3f ee 9a 4c 3f f4 50 d9 3e 20 a3 7e 3d
       0.7855946 0.79923904 0.42444575 0.062167287
0000a0 18 f4 4f be 60 33 6b 3e 14 a3 58 3e 6e d0 89 3e
       -0.20307958 0.22968817 0.2115596 0.26916832
0000b0 d9 d5 52 bf 40 47 d7 bc 36 9e 1f bf a3 e8 2c bf
       -0.82357556 -0.026279092 -0.62350786 -0.67542475
0000c0 70 67 07 3f 4f 96 6f bf ab 35 e1 3e 08 cc 02 3e
       0.5289221 -0.9358873 0.43986258 0.12773144
0000d0 08 bf d0 be 2a 11 81 3e 31 ee de 3e fd 4a 86 be
       -0.40770745 0.25208408 0.435411 -0.26229087
0000e0 0b e4 85 bf 90 f7 25 be aa 9d 77 bf 68 c8 f5 bd
       -1.0460218 -0.16207719 -0.9672495 -0.12001115
0000f0 10 4b 81 bf a8 6a 74 bf bc 90 2a 3f b7 70 4c 3f
       -1.0101032 -0.95475245 0.666271 0.7985949
000100 0c 87 00 3f fc 55 40 bf 60 d0 3f bd f0 b8 61 3d
       0.50206065 -0.751312 -0.04682958 0.05510801
000110 64 0c be 3e d3 71 44 be 81 30 09 3f 18 67 04 3f
       0.37118828 -0.19184045 0.53589636 0.5171981
000120 ac 6c 96 bd 0a 67 58 bf 52 a7 83 bf 5a 43 59 bf
       -0.07344946 -0.84532225 -1.0285437 -0.84868395
000130 08 68 22 be d0 03 02 3e 2f f4 cf 3e 00 bd d3 bb
       -0.15859997 0.12696767 0.40615985 -0.0064617395
000140 cb ba 33 3f 56 60 48 3f b5 f4 17 be 8c 1d c1 be
       0.702069 0.78271997 -0.14839442 -0.37717855
000150 f2 31 16 bf 20 9a 53 3d 9a 90 6f bf b4 a3 4d 3e
       -0.5866996 0.051660657 -0.9358002 0.20081979
000160 f0 bf 08 be 40 73 62 3f f8 f1 32 bf 60 55 a0 bd
       -0.13354468 0.8845711 -0.69900465 -0.07828784
000170 20 92 50 3e d0 68 23 bf d6 1f 70 bf 1d 82 20 bf
       0.20368242 -0.63831806 -0.9379858 -0.6269854
000180 9b 6d 1d be 30 b1 93 3d c0 3e b0 3d dc d2 a4 be
       -0.15373842 0.0721153 0.086057186 -0.32192123

bias f4 [100]
000000 8e 1f 56 bd 19 dc 49 3f 94 fb 1d 3f c9 5d 2c 3e
       -0.052276187 0.7885147 0.61712 0.16832651
000010 d0 48 fc 3c e2 af 5c 3f 16 e3 5e bf e1 82 59 3f
       0.030796438 0.86205876 -0.87065256 0.8496533
000020 bc bd 24 bf 5e 6b 54 be e1 1e 2a 3f 60 8e bb 3e
       -0.6435201 -0.20744082 0.6645337 0.3663206
000030 fe 5a 3f bf c0 31 4e 3f 1f 2e 4a 3f fa 01 10 bf
       -0.7474822 0.8054466 0.78976625 -0.56253016
000040 88 b7 01 3f 68 5b f0 3e 8c a8 3e bf 68 d5 ca be
       0.5067067 0.46944737 -0.7447593 -0.3961594
000050 00 5c 2c 3f 06 07 37 bf ac 94 8c 3e 50 f2 3d be
       0.6732788 -0.7149509 0.27457178 -0.18549466
000060 0c 78 5e 3f f8 26 46 bf 19 3a f6 3d 55 10 00 3f
       0.86901927 -0.7740321 0.120228 0.5002492
000070 b2 b0 08 3f 09 30 02 3f 04 c4 2d bf 9b 55 44 bf
       0.53394616 0.50854546 -0.6787722 -0.76693124
000080 dc 76 a1 be 07 fc 80 3e 84 d8 24 bf 05 b2 47 3f
       -0.31535995 0.25192282 -0.64392877 0.7800601
000090 80 22 e2 3e ac 71 3b bf ee 42 a9 be 28 79 36 bf
       0.44166946 -0.73220325 -0.33058876 -0.7127862
0000a0 ec 38 d7 be dc 88 65 bf d8 d9 88 3e 65 17 a0 bd
       -0.42035615 -0.89661956 0.26728702 -0.07816962
0000b0 d4 01 58 3f 54 0f bf be 01 2f 9e 3c 0d 00 4a 3f
       0.8437779 -0.37316382 0.019309523 0.7890633
0000c0 96 86 2f bf c3 dc 04 3f 49 eb d4 bc b8 66 6b bf
       -0.68564737 0.51899356 -0.025991099 -0.9195361
0000d0 cc 0a 24 bf 30 f5 26 bf cd 41 ef 3e 72 c3 5e 3f
       -0.64078975 -0.65217876 0.4672989 0.87016976
0000e0 a4 ba eb 3e cc 32 9e be 01 3c 1f 3f 5c 4b 53 3f
       0.46040833 -0.3089813 0.62200934 0.82536864
0000f0 35 48 ea 3e 06 96 06 bf e6 ba 5d 3e 5a f8 2d bf
       0.45758215 -0.5257267 0.21653327 -0.6795708
000100 3c 82 c7 3d 90 62 14 bf c4 12 c3 be fd 7a eb 3e
       0.09741637 -0.57962894 -0.38100255 0.4599227
000110 11 43 85 3c 4c 13 cf 3e 8a 99 ec bd 85 bf 51 bf
       0.016267331 0.4044441 -0.11552723 -0.8193286
000120 95 39 cb 3e 89 9d 82 3e 8f 3b 3f 3f c0 22 3d be
       0.3969237 0.25510815 0.74700254 -0.18470287
000130 b8 0d 2e be e2 86 44 bf 28 70 1f bf e0 7f 37 bd
       -0.16997421 -0.76768315 -0.6228051 -0.044799685
000140 5c d3 02 3f 7e bd 88 be 37 a4 b1 3e 0c cc d2 be
       0.5110376 -0.2670707 0.34695598 -0.411713
000150 76 c9 27 bf 66 a0 3c bf 26 6a 5d 3f 44 2f ad bd
       -0.6554178 -0.7368225 0.86490095 -0.08456281
000160 a4 69 5a 3f 58 15 78 bf 1b cb 54 3f c4 7a bd be
       0.85317445 -0.9690757 0.83122414 -0.37007725
000170 b8 1a 65 bf 52 6a 04 3d de 36 33 bf 72 a5 41 bc
       -0.89493895 0.032327957 -0.70005596 -0.01181923
000180 05 96 8e 3e aa a7 0e bf 0e 3e 27 bf ba 62 56 bf
       0.2784883 -0.55724585 -0.6532906 -0.83744395

weight f4 [100, 100]
000000 ca e0 01 3d a7 18 44 bd e3 2a 4d bd 42 46 48 3d
       0.031708516 -0.047875073 -0.050089728 0.048895128
000010 21 94 b7 3d e0 d6 7f bd 16 86 31 3d a0 6b b6 3b
       0.089638 -0.06246078 0.043340765 0.005567029
000020 50 bf 5f bc 9b 67 8b 3d aa 0e bb bd e8 4a b4 bd
       -0.013656452 0.068068705 -0.09133656 -0.0880335
000030 33 11 94 bd 80 32 6b ba 30 30 9c 3b cf 62 8b 3d
       -0.07229843 -0.00089720637 0.0047664866 0.068059556
000040 44 6f f2 3c e0 a5 c9 bd 59 e0 c0 3d 76 c6 4c 3d
       0.029594071 -0.09846091 0.09417791 0.049993955
000050 80 bf 30 3c 0e 92 5d 3d 62 ae 19 3d 0a 4b 40 bd
       0.010787845 0.054094367 0.03751982 -0.046946563
000060 b9 69 97 3d 4e a1 72 3d 6d 75 b5 bd c0 8c 87 3a
       0.07393212 0.059235863 -0.08860288 0.0010341629
000070 7a b7 7c bd e9 26 b3 3d 5d 57 a4 3d ee e1 8c bd
       -0.061698414 0.08747656 0.08024476 -0.0687903
000080 68 f9 23 bc cd 74 58 bd 0c c7 a6 3c 25 21 a0 bd
       -0.010008194 -0.052845765 0.020358585 -0.07818822
000090 32 5b 5a 3d 58 32 50 3c 68 f4 54 bc 30 30 d7 3b
       0.053309627 0.012707315 -0.012997724 0.0065670237
0000a0 c0 87 63 bb b4 08 00 bd 14 9d b4 3c b0 68 8e 3b
       -0.0034718364 -0.0312583 0.022047557 0.004345976
0000b0 77 03 3e bd 18 4d af 3c 23 a3 c1 3d 98 94 9b bd
       -0.046390023 0.021399066 0.09454944 -0.075967014
0000c0 5e 2e 44 3d 00 8d a6 bd da 3b 3b bd 20 cd c6 bd
       0.04789578 -0.08132362 -0.045711376 -0.09707093
0000d0 8e c4 5a 3d 3e bb 5d 3d b2 b1 3e 3d d0 ab a5 bd
       0.053410105 0.054133646 0.046556182 -0.08089411
0000e0 9a 10 54 bd 42 37 26 3d 38 53 a4 bc b0 c5 cc bd
       -0.051773645 0.04058004 -0.020059213 -0.099986434
0000f0 27 36 c8 bd f0 db 62 bc 4e bf 88 bd 1c 68 0a bd
       -0.09775954 -0.0138463825 -0.066771135 -0.033790693
000100 97 8c 2d bd db a6 a5 bd 00 78 27 3c e6 c7 08 3d
       -0.042370405 -0.08088466 0.010221481 0.033393763
000110 02 92 50 3d 10 fc 65 bc 00 f1 7f 3a b5 43 a6 3d
       0.050920494 -0.014037147 0.000976339 0.08118383
000120 f8 fb 92 bd e4 7c 87 bd 10 29 5b 3c 72 d1 a2 bd
       -0.071769655 -0.06615618 0.013376489 -0.07950105
000130 7a c9 40 bd ee 39 66 3d 22 43 42 3d 20 a0 b5 bd
       -0.047067143 0.05620759 0.047427304 -0.08868432
000140 1a f9 66 bd 80 80 ad 3b 88 7e bd bc 0d 81 9d 3d
       -0.056389906 0.0052948594 -0.023131624 0.0769063
000150 02 54 37 3d b1 25 9c 3d b4 d1 93 3c c0 66 10 bc
       0.04475785 0.076243766 0.01804433 -0.00881356
000160 ec 7f b7 bc ca af 61 bd 30 b7 8d 3b c0 18 76 3c
       -0.022399865 -0.055099286 0.004324816 0.015020549
000170 9b cc 8b 3d 68 a1 f7 bc de 83 85 bd 92 ae 07 3d
       0.06826135 -0.030228332 -0.06519292 0.033125468
000180 40 d0 71 3c 80 83 f8 ba e2 31 8e bd 41 6a be 3d
       0.014759123 -0.0018960088 -0.06943108 0.0929761
000190 ab 93 8b bd 67 24 10 bd b5 14 5f bd 73 c7 b2 bd
       -0.06815275 -0.035190966 -0.054463107 -0.08729448
0001a0 26 69 97 bb 4a 75 a4 3c 30 f0 9e bb 93 3a e9 3c
       -0.004620689 0.020075459 -0.00485041 0.028470313
0001b0 c6 b9 73 3d b2 24 d8 bd a5 6e ca ba 1b b0 10 3d
       0.05950334 -0.10553874 -0.0015444352 0.035324197
0001c0 23 84 1f bd 38 f8 02 bc 62 3f e9 bd 90 8a 73 3c
       -0.038944375 -0.00799375 -0.113890424 0.014864579
0001d0 c8 bd b1 bc 2f b9 32 3d 20 19 8f bd b7 c0 cc bc
       -0.02169694 0.043633636 -0.06987214 -0.024994237
0001e0 2b f2 f3 bd f5 0f 9f 3d 6e 36 21 bc fa b1 27 bd
       -0.11911424 0.077667154 -0.009839637 -0.040941216
0001f0 27 78 12 bc 5b 5f 87 3d e9 df b0 bc 58 80 9c bd
       -0.008939779 0.066099845 -0.021591144 -0.07641667
000200 1d 33 af ba bc d1 c8 bd 8f 51 88 3d de 49 01 be
       -0.0013366673 -0.09805629 0.06656181 -0.12625834
000210 5d dd 9c 3d 4f db 98 bd aa c1 a4 bd c3 f7 a3 bd
       0.07659409 -0.07463705 -0.08044751 -0.08006241
000220 2f 13 b0 bd 6f 89 95 bd da 84 ec bd cc f7 d8 3c
       -0.08597409 -0.07301604 -0.11548777 0.026485346
000230 ee e5 2e 3d b0 60 da 3b 2e b1 a7 3c 8c cf 24 bc
       0.042699747 0.006664358 0.020470228 -0.010059249
000240 2a a1 87 bd d1 26 9c 3d 74 31 a3 3b 20 e5 0d be
       -0.066225365 0.07624591 0.0049802605 -0.13856936
000250 fc 4d 88 3a 17 73 55 3c e6 3d f8 bd 67 9d bb 3d
       0.0010399218 0.013027928 -0.12121181 0.091608815
000260 40 04 28 3b 84 a5 f0 3a 1a 25 f3 bd 74 90 19 3d
       0.0025637299 0.0018359874 -0.11872311 0.037491277
000270 c2 75 96 bd a0 b5 a9 bb ce 9b 21 bd 99 99 13 be
       -0.07346679 -0.005179122 -0.039455228 -0.14414062
000280 4a 49 28 bd c3 33 bb bd ed 44 3b bd 61 3c ef bd
       -0.04108552 -0.09140732 -0.04572003 -0.11681438
000290 1d 19 12 be 28 70 97 bc 19 04 a8 3d 26 b6 35 3b
       -0.14267392 -0.018486097 0.082039066 0.0027726977
0002a0 28 82 76 3c db 56 35 3d 12 1f 1c 3d 3a dd 10 be
       0.01504568 0.044272285 0.03811557 -0.14146891
0002b0 a8 be 88 3c 1e ad a8 bd 0b 8d 12 be f2 5f 61 3d
       0.016692474 -0.082361445 -0.14311616 0.05502314
0002c0 ab ea c5 3d 9d 10 4a bd 09 b4 f5 bd a7 10 72 bd
       0.096639 -0.04933225 -0.119972296 -0.059097912
0002d0 f5 6a fe 3a 75 fc 1e bc 71 03 02 3d 16 0c 0b 3d
       0.0019410538 -0.009703745 0.031741563 0.033947073
0002e0 ac 4b a1 bc b9 18 ad 3d f7 42 81 bd 2d d2 8c bb
       -0.019689403 0.08451981 -0.06311601 -0.004297516
0002f0 07 17 97 bc 79 e2 98 bd 39 46 a1 bd 60 dd d6 bb
       -0.018443597 -0.07465071 -0.07874722 -0.0065571517
000300 d0 51 07 bc 37 6f 3c bd 80 88 cc bc e6 43 fa bd
       -0.008259252 -0.0460045 -0.024967432 -0.12219982
000310 0e 71 03 be e7 14 bc 3d 32 df 13 3d 43 82 ab bd
       -0.12836096 0.09183674 0.036101528 -0.08374455
000320 d9 f4 d6 bd cd 5f 86 bd 39 22 b2 bd 61 ac 8f 3b
       -0.1049592 -0.06561241 -0.08697934 0.004384563
000330 d7 45 9e bd 47 c0 1d 3d 93 b8 9a bd 30 0b 59 3c
       -0.07728165 0.038513448 -0.07554736 0.013247296
000340 c7 1f c8 3d 2b 64 9c bd 26 58 d6 bc de 0e 01 3d
       0.09771686 -0.07636293 -0.02616508 0.03150832
000350 63 5e 0b be 7a 36 95 bd 81 f4 cd 3b 5d d8 1b bd
       -0.13610224 -0.07285781 0.0062852507 -0.038048137
000360 07 20 17 bb 2c ec 7c bd 5d f4 ba bd 7c 93 63 bd
       -0.0023059861 -0.06174867 -0.0912864 -0.055560574
000370 63 ed 31 bd 95 37 8e 3d cd 95 d7 3d 3d 65 b8 bd
       -0.04343928 0.06944195 0.10526619 -0.09003685
000380 15 24 c6 3c 4d 2d a4 bd 1e 1a 62 bc d4 85 d7 bd
       0.024187127 -0.08016453 -0.013800172 -0.105235726
000390 ae 93 c3 3d 8e e0 da bd 2b a4 b7 bd fd 37 05 be
       0.09549652 -0.10687362 -0.089668594 -0.13009639
0003a0 42 88 3b 3d 5e 31 a1 3d e0 86 b6 bd cd 13 83 bd
       0.045784242 0.07870744 -0.08912444 -0.06400261
0003b0 ae be ae bd a4 93 e1 bd 4b be bd bd ed 01 96 3d
       -0.08532463 -0.11014488 -0.09264811 0.07324586
0003c0 84 d8 81 bd fb 1b 9f bd c6 44 69 bd 0d 8c b8 bd
       -0.06340125 -0.07769009 -0.056950353 -0.090110876
0003d0 55 1f 64 bc 8c 82 b7 3c 26 9a 5b bd 8f 92 c9 3d
       -0.013923486 0.022401117 -0.053613804 0.09842407
0003e0 bd ae 23 bd f5 c4 17 bc b0 cc 3d bd 18 84 07 3c
       -0.039961565 -0.009263267 -0.046337783 0.00827124
0003f0 00 b9 b5 3c af 45 b9 b8 5c 56 9a 3c 96 fe ea 3c
       0.022182941 -8.834467e-05 0.018840007 0.02868585

bias f4 [100]
000000 82 11 5e 3d a7 bc 12 be 03 06 9e 3c 85 b3 8b ba
       0.054215916 -0.14329778 0.019289976 -0.0010658359
000010 4e 73 0e bd 12 71 12 3d a6 eb 08 be 57 ec 6a bd
       -0.034777932 0.035752364 -0.13371143 -0.057354297
000020 27 16 47 bc 2a 8d 27 3d 50 c1 10 bd 8b fc b7 3c
       -0.012151278 0.04090611 -0.035340607 0.022459289
000030 4d fd 26 bd a7 b4 1d 3c 8b 22 f3 bd 89 20 5c bb
       -0.04076891 0.00962559 -0.11871823 -0.0033588728
000040 2c e9 d9 bc 06 08 2b 3d cb a2 f6 bd 16 65 89 bd
       -0.026600443 0.0417557 -0.12042769 -0.06708734
000050 52 75 87 bd 3f b1 ac bd fa 2f 59 bd 14 26 9d bd
       -0.06614174 -0.084322445 -0.05302427 -0.076732785
000060 30 a2 b3 bb d1 eb 94 bd 20 2b bf 3b 60 93 14 3b
       -0.0054819807 -0.07271541 0.0058339983 0.002267085
000070 d8 10 49 bd a8 bc 80 bd de ea 69 3d 80 4a 8e bb
       -0.04908833 -0.06285983 0.057108752 -0.004342377
000080 8a 95 5e bd c0 2c 5f bd e4 94 95 bd 53 6f bb bd
       -0.05434183 -0.054486036 -0.07303789 -0.09152093
000090 53 0c c2 bd 40 66 0d bc 90 69 6d bd 42 ec a8 bd
       -0.09475007 -0.008630335 -0.057962 -0.082481876
0000a0 28 9d 1f be 12 39 bd 3b 20 93 9b bd 0f 5b 01 3d
       -0.15587294 0.0057746256 -0.07596421 0.03158098
0000b0 8c 43 11 3d c5 54 4e 3d 05 cf 19 3d f5 da 95 bd
       0.03546481 0.05037381 0.037550945 -0.07317153
0000c0 75 33 c6 bd fe 99 d7 bd 78 73 2e 3d 98 8f 99 bd
       -0.096777834 -0.105274186 0.04259059 -0.074980915
0000d0 76 02 0b 3d 9c d6 63 3d 68 fc 87 3c 78 5c 12 be
       0.033937894 0.05562459 0.016599849 -0.14293087
0000e0 a0 05 0d be 6f 03 26 bd 28 3d a6 bd 7a f0 54 bd
       -0.13771677 -0.04053062 -0.081171334 -0.05198715
0000f0 41 04 8f bd 90 36 d9 bd 4a d3 c1 bd 12 46 47 3c
       -0.06983233 -0.1060611 -0.09464128 0.012162702
000100 61 a0 8d 3d c6 4d 2e 3d 22 37 ba bd de fe bb 39
       0.069153555 0.04255464 -0.09092547 0.0003585731
000110 4a 19 0f be fd f9 e3 bd 20 b7 92 bb e7 98 c8 bd
       -0.13974491 -0.11131666 -0.0044773966 -0.09794789
000120 c4 a7 2b be e6 a1 a4 bd 9c ec a2 3c 24 de 56 bd
       -0.16763216 -0.08038692 0.019888215 -0.052457944
000130 98 8e c0 3c e4 e9 30 3d 70 82 83 bd ea 3b f4 3c
       0.023505494 0.043191805 -0.06421363 0.029813726
000140 d7 37 33 bb b4 1c 19 be 92 79 92 bd 37 8b a4 bd
       -0.0027346516 -0.14952356 -0.07152094 -0.080343656
000150 e5 7e 9f bd cd 1f 96 bd e9 81 a0 3c 3d 8e 8a bd
       -0.07787875 -0.07330284 0.019593196 -0.06765411
000160 67 6c cc bd 4a 92 12 3d 56 96 00 be 9d ab 9e bd
       -0.099816136 0.035784043 -0.12557349 -0.077475764
000170 0b 2c fb bd 93 19 3a bd 2c 8c c2 3c 11 3d 1e be
       -0.1226426 -0.045434546 0.02374848 -0.15452982
000180 c0 13 33 bc 15 47 06 be bb 8f 66 3c 4d a3 22 bd
       -0.010930002 -0.13113053 0.014072354 -0.039706517

weight f4 [4, 100]
000000 8e a4 32 3d 26 2b 90 3d 20 d6 4f 3d 53 98 94 bc
       0.043613963 0.0703948 0.050741315 -0.01813904
000010 3c 73 f4 bd 92 86 1b 3d de d7 f2 3d c9 2e 30 bc
       -0.11936042 0.037970133 0.1185758 -0.010753342
000020 e8 a0 86 bc 7a b2 67 bd 89 05 ec 3d 13 24 e6 bc
       -0.016434148 -0.056566693 0.11524493 -0.028093373
000030 97 45 17 3d f7 aa 93 bc 0c 35 3f 3d b5 4d ee 3d
       0.0369316 -0.018025858 0.04668145 0.11635915
000040 56 21 44 3d 98 18 8d bc 2b 92 07 3d 77 d6 2f bb
       0.047883354 -0.017223641 0.03309838 -0.0026830712
000050 07 4b 9b 3d 5b f0 c4 bd 82 98 72 3d 4d 97 fb 3c
       0.0758267 -0.09616157 0.059227474 0.030711794
000060 20 7d ca bd 1c ae 9b 3c 50 5b 0c 3c 0a ba 19 3d
       -0.09887147 0.01900392 0.0085666925 0.037530936
000070 ea fa 63 3d 17 04 c5 bd 95 96 cf 3c 56 d6 40 3d
       0.055659212 -0.09619921 0.025340358 0.047079407
000080 11 ec e5 3d f1 be 9a 3d 03 72 78 bd b7 e0 69 bd
       0.11226667 0.075559504 -0.060655605 -0.05709907
000090 58 a0 4d bc a9 89 e6 bb 6c e5 16 bc ff 63 15 3d
       -0.012550436 -0.0070354533 -0.009209972 0.036472317
0000a0 53 ce c9 bd 87 80 ae bc 2a 4f 7d bc f4 04 f3 3c
       -0.09853806 -0.021301521 -0.015460769 0.029665448
0000b0 f3 c8 aa bc 02 d3 04 3b 48 1b 69 bd ac 1f ce bc
       -0.020847773 0.0020267372 -0.056910783 -0.025161587
0000c0 90 5b a8 3c 13 29 9f bd 7e b1 e0 3d d8 f4 1f 3d
       0.020551473 -0.07771506 0.10971354 0.03905186
0000d0 18 f5 66 bc c9 1d 1d 3d e7 c7 ca bd c5 7e ee bd
       -0.014096521 0.038358483 -0.099014096 -0.11645273
0000e0 19 6b 90 bc ee ce 06 bd 77 e0 96 3d 80 2f 9f ba
       -0.017629193 -0.032912187 0.07367032 -0.0012144893
0000f0 d3 1e ba 3d 87 a5 e2 3d cc 6a c0 bc 03 ad 5f 3b
       0.090879105 0.11066728 -0.023488425 0.0034130223
000100 ec ff 00 bd 8f 36 96 3d a0 d9 b3 bc 5a eb 85 bd
       -0.031494066 0.07334625 -0.021954358 -0.065390304
000110 18 df 0e be 1f 9c 88 3d 13 a2 84 3c d2 56 30 3d
       -0.13952291 0.06670403 0.016190564 0.04305155
000120 15 0c 16 3d 30 6e 0e 3d 69 8a 13 3a 01 15 fe bd
       0.036632616 0.03477305 0.00056282297 -0.1240635
000130 f4 23 ae bc 85 ee 23 3d ef b2 e7 3d 31 b8 1b bd
       -0.021257378 0.04002239 0.11313426 -0.038017455
000140 e9 2a 91 bb 50 d9 98 bd 1a 8d 6f bc 40 64 1d 3b
       -0.004430164 -0.07463324 -0.014621044 0.0024016052
000150 23 0d c2 3d da 3d af bd 12 ec d1 3d 71 3f aa 3d
       0.09475162 -0.08556719 0.10250105 0.08312882
000160 7b 07 82 3d ce 5e 10 bd 21 f5 a5 bd dd 01 8d bd
       0.06349083 -0.035246663 -0.08103395 -0.06885121
000170 d1 b9 c8 3b 77 85 f6 3d e2 f5 20 3d ac a6 a2 3d
       0.0061256667 0.12037175 0.039296992 0.079419464
000180 41 5d d9 bd 5f 43 86 bd ee 1a cb 3d b3 f8 6a bd
       -0.1061349 -0.06555819 0.09917246 -0.057366084
000190 f2 3e aa bd e2 3f dd bb 93 90 b6 3d 65 e7 8c bd
       -0.08312787 -0.006752 0.08914294 -0.068800725
0001a0 4a a2 82 bc 3b 8f a2 bb 44 80 ab 3d 5b 8a df bd
       -0.015946526 -0.004960922 0.08374074 -0.10915061
0001b0 52 34 f3 bd d2 b7 52 3d 50 a4 ec bb 83 35 29 3c
       -0.11875214 0.051444836 -0.007221736 0.0103277
0001c0 a8 cb 8c bd ea 25 39 3c 58 72 ac bc 95 1d 15 3d
       -0.06874782 0.011300543 -0.021050617 0.036405165
0001d0 c5 21 f0 bc 58 e8 9b bd 72 c7 34 3c a8 e6 32 39
       -0.029312978 -0.076126754 0.01103388 0.00017061329
0001e0 eb 3c c5 3d ce 01 fd 3c ca c8 07 bd 9a ac 2e bc
       0.0963076 0.03088465 -0.03315047 -0.010661269
0001f0 ad ce 80 3d 63 dc 12 bd 42 6b 23 3d 60 e2 c1 bc
       0.0628942 -0.03585471 0.03989721 -0.023667514
000200 5d 67 d9 3d 50 4b 78 bc 6c 3c fd 3b 40 41 04 bb
       0.10615418 -0.015154675 0.00772815 -0.0020180494
000210 af 2a 19 3e 60 17 6e 3b 89 18 49 bc e0 02 c8 bd
       0.14957689 0.003632985 -0.012273916 -0.09766173
000220 09 17 8f 3d 2f ab d8 3d 82 92 8c 3c 2f ca 01 3d
       0.069868155 0.10579526 0.017159704 0.031686958
000230 27 cd 20 be 87 ba 32 bc 20 50 09 bd e1 d3 fb 3d
       -0.1570326 -0.010908729 -0.03352368 0.12296272
000240 43 21 cd 3c 66 c9 8d bd d5 34 79 bd f9 4f bd 3d
       0.025040274 -0.06923179 -0.0608414 0.09243769
000250 c4 22 0b 3d 5b 9d 20 3d 65 61 9a 3c a8 4f 2d bd
       0.033968702 0.039212566 0.01884527 -0.042312294
000260 04 a2 de 3c 9c 22 0c 3e b4 fd 9c 3c 4c 0b 14 bd
       0.027176864 0.13685077 0.019163944 -0.036143586
000270 8f 72 65 bd 5e 0c da ba 4c 3f 85 3d 98 ef b9 bc
       -0.056017455 -0.0016635766 0.065062135 -0.022697255
000280 81 9b a5 3d 2f 3a f9 3c 40 9b 65 bc 65 39 82 bd
       0.08086301 0.030423252 -0.014014065 -0.063586034
000290 40 8d 8b 3a e0 45 ab 3b 3a 4c 45 3d de 1b 87 3d
       0.0010646954 0.0052268356 0.0481684 0.06597112
0002a0 7b ad 60 3c 8e c8 a2 bd 6a 73 ab bd 60 bb 5a bd
       0.013713236 -0.07948409 -0.08371623 -0.05340135
0002b0 b8 0a 0f be 80 68 08 bd 2e 85 d6 bd 99 e9 06 3d
       -0.13968933 -0.033302784 -0.10474621 0.03293762
0002c0 00 1a 51 3b a2 3d 66 3d d2 86 48 3d d3 95 2d 3c
       0.0031906366 0.05621112 0.0489567 0.010594803
0002d0 a0 52 0f bd 8e 42 e5 bd 90 1c c1 bb e0 a8 a6 3a
       -0.034990907 -0.11194335 -0.0058932975 0.0012715124
0002e0 fa 40 5a 3d e7 43 9d 3d 05 70 4c bb ac b9 9b bc
       0.053284623 0.07678967 -0.0031194699 -0.019009434
0002f0 76 70 17 bd 88 76 13 3d 8d e0 dc bd c3 aa 65 bd
       -0.036972485 0.036001712 -0.10785017 -0.056071054
000300 b5 ba 20 3d 60 b5 01 bd 3c 50 f9 bb 74 fa 32 3c
       0.039240558 -0.031667113 -0.0076084416 0.0109239705
000310 f7 c7 f7 bd b6 dc 48 3d 60 4e 08 3d 00 67 20 3a
       -0.12098687 0.04903861 0.03327787 0.0006118864
000320 bb 7b a6 3d 01 63 9d bd 69 50 0e 3d 84 05 cb 3d
       0.081290685 -0.07684899 0.034744654 0.099131614
000330 af 0a f9 bb 12 0c 13 3d b7 46 f4 3a be 94 21 bd
       -0.0076001505 0.035900183 0.0018636797 -0.039448492
000340 49 62 ad 3d a9 5b ab 3d de 58 ab bc 5d c4 d7 3d
       0.08466012 0.08367092 -0.020916399 0.105355
000350 8e 2a 0d 3b af 6c 09 3d c8 be a5 bd 21 4c 11 3c
       0.0021540257 0.033550914 -0.08093029 0.008868248
000360 50 ee f5 bd c7 0a 66 bd 7b 89 21 bd d9 11 d1 3c
       -0.12008345 -0.05616262 -0.039437752 0.025521206
000370 76 5d 4f bc 3a 95 ea bb 92 99 3a 3d 11 b5 0f 3d
       -0.01265656 -0.0071589025 0.045556612 0.035084788
000380 6e f2 7a 3d a1 f9 b0 bd 07 38 1b bd 8d ea 93 bd
       0.061266355 -0.08641363 -0.03789523 -0.072224714
000390 4b 11 24 bd 00 7d 30 bb aa e0 86 3c 1a 0d 13 3d
       -0.040055554 -0.0026929975 0.01646455 0.035901166
0003a0 d4 b8 7a 3c 77 ba bd bd ca 78 09 bd a1 8c c4 3d
       0.0153028555 -0.09264081 -0.03356246 0.09597135
0003b0 b9 79 b8 3d 18 40 5d bd 28 52 0d 3e 04 ae 80 3c
       0.09007592 -0.054016203 0.13800871 0.015707977
0003c0 bf 72 6b bc 17 3b bd bd df f3 d0 bc b5 0c 73 3c
       -0.014370619 -0.09239786 -0.025506912 0.014834573
0003d0 8e 93 9c bd 0c da b5 3c d2 2e b7 3a 26 51 61 3d
       -0.07645331 0.0221987 0.0013975746 0.05500903
0003e0 19 89 29 bd 10 c6 81 bc 8c 67 0d 3d db bd 03 3e
       -0.041390512 -0.015841514 0.034522578 0.12865393
0003f0 80 a6 8b bc 46 ae dc 3d 12 a2 63 3d 1d 7f 7c 3c
       -0.017047167 0.107754275 0.055574484 0.015411166

bias f4 [4]
000000 aa 76 a4 3a d4 9d c0 3a b1 4c 9a ba c7 56 b8 ba
       0.0012547572 0.0014695474 -0.0011772123 -0.0014063948
