WeakLossVectorClassExample/Models/F11_model.pt (torch, 45735 bytes, 6 tensors)

weight f4 [100, 1]
0	0x3db19727	0.08671408
1	0x3e1127a1	0.14175273
2	0x3f180ff5	0.5939935
3	0xbf2483ac	-0.64263415
4	0x3d126560	0.03574121
5	0xbe2aa0f3	-0.1666296
6	0xbf8f9bda	-1.1219437
7	0x3ed8efb8	0.4237039
8	0xbd4f8151	-0.050660435
9	0xbf4708dd	-0.777479
10	0x3e35dc81	0.17759897
11	0xbf0d98ee	-0.5531148
12	0xbf19908c	-0.59986186
13	0xbec3f598	-0.3827331
14	0xbf1e0902	-0.61732495
15	0xbf0081f2	-0.5019828
16	0x3eef381e	0.46722502
17	0xbf5f4afa	-0.8722378
18	0xbf76f418	-0.9646621
19	0x3e0c66ec	0.13711137
20	0xbf0dd9fe	-0.55410755
21	0xbe805d33	-0.25071105
22	0xbf13b7d2	-0.5770236
23	0xbf51f3aa	-0.82012427
24	0x3f3f12f2	0.74638283
25	0x3e1fb4da	0.15596333
26	0xbe49f037	-0.19720541
27	0xbf60c75a	-0.87804186
28	0xbeda5d40	-0.4264927
29	0x3eb0ab5e	0.34505743
30	0xbeca0af8	-0.39461493
31	0xbf24b1ad	-0.6433361
32	0x3e00158a	0.12508217
33	0xbef810b4	-0.48450243
34	0x3f277fe3	0.65429515
35	0xbf023f85	-0.50878173
36	0xbda64550	-0.08118689
37	0xbd501320	-0.05079949
38	0x3f4ff6a7	0.81235737
39	0xbee26ef7	-0.44225284
40	0xbf8a6ed3	-1.0815071
41	0x3ce95762	0.02848405
42	0xbece53f4	-0.40298426
43	0xbef08dd7	-0.46983215
44	0xbf51d6ea	-0.8196856
45	0x3e19879b	0.14993136
46	0xbf475128	-0.7785821
47	0x3ef88551	0.48539212
48	0xbcef2100	-0.02919054
49	0xbec050cf	-0.37561652
50	0x3ed538ff	0.41645047
51	0x3eec751d	0.461831
52	0x3f44bde6	0.7685226
53	0x3eba055a	0.36332208
54	0xbf5a5ae2	-0.85294926
55	0xbf10b885	-0.56531554
56	0xbf47b66b	-0.7801272
57	0x3e82f53e	0.2557773
58	0xbf350ec9	-0.70725685
59	0xbf35330c	-0.70781016
60	0x3e675702	0.22591785
61	0xbe27644e	-0.16346857
62	0x3f0d9fef	0.55322164
63	0x3e3673cd	0.17817612
64	0x3e944a46	0.28962916
65	0x3f0226d7	0.50840515
66	0xbf4f1f05	-0.8090671
67	0xbf370ba6	-0.7150215
68	0xbe3efdf0	-0.18651557
69	0xbf19dcde	-0.6010264
70	0xbf248cec	-0.6427753
71	0x3e61a139	0.22034158
72	0x3c710d97	0.014712713
73	0x3ee82e8e	0.45348018
74	0xbec2d9d0	-0.38056803
75	0xbe5f7988	-0.21823704
76	0x3e725af9	0.23667516
77	0x3f014f7f	0.50511926
78	0xbf4e7d87	-0.8066029
79	0x3f51ede2	0.82003605
80	0xbf6be266	-0.9214233
81	0xbf04ea0c	-0.5191963
82	0xbf6eae16	-0.93234384
83	0xbeb01834	-0.34393466
84	0x3f2e877f	0.681755
85	0x3f548bfc	0.830261
86	0xbf6c44c6	-0.9229244
87	0x3e62e27d	0.22156711
88	0xbe170472	-0.1474779
89	0xbf1b47c2	-0.6065637
90	0x3eaf46af	0.34233615
91	0x3f568a5c	0.8380487
92	0xbf01fee4	-0.5077956
93	0x3e1369b8	0.14395797
94	0x3e9fa115	0.31177583
95	0x3e3cdb36	0.18442997
96	0x3ee2b1ff	0.44276425
97	0xbe181f68	-0.1485573
98	0x3d50dfb1	0.05099458
99	0xbdd680ba	-0.104737714

bias f4 [100]
0	0x3f2733b3	0.6531326
1	0xbf1befb1	-0.60912615
2	0xbdba9478	-0.091103494
3	0x3ee0ad6a	0.43882304
4	0xbe1b8658	-0.15187967
5	0x3efa3b15	0.488732
6	0x3f0ef638	0.5584445
7	0xbe4282f3	-0.18995266
8	0x3f27fda2	0.6562139
9	0x3eae3216	0.34022588
10	0xbe47ed10	-0.19524026
11	0x3eadc11b	0.3393639
12	0x3f0a7639	0.54086643
13	0x3f4498ee	0.7679585
14	0xbf556598	-0.83358145
15	0xbf3bbbf2	-0.73333657
16	0x3f57bb1e	0.84269893
17	0xbe4eb5f0	-0.20186591
18	0xbec03220	-0.37538242
19	0x3e8d9939	0.27655962
20	0xbd9c9e80	-0.07647419
21	0x3f6f6e44	0.93527627
22	0xbf00f318	-0.5037093
23	0x3f1c1203	0.60964984
24	0xbeda774d	-0.42669144
25	0xbd468041	-0.048462156
26	0x3e45a601	0.19301607
27	0x3e1a7e7f	0.15087317
28	0xbeb66854	-0.3562647
29	0xbeb61403	-0.35562143
30	0xbd854710	-0.06507695
31	0xbd28fcb4	-0.04125662
32	0x3ecb57df	0.39715478
33	0xbe979930	-0.2960906
34	0x3f13beb9	0.57712895
35	0x3ee3e392	0.4450956
36	0xbe705c68	-0.2347275
37	0xbefbc070	-0.49170256
38	0xbe28696f	-0.1644647
39	0x3ed67e20	0.418931
40	0x3eb3e3b8	0.35134673
41	0x3f080ccc	0.53144526
42	0xbf6b81de	-0.91995037
43	0x3f54cdbf	0.83126444
44	0xbf4b2d32	-0.7936584
45	0x3f458fa3	0.771723
46	0x3e9eecea	0.31040126
47	0xbf42ab2f	-0.76042455
48	0xbe1b92b8	-0.15192688
49	0xbbb348de	-0.005471333
50	0x3ec747d4	0.38921988
51	0xbdeaa644	-0.11457494
52	0x3e199bef	0.1500089
53	0x3f0f7a71	0.56046206
54	0xbf702a40	-0.9381447
55	0x3f1be5ee	0.6089772
56	0x3e3488df	0.17630337
57	0xbf8bd48e	-1.0924242
58	0xbc805ea7	-0.015670134
59	0xbe30da70	-0.17270827
60	0x3ef70924	0.4824916
61	0x3f0a6b1d	0.5406969
62	0xbc9164ae	-0.017748203
63	0x3f408234	0.75198674
64	0xbf72c496	-0.94831216
65	0xbecab878	-0.39593863
66	0x3f1b894f	0.6075639
67	0xbf299ede	-0.6625804
68	0x3f289d55	0.6586507
69	0xbd19b820	-0.03752911
70	0x3ebcd080	0.36877823
71	0xbdbaaa40	-0.09114504
72	0x3e8626d6	0.26201504
73	0x3e59d317	0.2127193
74	0xbf4137ec	-0.75475955
75	0x3f43a581	0.76424414
76	0xbf1dc3a6	-0.6162666
77	0x3e24180e	0.16024801
78	0x3ec433be	0.38320726
79	0xbf3a76e0	-0.7283764
80	0x3eabb07a	0.33533078
81	0xbd875760	-0.06608462
82	0xbef91b58	-0.48653674
83	0xbf0be72a	-0.54649603
84	0xbf54e597	-0.83162826
85	0xbf6d14de	-0.92609966
86	0xbf6bd3bc	-0.92119956
87	0xbeb463d6	-0.3523242
88	0x3d7d9c2d	0.06191652
89	0xbf33fc3e	-0.70306766
90	0xbf399988	-0.72499895
91	0xbf2cdd2c	-0.6752498
92	0x3f444f19	0.76683193
93	0x3ebba782	0.36651236
94	0x3f05ed0a	0.5231482
95	0x3de9d907	0.11418348
96	0xbe8fbf7f	-0.28075787
97	0x3eb8cdac	0.36094415
98	0x3eea33a2	0.45742518
99	0x3f418cf2	0.7560569

weight f4 [100, 100]
0	0xbd7ad50b	-0.06123833
1	0x3bb71951	0.0055877347
2	0xbe0ee39e	-0.13954017
3	0xbdf11954	-0.11772409
4	0xbd09a464	-0.03360404
5	0xbd39fca3	-0.04540695
6	0xbdbbef21	-0.091764696
7	0xbdf75cd4	-0.120782524
8	0xbcf34e84	-0.029700525
9	0xbdec7122	-0.11545016
10	0xbc622a72	-0.013804065
11	0xbcd58bd9	-0.026067661
12	0x3bb85899	0.005625796
13	0xbe09e176	-0.13464913
14	0x3d734dd2	0.059400387
15	0x3d895609	0.06705863
16	0x3bcdfcd6	0.006286244
17	0x3cf512c4	0.029916175
18	0xbdb2f235	-0.087376036
19	0x3cdbf4df	0.026850162
20	0xbb1540a0	-0.0022774115
21	0xbe08ddda	-0.1336588
22	0xbbfb4730	-0.0076683983
23	0xbd4c82a1	-0.049929265
24	0xbb16c835	-0.0023007516
25	0x3d018d83	0.031629097
26	0xbd503113	-0.05082805
27	0xbdfcade2	-0.12337853
28	0x3dae7fab	0.085204445
29	0xbd44d9b2	-0.048059173
30	0xbcde41d4	-0.027130999
31	0xbe0991c7	-0.13434516
32	0xbc10abab	-0.008829991
33	0x3dafbad9	0.0858056
34	0x3d07c75e	0.033149116
35	0x3ca0b0ea	0.01961561
36	0x3d62a482	0.055332668
37	0xbce9c18c	-0.028534673
38	0xbd5b836d	-0.053592134
39	0xbdb29e0c	-0.08721551
40	0xbc8fd817	-0.017559094
41	0xbbdbf6a4	-0.0067127515
42	0xb8315800	-4.2282045e-05
43	0xbd827762	-0.06370427
44	0xbda57ebe	-0.08080815
45	0x3ca50b36	0.020146947
46	0xbdee7504	-0.11643413
47	0xbd3b7168	-0.04576245
48	0xbc5fd428	-0.013661422
49	0x3c237ce3	0.009978506
50	0xbdab8493	-0.08374896
51	0xbdf97d0d	-0.12182055
52	0x3bfb2c64	0.007665204
53	0xbd3bc7d4	-0.045844868
54	0x3ce315a4	0.02772028
55	0xbda8a978	-0.082354486
56	0xbe235cfd	-0.15953441
57	0x3d4aac88	0.049480945
58	0xbc7bea8c	-0.015375745
59	0xbc9dc52c	-0.019259058
60	0xbd8b72c1	-0.06808997
61	0xbe2e4e27	-0.17022
62	0x3d0d82c6	0.034548543
63	0xbe08a2fa	-0.1334342
64	0x3c3c2a3e	0.011484681
65	0xbe01b260	-0.12665701
66	0xbe14445c	-0.14479202
67	0x3dc40a2d	0.095722534
68	0xbdff7b27	-0.12474661
69	0xbd298a9a	-0.041391946
70	0xbdd69fad	-0.104796745
71	0xbdd3d100	-0.10342598
72	0xbe0f3f75	-0.1398905
73	0x3d2a11ca	0.04152087
74	0x3d48f2ee	0.0490598
75	0x3cf9afa6	0.030479264
76	0xbca5010a	-0.020142097
77	0x3c9f12db	0.01941817
78	0xbe303f84	-0.1721173
79	0x3c9cd462	0.01914424
80	0xbdd390bc	-0.1033034
81	0x3d2b8c26	0.041881703
82	0x3cf4eb04	0.02989722
83	0x3d509682	0.050924785
84	0x3c547814	0.012968082
85	0xbd8987b6	-0.06715338
86	0xbd8e731b	-0.069555484
87	0x3b091142	0.0020914827
88	0xbd2a2a13	-0.04154403
89	0x3dc2d08f	0.09512436
90	0xbd851d9a	-0.06499787
91	0xbd2c9976	-0.04213854
92	0xbe16f5b8	-0.14742172
93	0xbdcc1839	-0.099655576
94	0xbd150dbd	-0.036390055
95	0xbc2de7bf	-0.010614335
96	0xbd5635b2	-0.0522973
97	0xbc33c4a9	-0.01097218
98	0xbdd68294	-0.104741246
99	0xbc2d538f	-0.010579004
100	0x3c6af46c	0.014340501
101	0xbe17e1c4	-0.14832217
102	0xbe0131d4	-0.12616664
103	0xbd9b7af7	-0.07591813
104	0x3cf7df64	0.030257888
105	0x3d5ba056	0.053619705
106	0x3cfff240	0.031243443
107	0xbbb422bd	-0.005497305
108	0x3d0eb09d	0.0348364
109	0x3cc43a8b	0.023953697
110	0xbd2062b4	-0.03915663
111	0x3d4b8da9	0.049695645
112	0x3cb8eddd	0.02257436
113	0x3cebaa22	0.02876765
114	0xbd5786d7	-0.052618828
115	0xbdc4dce5	-0.09612445
116	0xbd8760ae	-0.06610237
117	0x3c444b00	0.011980772
118	0xbd50cbb0	-0.0509755
119	0xbb414e82	-0.0029496257
120	0xbd80bca2	-0.06285979
121	0x3d48c278	0.049013585
122	0xbd5c27a3	-0.053748738
123	0xbd61e816	-0.055152975
124	0xbd9b44f2	-0.0758151
125	0x3cb825f3	0.022479033
126	0xbd472eee	-0.04862874
127	0xbc2ae1f9	-0.010429853
128	0x3d179aca	0.037012853
129	0xbd7e7161	-0.062119845
130	0x3c20b3a8	0.009808458
131	0xbd32cced	-0.043652464
132	0xbe1aadfa	-0.1510543
133	0x3d6024d2	0.054722615
134	0x3c948195	0.018128196
135	0x3d66881f	0.05628216
136	0xbc5510b0	-0.013004467
137	0x3d3524da	0.044224598
138	0xbd8e931e	-0.06961654
139	0xbd4dbc09	-0.050228152
140	0x3c539b9d	0.012915519
141	0x3d21bc69	0.039486323
142	0xbd34de3d	-0.044157255
143	0xbd08acfa	-0.03336809
144	0xbd09f8cc	-0.033684537
145	0xbd0c0e4f	-0.034193333
146	0xbd605ee4	-0.054777995
147	0x3bcea880	0.006306708
148	0x3d28e76a	0.04123632
149	0xbb27c9b6	-0.0025602407
150	0x3d15e458	0.03659472
151	0xbddb0044	-0.1069341
152	0xbd4527c3	-0.048133623
153	0x3d0cacb5	0.034344394
154	0xbdcc1e55	-0.09966723
155	0xbc76bd96	-0.015059849
156	0x3d1863b8	0.037204474
157	0xbc8c620d	-0.017136598
158	0x3d258801	0.040412907
159	0x3db75c4f	0.08953153
160	0xbe09cac0	-0.13456249
161	0xbdb8b21e	-0.09018348
162	0xbd901a62	-0.07036282
163	0x3ca9045b	0.02063196
164	0xbc133933	-0.008985805
165	0xbdb17133	-0.08664169
166	0x3d0eae41	0.03483415
167	0xbdc9013b	-0.09814688
168	0xbdf6b95b	-0.120470725
169	0x3d94ce23	0.0726588
170	0xbc245816	-0.010030767
171	0xbdae13c8	-0.08499867
172	0xbc33fd8a	-0.010985741
173	0x3c6961d7	0.014244518
174	0x3d81c4d7	0.06336372
175	0xbd90f3e4	-0.070777684
176	0xbdf7743f	-0.12082719
177	0xbde98962	-0.11403157
178	0x3d802b66	0.062582776
179	0x3d10f8d8	0.035393566
180	0xbba6e266	-0.0050929068
181	0xbdbf5bd3	-0.09343686
182	0xbcd57bc0	-0.026059985
183	0x3c812580	0.015764952
184	0xbd630d9e	-0.05543291
185	0x3cdfbb4b	0.027310988
186	0x3da1d509	0.07901961
187	0xbdcac2d8	-0.09900445
188	0xbdb38240	-0.087650776
189	0xbdb0a5a0	-0.086253405
190	0xbe1a552b	-0.15071552
191	0xbb897ddc	-0.004195912
192	0x3c40a82f	0.011758848
193	0xbdf1e411	-0.11811078
194	0xbe11454a	-0.14186588
195	0x3cf19bac	0.029493175
196	0xbcf3f403	-0.02977944
197	0xbd9a48f1	-0.07533444
198	0xbcda6429	-0.026659088
199	0x3d15d84b	0.036583226
200	0xbd851aee	-0.06499277
201	0xbe0531ab	-0.13007228
202	0xbe173b18	-0.14768636
203	0xbd957611	-0.0729791
204	0xbdcbaef5	-0.0994548
205	0xbbc6348b	-0.006048744
206	0xbd01d452	-0.031696625
207	0xbdd8993d	-0.10576103
208	0xbcd20489	-0.025636928
209	0xbd1b0642	-0.037847765
210	0xbcd87a0a	-0.02642538
211	0x3d00149f	0.031269666
212	0xbd8a6e01	-0.06759263
213	0xbd2f560e	-0.042806678
214	0xbd3c86f3	-0.046027135
215	0x3d497db6	0.049192153
216	0xbdcc188d	-0.0996562
217	0x3cf29dec	0.029616319
218	0xbc207098	-0.009792469
219	0xbe13dd7a	-0.14439955
220	0xbd795b07	-0.060877826
221	0xbd243063	-0.040085208
222	0x3d1fdde2	0.039029963
223	0xbdca1a7f	-0.09868335
224	0xbdadc0ea	-0.08484061
225	0xbdca4096	-0.098756
226	0xbe1c35be	-0.15254876
227	0xbc8529c1	-0.016255261
228	0x3dbedc33	0.093193434
229	0xbdf2d3eb	-0.118568264
230	0x3a52e300	0.000804469
231	0xbe1ac3e7	-0.15113793
232	0xbdc20046	-0.094727084
233	0x3c6f2ef0	0.014598593
234	0xbd266eac	-0.04063289
235	0xbd9d0534	-0.07667008
236	0x3d2e7ad6	0.042597614
237	0x3d758556	0.059941612
238	0x3bae2be9	0.005315293
239	0xbe1b60c0	-0.15173626
240	0xbdae7d65	-0.08520011
241	0xbdf815ca	-0.12113531
242	0x3d6d57b6	0.057944976
243	0xbd1d0adc	-0.038340434
244	0xbd3780fa	-0.044800736
245	0xbdacf0ff	-0.08444404
246	0xbd88f7df	-0.06687903
247	0x3cf38766	0.029727649
248	0x3dc7494d	0.09730778
249	0xbd770ffe	-0.060317986
250	0xbd53f638	-0.051748484
251	0xbe132ca7	-0.14372502
252	0xbdd0cf16	-0.101957485
253	0xbdfac220	-0.12244058
254	0x3c7d5cf0	0.015464053
255	0xbd5a142b	-0.05324189

bias f4 [100]
0	0xbe0acfe0	-0.1355586
1	0xbd86c8d5	-0.065812744
2	0xbda8bf76	-0.08239643
3	0xbca77953	-0.020443594
4	0x3c97c3ca	0.018525977
5	0x3ac76140	0.0015211478
6	0xbdb7d9ea	-0.08977111
7	0xbd4f48f3	-0.05060668
8	0xbdc894ad	-0.09793983
9	0x3c94bea0	0.018157303
10	0xbca59acc	-0.020215414
11	0xbcf8f5d6	-0.030390661
12	0xbdc18a97	-0.09450262
13	0xbd91f17f	-0.0712614
14	0x3cb6f6c0	0.022334456
15	0x3d4840aa	0.048889793
16	0xba06ba31	-0.0005139439
17	0xbd0a1044	-0.03370692
18	0x3c70942f	0.014683767
19	0x3d8653cd	0.065589525
20	0xbd854581	-0.065073974
21	0xbd8ae36c	-0.067816585
22	0xbd599b12	-0.053126402
23	0xbdcb8e9f	-0.09939312
24	0xbe135740	-0.14388752
25	0xbb71fca3	-0.0036924265
26	0xbdb52f94	-0.088469654
27	0xbdf689bd	-0.1203799
28	0xbb6b092f	-0.0035863628
29	0xbd284731	-0.04108352
30	0x3c6510d1	0.01398106
31	0xbc7f92a4	-0.015598927
32	0xbe0cfd3c	-0.13768476
33	0x3d04edc1	0.032453302
34	0xbd98d4a5	-0.07462434
35	0x3cae9144	0.021309502
36	0xbe07b38a	-0.13252082
37	0x3c5ff237	0.013668588
38	0xbdb3a495	-0.08771626
39	0xbc339d63	-0.010962817
40	0xbdcb1d2f	-0.09917676
41	0xbdbbaf7f	-0.091643326
42	0xbda3d6c7	-0.0799995
43	0xbd659764	-0.05605258
44	0x3ce11cca	0.027479548
45	0x3d88bbe9	0.06676466
46	0xbe10659c	-0.14101261
47	0xbcf68108	-0.030090824
48	0xbd2d4790	-0.042304575
49	0xbdd8f3a8	-0.10593349
50	0xbb745039	-0.0037279262
51	0xbd7b9567	-0.061421778
52	0x3bcdbc12	0.0062785232
53	0xbd60009e	-0.05468809
54	0x3d07a469	0.033115778
55	0xbe17b5ff	-0.1481552
56	0xbdd550ff	-0.104158394
57	0x3cdda7ea	0.027057607
58	0xbcbcb825	-0.023037026
59	0xbdaeda8f	-0.085377805
60	0xbd8af2ca	-0.067845896
61	0x3c5cf1df	0.013485401
62	0xbd8b7ced	-0.06810937
63	0x3d6f9bee	0.058498316
64	0xbdc6421f	-0.0968058
65	0xbc499958	-0.012304626
66	0xbd07989b	-0.03310452
67	0xbd0f5f16	-0.03500279
68	0xbd7a79a7	-0.061151173
69	0xbe214574	-0.1574915
70	0xbc22fa59	-0.009947383
71	0xbd4cc50b	-0.049992602
72	0xbd188e06	-0.03724482
73	0x3c70fc37	0.01470857
74	0xbd6738f9	-0.056450818
75	0xbbc32853	-0.0059557348
76	0x3b596ceb	0.0033176492
77	0x3cd04f84	0.025428541
78	0x3db4c55d	0.088267066
79	0xbd475bec	-0.048671648
80	0x3c8cefcc	0.017204188
81	0xbd486c6a	-0.048931517
82	0xbd9ca73a	-0.076490834
83	0xbd0723b6	-0.03299304
84	0xbd609ad4	-0.054835156
85	0x3c94edde	0.01817983
86	0xbcc125fb	-0.02357768
87	0x3aec3c9f	0.0018023438
88	0xbd8a82f0	-0.067632556
89	0xbe0d043d	-0.13771148
90	0xbe1266af	-0.14296983
91	0xbdd9a835	-0.10627786
92	0x3c515a28	0.012777843
93	0xbcd10c58	-0.025518581
94	0xbd84f936	-0.06492846
95	0xbd7ef798	-0.062247843
96	0xbe0bb5d9	-0.13643588
97	0xbe137624	-0.14400536
98	0xbd58fe3d	-0.052976836
99	0x3cf7aedd	0.030234748

weight f4 [4, 100]
0	0x3d868480	0.06568241
1	0x3d0bb522	0.03410829
2	0x3d8aa131	0.06769026
3	0xba94cea4	-0.0011353088
4	0xbc34a7a6	-0.011026299
5	0xbd346423	-0.04404081
6	0x3c18c0b0	0.009323284
7	0xbda2629a	-0.07928963
8	0x3c80d618	0.015727088
9	0xbce577c0	-0.028011203
10	0xbd800524	-0.062509805
11	0xbdd5a677	-0.10432141
12	0x3d958781	0.07301236
13	0x3c36fd43	0.011168781
14	0xbd8a0b0c	-0.06740388
15	0x3d70e742	0.058814295
16	0x3d35a044	0.044342294
17	0x3daaf0b7	0.08346694
18	0xbdee27bb	-0.11628672
19	0x3d09a202	0.03360177
20	0x3ceeaa9c	0.029134087
21	0xbbfe9618	-0.0077693574
22	0x3dc5f806	0.09666447
23	0x3c8be7ad	0.017078245
24	0xbd0a5049	-0.033767972
25	0x3c442b92	0.011973279
26	0x3da1a3bc	0.07892558
27	0x3cbd5d77	0.023115857
28	0xbd19fa5b	-0.037592273
29	0x3d122050	0.035675347
30	0x3b21bf7c	0.0024680784
31	0xbcfa98d5	-0.030590454
32	0x3d5521bc	0.052034125
33	0x3caf55d5	0.021403233
34	0x3d946947	0.072466426
35	0xbca94690	-0.02066353
36	0xbd410610	-0.047124922
37	0x3d058cb1	0.032604877
38	0xbcab7690	-0.020930558
39	0xbb47c2a3	-0.0030481003
40	0x3d656d4f	0.056012448
41	0xbddad619	-0.10685367
42	0xbcfd955f	-0.030955015
43	0xbd97aa93	-0.07405581
44	0x3d33058e	0.04370647
45	0x3d2c3912	0.042046614
46	0x3d929a9d	0.071583964
47	0x3db7a48f	0.08966934
48	0x3cdee1dc	0.027207308
49	0x3d301272	0.04298634
50	0xbd1d3f28	-0.03839031
51	0xbc53fe5d	-0.012939063
52	0x3e19156d	0.1494958
53	0x3d1f05a7	0.03882375
54	0x3d9f9371	0.07791794
55	0x3d74123d	0.059587706
56	0xbc84362a	-0.016139109
57	0x3d4a5620	0.04939854
58	0xbe15e2e1	-0.14637329
59	0xbb970023	-0.0046081706
60	0x3d337f23	0.04382242
61	0x3c900d94	0.0175846
62	0xbdae3c88	-0.08507639
63	0xbd87df8a	-0.066344336
64	0x3c2c5979	0.010519379
65	0xbdb7f120	-0.08981538
66	0x3d922280	0.071354866
67	0x3d8aacba	0.06771226
68	0x3cdba4e4	0.026812024
69	0x3dc44cf1	0.09584988
70	0xbb503e81	-0.0031775536
71	0x3ca7fbdb	0.020505836
72	0x3c8ada40	0.016949773
73	0x3cae3f43	0.0212704
74	0x3d816c5d	0.06319497
75	0x3c023923	0.007948193
76	0x3daff03f	0.08590745
77	0x3daf0899	0.08546562
78	0xbd8671d6	-0.06564681
79	0x3e1cecda	0.15324727
80	0x3d53908a	0.051651515
81	0xbd64b2dd	-0.05583464
82	0x3c592eb0	0.01325576
83	0xbdb4e335	-0.08832399
84	0xbcdea2fd	-0.027177328
85	0x3c401866	0.011724567
86	0x3dedfc44	0.116203815
87	0xbb654c1d	-0.0034987994
88	0xbd1a04c7	-0.037602212
89	0x3de2062b	0.11036333
90	0x3cc86fab	0.02446731
91	0x3db80ae7	0.089864545
92	0x3d3d528e	0.04622131
93	0xbd4ba193	-0.049714636
94	0xbcad2394	-0.021135129
95	0xbd0b5ff6	-0.034027062
96	0xbce38683	-0.027774101
97	0x3c9ebe94	0.019377984
98	0x3d13d22a	0.0360891
99	0xba14dc17	-0.0005678548
100	0x3dbf2523	0.09333255
101	0x3c9e22d4	0.019303717
102	0x3d21331d	0.039355386
103	0x3c2e8d99	0.010653877
104	0xbe22e99c	-0.15909427
105	0x3cf6deb4	0.03013549
106	0x3cb826ec	0.022479497
107	0xbe1408d6	-0.14456496
108	0x3cb7bc18	0.022428557
109	0xbd844275	-0.06457988
110	0xbdab3f1b	-0.08361646
111	0xbddd2375	-0.107977785
112	0x3c84f9c0	0.016232371
113	0x3da69169	0.081332035
114	0x3b13a6c0	0.002252981
115	0xbd7a1dc0	-0.061063528
116	0x3bdac345	0.00667611
117	0xbdc9194a	-0.09819277
118	0xbddd026e	-0.10791479
119	0x3dc29c7d	0.09502504
120	0xbdafc547	-0.085825495
121	0x3cd9ed24	0.026602335
122	0x3dcc30c7	0.09970241
123	0x3dcb9c1b	0.09941884
124	0x3d0421e3	0.03225888
125	0xbd7564ab	-0.059910458
126	0x3dc35974	0.09538546
127	0xbe1efac7	-0.15525351
128	0x3e04c6b0	0.12966418
129	0xbe01cfc2	-0.1267691
130	0x3b3fa922	0.0029245098
131	0x3a710d9d	0.0009195449
132	0x3e0607e0	0.13088942
133	0xbbf46687	-0.0074585113
134	0xbd4f910c	-0.050675437
135	0x3dbf4e22	0.093410745
136	0xbdb1307f	-0.08651828
137	0x3da6a85b	0.0813758
138	0x3d92f3ad	0.07175384
139	0xbd86a58b	-0.065745436
140	0x3d8cf252	0.068821564
141	0x3e1da021	0.15393116
142	0xbd7274ba	-0.05919335
143	0xbd812e84	-0.063077
144	0x3d9fe25c	0.078068465
145	0x3ca742b4	0.020417549
146	0xbc990193	-0.018677508
147	0xbd1fc207	-0.0390034
148	0xbc9151d4	-0.017739214
149	0xbcc5211c	-0.02406364
150	0xbcdc4d1f	-0.026892243
151	0x3c117b21	0.008879454
152	0x3db96b3f	0.09053659
153	0x3d0f462c	0.03497903
154	0x3d89d093	0.067292355
155	0xbb10eb84	-0.0022113035
156	0x3ce69413	0.02814678
157	0x3cb62dbe	0.022238608
158	0xbbf66dc9	-0.0075204116
159	0xbd11ff32	-0.035643764
160	0x3d6b1fbd	0.057403315
161	0xbe128ab5	-0.14310725
162	0x3db306f5	0.08741561
163	0x3db5f447	0.08884483
164	0xbdb5f390	-0.088843465
165	0x3d2a0e36	0.04151746
166	0xbcf07100	-0.029350758
167	0x3dcf1e43	0.10113194
168	0x3ba9fea0	0.0051878244
169	0x3da07a57	0.078358345
170	0xbdc20a30	-0.09474599
171	0x3b2eb6fc	0.002665936
172	0x3dbacd6f	0.091212146
173	0x3cc08b4e	0.023503926
174	0x3e09cd2b	0.13457172
175	0xbd95de46	-0.07317786
176	0xbc389328	-0.0112655535
177	0xbdade098	-0.084901035
178	0x3d4df58e	0.050283007
179	0x3dca23db	0.0987012
180	0xbb3eb100	-0.00290972
181	0x3b1b49d3	0.0023695126
182	0x3c383470	0.011242971
183	0xbd9b2b57	-0.07576626
184	0x3c8c2de7	0.017111732
185	0xbc1e89f2	-0.009676443
186	0x3d1a9cae	0.037747078
187	0xbcd37892	-0.025814328
188	0x3e06c7ec	0.13162202
189	0x3ddb640c	0.10712442
190	0x3cbe9fb4	0.023269512
191	0xbc4dfd23	-0.0125725595
192	0xbd77742d	-0.06041353
193	0x3d29ec2a	0.04148499
194	0xbd6470c6	-0.05577161
195	0x3d35a6a7	0.044348385
196	0x3dc11599	0.094279476
197	0xbda8a69c	-0.08234903
198	0xbda68018	-0.08129901
199	0x3d6e8622	0.058233388
200	0x3d21587d	0.03939103
201	0x3d3914a7	0.04518571
202	0x3c8df155	0.01732699
203	0x3e06956f	0.13142942
204	0x3d661936	0.056176387
205	0x3d9a629b	0.07538339
206	0x3cc30454	0.023805775
207	0x3d633133	0.055466842
208	0x3d7819ba	0.06057141
209	0x3cbd5928	0.023113802
210	0x3d7f24a6	0.06229081
211	0x3db8be88	0.09020716
212	0x3c242cf0	0.01002048
213	0x3ce460a5	0.027878115
214	0x3daa0461	0.083016165
215	0xbdc590c7	-0.09646755
216	0xbdd3209d	-0.10308955
217	0xbd93f630	-0.07224691
218	0x3d5bc19a	0.05365143
219	0xbc41f880	-0.011839032
220	0x3db0f799	0.086409755
221	0x3dd15019	0.102203555
222	0xbc1c1a5d	-0.00952777
223	0xbd51b171	-0.051194612
224	0xbc87935a	-0.016549755
225	0x3dc8f80c	0.09812936
226	0x3ced6a3a	0.028981317
227	0x3d855063	0.06509473
228	0x3ce9bb48	0.028531685
229	0xbd3092c0	-0.0431087
230	0xbb86be77	-0.0041120606
231	0xbd881c18	-0.066459835
232	0x3c22307a	0.009899253
233	0xbe06b9fe	-0.13156888
234	0xbcadb5c3	-0.021204835
235	0xbcd35d15	-0.02580122
236	0xbd11bf5d	-0.03558289
237	0xbdc3440f	-0.095344655
238	0x3cb10908	0.021610752
239	0x3d212592	0.03934247
240	0xbc506e27	-0.012721575
241	0x3ca2a1cb	0.01985254
242	0xbc0a94c9	-0.008458325
243	0x3dca6539	0.09882588
244	0xbcafa6d6	-0.021441858
245	0x3dca3043	0.098724864
246	0xbd4be239	-0.04977629
247	0xbda36155	-0.07977549
248	0xbd0e623c	-0.034761652
249	0xbd541634	-0.051778987
250	0xbcfffc04	-0.0312481
251	0xbbdfd19b	-0.006830407
252	0xbc00438a	-0.007828603
253	0x3b0fc0d2	0.0021934998
254	0xbbb2ac25	-0.00545265
255	0xbd90c30b	-0.070684515

bias f4 [4]
0	0x3a61ba73	0.0008610852
1	0x3a826f90	0.0009951461
2	0xba87cd7a	-0.0010360919
3	0xbaa1f22f	-0.0012355502
