WeakLossVectorClassExample/Models/F12_model.pt (torch, 46503 bytes, 6 tensors)

weight f4 [100, 1]
0.16313612 -0.6936116 -0.5126152 0.24658361 -0.18050571 -0.53915155 -0.7481983 0.43841034
-1.3566476 -0.20853263 0.60205555 0.6157874 0.114726976 -0.14419565 0.38766518 0.03578509
-0.2466203 -0.8230318 0.34740612 -0.35725987 0.20220806 0.12338043 -0.92772365 -0.11135653
0.2023226 -0.54413116 0.6358891 0.49467748 0.3883309 0.39018154 -0.76745814 -0.65853596
-0.7002466 -0.13253522 -0.8394282 0.35805142 -0.59428185 -1.0375264 -0.5163333 0.60784847
-0.9542907 -0.73490757 0.3333807 0.106119156 -0.042269558 0.24749184 -0.14645252 -0.1536347
-0.08435426 -1.2846254 -0.84601176 -0.25539076 -0.72392523 0.5258583 0.3016208 -0.25148264
0.4873534 0.16106318 -0.16684651 0.55880624 0.38816944 -0.79598653 -0.23372644 -0.49499235
0.09645327 -0.5420002 -0.057049632 0.60031396 0.07712519 -0.15932369 0.078486204 0.06893869
0.7636567 -0.57595444 -0.09749091 0.32362595 0.7421674 -0.39552858 0.14114663 0.5821894
-0.8320567 -1.1675259 0.5466242 -0.76715827 -0.97259307 0.6338513 -0.46810722 0.35622454
0.7320804 0.67846835 0.28549805 -0.17869616 0.57489794 -0.288581 -0.15379211 0.6546575
0.08221824 -0.81324977 -0.7178871 -0.16325201
00000000: 280d 273e 8890 31bf c03a 03bf 6a80 7c3e
00000010: 7dd6 38be d605 0abf ec89 3fbf 5277 e03e
00000020: a1a6 adbf 9489 55be 5020 1a3f 3ea4 1d3f
00000030: faf5 ea3d 06a8 13be 0d7c c63e 6393 123d
00000040: 088a 7cbe 36b2 52bf 37df b13e c4ea b6be
00000050: a10f 4f3e e1ae fc3d 4c7f 6dbf e40e e4bd
00000060: a82d 4f3e 2e4c 0bbf a1c9 223f 5e46 fd3e
00000070: 4fd3 c63e e0c5 c73e 2378 44bf d095 28bf
00000080: 5c43 33bf 50b7 07be c4e4 56bf 8452 b73e
00000090: db22 18bf aacd 84bf 6b2e 04bf f59b 1b3f
000000a0: 654c 74bf e722 3cbf e0b0 aa3e 0055 d93d
000000b0: d822 2dbd 806e 7d3e a6f7 15be 6a52 1dbe
000000c0: edc1 acbd 9b6e a4bf 3a94 58bf 94c2 82be
000000d0: 2a53 39bf a69e 063f 0b6e 9a3e 55c2 80be
000000e0: 6386 f93e bfed 243e d0d9 2abe ed0d 0f3f
000000f0: 25be c63e c6c5 4bbf fc55 6fbe a36f fdbe
00000100: 4b89 c53d 86c0 0abf e0ac 69bd 2dae 193f
00000110: d0f3 9d3d c025 23be 60bd a03d ba2f 8d3d
00000120: 017f 433f c071 13bf 50a9 c7bd 4db2 a53e
00000130: affe 3d3f b982 cabe be88 103e 5d0a 153f
00000140: ab01 55bf 7d71 95bf 90ef 0b3f 7c64 44bf
00000150: dcfb 78bf 1444 223f c0ab efbe 1063 b63e
00000160: 9f69 3b3f 1ab0 2d3f cd2c 923e 20fc 36be
00000170: 832c 133f e4c0 93be ae7b 1dbe a297 273f
00000180: 0962 a83d 2331 50bf 73c7 37bf 892b 27be

bias f4 [100]
-0.81173193 -0.19845462 -0.6057098 -0.9904819 0.46912467 1.1343474 -0.96329856 -0.67932016
0.32977313 0.65491974 -0.41680723 -0.80670404 0.0039652507 0.2931649 -0.30221 0.18560822
-0.861717 -0.76637816 -0.27923462 -0.4873104 -0.7565816 -0.30141583 -0.7575475 0.2037592
-0.93218565 0.31016323 -0.2724824 0.22765875 -0.8127354 -0.17456037 1.0106947 -0.94637454
-0.4732926 -0.29314137 0.51729906 0.018536612 1.0043125 0.52589864 -0.011877772 -1.0480169
0.8388312 -0.005375058 0.3669905 -0.71634805 0.2639738 -0.91684675 0.28434053 0.48265758
-0.012951799 0.4367725 -0.97357845 -0.902946 -0.7371805 -0.8373906 -1.0018797 0.7297331
-0.057746317 -0.39070755 -0.8506912 0.39309365 -0.71910816 0.8529899 0.73427314 0.18816058
0.5472387 -0.19703186 -0.30761588 -0.70121974 -0.5934197 -0.885887 -0.983336 -0.19013825
-1.0377086 -0.9076638 -0.90208995 -0.7861218 0.6076146 -0.044081233 -0.21429075 0.451754
-0.021756992 0.49362323 -0.48438385 -0.5170044 -0.19895577 -0.592984 -0.23792398 0.8340952
0.779679 -0.72646016 0.46834967 -0.2845093 0.3744155 0.7771333 0.4297872 -1.0140642
-0.19730465 -0.013153473 0.6932409 0.60589904
00000000: aacd 4fbf b037 4bbe cc0f 1bbf 3990 7dbf
00000010: 1c31 f03e 4c32 913f bc9a 76bf ede7 2dbf
00000020: 06d8 a83e d2a8 273f c267 d5be 2884 4ebf
00000030: efee 813b b619 963e 45bb 9abe 1510 3e3e
00000040: 7c99 5cbf 5c31 44bf d7f7 8ebe c080 f9be
00000050: 55af 41bf 2d53 9abe a2ee 41bf 40a6 503e
00000060: b8a3 6ebf b7cd 9e3e d082 8bbe 601f 693e
00000070: 6d0f 50bf f4bf 32be 725e 813f 9a45 72bf
00000080: 6853 f2be a016 96be b66d 043f 18da 973c
00000090: 508d 803f 4ba1 063f fd9a 42bc 6b25 86bf
000000a0: a4bd 563f 4121 b0bb 2ee6 bb3e 9662 37bf
000000b0: 9327 873e 78b6 6abf 1595 913e e51e f73e
000000c0: c833 54bc a5a0 df3e 703c 79bf 7827 67bf
000000d0: dcb7 3cbf 3b5f 56bf 983d 80bf cacf 3a3f
000000e0: 6787 6cbd d20a c8be e6c6 59bf 9243 c93e
000000f0: 7917 38bf 8c5d 5a3f 53f9 3b3f 2bad 403e
00000100: d617 0c3f b8c2 49be d47f 9dbe 2383 33bf
00000110: 5aea 17bf 7ec9 62bf e8bb 7bbf 9ab3 42be
00000120: a3d3 84bf a85c 68bf 5eef 66bf 473f 49bf
00000130: a18c 1b3f 868e 34bd 096f 5bbe 4d4c e73e
00000140: b83b b2bc 2fbc fc3e 2901 f8be 665a 04bf
00000150: 10bb 4bbe cdcd 17bf 58a2 73be 4387 553f
00000160: 0b99 473f 4bf9 39bf 87cb ef3e 34ab 91be
00000170: 63b3 bf3e 35f2 463f 110d dc3e dbcc 81bf
00000180: 3b0a 4abe aa81 57bc 3c78 313f 331c 1b3f

weight f4 [100, 100]
0.0066314787 0.047597177 0.0566537 -0.05486588 -0.0996799 0.04860033 -0.07419739 -0.0042374576
-0.1148805 -0.11948137 -0.10055145 -0.15445665 -0.064460225 -0.14220122 -0.10250681 -0.13641733
-0.024373673 -0.061796855 -0.008888688 -0.010171279 -0.08290903 0.022046557 -0.07876028 -0.13778844
0.011254191 0.0069404254 -0.10898898 -0.097205594 -0.060558245 -0.112722464 -0.048658513 0.038451083
-0.06319419 -0.09288527 -0.08566392 -0.029161565 -0.021328289 0.024971206 -0.014141425 -0.010990616
0.044586252 -0.045200028 -0.0064265556 0.09915402 -0.043276396 0.031090505 -0.087790444 -0.015507652
0.02731904 0.019646589 -0.07027553 -0.04248593 0.08459879 -0.10580775 -0.06499874 0.018957477
-0.07189205 -0.05796741 -0.097884476 -0.022148643 -0.09343599 -0.022891726 -0.04734966 -0.0027688271
0.04156694 -0.0117923245 -0.09036092 0.00044147955 -0.019939363 -0.012049183 0.058999605 -0.053223096
-0.096218154 0.022695407 -0.044126987 -0.054946095 -0.038980193 -0.047011662 -0.10162346 -0.047909055
0.028329713 0.038588036 -0.08904684 0.08041217 -0.0982373 -0.09401243 -0.022413552 0.028156722
-0.0073091076 -0.079840995 0.040921368 -0.0030994639 -0.053431273 -0.034380246 -0.006789956 -0.029880574
-0.14590397 -0.07832228 -0.0478857 -0.15014572 -0.055876564 -0.053365685 -0.018241249 0.020618841
0.016207105 -0.042417176 0.095018215 0.031467684 -0.08106808 -0.02398277 -0.080604814 0.03758592
-0.12770359 -0.07163016 0.037828214 -0.14606407 -0.037073806 0.05117961 -0.1068411 0.09240065
0.087969966 -0.03059294 -0.031105421 -0.15760851 0.08275554 -0.06252315 -0.006448801 0.009328993
-0.05777775 -0.12686959 -0.074617825 -0.07219549 0.08407789 -0.06573808 -0.070667975 0.031985283
-0.055035125 -0.09590367 -0.044202656 0.03179533 -0.007733536 -0.036262475 0.0022258454 0.08531336
-0.101651885 -0.099700056 -0.15422617 -0.054810185 -0.06498008 -0.091070645 -0.017302155 -0.0047747046
-0.09543734 0.015155658 0.02738943 -0.023127621 0.0023257802 -0.009115599 0.09016391 -0.0045777387
0.012437329 -0.07848092 -0.010546202 -0.012963972 -0.14225003 -0.035476744 0.05573734 -0.028666712
0.0050523505 0.06128926 0.018389322 -0.13126029 -0.07478593 0.046486326 -0.08976465 -0.09631425
-0.033233915 -0.062284157 -0.034241557 -0.15144745 0.036441308 -0.016247718 0.018662825 -0.09615604
-0.083710514 -0.028842077 -0.0005117804 -0.111642495 -0.014906793 -0.06566852 -0.15783505 -0.08693814
-0.06911763 -0.012481702 -0.01249672 -0.0085384995 -0.06185181 -0.013951954 0.020894956 -0.06329825
0.013942003 -0.056569852 0.046467967 -0.089113854 -0.1515346 -0.12507188 -0.010436796 -0.10387997
-0.088816844 -0.011455903 -0.00882055 -0.14685151 -0.060154226 -0.1398842 -0.0012827074 -0.0003366893
-0.0069363937 -0.08224976 -0.03937509 0.00637345 0.030779593 -0.022927834 -0.03104192 0.023482125
0.052640073 0.03941932 -0.13665093 -0.013207344 -0.02216158 -0.034923058 -0.02223775 -0.064530015
0.06376154 -0.038093876 -0.14336483 0.0014219064 -0.15357707 -0.08312593 -0.060504097 0.033840116
-0.077911615 0.027030852 -0.07677809 -0.025625452 -0.015108188 0.0219087 -0.10861733 0.0003078708
-0.01556254 -0.15260214 -0.07500575 -0.009624526 0.060890533 0.0045705684 -0.020453978 -0.016835822
00000000: e04c d93b 42f5 423d b60d 683d 0cbb 60bd
00000010: fa24 ccbd 2411 473d cdf4 97bd 5fda 8abb
00000020: 7846 ebbd a6b2 f4bd ebed cdbd e229 1ebe
00000030: b903 84bd 329d 11be 17ef d1bd fcb0 0bbe
00000040: 4cab c7bc b31e 7dbd dca1 11bc 70a5 26bc
00000050: 36cc a9bd fb9a b43c 124d a1bd 6a18 0dbe
00000060: 8063 383c 826c e33b 9d35 dfbd ba13 c7bd
00000070: ec0b 78bd 09db e6bd 264e 47bd e27e 1d3d
00000080: f56b 81bd a23a bebd 9170 afbd 3ce4 eebc
00000090: aab8 aebc 6a90 cc3c 6fb1 67bc fc11 34bc
000000a0: 13a0 363d aa23 39bd db95 d2bb 4311 cb3d
000000b0: 9742 31bd 84b1 fe3c 7acb b3bd cf13 7ebc
000000c0: 2ecc df3c e2f1 a03c 9eec 8fbd ba05 2ebd
000000d0: 2142 ad3d bcb1 d8bd 0f1e 85bd b64c 9b3c
000000e0: 243c 93bd 3c6f 6dbd a877 c8bd 1271 b5bc
000000f0: 5e5b bfbd 6e87 bbbc b8f1 41bd 3675 35bb
00000100: 1842 2a3d 9834 41bc 250f b9bd 6276 e739
00000110: e057 a3bc f069 45bc 92a9 713d 7600 5abd
00000120: 060e c5bd b8eb b93c 80be 34bd 280f 61bd
00000130: b2a9 1fbd 4d8f 40bd f61f d0bd 493c 44bd
00000140: b713 e83c 7d0e 1e3d 315e b6bd 23af a43d
00000150: a330 c9bd 9789 c0bd a09c b7bc eda8 e63c
00000160: 3d81 efbb ad83 a3bd 2a9d 273d 6020 4bbb
00000170: c0da 5abd 4dd2 0cbd 477e debb 1bc8 f4bc
00000180: da67 15be 6e67 a0bd cc23 44bd cdbf 19be
00000190: d3de 64bd fa95 5abd ac6e 95bc d8e8 a83c
000001a0: c3c4 843c a2bd 2dbd e998 c23d 42e4 003d
000001b0: 0607 a6bd 8477 c4bc 2314 a5bd b2f3 193d
000001c0: bbc4 02be d5b2 92bd c2f1 1a3d d291 15be
000001d0: b4da 17bd b6a1 513d 82cf dabd 8d3c bd3d
000001e0: 9929 b43d 0c9e fabc ccd0 febc 2064 21be
000001f0: bd7b a93d 230c 80bd 7750 d3bb a2d8 183c
00000200: 5da8 6cbd 1aea 01be 3bd1 98bd 3bdb 93bd
00000210: 0731 ac3d b0a1 86bd 5fba 90bd 0003 033d
00000220: 836c 61bd 2569 c4bd d80d 35bd d23b 023d
00000230: 9a69 fdbb f687 14bd 7ddf 113b c5b8 ae3d
00000240: dd2e d0bd 8b2f ccbd 77ed 1dbe a580 60bd
00000250: 4714 85bd 3f83 babd 40bd 8dbc 2075 9cbb
00000260: a774 c3bd 704f 783c cc5f e03c 2376 bdbc
00000270: 1e6c 183b 9859 15bc dba7 b83d db00 96bb
00000280: f0c5 4b3c 9bba a0bd fac9 2cbc d766 54bc
00000290: fea9 11be 1050 11bd d64c 643d 74d6 eabc
000002a0: 308e a53b 720a 7b3d 34a5 963c 1969 06be
000002b0: 5e29 99bd 7268 3e3d 87d6 b7bd 6840 c5bd
000002c0: 4920 08bd ac1d 7fbd e040 0cbd 0a15 1bbe
000002d0: 7b43 153d ef19 85bc c8e2 983c 75ed c4bd
000002e0: 6b70 abbd 3846 ecbc 0029 06ba d2a4 e4bd
000002f0: 9f3b 74bc 387d 86bd 839f 21be a00c b2bd
00000300: 8b8d 8dbd 0d80 4cbc 0bbf 4cbc 10e5 0bbc
00000310: 5358 7dbd bd96 64bc e62b ab3c 83a2 81bd
00000320: 006d 643c cab5 67bd 3255 3e3d 5381 b6bd
00000330: e32b 1bbe d812 00be 18ff 2abc 06bf d4bd
00000340: 9be5 b5bd 8ab1 3bbc 1184 10bc 3e60 16be
00000350: 4764 76bd ce3d 0fbe 8520 a8ba ac85 b0b9
00000360: b04a e3bb 9072 a8bd c647 21bd 60d8 d03b
00000370: 7c25 fc3c 27d3 bbbc a04b febc 965d c03c
00000380: 1e9d 573d 2776 213d 39ee 0bbe 9e63 58bc
00000390: 348c b5bc 7b0b 0fbd f12b b6bc 5028 84bd
000003a0: 6995 823d 5308 1cbd 3bce 12be 435f ba3a
000003b0: 4f43 1dbe ed3d aabd 25d3 77bd ef9b 0a3d
000003c0: 2090 9fbd ce6f dd3c d53d 9dbd 78ec d1bc
000003d0: 5588 77bc e079 b33c c372 debd b869 a139
000003e0: 06fa 7ebc bc43 1cbe 9d9c 99bd 30b0 1dbc
000003f0: 5a68 793d b5c4 953b 1a8f a7bc 47eb 89bc

bias f4 [100]
-0.007837982 -0.061866105 -0.09903837 -0.073034026 -0.031258356 -0.02038699 -0.052847173 -0.02155824
-0.089236364 0.028323464 -0.13525943 -0.03733428 -0.055062022 -0.10212685 -0.150543 -0.098380186
-0.027922789 0.040091734 -0.04756913 0.00655216 -0.12845153 -0.0913663 -0.06892834 0.016015956
-0.14233686 -0.044125594 -0.05708259 -0.09244641 -0.07304957 0.04944367 -0.030273017 -0.04635904
0.027851693 -0.14817163 0.04866038 -0.071568474 0.09204157 -0.11299264 -0.07852555 -0.13486488
0.019615794 0.07326799 0.14263286 -0.14979413 -0.011151764 -0.15691565 -0.08707199 -0.15752576
-0.03452085 -0.08812559 -0.06454101 0.009608135 2.3052096e-05 -0.026894646 -0.045074116 0.0066348533
0.070151985 -0.04208655 0.04764658 0.051502354 -0.088561565 -0.09865483 0.03781242 -0.07697882
-0.14175719 -0.078583896 -0.070553705 -0.07772375 -0.006440364 0.07083099 0.022971405 0.083500825
-0.014230467 0.03372584 -0.02373877 0.091295086 0.038239937 -0.08036834 -0.009887174 -0.1488534
-0.11058505 -0.10965942 -0.05187939 0.06264787 -0.045112256 0.074990526 0.012277439 -0.11750975
-0.13766475 0.036020823 -0.017742462 0.07136233 0.085252635 4.814255e-05 -0.045510497 0.003841519
0.066690534 0.09092582 -0.119154975 0.018657345
00000000: e16a 00bc 5067 7dbd a1d4 cabd dd92 95bd
00000010: c308 00bd 9e02 a7bc 4776 58bd e89a b0bc
00000020: 8ec1 b6bd 9c06 e83c 7381 0abe d4eb 18bd
00000030: b788 61bd e227 d1bd f227 1abe 8d7b c9bd
00000040: 55be e4bc 3b37 243d d9d7 42bd 80b3 d63b
00000050: cc88 03be 411e bbbd 4d2a 8dbd e533 833c
00000060: c1c0 11be 0abd 34bd 6fcf 69bd 8b54 bdbd
00000070: 039b 95bd 7285 4a3d 1eff f7bc fae2 3dbd
00000080: 3c29 e43c 4eba 17be 1b50 473d 7e92 92bd
00000090: 4a80 bc3d af68 e7bd 01d2 a0bd 051a 0abe
000000a0: 4db1 a03c 870d 963d 590e 123e a263 19be
000000b0: e3b5 36bc 7fae 20be cd52 b2bd 6f4e 21be
000000c0: bc65 0dbd 307b b4bd 142e 84bd 706b 1d3c
000000d0: 0060 c137 2952 dcbc a39f 38bd 2f69 d93b
000000e0: d8ab 8f3d f262 2cbd 0f29 433d 22f4 523d
000000f0: c45f b5bd 8b0b cabd 32e1 1a3d 12a7 9dbd
00000100: cc28 11be 98f0 a0bd 767e 90bd a12d 9fbd
00000110: b009 d3bb d70f 913d 872e bc3c 7b02 ab3d
00000120: e826 69bc 1b24 0a3d cf77 c2bc ebf8 ba3d
00000130: 7ba1 1c3d 2898 a4bd d0fd 21bc 076d 18be
00000140: 6a7a e2bd 1e95 e0bd 7c7f 54bd 874d 803d
00000150: a1c7 38bd a294 993d 5027 493c f4a8 f0bd
00000160: fdf7 0cbe 928a 133d a458 91bc 6a26 923d
00000170: ef98 ae3d abec 4938 3769 3abd fec1 7b3b
00000180: 0c95 883d 5137 ba3d 8607 f4bd 4ad7 983c

weight f4 [6, 100]
0.13267556 -0.046673592 -0.05552086 0.035103448 0.03363142 0.051491123 0.011138196 -0.042756006
-0.023089793 0.072391115 0.15743288 -0.08602547 0.09294204 -0.09283819 -0.03629615 -0.04323964
-0.11429847 0.041325834 -0.007244935 -0.0057425275 0.008811764 -0.0176664 0.005400526 -0.017909765
0.028994456 0.0155139025 0.030034104 -0.06302059 0.08681918 0.078334875 -0.03362534 0.030373283
0.057689063 0.126527 0.02430384 -0.055305395 -0.002386557 0.037290826 -0.02001632 0.13257721
-0.049114127 0.043539807 -0.025608405 -0.018989287 -0.023250816 0.03590091 -0.0317584 -0.085667
-0.06636313 -0.05735866 0.033981666 0.09519488 0.071663626 -0.005391557 0.015469445 0.03834749
-0.0023692627 -0.006076103 -0.024333041 0.100394115 -0.021104652 0.044774756 0.08261592 -0.0017261505
-0.0660061 -0.04196019 -0.02786292 -0.15456998 0.00046540797 0.023871139 0.0028847544 -0.006625889
-0.012925044 0.013097738 -0.021488769 0.043329738 -0.11691646 0.056740932 -0.058392454 -0.015869206
-0.12539732 -0.103878036 -0.06742271 -0.06666528 0.07012001 -0.0030181874 -0.09769481 -0.007967114
0.09732437 0.07019622 0.017330045 -0.0010998087 -0.028813682 0.067527704 -0.012439734 -0.040071733
-0.013941541 -0.053360272 -0.01745109 0.0203438 0.015533911 0.039862968 -0.019357411 -0.017761588
0.017648516 -0.05631848 -0.14546734 0.044923376 -0.036237203 -0.09000198 0.087628335 -0.09096298
0.0606466 -0.078151375 -0.018463638 0.031091714 0.07308242 0.08543229 -0.03205267 0.048987307
-0.0836871 -0.02646921 0.148714 -0.06176931 -0.022645092 -0.043445185 0.104097225 0.06080065
-0.004220091 0.044927426 0.14349188 -0.03886899 0.005967653 0.03859461 0.028755631 -0.15048072
-0.0017903944 0.05399146 -0.039738227 0.07183274 -0.12672225 0.018880095 0.002040402 0.018396178
-0.07528623 0.02250509 -0.039513163 -0.03674122 0.06506307 0.08461066 -0.0033844684 -0.030961178
0.06198343 0.023373479 0.14834937 0.0758523 0.0019401296 -0.061621074 -0.0012249607 0.14357823
0.006945524 -0.085950084 -0.08577601 -0.006342493 0.076567575 0.004074037 0.06576265 -0.11506095
0.04225839 -0.057619978 -0.0003262638 -0.00082992244 0.07065459 0.064475976 0.0077681364 -0.06683105
-0.07309433 -0.03880006 -0.015499577 -0.012764934 -0.11334471 -0.032370064 -0.06268311 0.04337742
0.059679583 0.0016662594 0.020503983 0.05891444 0.16399112 -0.09313599 -0.077965125 -0.036554113
-0.0215979 0.0021273757 0.089406244 -0.089270085 -0.017819356 0.045379348 -0.015716096 -0.03670981
-0.10935016 0.075965054 0.022908129 -0.060971893 0.007011793 -0.010930826 0.0967227 0.051027708
0.017651917 0.009249963 0.014353327 0.036587037 0.07327973 -0.01416533 -0.005394064 0.03824526
0.0028280914 0.08753815 0.08651453 -0.008018874 -0.014104429 -0.05392025 0.14931291 -0.008593826
-0.01203687 0.12828851 0.034040663 0.072194286 -0.05692264 0.053143136 -0.06678278 -0.03275965
0.036987375 0.18415865 0.01837011 0.010634372 0.0012665187 -0.04943941 0.112856075 -0.09572807
0.09959101 -0.051955316 0.059237998 -0.16645786 0.062012363 0.12716986 -0.08653606 0.08989818
0.0067030415 0.056852154 -0.028169991 -0.04340116 0.005573377 -0.13472174 -0.015977634 0.009674545
00000000: 1adc 073e cf2c 3fbd d769 63bd a2c8 0f3d
00000010: 1ac1 093d 5be8 523d fb7c 363c ec20 2fbd
00000020: ce26 bdbc cb41 943d 1636 213e 1f2e b0bd
00000030: 6558 be3d f321 bebd 46ab 14bd 0c1c 31bd
00000040: 5115 eabd 4745 293d eb66 edbb d02b bcbb
00000050: 385f 103c 20b9 90bc e5f6 b03b 80b7 92bc
00000060: c885 ed3c 062e 7e3c 150a f63c f010 81bd
00000070: 41ce b13d 096e a03d b9ba 09bd 64d1 f83c
00000080: 5e4b 6c3d 4b90 013e d918 c73c e987 62bd
00000090: c867 1cbb 44be 183d 44f9 a3bc 52c2 073e
000000a0: e52b 49bd cc56 323d b8c8 d1bc 6c8f 9bbc
000000b0: 7f78 bebc d50c 133d 1915 02bd 2e72 afbd
000000c0: 65e9 87bd eaf0 6abd 5c30 0b3d 89f5 c23d
000000d0: 61c4 923d a8ab b0bb 8e73 7d3c 4212 1d3d
000000e0: a245 1bbb 0c1a c7bb 1656 c7bc 6e9b cd3d
000000f0: aae3 acbc bc65 373d 8932 a93d 0040 e2ba
00000100: 352e 87bd 73de 2bbd c740 e4bc 9847 1ebe
00000110: 0002 f439 688d c33c 260e 3d3b fc1d d9bb
00000120: 90c3 53bc e597 563c 3709 b0bc 867a 313d
00000130: e671 efbd 2e69 683d ed2c 6fbd 2300 82bc
00000140: 2868 00be 02be d4bd eb14 8abd ce87 88bd
00000150: 149b 8f3d c8cc 45bb 3714 c8bd 8088 02bc
00000160: 0052 c73d 09c3 8f3d bdf7 8d3c 7527 90ba
00000170: ac0a ecbc f74b 8a3d 07d0 4bbc 4222 24bd
00000180: 106b 64bc 4d90 5abd 97f5 8ebc 0aa8 a63c
00000190: f281 7e3c 5a47 233d 6f93 9ebc c080 91bc
000001a0: 9f93 903c 35ae 66bd 64f5 14be 9301 383d
000001b0: 766d 14bd f552 b8bd 7c76 b33d cd4a babd
000001c0: 9268 783d d40d a0bd 0e41 97bc 0db4 fe3c
000001d0: 3cac 953d 20f7 ae3d a949 03bd eaa6 483d
000001e0: 2464 abbd f5d5 d8bc 7c48 183e d101 7dbd
000001f0: 3382 b9bc 94f3 31bd ed30 d53d 1a0a 793d
00000200: b048 8abb d205 383d 89ef 123e 1735 1fbd
00000210: 4d8c c33b 6215 1e3d ee90 eb3c 9e17 1abe
00000220: abab eaba 2626 5d3d 8dc4 22bd 0b1d 933d
00000230: 7ac3 01be 6eaa 9a3c 44b8 053b 95b3 963c
00000240: ab2f 9abd 985c b83c 8ed8 21bd f67d 16bd
00000250: c93f 853d 5b48 ad3d f5cd 5dbb 4ca2 fdbc
00000260: 56e2 7d3d bd79 bf3c e6e8 173e 7358 9b3d
00000270: f24b fe3a 6166 7cbd dc8e a0ba 2c06 133e
00000280: 4797 e33b 9906 b0bd 55ab afbd b0d4 cfbb
00000290: 76cf 9c3d 807f 853b 91ae 863d 13a5 ebbd
000002a0: 2217 2d3d ed02 6cbd 630e abb9 278f 59ba
000002b0: 5bb3 903d fb0b 843d da8b fe3b b8de 88bd
000002c0: 7bb2 95bd d0ec 1ebd f0f1 7dbc 0424 51bc
000002d0: 4521 e8bd 7996 04bd 0160 80bd 86ac 313d
000002e0: 9472 743d 6366 da3a f8f7 a73c 4550 713d
000002f0: 4aed 273e 15be bebd 2eac 9fbd c4b9 15bd
00000300: 14ee b0bc 716b 0b3b 9f1a b73d 3cd3 b6bd
00000310: e6f9 91bc b2df 393d 0bbf 80bc 075d 16bd
00000320: faf2 dfbd 9193 9b3d d4a9 bb3c aabd 79bd
00000330: 2fc3 e53b 3517 33bc 8d16 c63d 6e02 513d
00000340: c19a 903c 288d 173c 382a 6b3c 4adc 153d
00000350: af13 963d b315 68bc b0c0 b0bb 10a7 1c3d
00000360: 8057 393b 3447 b33d 882e b13d 9861 03bc
00000370: 4316 67bc 7bdb 5cbd 7ce5 183e 1ecd 0cbc
00000380: 4b36 45bc 105e 033e 396e 0b3d 99da 933d
00000390: b727 69bd 9eac 593d 69c5 88bd fc2e 06bd
000003a0: 1380 173d 1694 3c3e ea7c 963c ca3b 2e3c
000003b0: 5101 a63a fb80 4abd 1621 e73d 140d c4bd
000003c0: 5ff6 cb3d 19cf 54bd 8ba3 723d ee73 2abe
000003d0: ad00 7e3d d138 023e d139 b1bd 891c b83d
000003e0: 30a5 db3b cedd 683d c1c4 e6bc 6ac5 31bd
000003f0: e0a0 b63b 7ff4 09be 87e3 82bc fc81 1e3c

bias f4 [6]
0.00214996 0.03981898 0.09760007 -0.006615861 0.0036507314 -0.36633387
00000000: 58e6 0c3b 3a19 233d 8ce2 c73d ddc9 d8bb
00000010: 1c41 6f3b 1d90 bbbe
