WeakLossVectorClassExample/Models/F15_model.pt (torch, 46503 bytes, 6 tensors)

weight f4 [100, 1]
00000000: 7be8 78be 9ea1 0ebf 233f 81bf 9d2e 44be
00000010: 25f9 2b3f e45d 0dbe 4a3f 3ebf 8f34 61bf
00000020: 2c27 15bf 0f01 40bf bf82 293e deab 03bf
00000030: 316d a13e fc0e 29bf 3f51 4d3f aade 233e
00000040: 0db3 9e3e f6c0 73bf 021c 6dbf d9ad 433f
00000050: 202b d23d e01a 04bf abe2 af3e aa18 f43e
00000060: 4e77 5fbe dec9 0d3f 1cc0 85be 4b2c 2d3d
00000070: 7d1a 0cbf a8be 9bbe 942f c43e 91cf 223f
00000080: 1eb0 913e c06f 1dbd 71e5 0a3f 3e58 913e
00000090: 0a33 af3e d02a 38bf f850 87be f676 5d3e
000000a0: eca4 00bf 7a57 4ebf 16f3 4ebf c0d8 64bf
000000b0: ab71 2eba 0320 f43e 5e45 a6be 38c2 c6be
000000c0: b02c 0dbf a1fc a13e 286e 28bf a665 973e
000000d0: 50af 42bf c666 03bf 8e96 51bf b0b4 dabe
000000e0: a30d 41be a841 0fbe ce62 e93e 586c 4fbf
000000f0: 8020 6fbd 1b2b 9c3e 00dd edbe a16e a83e
00000100: 0c9d e63e 2049 2ebf 89aa 743e bae8 2c3f
00000110: a897 6c3e 4db4 61bd e773 023e 2846 843d
00000120: 0bc8 60bf 3142 603e d981 2b3c 675e 9bbe
00000130: 04b6 133f 902e 74be 50e5 76bf 2a25 d43e
00000140: 11e7 64bf ebd8 1d3f f0bf 40bf 4236 0bbf
00000150: f4ac 6cbe 2f0b 173f fa0e 7bbf 26be 083f
00000160: a82a 78be 3274 063e 0c0c 87be fc70 31bf
00000170: 94df ec3e 60d7 333f 9463 0cbd 5498 f2be
00000180: 2ea6 e73d 89a6 7a3e fbb8 a4be 776a 023d
-0.24307434 -0.5571536 -1.0097393 -0.19158407 0.6717704 -0.13805348 -0.7431532 -0.87970823
-0.58262897 -0.75001615 0.16553782 -0.51434124 0.3152862 -0.6603849 0.80202097 0.16002908
0.3099598 -0.9521631 -0.9262086 0.76437145 0.10262132 -0.5160351 0.3435262 0.47675067
-0.21822855 0.5538615 -0.2612313 0.04227857 -0.5472792 -0.30418897 0.3831755 0.6359797
0.2845468 -0.03843665 0.5425635 0.28387636 0.34218627 -0.71940327 -0.26428962 0.21627411
-0.5025165 -0.8060223 -0.8083967 -0.89393234 -0.0006654511 0.47680673 -0.32474798 -0.38820052
-0.5514631 0.31638053 -0.65793085 0.2956974 -0.76048756 -0.51328695 -0.81870353 -0.4271598
-0.18852858 -0.1398989 0.45583194 -0.81024694 -0.058380604 0.30501637 -0.46457672 0.32896903
0.45041692 -0.6808033 0.23893179 0.6754261 0.23104727 -0.05510359 0.12739526 0.06458694
-0.8780524 0.2190025 0.01046797 -0.3034546 0.5769961 -0.23845887 -0.96443653 0.41434604
-0.8941508 0.61659116 -0.75292873 -0.54379666 -0.23112851 0.5900144 -0.9806973 0.53415143
-0.24235022 0.13130262 -0.2637638 -0.69313025 0.46264327 0.7025051 -0.034274653 -0.47381842
0.11310993 0.2447759 -0.3217238 0.031839814

bias f4 [100]
00000000: 408b 113f 7893 20bf 7c19 443e 177a 2c3f
00000010: 3b83 fc3e c3bc d63e 95ff 4a3f 01cb a83e
00000020: 4001 e3bc 56da 7a3f 5b2e e5be 2c1b 2abf
00000030: 0a92 24bf 6009 d43e 0dda 6dbf 1ba4 25bc
00000040: fff7 1dbf 5c45 99be 1ca9 7dbf cbe8 8dbf
00000050: 9489 0bbf dade 913f efbb a9be a6bb 7dbe
00000060: b075 2f3f 67e1 c63e 98c0 a1be 5f4f 5a3f
00000070: bd13 543f 7cd7 27bf 9c33 00bf 8f12 90bf
00000080: ea7c 0abf 18e1 243f f198 d03e df09 09bf
00000090: edbd 7dbe f02b 8cbe 06fb 433f ac56 2e3f
000000a0: 9e83 813f bc5d 1abf 4096 c5bc 3a2c 5dbf
000000b0: dd4e 423f f795 d7be 2297 823f 567b 44bf
000000c0: 28af 793f a238 35bf e889 d9be bbf6 563e
000000d0: 82c2 4abf 6325 f23e 345e 94be 9042 36be
000000e0: b19f 173f e038 bbbe 8e95 45bf 5790 2f3f
000000f0: 003f 06bc 194b 2e3e 200e 03be 9e1f 27bf
00000100: 079f 17bf 964b 60bf f9b7 27bf fc81 b53d
00000110: ca84 4ebf a0b7 6e3e c32f aebe 9be7 b53e
00000120: 896f 243f 5b4e d2be 7951 7cbd 8b0d 743f
00000130: 2d0b 8cbf 52b6 1ebf 3b80 9f3e 3f99 69bf
00000140: 86f2 c73e 1c83 b13e 0694 da3e 74a1 98be
00000150: 99b9 be3e 068e 563f 72a4 71bf 3799 83bf
00000160: d297 0abf 5595 b4be 4cab 813e e0b8 e1be
00000170: 60fa 94be 473c 883e 972e 5b3d 4ce4 4fbf
00000180: e597 e13e 7735 273f ad28 813f fbd1 d8bd
0.56853104 -0.6272502 0.19150347 0.67373794 0.4931887 0.4194089 0.7929624 0.3296738
-0.027710557 0.97989404 -0.4476193 -0.6644771 -0.6428534 0.41413403 -0.92910844 -0.010109927
-0.61706537 -0.2993573 -0.99086165 -1.1086668 -0.545068 1.1396134 -0.33151194 -0.24778613
0.6853895 0.38843843 -0.3159225 0.8527736 0.8284262 -0.6556318 -0.5007875 -1.1255664
-0.54096854 0.64405966 0.40741685 -0.5353069 -0.24779482 -0.27377272 0.76554906 0.68101
1.0118291 -0.6029928 -0.024119496 -0.8639561 0.75901586 -0.42106602 1.0202372 -0.76750696
0.9753289 -0.7078954 -0.42488027 0.20992558 -0.79203045 0.4729415 -0.2897812 -0.17798829
0.59228045 -0.3656683 -0.7718133 0.6857962 -0.008193731 0.17020835 -0.12798357 -0.6528262
-0.5922703 -0.87615335 -0.65515095 0.08862683 -0.8067137 0.23312235 -0.34020814 0.35528263
0.6423269 -0.41075405 -0.061601136 0.95333165 -1.094091 -0.6199695 0.3115252 -0.9124946
0.39052218 0.3467034 0.42691058 -0.2981068 0.37250975 0.8381046 -0.9439155 -1.0281132
-0.5413791 -0.3527018 0.25326002 -0.4408636 -0.2909727 0.26608488 0.05351123 -0.8120773
0.440612 0.65315956 1.0090538 -0.105869256

weight f4 [100, 100]
00000000: 71fa 1abe e210 763d 1d7c a0bd b12f dabd
00000010: e055 cc3c fcf5 95bd 45f1 0fbe 1df8 97bd
00000020: c217 333d 4d94 e5bd f9a1 4d3d 1836 01bc
00000030: 75ae debd 718c 1fbe 566f 0ebd 5df6 aebd
00000040: 341c 85bd bdd6 80bd 40d6 46bc 05ed 993c
00000050: 28fd 8a3c 2409 0ebd 168f 803d ad5d 283d
00000060: a05d 68bc 28aa 74bc e0db a9bc dfb0 a8bd
00000070: 81a6 12be dadb 61bd f682 a0bd da7d 803d
00000080: c8d1 093d b77a 563d e828 8dbd d73c 5cbd
00000090: 5bbf 98bd 6680 7e3d cd6e febc 15e4 f5bd
000000a0: cb15 1fbe 1813 04bc 753d adbd f9e4 803d
000000b0: 0c68 793d bfff e93c 47d6 1ebc aa3f 1dbd
000000c0: f47b 60bd da10 81bb b387 68bd d580 8e3c
000000d0: 2dd4 21bd a146 22bc 4b89 babd 5dd0 71bd
000000e0: ff6a f5bd 2589 b33d db57 66bc 6c20 d33b
000000f0: f926 ab3d 06a2 a3bd c39e bbbd 2903 f1bd
00000100: 485a ec3c 66eb 0bbd 6632 8abd c145 38bc
00000110: 904d a8bd 816f 98bd 1187 84bc fe6d e6bd
00000120: ce52 2bbc 7f8b 8b3b 0a5f aebd fa72 84bd
00000130: 41cc 143b 9832 eabc 1380 00bd 7795 123d
00000140: 4815 09bd fb08 a3bb f07c f3bc 7ea2 023d
00000150: bff6 5bbd 6eea 8f3d 626e 6f3d 698e 9b3d
00000160: 80ca 53ba ff50 45bd db9e 3bbd 1304 1cbd
00000170: 91fc 163d 8e31 1a3d 5650 e5bb d290 0a3d
00000180: f46e 24bb fcd3 2c3d fbe3 38bd 685d 893c
00000190: 2fc5 e13c 8f56 9e3d 0309 2e3d df05 3dbb
000001a0: 7edf 8bbd 4c06 94bd c5a9 65bd a0c5 e0bc
000001b0: 3052 bdbb aa0b 0ebe 506a 9dbd 90e7 6cbc
000001c0: 6270 833c 72f7 2d3d 65f8 8d3c 9b97 113d
000001d0: 7761 0cbe 1481 fe3c 5d8d 47bd 4c26 b7bd
000001e0: 351c c13d 58c5 a0bd 1afd a3bc 7199 09be
000001f0: 68d7 01be afd6 4c3b 0205 733d b5dc f0bd
00000200: 2046 c0bd a02e fa3b b28d 1dbd 33d9 2b3d
00000210: 69b7 33bd 21da b8bd 6404 0bbe 843c 62bc
00000220: 351f d7bc 4171 bf3d 21fc 68bb 3d7f 02be
00000230: e2c3 323d 00e8 69b8 01a9 9c3d a8a7 bbbd
00000240: 48d9 54bd 1d17 88bd 33c0 3bbc d0b1 183c
00000250: 9729 963b 2843 febc 80ab 9c3a 68a7 22bd
00000260: 211b 833d 7fa0 1e3d a24c bbbd 6a47 08bd
00000270: 8aa2 863d 057d b5bd cba2 7ebd 5141 26bd
00000280: b6a0 3e3d ca5d 0dbe 98ba 0c3c 6d2b a13b
00000290: 7f2e 2b3c 2200 a7bd ad8a 8bbd 503e 9ebd
000002a0: 5f1e 993d 0a34 8cbd 71b1 a0bd 0fd4 223c
000002b0: 6487 02be 82b6 34bd 14de f7bc 52c7 69bb
000002c0: ebbb c7bd 583c a6bd 7ac4 193e 6dc0 0e3d
000002d0: 13a1 153e e794 053d 2ca3 b93c e61e 2d3d
000002e0: 2491 e3bc e15f 82bc 6b2e 813d 5031 44bd
000002f0: db21 ab3d c071 8fbd 69b4 a9bb 1a00 3e3d
00000300: f33b e23c 7b9e 2e3c e5de d9bd da96 0a3d
00000310: 9c7e d9bd 69dc 16bd df04 80bd e631 f03c
00000320: a8b2 9cbd 1508 acbd 519b 6b3d cd6b d93c
00000330: 3967 e63a b87c 0e3d 3c2a a3bc 0d51 45bd
00000340: 17b6 28bd d153 6e3d 5565 1fbe dd01 b0bd
00000350: 818e 24bd 4941 803d 192f 9ebd bef7 a3bd
00000360: 13a4 48bd c294 683d 5cf7 f83c 9349 abbd
00000370: a395 9a3d c261 bcbd 6dd3 16be aee3 28bc
00000380: 8af1 e1bd e4fe 13be 05ff 9ebd d8f7 05be
00000390: f220 40bd 28ff c03c 1be3 1dbe c8c6 debc
000003a0: 06b7 8d3c 1972 be3c 4123 de3a dab1 0d3c
000003b0: e37e 19be a0d2 bfbd 3a23 76bd 9235 093d
000003c0: 0c56 423d 6af8 a6bd 40d9 253b 9c9c d03c
000003d0: fb71 0fbe ec26 9cbd 531a c43c ffde c13d
000003e0: 8ed4 03bc 8545 98bd c008 7dbd 71f1 053d
000003f0: 002a 6fbb f330 0c3d 224b 9ebd b3a9 c2bd
-0.15134598 0.060074694 -0.07836173 -0.10653628 0.024943292 -0.073223084 -0.14056881 -0.07420371
0.04372383 -0.11209927 0.050203297 -0.007886432 -0.10873119 -0.15580918 -0.034774147 -0.08543084
-0.0649952 -0.06290958 -0.012136042 0.018789778 0.016966417 -0.034676686 0.062772915 0.04110496
-0.014182478 -0.014933147 -0.020734727 -0.082368605 -0.14321329 -0.055141307 -0.07837479 0.06274004
0.03364733 0.052363124 -0.06892568 -0.05376896 -0.07458373 0.06213417 -0.031058693 -0.12006394
-0.15535657 -0.008061193 -0.084589876 0.06293673 0.060890242 0.028564332 -0.009694642 -0.038390793
-0.05480571 -0.0039387764 -0.056770038 0.017395416 -0.039508987 -0.009904535 -0.09108218 -0.0590366
-0.119832985 0.087663926 -0.014059032 0.006443074 0.08357043 -0.07989888 -0.09161141 -0.11768181
0.028851643 -0.03416004 -0.06747894 -0.011247099 -0.08217919 -0.07443143 -0.016177686 -0.11251448
-0.010456754 0.0042585726 -0.08514221 -0.064672425 0.0022704753 -0.028588578 -0.03137214 0.035787072
-0.03346756 -0.004975436 -0.02972266 0.031893246 -0.053702112 0.07027136 0.05845488 0.07595522
-0.0008079186 -0.048172947 -0.045805793 -0.038089823 0.03686196 0.037644915 -0.006998102 0.033829518
-0.0025090547 0.04219435 -0.045139294 0.016768172 0.027559845 0.077313535 0.042489063 -0.002884261
-0.06829737 -0.072277635 -0.056070108 -0.027437985 -0.00577762 -0.13871637 -0.07686293 -0.014459506
0.0160448 0.04247231 0.017330358 0.035544973 -0.13709055 0.031067409 -0.0487188 -0.089428514
0.09429208 -0.0785014 -0.02001815 -0.1343744 -0.12679827 0.003125589 0.059330948 -0.117608465
-0.09388375 0.0076349527 -0.03846521 0.041955184 -0.043876085 -0.0902598 -0.13575894 -0.013808373
-0.026259998 0.09347773 -0.003555067 -0.1274385 0.04364384 -5.5767596e-05 0.076494224 -0.09162837
-0.051965028 -0.066450335 -0.011459398 0.009319738 0.0045825946 -0.031037882 0.0011952966 -0.039710432
0.06401659 0.03872728 -0.09145476 -0.03327123 0.065739706 -0.08861736 -0.06216697 -0.040589634
0.046539985 -0.13805309 0.008589409 0.004918507 0.010448097 -0.08154322 -0.0681356 -0.07726729
0.07476496 -0.06845863 -0.07846344 0.009938254 -0.1274696 -0.044119366 -0.030257262 -0.0035671783
-0.097526394 -0.081169784 0.15016356 0.03485148 0.14612226 0.032612707 0.022660814 0.042265795
-0.02777917 -0.01591486 0.06307682 -0.04789859 0.08356067 -0.07004118 -0.0051789773 0.046386816
0.027616477 0.010657902 -0.10638217 0.03383527 -0.10619852 -0.036831293 -0.06250929 0.029320668
-0.076512635 -0.08399979 0.05752117 0.026540661 0.001757837 0.03478691 -0.0199176 -0.048173
-0.04118928 0.058185402 -0.15565999 -0.085941054 -0.040174965 0.06262452 -0.07723827 -0.080062374
-0.0489846 0.05678249 0.030391388 -0.083636425 0.07548072 -0.09198333 -0.1472909 -0.010308189
-0.11032398 -0.14452702 -0.07763485 -0.13082826 -0.04690642 0.023559168 -0.15418665 -0.027194396
0.017299186 0.023247765 0.0016947762 0.00864836 -0.1498981 -0.093663454 -0.06009219 0.033498354
0.047445342 -0.0815285 0.0025306493 0.025465302 -0.14008324 -0.07624611 0.023938334 0.09466361
-0.008046282 -0.07435135 -0.061775923 0.03270096 -0.003649354 0.03422637 -0.07729174 -0.09505024

bias f4 [100]
00000000: 2313 4ebb 78b1 b9bd 82f8 07be 4537 873d
00000010: 8c07 d5bd ea60 00be f1a1 c83b 5f3c c6bc
00000020: 1bd6 98bd 49a2 df3c 42e8 b7bd 3de1 85bd
00000030: 2640 d83c fc95 03bd fd93 4abd cd06 dabd
00000040: 85bf 8bbd 1218 b4bb 186a 8fbd da5b 86bd
00000050: 6cca 28bd 484b 93bc 55f1 f9bd 58eb 09be
00000060: 14c8 0fbd 7067 be3d d195 07bd 4b78 3fbd
00000070: 0209 bf3b 77f9 82bc 7426 67bd 77a7 a2bd
00000080: 7906 07be 2cc5 f03c 2849 db3c be31 7a3c
00000090: 7b2d 92bd 05f8 c3bc d640 563d 5079 abbb
000000a0: b929 d93c f00b 34bd 7c85 1b3d b56c 17be
000000b0: 653d 54bd 9ecb 20be c324 043d df1b 7dbd
000000c0: 9716 e3bd a794 44bd aa38 023d 7569 a5bd
000000d0: 9f19 33bd 65ef ea3c 856d 1ebe 92fc cbbd
000000e0: fdc1 b9bd 4fbe 69bd 7ada 7dbd d074 9f3d
000000f0: 23b5 c0bc 54ec 82bd 363e 23be e8fd 14bc
00000100: 6497 6dbd e908 a93c 8f03 f7bb b819 ecbd
00000110: 7895 23bc f03c 82bd aa05 e0bd 0b6c f0bd
00000120: 298f 813b 05e3 c53b c50d 20be 8b6e a1bd
00000130: d8c3 26bb 7dec 18be 52cc 3dbd ffce 42bd
00000140: 995d 51bd 9435 86bd 539e ea3b 1075 3abd
00000150: 1854 febc c7f1 1ebe 8bf1 713d 4f90 16be
00000160: 1a4a 663d a946 9c3d 0f43 703c cdaa 9bbd
00000170: 709d 603d bf45 84bd 548d f3bd aa3b 5bbd
00000180: e966 e33d fdc1 6bbd 284e 6dbc fd3e 5dbd
-0.0031444512 -0.090670526 -0.13278392 0.06602339 -0.1040183 -0.1253697 0.0061228205 -0.024198709
-0.074627124 0.027299063 -0.089798465 -0.065371014 0.026397776 -0.032125458 -0.04945754 -0.106458284
-0.06823639 -0.0054960335 -0.07002658 -0.06560488 -0.04120867 -0.017980233 -0.122042336 -0.13468683
-0.03510292 0.09297073 -0.03310186 -0.04674558 0.0058299312 -0.015988095 -0.056433156 -0.07942098
-0.13186063 0.029390894 0.026768282 0.0152706485 -0.07137581 -0.023921976 0.052307926 -0.0052329674
0.026509153 -0.043956697 0.037969097 -0.14787562 -0.051816363 -0.15702674 0.03226162 -0.061794158
-0.11088293 -0.04799333 0.03179232 -0.08076755 -0.043725606 0.028678605 -0.15471466 -0.09960283
-0.090702035 -0.057066258 -0.061975934 0.07785952 -0.023523873 -0.06392732 -0.159417 -0.009093739
-0.058005705 0.020634132 -0.007538266 -0.11528343 -0.009984367 -0.06359279 -0.1093858 -0.117393576
0.0039538336 0.0060390257 -0.15630253 -0.078824125 -0.0025446322 -0.14933963 -0.046337433 -0.047560688
-0.051114652 -0.06553188 0.007159987 -0.045521796 -0.031045958 -0.15521918 0.059068244 -0.14703487
0.056223013 0.07630665 0.0146644255 -0.07600937 0.054837644 -0.064586155 -0.118921906 -0.053523697
0.11103613 -0.05755805 -0.014483966 -0.05401515

weight f4 [6, 100]
00000000: 8c29 b63c ba85 40bd c94c 363b 80a6 fcba
00000010: ae2a b2bc baeb 2d3c 7b15 083e ebfe fabd
00000020: a10e 4abd 3de4 353d eed4 dbbd 70d8 12bd
00000030: 1cea 98bc fa6d 543d 057b 233c d08d 6abc
00000040: f2bf acbd 2980 373d 4345 60bd faef 603d
00000050: bb61 443d be4b b93d c498 a2bc bfea f8bc
00000060: 7b41 b7bc 50c7 7e3d eb4e 333d 53ec 053d
00000070: b730 313d 9cd4 2e3c c618 b43d 09cd 5d3d
00000080: 43e6 72bd d9e7 423d ad2e 643d 2683 44bd
00000090: e78f cbbc aed9 b93c 00eb 9db9 cc91 a73c
000000a0: a4f7 913b 1525 933d 4d5a 15bd c171 44bc
000000b0: 60e8 0c3d 7245 a5bc f443 e73c 54fe 923c
000000c0: 3bef 15be 700a 5d3d 6318 1bbd 329c 1c3d
000000d0: 78ba 843c 3801 d9bc bc2b e73b f112 813d
000000e0: 258d ee3c 3555 8e3d b2b9 333d 58a9 503d
000000f0: a470 ef3c 984e c7bc f4da a63c f935 893d
00000100: 6726 c0bc 7370 c03c 7329 903d 32ed bc3c
00000110: 54de 6c3d 7aab 65bd a9a4 a9bc 656d d53d
00000120: 3e2a 113c c989 b33d 8b31 093d 8091 0c3a
00000130: c8d2 4f3c 8f1a 933d dd4a 5cbd 1815 95bd
00000140: 6784 9cbc 8284 a93d 73f0 0dbc 402a 5c3b
00000150: 43dd 203d c6df b6b9 f442 73bd ad97 ea3c
00000160: 340d fdbc 404b 593b 1c7c babc ee51 4c3d
00000170: 3a9a 403d aacf ee3b 460c 8e3d 8093 32bd
00000180: c815 61bd 8915 8a3d 6c97 01bd d67c 3f3d
00000190: b667 0cbd 7c98 b23d afcd 69bb 5f08 c4bd
000001a0: 3562 da3d d8a1 133d 4a95 d9bd 3c7c 08bd
000001b0: e700 673d 3b2e aebc 5193 a93d 42cd 083d
000001c0: 16c9 673c f636 89bd 81f1 04bd 1941 51bd
000001d0: fc6c ef3c 50da a33c 865f 3c3d d06c 3f3c
000001e0: cdbf cbbb 8a02 9dbd f2a1 093e be2d 533d
000001f0: 813f febd a88b 9b3c 86bc 033d 70f8 0a3c
00000200: 63f7 8d3c 70cd 813b d58c e73c 46a0 a43d
00000210: ee5f adbd cbcf 41bd 30af 3bbd f47d 1dbc
00000220: 1b0c c3bd 21d2 cebc b557 c03d 8ad2 91bd
00000230: 46c8 30bc 2b28 ad39 b674 e03c 643b 9fbd
00000240: 3780 90bd 0880 6abd 9965 ed3b d0ca 4d3b
00000250: d17c 193d e274 32bd 1af4 083d b9a7 21bd
00000260: d4ed eebd c93b d7bc cf56 913c 84c0 ec3c
00000270: dd73 493d 3112 bd3c 5c86 07bd ac4f 653c
00000280: 339b eebd f013 a7bd 668d f7bc 8623 3f3d
00000290: 2bcd b1bc 55d0 8fbc 6419 c83c 0b08 a8bb
000002a0: 29fc b83d 1999 bebb 49ad d0bc 326c 063d
000002b0: d095 123d 1c21 66bb f381 4abd f214 cabd
000002c0: 179c cf3b 9ea1 5b3a 928d 39bc 8fb8 063e
000002d0: 4695 15be 7ae4 febd 2f8d 6a3c 0c82 f93c
000002e0: 7c48 f0bc 67ff 15bd 85e5 a9bc aed5 2abd
000002f0: 5040 963b 68b0 653c d49f a6bc 1af8 44bd
00000300: ae91 63bd 86fa ddbd c92a 38bd 6cea f23c
00000310: 0c3b 50bc e2cb 80bd 40a3 243c 1036 41bc
00000320: 7b52 46bd e266 c4bc e827 38bd 3b8d b4bd
00000330: 1b44 3bbd 778f e53d 45af 60bc e53d 4c3d
00000340: 1bc7 5abd 0329 7fbd 053d 0b3e a822 cfbc
00000350: a49a 763d 174f bd3d 0113 12be 195d ed3c
00000360: 9817 a5bc 0b42 c93c 5734 45bd fbc2 bdbd
00000370: fe1c 05bd f70d d93c 2ed2 2cbd 2101 0cbe
00000380: a765 1bbc 85c1 95bd 745b 4dbc f56e 1ebd
00000390: f967 103d b552 c8bc 8eae c3bc afab bdbd
000003a0: 6472 abbc 8245 e53c 7099 af3c 1ad1 1dbd
000003b0: d0d1 f2bd b2b0 1abd 80f1 bfbc 21a5 a53d
000003c0: 928b 66bc ba86 85bd c9d1 14bd 2a7e a63c
000003d0: be65 603d 40f7 8dbd 2a0a b1bc aea6 f3bc
000003e0: b059 b1bc f74d a5bc 395b b9bd cd9b 0abd
000003f0: 1067 1cbe 269c a3bb f24b f7bc 924b 203d
0.022236608 -0.04700253 0.0027816764 -0.0019275695 -0.021748867 0.010615284 0.13289444 -0.12255653
-0.049330357 0.044407118 -0.107339725 -0.035850942 -0.01866632 0.051862694 0.009978061 -0.014316037
-0.08435048 0.044799957 -0.054753553 0.05491636 0.047944766 0.0904765 -0.019848235 -0.030385373
-0.02237009 0.062201798 0.043776434 0.03269608 0.04325935 0.010670807 0.08793788 0.054150615
-0.059301626 0.04758439 0.055708576 -0.047976635 -0.024848891 0.022686806 -0.00030120462 0.020455264
0.00445457 0.07184807 -0.03646307 -0.011990012 0.034401298 -0.020174716 0.028230645 0.017943539
-0.1464204 0.053965032 -0.037865054 0.038234897 0.016202196 -0.026489839 0.007054774 0.06302441
0.029120037 0.06949846 0.043878265 0.05094275 0.029228516 -0.024329469 0.020368077 0.066997476
-0.023455812 0.02349112 0.07039156 0.023062322 0.057829216 -0.056071736 -0.020708399 0.10421256
0.008860169 0.08766515 0.033494513 0.00053622574 0.0126845315 0.071828 -0.053782333 -0.07279414
-0.019106103 0.08277227 -0.008663285 0.003359452 0.03927351 -0.0003488047 -0.059390023 0.028636778
-0.030890085 0.0033156425 -0.022764258 0.04988282 0.047022082 0.007287939 0.06935935 -0.0435977
-0.054952413 0.06742389 -0.031638548 0.046749912 -0.034278594 0.0872049 -0.0035675575 -0.09571909
0.10663263 0.036043018 -0.10624178 -0.033321604 0.056397345 -0.021262279 0.082800515 0.033398874
0.014147064 -0.06699936 -0.03245688 -0.051087473 0.029226772 0.02000156 0.045989536 0.011683658
-0.006217933 -0.076665 0.13440683 0.051557295 -0.12414456 0.018987492 0.03216221 0.008482084
0.017329877 0.0039612576 0.028265396 0.08038382 -0.08465563 -0.047317307 -0.04582137 -0.009612549
-0.09523793 -0.025246682 0.09391729 -0.07120235 -0.010789936 0.0003302706 0.027399402 -0.07775
-0.07055705 -0.057251006 0.0072447774 0.0031401403 0.03747255 -0.0435685 0.03343592 -0.039466593
-0.11666456 -0.026273625 0.017741589 0.028900392 0.04918276 0.023079963 -0.03308712 0.013996046
-0.11650696 -0.081581 -0.030218791 0.046664737 -0.021704277 -0.017555395 0.02442617 -0.005127912
0.09032471 -0.0058165905 -0.025473254 0.032818027 0.035787404 -0.003511495 -0.049440335 -0.09867276
0.006335746 0.000837827 -0.011325257 0.13156341 -0.14607725 -0.12445922 0.014315887 0.030457519
-0.029331438 -0.036620524 -0.020739326 -0.041707687 0.0045853034 0.014019109 -0.020339884 -0.04808817
-0.055558853 -0.10838799 -0.044962678 0.029652797 -0.01270939 -0.062888876 0.010048687 -0.011792675
-0.048418503 -0.02397484 -0.044959933 -0.08816 -0.045719247 0.11209004 -0.0137136625 0.049863715
-0.053412538 -0.06229497 0.13597496 -0.02528508 0.06020607 0.09243601 -0.14265062 0.028975056
-0.020152852 0.024567625 -0.04814562 -0.09265705 -0.032498352 0.026495917 -0.04219263 -0.13672306
-0.009484685 -0.073123015 -0.012534011 -0.038680036 0.035255406 -0.0244535 -0.023886945 -0.09261262
-0.02092857 0.027987245 0.02143547 -0.038529493 -0.11856425 -0.037766166 -0.023430586 0.080881365
-0.014071362 -0.06519838 -0.03633288 0.020323832 0.05478453 -0.06931925 -0.021611292 -0.029742565
-0.021649212 -0.020178778 -0.090506025 -0.03383999 -0.1527369 -0.0049929796 -0.03018758 0.03913457

bias f4 [6]
00000000: 23d0 1e3e 0a15 f03c 736d 33be 7bd5 81be
00000010: 6345 0e3c f864 713e
0.15509085 0.029306907 -0.1752222 -0.25358185 0.008683535 0.23573673
