WeakLossVectorClassExample/Models/F15_model.pt (torch, 46503 bytes, 6 tensors)

weight f4 [100, 1]
0	0xbefebef2	-0.49755055
1	0xbf637b25	-0.8885978
2	0xbf7cf3d2	-0.9880954
3	0xbe8459ae	-0.2584967
4	0xbe38b941	-0.18039419
5	0xbde28f90	-0.110625386
6	0xbdeda9d0	-0.11604655
7	0x3ec85bb2	0.39132458
8	0xbe5191df	-0.20465802
9	0xbdcb3971	-0.099230655
10	0x3ed6475e	0.41851324
11	0x3eae37e6	0.34027022
12	0x3ee2bccb	0.44284663
13	0x3d2f0680	0.04273081
14	0x3ddbe019	0.107361026
15	0x3edd43c5	0.43215767
16	0xbec6508d	-0.3873333
17	0xbeabf174	-0.33582652
18	0x3e106854	0.14102298
19	0x3e01f5e2	0.12691453
20	0xbf00dcc1	-0.50336844
21	0xbf30e8b2	-0.69105065
22	0x3e0f01e1	0.1396556
23	0xbecab711	-0.39592794
24	0x3d87e2ee	0.0663508
25	0xbf033406	-0.51251256
26	0xbe0af0ba	-0.13568392
27	0x3de38ffd	0.11111448
28	0xbeef374a	-0.4672187
29	0xbe86063c	-0.2617663
30	0xbf793242	-0.9734231
31	0xbf024e38	-0.509006
32	0x3f10a300	0.5649872
33	0xbe44b7cb	-0.19210736
34	0xbea6d815	-0.32586733
35	0xbebb9fbc	-0.36645305
36	0x3e7bcfba	0.2459096
37	0x3e4e2c15	0.20134003
38	0x3f19fef9	0.6015468
39	0x3f148e09	0.5802923
40	0xbde1a291	-0.11017335
41	0x3e98fcc4	0.29880345
42	0x3f28bafa	0.65910304
43	0xbe3bbef3	-0.1833456
44	0xbea0f673	-0.31438026
45	0xbe7733a8	-0.24140799
46	0x3f172937	0.59047264
47	0xbf1ca2ec	-0.611861
48	0xbd610fb9	-0.054946635
49	0xbc67fac6	-0.01415891
50	0xbee94f75	-0.45568433
51	0xbe08f28e	-0.13373777
52	0xbf8092e6	-1.004483
53	0x3efa9c5c	0.48947418
54	0xbf878841	-1.0588456
55	0xbf2322f0	-0.63725185
56	0xbf221a5f	-0.6332149
57	0xbed27314	-0.41103423
58	0xbf268d08	-0.65058947
59	0x3e043321	0.12910129
60	0xbeac28f3	-0.33624992
61	0x3f07b552	0.5301105
62	0x3d2bdb7d	0.041957367
63	0xbdee7d4a	-0.11644991
64	0xbf5d23e0	-0.86382866
65	0xbe91e9b7	-0.28498623
66	0x3d825843	0.06364491
67	0x3eb92f4a	0.3616889
68	0x3e2e3af6	0.1701468
69	0xbec8049c	-0.39066017
70	0x3d49bb70	0.04925102
71	0xbf0c86de	-0.5489329
72	0xbe994710	-0.2993703
73	0x3e144fd8	0.14483583
74	0x3d9c4f5b	0.07632323
75	0x3e80ffa8	0.2519505
76	0xbf5be9c4	-0.85903573
77	0xbe850c2c	-0.2598585
78	0xbf3df95e	-0.7420863
79	0xbf6bf9b4	-0.9217789
80	0xbf386bee	-0.7203969
81	0x3e580d48	0.21098816
82	0xbe9be544	-0.30448353
83	0xbf9f11df	-1.2427329
84	0x3dadab62	0.08479954
85	0x3b345a3f	0.0027519611
86	0x3ee905d8	0.4551227
87	0xbf6a7dd2	-0.91598237
88	0xbf49e5f4	-0.78866506
89	0x3f0f2869	0.55921036
90	0xbf03951b	-0.5139939
91	0x3f4d4ba2	0.8019353
92	0x3e9ff3a2	0.31240565
93	0xbe048c92	-0.12944248
94	0x3ab6f800	0.0013959408
95	0x3ec8a5e8	0.39189076
96	0xbe5b344a	-0.21406665
97	0x3eeb0629	0.45903137
98	0x3e4399c5	0.19101627
99	0x3eb48b9d	0.35262766

bias f4 [100]
0	0x3ed69a71	0.41914704
1	0x3ee12e91	0.4398084
2	0x3f10b78b	0.56530064
3	0x3f4c9870	0.799201
4	0x3edac45e	0.4272794
5	0xbf3438cc	-0.70399165
6	0x3e7e4cf4	0.24834043
7	0x3e3c8fd9	0.18414249
8	0x3f177573	0.5916359
9	0x3ea1cb64	0.31600487
10	0x3f142036	0.5786165
11	0xbf03157b	-0.5120465
12	0xbf493a23	-0.78604335
13	0xbeb81904	-0.35956585
14	0x3f41dfd8	0.75732183
15	0x3f4e8916	0.80677927
16	0x3f3ac03d	0.7294958
17	0xbf7d6466	-0.9898132
18	0xbeb8deed	-0.3610758
19	0xbd3d2985	-0.046182174
20	0x3ef47874	0.47748148
21	0x3f35e24e	0.7104844
22	0xbe57e137	-0.21082006
23	0x3e7f3502	0.24922565
24	0x3f45cc7a	0.7726513
25	0xbf3388b6	-0.7013048
26	0x3ecd613d	0.4011325
27	0xbe690eee	-0.22759601
28	0x3f096adc	0.5367868
29	0xbea81b20	-0.32833195
30	0xbddda110	-0.10821736
31	0x3f5a3138	0.8523135
32	0xbe4a69ed	-0.1976697
33	0x3f08c551	0.5342608
34	0x3f83103e	1.0239332
35	0xbf52236e	-0.8208531
36	0xbe821df1	-0.25413468
37	0xbecd4c95	-0.4009749
38	0x3f1acf34	0.60472417
39	0xbf828723	-1.019749
40	0x3e997b2c	0.29976785
41	0xbf1c0483	-0.60944384
42	0xbec952df	-0.39321038
43	0x3f34b6d0	0.7059145
44	0x3ee03ae5	0.43794933
45	0xbf5188e2	-0.8184949
46	0xbf39582e	-0.72400177
47	0x3f6be5b6	0.92147386
48	0x3e6199dc	0.22031349
49	0x3e809759	0.2511547
50	0x3e985f6f	0.2976031
51	0x3e93dc33	0.28878936
52	0xbc29c61f	-0.010362177
53	0xbf7b106a	-0.9807192
54	0x3ece7cd6	0.40329617
55	0xbf7fd38a	-0.9993216
56	0x3ee29da1	0.44260886
57	0xbf54126e	-0.8284062
58	0xbf09f9e2	-0.53896916
59	0xbea97312	-0.33095604
60	0x3f873b0f	1.0564898
61	0x3edd29b4	0.4319588
62	0x3f59ba42	0.8504983
63	0x3ea3e539	0.3201082
64	0xbf463ca4	-0.7743628
65	0x3f0ed66a	0.5579592
66	0x3f119b17	0.56877273
67	0x3e586c79	0.21135129
68	0xbeca9f33	-0.39574584
69	0xbf241d54	-0.6410725
70	0xbe26a419	-0.16273536
71	0xbc54c980	-0.0129874945
72	0xbf6cf4be	-0.92560947
73	0xbf7d8994	-0.9903805
74	0x3ddfd443	0.109291576
75	0xbea57b4a	-0.32320625
76	0xbe442db0	-0.19158053
77	0xbf01e858	-0.50745153
78	0xbf16e606	-0.5894474
79	0x3e64f81b	0.2236027
80	0x3ea2b6e0	0.31780148
81	0xbf4cf4a0	-0.8006077
82	0x3f74e835	0.9566682
83	0x3ec0724f	0.3758721
84	0xbef10fbd	-0.4708232
85	0xbc78e8b5	-0.0151922
86	0x3f28d66e	0.65952194
87	0x3e4a99f4	0.19785291
88	0xbed744b8	-0.42044616
89	0x3f14224a	0.5786482
90	0x3f2973a5	0.66192085
91	0x3f564983	0.8370592
92	0xbf1815ef	-0.5940847
93	0x3e725563	0.23665385
94	0xbe8d35e4	-0.27580178
95	0xbf2948a3	-0.6612646
96	0x3f2cb1ec	0.6745899
97	0xbf531db8	-0.8246722
98	0x3f14bab9	0.58097416
99	0x3edb352f	0.42814013

weight f4 [100, 100]
0	0x3cc06c80	0.023489237
1	0xbda0d7e2	-0.078536764
2	0x3d3a1872	0.04543347
3	0xbd9434d0	-0.07236636
4	0x3da8a6df	0.08234953
5	0x3db25c07	0.08708959
6	0x3c322d68	0.0108750835
7	0xbdb24b77	-0.087058
8	0xbc36c3d8	-0.011155091
9	0xbd15878c	-0.03650622
10	0xbd426be0	-0.04746616
11	0xbd899614	-0.06718078
12	0x3db2dac1	0.0873313
13	0x3cbc0ab4	0.022954322
14	0x3d8a8833	0.06764259
15	0xbd8f0cd8	-0.069848716
16	0x3dc1019f	0.09424137
17	0x3db38547	0.08765655
18	0x3d5d26c6	0.053992055
19	0xbcc441c8	-0.023957148
20	0x3d626f5e	0.05528199
21	0x3d47b726	0.04875865
22	0x3bbf8000	0.005844116
23	0xbd53574a	-0.051596917
24	0xbd0d4baa	-0.034495987
25	0x3d9cad15	0.076502
26	0xbc006f10	-0.007838979
27	0xbdcc1caf	-0.099664085
28	0xbd78cf2d	-0.060744453
29	0x3d8918dd	0.066941954
30	0x3c8d8c78	0.017278895
31	0xbcc544cc	-0.024080656
32	0x3d294bfa	0.041332223
33	0xbcdc3c14	-0.026884116
34	0xbd4532e7	-0.048144247
35	0x3da47851	0.08030761
36	0xbdb73593	-0.08945765
37	0x3d34c482	0.044132717
38	0x3d9b246b	0.075753056
39	0xbd0dc456	-0.03461107
40	0xbc1bf3f0	-0.009518608
41	0xbd94262b	-0.072338425
42	0x3d7fbd9e	0.062436692
43	0x3d459f0e	0.04824739
44	0x3d5f2fe2	0.054489024
45	0x3d08ddde	0.033414714
46	0x3d80612b	0.06268533
47	0x3d9c5bb7	0.07634681
48	0xbdba7038	-0.09103435
49	0x3d067c72	0.032833524
50	0xbcffd114	-0.031227626
51	0x3d0e3bc2	0.03472496
52	0x3c53e4d0	0.012932971
53	0x3da2fb45	0.07958082
54	0xbdb67ab0	-0.089101195
55	0x3d27a2ee	0.040926866
56	0x3dbd9f9d	0.092589594
57	0xbbfe5480	-0.007761538
58	0xbca5dc20	-0.020246565
59	0x3c7bf730	0.015378758
60	0xbd26c89a	-0.040718652
61	0xbdc24002	-0.09484865
62	0xbd4894d0	-0.048970044
63	0xbb824bd0	-0.0039763227
64	0xbdb16ee3	-0.08663728
65	0xbd8a3345	-0.0674806
66	0xbd4188e7	-0.0472497
67	0x3dbf9217	0.09354036
68	0x3da275d5	0.07932631
69	0x3cdca8d4	0.026935972
70	0xbd7649f7	-0.060129132
71	0xbd87972e	-0.06620632
72	0xbd2cb7a7	-0.042167332
73	0xbda07eb5	-0.078366674
74	0xbc30f998	-0.010801695
75	0xbcc50018	-0.024047896
76	0x3ca85db8	0.020552501
77	0xbcbf172c	-0.023326479
78	0xbca22c08	-0.019796386
79	0xbd76d0c7	-0.0602577
80	0xbc94e26c	-0.018174373
81	0x3d32c972	0.043649144
82	0xbcefac14	-0.029256858
83	0xbd0ccd8a	-0.034375705
84	0x3d9916a9	0.07475025
85	0x3d8c8b8b	0.06862553
86	0x3da7f185	0.08200363
87	0x3d9b2687	0.07575708
88	0xbd64da2d	-0.05587213
89	0x3daa4cb5	0.08315412
90	0x3d1fd842	0.0390246
91	0xbce2ebe0	-0.027700365
92	0x3d13611a	0.035981275
93	0x3d8177b9	0.063216634
94	0xbd2a6a6a	-0.04160539
95	0xbdae2eff	-0.085050575
96	0xbc75b310	-0.014996305
97	0xbda95ab2	-0.08269252
98	0x3cf62644	0.030047543
99	0xbd82bc45	-0.06383566
100	0xbd9000ff	-0.0703144
101	0xbdc9ebcc	-0.09859428
102	0xbe2ba97e	-0.16763875
103	0xbe0be008	-0.1365968
104	0xbda20e38	-0.07912868
105	0xbd8ec54b	-0.069712244
106	0xbdb490cd	-0.08816681
107	0xbe29999b	-0.16562502
108	0xbd41b761	-0.047294024
109	0xbe1c5b1a	-0.15269127
110	0xbd5985ae	-0.053106003
111	0xbdde83d4	-0.10864988
112	0xbd291b08	-0.041285545
113	0xbba51eb0	-0.0050390586
114	0xbe1bbc3b	-0.15208523
115	0xbe199c77	-0.15001093
116	0xbd9b4a8c	-0.07582578
117	0x3da5380b	0.0806733
118	0xbe4002fd	-0.1875114
119	0xbdfc2144	-0.123110324
120	0xbe6a32b5	-0.22870906
121	0xbe569b04	-0.20957571
122	0xbe254329	-0.16138901
123	0xbd1a1b78	-0.037623852
124	0xbdf0b5d5	-0.11753432
125	0x3d10587e	0.035240643
126	0xbd2d6eee	-0.04234212
127	0xbdbc1eca	-0.0918556
128	0xbd26780d	-0.040641833
129	0x3d278e3e	0.040907137
130	0xbd9ba852	-0.07600464
131	0xbe1ef6bd	-0.1552381
132	0xbe12b79d	-0.14327855
133	0xbe52977e	-0.20565602
134	0xbe1611aa	-0.14655176
135	0xbd59e4b0	-0.05319661
136	0xbe2aaff0	-0.16668677
137	0xbd1f3686	-0.038870357
138	0xbd62d9c5	-0.055383462
139	0xbe2461ab	-0.16052882
140	0xbde402b7	-0.1113333
141	0xbd6f0ed0	-0.058363736
142	0xbdbb4405	-0.09143833
143	0xbe1e7386	-0.15473756
144	0xbe3f4653	-0.1867917
145	0xbb961160	-0.004579708
146	0xbe26ed68	-0.16301501
147	0xbe4d6728	-0.20058882
148	0xbe358e87	-0.17730151
149	0xbe3c51d3	-0.18390588
150	0xbe4f6129	-0.20251907
151	0xbe4b474e	-0.1985142
152	0xbd1f65fa	-0.03891561
153	0xbd8509a8	-0.064959824
154	0xbd8b5c5e	-0.06804727
155	0x3dbe6143	0.09295895
156	0xbe4a8b2c	-0.19779652
157	0x3d02e4fe	0.031956665
158	0x3d15c486	0.036564372
159	0xbe32c6e3	-0.17458682
160	0xbdba3179	-0.090914674
161	0xbe1e3b24	-0.15452248
162	0xbe14cca1	-0.14531185
163	0xbddda82b	-0.10823091
164	0x3b2bdc40	0.0026223809
165	0xbe3fa81e	-0.18716475
166	0xbe007c6a	-0.1254746
167	0xbe45ab11	-0.19303538
168	0xbe429e74	-0.19005758
169	0xbda06dc8	-0.07833439
170	0xbbf5e6a0	-0.0075042993
171	0x3c1cec58	0.009577833
172	0x3d86062d	0.06544147
173	0xbcd43e80	-0.025908709
174	0xbd8fb8dd	-0.07017682
175	0xbde5fa14	-0.11229339
176	0xbcafad88	-0.02144505
177	0x3cf37e7c	0.029723398
178	0x3c907ad4	0.017636694
179	0xbe209828	-0.15683043
180	0xbe41cc62	-0.18925622
181	0xbdcbd412	-0.099525586
182	0xbde80371	-0.113287814
183	0xbda7630e	-0.0817319
184	0x3dca6cbd	0.098840214
185	0xbe12a9bc	-0.14322561
186	0xbe466bf7	-0.19377123
187	0xbe5f389d	-0.2179894
188	0x3d369482	0.04457522
189	0xbe104287	-0.14087878
190	0xbe4ac7a7	-0.19802724
191	0xbdb38740	-0.08766031
192	0xbdd6d6a4	-0.10490158
193	0xbdd599ec	-0.10429749
194	0xbd40d9ca	-0.0470827
195	0xbe1eb40d	-0.15498371
196	0xbe24cc86	-0.16093644
197	0xbd05cd67	-0.03266659
198	0xbd68501d	-0.056717027
199	0xbdb7513c	-0.08951041
200	0xbd855363	-0.065100454
201	0xbda2b616	-0.079448864
202	0x3c6876fd	0.014188525
203	0xbd1fe023	-0.039032113
204	0xbe0567e3	-0.13027911
205	0xbdc9d183	-0.09854414
206	0xbcdeae3a	-0.027182687
207	0xbd110480	-0.035404682
208	0xbc965ecd	-0.018355751
209	0xbdc6eeba	-0.09713502
210	0xbd28d9ab	-0.04122321
211	0xbdd546d0	-0.10413897
212	0x3cce95f4	0.025217988
213	0x3d96c5ef	0.073619716
214	0x3c7665ea	0.015038947
215	0x3cd0894a	0.02545609
216	0xbd4502e8	-0.048098475
217	0x3d00fb32	0.03148956
218	0xbdefdbd9	-0.117118545
219	0xbdcc3a3b	-0.09972044
220	0xbdcc838c	-0.09986028
221	0xbd0be64d	-0.03415518
222	0xbd9abb5b	-0.075552665
223	0xbbe8e73c	-0.0071076434
224	0xbdf2b6ee	-0.11851297
225	0x3d998451	0.074959405
226	0xbd971931	-0.07377852
227	0xbdf5aa89	-0.119954176
228	0xbdefb0be	-0.11703633
229	0x3d8be0d9	0.06829996
230	0xbdc00d80	-0.09377575
231	0xbd74ad72	-0.059735723
232	0xbdbd45d3	-0.092418335
233	0x3d0fbbf3	0.03509135
234	0xbd90079b	-0.07032701
235	0xbdcb34cb	-0.09922179
236	0xbd5bdb8e	-0.05367618
237	0xbe0f98b6	-0.14023098
238	0xbd9cd03e	-0.076569065
239	0xbd7786b5	-0.0604312
240	0x3ab6456a	0.0013906185
241	0xbe0f0875	-0.1396807
242	0xbdae9ef9	-0.085264154
243	0xbdb18fa2	-0.08669974
244	0xbdc8ec70	-0.09810722
245	0xbdb4e4c5	-0.08832697
246	0xbdacc968	-0.08436853
247	0xbc2465aa	-0.010034004
248	0xbd2aa6de	-0.041663043
249	0xbe1da5a1	-0.15395214
250	0xbce09c6f	-0.027418343
251	0x3cc96c46	0.024587762
252	0xbba10872	-0.004914337
253	0x3d0a71c4	0.0337999
254	0x3db13fd9	0.08654756
255	0xbd895666	-0.06705932

bias f4 [100]
0	0xbd885aca	-0.06657942
1	0xbda5d372	-0.080969706
2	0xbdc1f7c6	-0.09471087
3	0xbdd99eb1	-0.10625971
4	0xbde8bb77	-0.11363881
5	0xbda92041	-0.08258105
6	0xbde5a346	-0.112127826
7	0xbda0af33	-0.078459166
8	0x3cdf2e1b	0.027243664
9	0xba5e92b1	-0.00084904867
10	0x3dabecf3	0.08394804
11	0x3cfe4e9a	0.03104334
12	0x3b8c1766	0.0042752502
13	0x3d56d6c2	0.052450903
14	0xbde93fb8	-0.113891065
15	0x3d0e8659	0.034796093
16	0xbda68449	-0.081307
17	0x3da56c68	0.080773175
18	0xbe22a4a2	-0.15883115
19	0xbc8a8215	-0.016907731
20	0xbda92aed	-0.082601406
21	0xbe32829c	-0.17432636
22	0xbdde4556	-0.108530685
23	0xbd9bc167	-0.07605248
24	0x3ce64698	0.028109834
25	0x3d2b2f27	0.041793015
26	0x3cdda6cf	0.02705708
27	0xbdb2afc7	-0.08724933
28	0xbc06a450	-0.008217886
29	0xbc9c676c	-0.019092284
30	0xbc2491d4	-0.010044534
31	0x3b510600	0.0031894445
32	0x3cdea344	0.02717746
33	0xbcb0c518	-0.021578357
34	0xbdbca46d	-0.09211049
35	0x3d333e8d	0.043760825
36	0x3e04f46b	0.12983863
37	0x3cd0d981	0.025494339
38	0x3c7e6f69	0.015529492
39	0xbd627777	-0.05528971
40	0x3d1a93b9	0.037738536
41	0x3c3b7bbc	0.011443075
42	0x3d829a30	0.06377065
43	0x3d068091	0.032837454
44	0xbd74b250	-0.059740365
45	0x3c0dc0ab	0.008651893
46	0xbdf8c25e	-0.121464476
47	0xbd3fbf18	-0.0468131
48	0xbdc1062f	-0.094250076
49	0xbd8b0587	-0.06788164
50	0xbc061752	-0.008184271
51	0xbd669c2b	-0.056301277
52	0xbe23381f	-0.15939377
53	0xbddea516	-0.108713314
54	0xbdaa9477	-0.08329099
55	0xbd6fbe7c	-0.05853127
56	0xbd4d0570	-0.050054014
57	0x3d676a3a	0.05649779
58	0x3d4f1674	0.050558522
59	0xbc8f7575	-0.017512063
60	0x3d9824d1	0.07428897
61	0x3bfe21c4	0.00775549
62	0xbd9c062c	-0.07618365
63	0xbd1cb175	-0.038255174
64	0xbd5a87a0	-0.053352
65	0xbe287e0a	-0.1645433
66	0xbdba2b0b	-0.09090241
67	0x3c97b6aa	0.018519718
68	0x3cdfaf43	0.027305251
69	0xbda764c6	-0.08173518
70	0xbde9583b	-0.11393782
71	0xbd0e8d18	-0.034802526
72	0x3d440242	0.047853716
73	0xbe19501e	-0.14971969
74	0xbda41aac	-0.080129
75	0x3d5f3fe2	0.054504283
76	0x3b1081c7	0.002205001
77	0xbdc31713	-0.095258854
78	0xbdad6a97	-0.08467596
79	0xbddc85ee	-0.107677326
80	0xbe2dc150	-0.16968274
81	0xbe0cd687	-0.1375371
82	0x3da1052d	0.07862315
83	0xbd6c62cd	-0.05771141
84	0xbd503c61	-0.05083883
85	0xbb895ce3	-0.004191981
86	0x3bca35f5	0.006170983
87	0xbd472bae	-0.04862564
88	0xbd93322a	-0.071873024
89	0x3d4265af	0.047460254
90	0xbe1622c6	-0.14661703
91	0xbd05646b	-0.03256647
92	0xbd075ea3	-0.033049237
93	0xbdd7e7c9	-0.105422564
94	0x3ba0c7d0	0.004906632
95	0xbd996428	-0.074898064
96	0xbce8b0e8	-0.028404668
97	0xbdbab31d	-0.091161944
98	0x3bb6b4df	0.0055757607
99	0xbceab722	-0.028651778

weight f4 [6, 100]
0	0x3d4bc506	0.049748443
1	0x3dc00e28	0.093777
2	0x3e234198	0.15942991
3	0xbd0bfc78	-0.03417632
4	0xbc43fdcf	-0.011962368
5	0x3e1628df	0.14664029
6	0x3e14a5ba	0.14516345
7	0x3d1a7a52	0.03771431
8	0x3be2898a	0.0069133686
9	0x3b985580	0.0046488643
10	0xbdad2610	-0.084545255
11	0xbd1eaa66	-0.038736723
12	0xbcfdfb93	-0.031003749
13	0xbdc22f0f	-0.09481632
14	0x3db37f36	0.08764498
15	0xbc1d0d78	-0.009585731
16	0xbca3e4f7	-0.02000664
17	0xbc4dd43f	-0.01256281
18	0x3d8ce455	0.068794884
19	0x3b0037bf	0.0019564477
20	0xbdaf27c0	-0.085525036
21	0x3e3bd59c	0.18343204
22	0x3dc129f1	0.09431828
23	0x3dbb24d8	0.09137887
24	0xbd2027dd	-0.039100517
25	0xbc526295	-0.012840887
26	0x3d14caed	0.036326338
27	0x3d0741aa	0.033021607
28	0x3ad8d380	0.0016542524
29	0x3d905a9b	0.070485316
30	0x3bddaa2d	0.0067646713
31	0xbd0d6a17	-0.034525003
32	0x3d96c1cf	0.07361185
33	0x3d850be1	0.06496406
34	0x3e219787	0.1578046
35	0x3c58350e	0.013196243
36	0xbcd2c66f	-0.025729386
37	0x3d84a6cc	0.064771265
38	0x3d9ae51a	0.07563229
39	0xbcc18940	-0.023625016
40	0x3d10c386	0.035342716
41	0x3de5d17f	0.11221599
42	0xbdce8478	-0.1008386
43	0x3d0b613e	0.034028284
44	0xbdb931df	-0.09042715
45	0x3ce35548	0.027750626
46	0xbd02cb28	-0.031932026
47	0xbdbc9625	-0.09208325
48	0x3b12eb16	0.0022417954
49	0xbbeda1d6	-0.0072519584
50	0xbd27f652	-0.041006394
51	0x3d583c81	0.052792076
52	0xbced1e2e	-0.028945055
53	0xbc7ad0a5	-0.015308534
54	0x3e02d611	0.12776972
55	0xbcc8b0fa	-0.024498452
56	0x3d0222c2	0.03177143
57	0xbd789707	-0.060690906
58	0xba7b28e3	-0.0009580983
59	0x3e104485	0.14088638
60	0x3c82774e	0.01592603
61	0x3d58a187	0.05288842
62	0xbc6e1c73	-0.01453315
63	0x3d1b66ae	0.03793972
64	0xbcedeacc	-0.029042624
65	0x3dcbd1ea	0.09952147
66	0xbdb912cb	-0.090367876
67	0xbd8fa7cd	-0.07014427
68	0x3dca34bc	0.098733395
69	0x3d7fd61e	0.062460057
70	0xbe13211b	-0.14368097
71	0xbd8995da	-0.06718035
72	0xbd5d213a	-0.053986765
73	0x3db40cd1	0.08791507
74	0x3c662c64	0.0140486695
75	0x3d617216	0.05504044
76	0xbbf169e0	-0.0073673576
77	0xbb801430	-0.0039086565
78	0xbc7d136a	-0.015446523
79	0xbca7c7de	-0.020481046
80	0x3cdfafe3	0.027305549
81	0xbc930ac7	-0.017949475
82	0x3bec8db9	0.007219043
83	0xbb808e20	-0.0039231926
84	0x3c85041d	0.016237313
85	0x3cd3e085	0.025863895
86	0x3bf72a88	0.007542912
87	0x3dc5c72e	0.09657131
88	0xbd7b15b2	-0.061299987
89	0x3c8518b1	0.016247125
90	0xbd5c2299	-0.053743932
91	0x3de92f2d	0.11385951
92	0x3cfb4d45	0.030676493
93	0x3d35639b	0.044284444
94	0xbda08a63	-0.07838895
95	0xbcf5fc58	-0.030027553
96	0xbb621b60	-0.003450118
97	0x3bf3d83c	0.0074415486
98	0x3d442857	0.047890034
99	0x3d2288a1	0.03968108
100	0x3d415006	0.047195457
101	0x3e1a61f0	0.15076423
102	0x3db5e123	0.08880832
103	0xbbe1292d	-0.0068713636
104	0x3d082abb	0.033243876
105	0x3d149c1d	0.036281694
106	0xbcbcc724	-0.023044176
107	0x3c540170	0.012939796
108	0x3cabf926	0.020992827
109	0xbc63ff03	-0.01391578
110	0xbdcc7998	-0.0998413
111	0xbb5c4849	-0.0033612421
112	0x3d3b26b3	0.045691203
113	0xbd9e30e2	-0.077241674
114	0x3de31dbf	0.11089658
115	0x3ba76b9d	0.005109264
116	0x3daa9f1e	0.083311304
117	0xbb80b9a7	-0.0039283815
118	0x3ccccde5	0.025000522
119	0xbb370d55	-0.002793153
120	0xbd8562b4	-0.06512967
121	0x3db36564	0.08759573
122	0xbd24e56c	-0.040257856
123	0xbd26b837	-0.040703025
124	0x3cf277e5	0.029598186
125	0xbd041917	-0.03225049
126	0xbc0131f5	-0.007885446
127	0xbd3afaf3	-0.04564948
128	0xbd7917d0	-0.060813725
129	0xbd313ac3	-0.04326893
130	0xbc3f181f	-0.011663466
131	0x3d557c56	0.05212053
132	0x3d4920ee	0.04910367
133	0xbd0fa3e6	-0.035068415
134	0x3c0419bb	0.008062775
135	0x3ac23185	0.0014815783
136	0xbd09f5cb	-0.033681672
137	0xbd6ace82	-0.057325847
138	0x3d0ed57b	0.03487156
139	0x3d17bdc2	0.0370462
140	0x3c842152	0.01612917
141	0xbcea3312	-0.028588805
142	0x3d808653	0.0627562
143	0x3bf651a3	0.007517056
144	0xbcf573c8	-0.029962435
145	0xbc42e36f	-0.011895045
146	0xbc2e01cd	-0.0106205465
147	0x3c56145c	0.0130663775
148	0xbb30594d	-0.0026908696
149	0x3c21cf66	0.009876108
150	0x3cb2c5bb	0.0218228
151	0xbc849c11	-0.0161877
152	0xbe0d4a76	-0.13797936
153	0x3cb6709b	0.022270491
154	0x3dd9229c	0.10602304
155	0x3ca759dc	0.02042859
156	0x3ceffe94	0.029296197
157	0x3d85a9c3	0.0652652
158	0x3b0bf4ff	0.0021355746
159	0xbd2f25bd	-0.0427606
160	0x3c3f63b9	0.011681491
161	0x3beba5ca	0.0071913945
162	0xbcc2604a	-0.023727555
163	0x3daf0433	0.08545723
164	0xbcbd2b48	-0.023091927
165	0xbda0ab94	-0.07845226
166	0x3d27940e	0.04091268
167	0xbd2383cd	-0.039920617
168	0x3c955ff7	0.018234236
169	0x3cb65b66	0.022260379
170	0xbd1b542d	-0.037922073
171	0xbd8950dd	-0.067048766
172	0xbd6cf767	-0.05785313
173	0x3c8aa2ba	0.016923297
174	0xbc85e876	-0.016346198
175	0xbb9dd780	-0.0048169494
176	0x3d81b0ad	0.06332526
177	0xbdbe33ef	-0.09287249
178	0xbc9f24c0	-0.019426703
179	0xbc9f749f	-0.019464789
180	0x3da7821e	0.08179115
181	0x3d21fedc	0.039549693
182	0xbd03f7f1	-0.032218877
183	0xbd0bdc24	-0.03414549
184	0x3b73ef8b	0.0037221636
185	0x3b84f01b	0.004056943
186	0x3a7f552a	0.00097401685
187	0x3deea6cd	0.116529085
188	0x3cb00215	0.021485368
189	0xbd521f6b	-0.051299494
190	0xbc206a16	-0.009790918
191	0xbd09c2c3	-0.033633005
192	0x3da96876	0.082718775
193	0x3bb5842f	0.005539439
194	0x3d00c956	0.03144201
195	0x3dad2231	0.08453787
196	0x3cea9d64	0.028639503
197	0x3e155c93	0.14586096
198	0xbc69e75c	-0.014276352
199	0x3d02946b	0.031879824
200	0xbd70a1ba	-0.058747984
201	0x3d1bbb45	0.03802039
202	0xbdfae603	-0.122509025
203	0x3c35ac56	0.011088451
204	0xbd1a97d4	-0.03774245
205	0x3b47d791	0.0030493478
206	0xbd99ac02	-0.07503511
207	0xbd6c1430	-0.05763644
208	0xbd07d3b0	-0.033160865
209	0xbdd43eb8	-0.10363525
210	0xbd82a282	-0.06378652
211	0xbdf01a3c	-0.11723754
212	0xbd331218	-0.043718427
213	0xbc5ade80	-0.013358712
214	0x3b5703fa	0.0032808767
215	0xbd89b0a6	-0.06723146
216	0xbd106230	-0.03524989
217	0xbcf3c524	-0.02975709
218	0x3ded6b3b	0.11592718
219	0x3d669787	0.05629685
220	0x3b0463a0	0.0020200983
221	0xbe45747e	-0.1928272
222	0x3c63a75c	0.013894882
223	0xbc49a874	-0.012308229
224	0xbd3ab58e	-0.0455833
225	0x3c831e17	0.016005559
226	0x3d3b8025	0.045776505
227	0x3b5c65a0	0.003362991
228	0x3be6ce60	0.007043645
229	0xbd13bbaa	-0.036067642
230	0xbb75365d	-0.0037416436
231	0xbe071726	-0.13192424
232	0xbcda8cb4	-0.02667842
233	0xbd061e46	-0.032743715
234	0xbc4f13d1	-0.012639002
235	0xbca328f8	-0.019916996
236	0xbcc56c9b	-0.024099639
237	0x3d5bd3c9	0.05366877
238	0xbd9ddb95	-0.077078976
239	0x3b3ef5c0	0.0029138178
240	0xbde5a618	-0.112133205
241	0xbe24906c	-0.16070718
242	0x3dab6e7e	0.08370684
243	0xbcb8f0f5	-0.022575835
244	0x3d6c8ce2	0.057751544
245	0x3cc4eb0a	0.024037857
246	0x3e2464fd	0.16054149
247	0x3d78eeb3	0.060774516
248	0x3d7948c3	0.060860407
249	0x3be05fa8	0.0068473406
250	0xbd2c794b	-0.04210786
251	0x3cfd5468	0.030924037
252	0xbe00f651	-0.12593962
253	0x3c01217d	0.007881519
254	0xbe102020	-0.14074755
255	0xbd865b9d	-0.065604426

bias f4 [6]
0	0x3e1c9d6f	0.15294431
1	0x3d1af36a	0.037829794
2	0xbd562d9f	-0.0522896
3	0xbe23c1ba	-0.1599187
4	0xbc9b11b1	-0.018929334
5	0x3e3fa853	0.18716554
