WeakLossVectorClassExample/Models/F16_model.pt (torch, 45287 bytes, 6 tensors)

weight f4 [100, 1]
0	0x3e8818a4	0.265813
1	0xbee25e70	-0.44212675
2	0x3e8cd62f	0.2750716
3	0xbe71c170	-0.23608947
4	0x3f7752af	0.9661054
5	0xbf6fc278	-0.9365611
6	0xbf318edd	-0.6935862
7	0x3f2d3ee0	0.67674065
8	0xbf4853f8	-0.78253126
9	0x3eeb1d8c	0.4592098
10	0x3f560e39	0.8361545
11	0xbed1560c	-0.4088596
12	0x3f29a3dc	0.66265655
13	0x3efb8641	0.49125865
14	0xbf63ce5c	-0.88986754
15	0xbf47f687	-0.78110546
16	0xbf5923a4	-0.8482001
17	0x3f8cca48	1.0999231
18	0xbf1fa302	-0.62358105
19	0x3f71fe58	0.9452872
20	0xbf320c70	-0.6955023
21	0x3e59cf20	0.21270418
22	0xbf2074d6	-0.6267828
23	0xbf37d1af	-0.71804327
24	0xbcf80200	-0.030274391
25	0xbf6eaf56	-0.9323629
26	0xbf3fc066	-0.7490295
27	0xbf2871c4	-0.6579859
28	0xbf533dea	-0.8251635
29	0xbe940a94	-0.2891432
30	0xbf56b87e	-0.8387526
31	0x3f071e9f	0.527811
32	0xbf86eda5	-1.0541273
33	0xbe40fe1f	-0.1884694
34	0xbf7be6e2	-0.98399174
35	0xbda78230	-0.08179128
36	0x3ee4a34f	0.44655845
37	0x3e9ef89c	0.3104905
38	0xbf7362cc	-0.9507263
39	0xbf7cbc88	-0.98725176
40	0xbedca328	-0.43093228
41	0x3dc32564	0.09528616
42	0xbf30c392	-0.69048417
43	0xbeeac44f	-0.45852897
44	0x3edf7440	0.4364338
45	0x3eb6725c	0.35634124
46	0xbe9b5924	-0.30341446
47	0x3f6f20e8	0.93409586
48	0x3e6652c0	0.22492504
49	0xbf488ba0	-0.7833805
50	0xbf259c20	-0.6469135
51	0x3e5b9a80	0.21445656
52	0xbf365b0c	-0.71232677
53	0x3f18ebd3	0.5973484
54	0xbe86ccbe	-0.2632808
55	0x3ecbb10d	0.39783517
56	0xbf84dee7	-1.0380524
57	0x3ec32d85	0.38120666
58	0x3ef81e8b	0.48460802
59	0x3cf960c0	0.030441642
60	0xbee1b2b8	-0.44081664
61	0x3f2c3839	0.6727329
62	0x3e34c670	0.17653823
63	0x3f54b0ec	0.8308246
64	0xbf02899c	-0.50991225
65	0xbf68a2f6	-0.9087366
66	0xbf648d32	-0.89277947
67	0xbf7dffd0	-0.99218464
68	0x3f54a49d	0.8306368
69	0x3e2aaf40	0.16668415
70	0xbe55efe8	-0.20892298
71	0x3eb954f9	0.36197641
72	0x3f50f433	0.8162262
73	0x3f20f1ac	0.6286876
74	0xbf706bae	-0.93914306
75	0xbf2efb16	-0.68351877
76	0x3f7134cc	0.94221187
77	0xbe6f2f87	-0.23357974
78	0x3eb6a00e	0.35668987
79	0xbdbda100	-0.09259224
80	0x3f22a093	0.63526267
81	0x3f6ae5d7	0.9175696
82	0xbdd7a61d	-0.105297305
83	0xbdae2730	-0.08503568
84	0xbe96cdf7	-0.29454014
85	0x3e8013af	0.25015017
86	0xbdf5b475	-0.1199731
87	0xbe7f2f85	-0.24920471
88	0x3d8436c2	0.06455757
89	0x3f158602	0.58407605
90	0x3d8f4e60	0.06997371
91	0x3f03e1c0	0.5151634
92	0xbeb5d178	-0.35511374
93	0xbf10db12	-0.56584275
94	0xbed0a634	-0.40751803
95	0xbf4acec0	-0.79221725
96	0xbe31b2f0	-0.17353415
97	0xbc95151f	-0.018198548
98	0x3f7af904	0.9803622
99	0x3f15e9b6	0.5855974

bias f4 [100]
0	0xbf1a05b8	-0.60164976
1	0xbedf9850	-0.43670893
2	0x3f0efb2a	0.55851996
3	0x3f440c53	0.76581305
4	0x3f5a55e2	0.85287297
5	0xbef6f724	-0.48235428
6	0x3e80abbc	0.25131023
7	0x3f3546e5	0.708113
8	0xbf6e2294	-0.9302151
9	0xbf59798e	-0.849511
10	0xbf54e8c7	-0.8316769
11	0x3ef91687	0.4865
12	0x3eab4267	0.33449098
13	0x3ed9a16c	0.42505968
14	0xbd483163	-0.048875224
15	0x3eff3ba4	0.4985019
16	0x3e9eba60	0.31001568
17	0xbeb13236	-0.3460862
18	0xbf0dc5b8	-0.5537982
19	0x3f0059b2	0.50136864
20	0xbd9e47f0	-0.07728565
21	0xbeef3570	-0.46720457
22	0x3f12fe11	0.57418925
23	0x3ed1ae45	0.4095327
24	0xbe85c1bc	-0.2612437
25	0xbecd1664	-0.40056145
26	0xbf29f76a	-0.6639315
27	0xbef6b0b4	-0.4818169
28	0xbec43ec8	-0.38329148
29	0xbf46dcd0	-0.77680683
30	0xbf0535d2	-0.5203525
31	0xbf11ec05	-0.5700076
32	0x3e468aaf	0.19388841
33	0x3e6e35e2	0.23262742
34	0x3ef0a6f2	0.4700237
35	0xbf586d34	-0.8454163
36	0x3ef3d620	0.47624302
37	0xbd5005e2	-0.05078686
38	0xbf4d320e	-0.801545
39	0xbf01fec6	-0.5077938
40	0x3f0d50fd	0.55201703
41	0xbe1ee01f	-0.15515183
42	0xbf26b124	-0.65114045
43	0x3f2e882b	0.68176526
44	0xbf1561be	-0.5835227
45	0x3f7d0b23	0.9884512
46	0x3e1a6911	0.15079142
47	0xbf390445	-0.7227214
48	0xbe97a064	-0.29614556
49	0x3ed0f211	0.40809682
50	0xbf778936	-0.9669374
51	0xbf47b194	-0.7800534
52	0xbe9d901c	-0.3077401
53	0xbd97eef5	-0.07418624
54	0x3df11e16	0.117733166
55	0x3f58ca34	0.8468354
56	0x3eae76be	0.34074968
57	0x3f0a97b7	0.5413775
58	0xbf0b8b56	-0.54509485
59	0xbf3714b6	-0.7151598
60	0xbf75fc10	-0.9608774
61	0xbcaf14e8	-0.021372274
62	0xbf79c5e2	-0.9756757
63	0xbf6450b1	-0.89185625
64	0x3e6477d1	0.22311331
65	0xbe807138	-0.2508638
66	0xbe97d14c	-0.29651868
67	0xbd517840	-0.05114007
68	0xbcfd8c5f	-0.030950723
69	0xbeb52cf4	-0.3538586
70	0xbedba434	-0.42898715
71	0xbe5562c5	-0.20838459
72	0xbe51c498	-0.20485151
73	0xbf4b464a	-0.7940413
74	0xbf7a7124	-0.9782889
75	0x3f2322d8	0.6372504
76	0x3e96bc42	0.29440504
77	0x3e78680b	0.24258439
78	0x3eb29b2f	0.3488402
79	0xbf5b1654	-0.85580945
80	0xbe1a9661	-0.15096428
81	0xbf760f28	-0.96116877
82	0x3e1e56fa	0.15462866
83	0xbee1ebf8	-0.44125342
84	0x3f0a5797	0.540399
85	0x3f1611bd	0.58620816
86	0xbdc96707	-0.09834104
87	0x3f11c511	0.56941324
88	0xbe3c2c4f	-0.18376277
89	0xbf6dbd9e	-0.9286746
90	0xbea8970c	-0.3292774
91	0x3e27e2a5	0.16395052
92	0xbf701652	-0.9378406
93	0x3e6b01bd	0.22949882
94	0x3f3be6e4	0.73399186
95	0x3f84814a	1.0351956
96	0xbf690a26	-0.9103111
97	0xbe01cad8	-0.12675035
98	0xbeabd841	-0.33563426
99	0x3effc312	0.49953514

weight f4 [100, 100]
0	0xbdc55233	-0.09634819
1	0xbd2af617	-0.041738596
2	0xbd1eb4ea	-0.03874675
3	0xbc40644c	-0.011742663
4	0xbdaea9ce	-0.085284814
5	0xbc90946c	-0.017648898
6	0xbce0461a	-0.027377177
7	0xbd5dd1cc	-0.054155156
8	0xbdc6b2d5	-0.09702078
9	0xbd95dda8	-0.07317668
10	0xbddb7520	-0.10715699
11	0x3d9087cb	0.070571505
12	0x3d9e6aed	0.07735238
13	0xbd690dd3	-0.05689795
14	0x3e092067	0.13391267
15	0xbd6dc8ff	-0.058053013
16	0x3d887da2	0.066645876
17	0xbdfe2695	-0.12409703
18	0x3d453896	0.048149668
19	0xbdc7a9e2	-0.097491995
20	0x3d048696	0.032354914
21	0x3d85b661	0.06528927
22	0x3da674ec	0.0812777
23	0x3ca0863f	0.019595264
24	0xbdaf6277	-0.085637026
25	0xbcc6a760	-0.024249732
26	0xbcea5fcc	-0.028610133
27	0x3d811019	0.063018985
28	0xbcab5c4c	-0.020918034
29	0x3ce233c4	0.027612574
30	0x3db43357	0.08798855
31	0xbd52c170	-0.051454008
32	0x3c91bb5f	0.01778954
33	0xbd913a85	-0.0709124
34	0x3dc4e3ae	0.09613739
35	0xbb142a60	-0.0022608265
36	0xbd67538c	-0.05647616
37	0xbdd36f5f	-0.10323977
38	0x3d82ef7f	0.063933365
39	0x3da2ec89	0.07955272
40	0x3dc063b7	0.09394019
41	0xbcd59939	-0.026074039
42	0xbd88e8d8	-0.066850364
43	0xbcd32c63	-0.025778001
44	0xbd5aac9a	-0.053387262
45	0x3d927497	0.07151144
46	0x3acaa847	0.0015461528
47	0x3ce98514	0.02850584
48	0x3d987dcb	0.07445868
49	0xbd962c60	-0.073326826
50	0xbdc5df6f	-0.09661757
51	0x3dc737d3	0.097274445
52	0x3cea29f4	0.028584458
53	0xbd760260	-0.06006086
54	0xbba401ef	-0.0050051133
55	0xbc564dfb	-0.013080115
56	0x3db5da7f	0.088795654
57	0xbd86643f	-0.06562089
58	0x3d5021c2	0.050813444
59	0x3cc0856c	0.02350112
60	0x3c212cf0	0.009837374
61	0x3d8849dd	0.06654713
62	0xbdabfce0	-0.083978415
63	0xbc99a8a2	-0.018757168
64	0x3d772337	0.060336318
65	0xbd8516fd	-0.06498525
66	0xbdbff4b2	-0.09372844
67	0x3da85655	0.082195915
68	0xbd406aba	-0.046976782
69	0xbd08d53a	-0.033406474
70	0xbdbf3eea	-0.09338172
71	0xbd2258dc	-0.039635524
72	0x3cfe7f6c	0.031066619
73	0xbda13e6d	-0.07873235
74	0xbd6113e0	-0.054950595
75	0xbda97c10	-0.08275616
76	0xbdae9eb0	-0.08526361
77	0x3d880e44	0.06643346
78	0xbda1207a	-0.078675225
79	0xbd9e305e	-0.07724069
80	0x3bc9ddd2	0.0061604762
81	0x3d66f5f2	0.056386895
82	0xbda891e7	-0.08230954
83	0x3da5df91	0.080992825
84	0x3d989d61	0.07451893
85	0x3d599be6	0.053127192
86	0xbda35c34	-0.07976571
87	0x3daf7dc0	0.08568907
88	0x3d29361c	0.04131137
89	0xbd7aa770	-0.061194837
90	0xbd9ebb10	-0.07750523
91	0xbd4d4f37	-0.050124373
92	0x3d1d5aa2	0.038416512
93	0xbbabd7e7	-0.0052442434
94	0xbd5d9aa7	-0.054102566
95	0xbdb11902	-0.08647348
96	0xbd92a66d	-0.071606494
97	0xbd37a85a	-0.044838287
98	0xbd864bf5	-0.065574564
99	0x38ca39e0	9.642891e-05
100	0x3dc95a51	0.098316796
101	0xbda6fd08	-0.08153731
102	0xbda56718	-0.08076304
103	0xbdcb053d	-0.099131085
104	0xbc452d9e	-0.012034802
105	0x3db9016b	0.090334736
106	0x3d0b2564	0.033971205
107	0xbdfba147	-0.122866206
108	0x3d9c794b	0.07640322
109	0x3d61129e	0.054949395
110	0x3c096fe6	0.008388495
111	0xbde9ea86	-0.11421685
112	0x3d391a0e	0.045190863
113	0x3d3be322	0.045870908
114	0xbd24d7cc	-0.040244862
115	0xbd97a85c	-0.07405159
116	0xbc1ed8f0	-0.009695277
117	0xbc8f0e73	-0.017462945
118	0x3c0b7480	0.0085116625
119	0xbdafe942	-0.08589412
120	0x3d3186ba	0.043341376
121	0xbda06e40	-0.078335285
122	0xbc4d8d6f	-0.012545927
123	0xb800d278	-3.0713592e-05
124	0x3cb95f78	0.02262853
125	0x3c809a98	0.015698716
126	0x3d5582fa	0.052126862
127	0xbc773ad8	-0.015089713
128	0x3a30e800	0.0006748438
129	0x3db49d91	0.08819116
130	0x3b9f88a0	0.004868582
131	0xbd6ede6c	-0.058317587
132	0xbdc3fe2e	-0.09569965
133	0xbd8fcda9	-0.070216484
134	0xbbd2b854	-0.006430665
135	0xbd329c20	-0.043605924
136	0xbe10b7a9	-0.14132561
137	0xbcbf47ce	-0.023349669
138	0xbce9d8f8	-0.028545842
139	0xbdc25383	-0.09488585
140	0x3c84c7be	0.016208526
141	0xbe008901	-0.12552263
142	0x3d84993f	0.06474542
143	0xbc9305d0	-0.017947108
144	0xbd1f209d	-0.03884946
145	0xbd1a11ad	-0.037614513
146	0xbd02c62b	-0.03192727
147	0xbd16c7d8	-0.03681168
148	0xbc85f768	-0.016353324
149	0xbd973ba4	-0.073844224
150	0x3d483256	0.04887613
151	0x3d71a1f2	0.058992334
152	0x3db84b19	0.08998699
153	0xbdec232d	-0.11530147
154	0xbd81ee9f	-0.063443415
155	0xbdd28bcd	-0.10280571
156	0xbe14d43f	-0.1453409
157	0x3d376c19	0.044780824
158	0x3dad256f	0.084544055
159	0xbdb4fd88	-0.0883742
160	0x3d6941c2	0.056947477
161	0xbe0bc6ef	-0.13650106
162	0xbd76e4b3	-0.0602767
163	0x3be5dabd	0.007014601
164	0x3d4b2698	0.049597353
165	0x3db0cfaf	0.086333625
166	0x3c8b360c	0.016993545
167	0x3dad3acf	0.084584825
168	0xbd8818b2	-0.06645335
169	0x3d593eba	0.053038336
170	0x3d352a92	0.04423005
171	0x3c6047ff	0.01368904
172	0x3c6f5a62	0.014608951
173	0xbda2b4aa	-0.07944615
174	0x3d6f82ea	0.05847446
175	0xbd897d64	-0.067133695
176	0xbdb2e761	-0.08735538
177	0xbe0f2367	-0.13978349
178	0x3d18d922	0.03731645
179	0xbd459acd	-0.048243333
180	0xbdd5f309	-0.10446746
181	0xbd6b4fed	-0.05744927
182	0xbdeaf6a5	-0.11472825
183	0xbd12eb6a	-0.03586904
184	0xbdede26d	-0.11615453
185	0xbdcb6210	-0.09930813
186	0xbd95753d	-0.07297752
187	0x3c331efb	0.010932679
188	0xbc8e57d8	-0.017375872
189	0xbdc6af67	-0.09701424
190	0xbd81d5dc	-0.063396186
191	0x3d55cf09	0.052199397
192	0x3cc0e498	0.023546502
193	0xbe0d0738	-0.13772285
194	0x3d539623	0.051656853
195	0xbde9322d	-0.113865234
196	0x3d9ea731	0.07746733
197	0x3def9a15	0.11699311
198	0xbdfda6f5	-0.1238536
199	0x3d322b25	0.043498177
200	0x3d4a2df2	0.049360223
201	0x3d819e0d	0.06328974
202	0x3d177d08	0.036984473
203	0xbbfb7093	-0.007673332
204	0x3ca5fdb6	0.02026258
205	0xbcc0e6f4	-0.023547627
206	0x3d214ffb	0.039382916
207	0x3c7593d2	0.014988856
208	0xbd27eb9a	-0.04099617
209	0xbc3cd4a8	-0.011525311
210	0xbd7e3801	-0.06206513
211	0xbe02fcfe	-0.12791821
212	0xbd50e223	-0.05099691
213	0x3d49207f	0.049103256
214	0x3e0f6435	0.1400307
215	0x3dc268f6	0.09492676
216	0x3d189009	0.037246738
217	0xbe0af6ca	-0.13570705
218	0xbb3188c0	-0.0027089566
219	0xbe04373b	-0.12911694
220	0x3d917e47	0.071041636
221	0x3d9f8b6d	0.07790265
222	0x3d13fde2	0.036130793
223	0xbd0a6fcb	-0.03379802
224	0xbd08e570	-0.033421934
225	0xbce107d8	-0.02746956
226	0x3d93d767	0.07218819
227	0xbd0c7bc6	-0.034297727
228	0x3d0341b2	0.032045074
229	0x3d621476	0.055195294
230	0xbdb9291a	-0.090410426
231	0xbc53d537	-0.012929252
232	0xbdc87c53	-0.09789338
233	0xbe06619e	-0.13123176
234	0x3d88c26b	0.06677707
235	0xbce88d18	-0.028387591
236	0xbe089045	-0.13336284
237	0xbc770d9e	-0.01507893
238	0x3dcc176b	0.09965404
239	0xbb9300d0	-0.004486181
240	0xbcf4e718	-0.02989535
241	0xbd46d1a6	-0.04853978
242	0x3d9bffcb	0.07617148
243	0xbce0e761	-0.02745408
244	0xbdba7c72	-0.09105767
245	0xbd4a500d	-0.04939275
246	0x3d865f77	0.06561177
247	0xbd8d7ede	-0.069089636
248	0xbcc209f4	-0.023686387
249	0x3ca7ff91	0.020507606
250	0xbcb47988	-0.022030607
251	0x3da678cb	0.08128508
252	0x3d1ebfee	0.038757257
253	0xbddf1e4f	-0.10894453
254	0xbd7593c0	-0.05995536
255	0xbd836bd2	-0.064170495

bias f4 [100]
0	0x3bb6f856	0.005583803
1	0x3d0ec779	0.0348582
2	0xbde09972	-0.10966767
3	0x3c96218d	0.018326545
4	0xbd1be59d	-0.038060773
5	0xbe119f51	-0.1422093
6	0x3d26d882	0.04073382
7	0xbdc6699b	-0.096881114
8	0xbd075b70	-0.033046186
9	0xb9a3b00f	-0.00031220957
10	0xbd26d64a	-0.040731706
11	0x3d1c2865	0.03812446
12	0xbcd90ac0	-0.026494384
13	0xbdbbf4f2	-0.09177579
14	0x3d5c9481	0.05385256
15	0x3d56656a	0.05234281
16	0xbd849f88	-0.06475741
17	0xbd2b63e4	-0.04184331
18	0xbd022787	-0.031775977
19	0xbd977a32	-0.07396354
20	0x3d229999	0.039697263
21	0xbe0ca056	-0.13733038
22	0xbdc58d9a	-0.09646149
23	0x3c4cc78a	0.012498746
24	0xbdb1aaed	-0.0867518
25	0x3ba277dc	0.004958136
26	0xbc8bba38	-0.01705657
27	0xbd7c5cba	-0.06161187
28	0xbe0dcdbe	-0.13848016
29	0xbd920182	-0.07129194
30	0xbe0984cc	-0.13429564
31	0x3d876216	0.06610505
32	0xbaac76bd	-0.0013157945
33	0x3d6b7206	0.057481788
34	0x3d86b2a1	0.065770395
35	0x3c3b1cc1	0.01142043
36	0x3cac5c98	0.021040246
37	0xbd1a0e49	-0.03761128
38	0xbdab80b6	-0.08374159
39	0x3c51ce1f	0.012805491
40	0x3d2c35d2	0.042043515
41	0xbdbfea7f	-0.093708985
42	0x3ca901c8	0.020630732
43	0x3d31ff3d	0.043456305
44	0xbd4016b6	-0.04689666
45	0xbd5a5d27	-0.053311493
46	0x3d499869	0.049217615
47	0xbd5b11f0	-0.053483903
48	0xbdb2747d	-0.087136246
49	0x3c01880b	0.00790597
50	0x3d752e91	0.059858862
51	0xbddfbc81	-0.10924626
52	0x3d4ece48	0.050489694
53	0xbdf17e68	-0.11791688
54	0xbd2b6ea8	-0.041853577
55	0xbb873c00	-0.0041270256
56	0x39d439be	0.00040478812
57	0xbd91b05d	-0.07113717
58	0x3d84c975	0.064837374
59	0xbe05e5fb	-0.13076012
60	0xbd877785	-0.066145934
61	0xbe0e8e75	-0.1392153
62	0xbcb40d98	-0.021979138
63	0x3d9476fd	0.07249258
64	0x3cc61b9c	0.024183087
65	0xbcd9c277	-0.026581986
66	0xbde4af5a	-0.11166258
67	0xbd68a1a6	-0.056794785
68	0x3ce2902b	0.027656635
69	0x3cdcee3b	0.026969066
70	0xbdc3c48b	-0.09558972
71	0xbdd36aaa	-0.10323079
72	0x3d3a9bba	0.04555867
73	0x3c60360a	0.013684759
74	0xbde57162	-0.11203267
75	0xbd91e5c3	-0.07123902
76	0xbd960d68	-0.07326776
77	0xbd4f2a4c	-0.050577447
78	0xba765430	-0.00093967
79	0x3d6cbe02	0.057798393
80	0xbdbcc132	-0.092165366
81	0xbd4c2a35	-0.04984494
82	0xbe4dc6bc	-0.20095342
83	0x3c7d9477	0.015477291
84	0xbd9f144b	-0.077675425
85	0xbc7ec433	-0.015549707
86	0xbd449e17	-0.04800233
87	0xbd1de9f7	-0.038553204
88	0x3db5dd41	0.088800915
89	0xbc8da138	-0.01728879
90	0xbc300550	-0.010743454
91	0xbe115eea	-0.14196363
92	0xbdbd68ca	-0.092485026
93	0xbcf16ae3	-0.029469913
94	0xbd9dc90b	-0.077043615
95	0x3c14f01c	0.00909045
96	0x3d344f76	0.044021092
97	0xbdbfbfb1	-0.09362734
98	0xbd4db10a	-0.050217666
99	0xbd8308ea	-0.063981846

weight f4 [3, 100]
0	0xbda2535e	-0.07926057
1	0x3c89ee57	0.016837282
2	0xbe11363b	-0.14180844
3	0xbe07bd67	-0.13255845
4	0xbc000068	-0.007812597
5	0x3e082919	0.13296928
6	0x3d49c82a	0.049263157
7	0x3e5386ee	0.2065694
8	0x3ba1d700	0.00493896
9	0x3e1a7991	0.15085436
10	0x3d748d9a	0.059705354
11	0xbd741497	-0.05958995
12	0x3d2a62dd	0.04159819
13	0x3d920cd5	0.07131354
14	0xbdd123ef	-0.10211932
15	0xbe088f8f	-0.13336013
16	0xbd77a6d0	-0.06046182
17	0x3e168203	0.14698033
18	0x3db99572	0.090617076
19	0xbc31916d	-0.010837895
20	0x3cbe41ea	0.02322479
21	0x3d10c2ca	0.035342015
22	0xbd2382b7	-0.03991958
23	0x3ca016b2	0.019542072
24	0xbe06128e	-0.13093016
25	0x3d51e4e2	0.05124367
26	0x3bdb15d0	0.00668595
27	0xbd8d985d	-0.069138266
28	0xbc384215	-0.011246224
29	0xbc7946d0	-0.015214637
30	0x3e309d9e	0.17247626
31	0xbd9fe7ad	-0.078078605
32	0xbd274dd0	-0.040845692
33	0xbd8fde40	-0.07024813
34	0xbe1b88f8	-0.15188968
35	0xbca3a8b5	-0.019977907
36	0x3cf12f1c	0.029441409
37	0xbe12afdc	-0.14324898
38	0xbc93a9a3	-0.018025225
39	0xbdd4bf6e	-0.10388075
40	0xbdad6da0	-0.08468175
41	0x3d51f672	0.05126042
42	0x3cab3b32	0.02090225
43	0xbd1824ec	-0.037144586
44	0xbd3137b1	-0.043266002
45	0xbdfedc2b	-0.124443375
46	0xbe115792	-0.14193562
47	0x3dbb8fc6	0.09158282
48	0xbc5f2f10	-0.01362206
49	0xbe76a49a	-0.24086228
50	0x3da05a60	0.07829738
51	0xbd94e463	-0.07270124
52	0xbdb43c5b	-0.088005744
53	0x3e0a69e3	0.13516955
54	0x3dc5eabc	0.09663913
55	0xbd032ef6	-0.032027207
56	0x3e197c34	0.14988786
57	0x3da15566	0.078776166
58	0x3d529f52	0.05142147
59	0xbc351777	-0.011052958
60	0x3d959e59	0.07305593
61	0xbd36ea1f	-0.04465687
62	0xbc8067c0	-0.015674472
63	0xbcd04cbe	-0.025427219
64	0xbe17bdbc	-0.14818472
65	0x3dda79f5	0.10667793
66	0x3da6635c	0.0812442
67	0x3c60d6c2	0.013723077
68	0xbe1dac9b	-0.15397875
69	0x3daf28bc	0.08552691
70	0x3dac4879	0.084122606
71	0xbdd6d12f	-0.10489117
72	0x3d5af112	0.05345256
73	0xbd36d34a	-0.044635095
74	0x3f640b97	0.89080185
75	0x3dbd9c4f	0.09258329
76	0x3cbde460	0.023180187
77	0xbe19807c	-0.14990419
78	0x3e098dca	0.13432994
79	0x3d12a8ff	0.0358057
80	0xbc1d4e68	-0.009601213
81	0x3d8c8277	0.06860822
82	0x3e0eddff	0.13951872
83	0xbc932b75	-0.017965058
84	0x3d296dca	0.04136447
85	0x3deba78c	0.115065664
86	0x3d331526	0.04372134
87	0xbbf8a050	-0.00758747
88	0xbd86439e	-0.06555866
89	0xbe1b2906	-0.15152368
90	0xbc86f578	-0.01647447
91	0x3bf6ffc8	0.0075378157
92	0x3d64eb66	0.055888556
93	0xbd1ab313	-0.037768435
94	0xbd4451dc	-0.04792963
95	0x3dd64854	0.10463014
96	0xbc52ea98	-0.012873314
97	0x3c218899	0.009859228
98	0x3da18ae9	0.07887823
99	0xbe096388	-0.13416874
100	0x3d21ef8a	0.039535083
101	0xbd1d2d9e	-0.038373582
102	0x3d57cf41	0.052687887
103	0x3ccc96d3	0.024974262
104	0x3c1c0aa8	0.009524025
105	0x3c493f5f	0.012283175
106	0xbd31cffd	-0.043411244
107	0x3b487d49	0.0030592254
108	0xbc9cf2a0	-0.019158661
109	0x3c271db1	0.01019995
110	0x3d256d60	0.04038751
111	0xbbb0864a	-0.0053871023
112	0xbb756401	-0.003744364
113	0xbd8245ad	-0.06360946
114	0x3a3cb657	0.00071988016
115	0xbd3e17ec	-0.046409532
116	0xbd8a4284	-0.06750968
117	0x3c7a77df	0.015287369
118	0xbd25d853	-0.040489506
119	0xbd072b63	-0.03300036
120	0x3ceb269b	0.028704932
121	0xbd013040	-0.031540155
122	0x3d79e126	0.061005734
123	0x3d244422	0.04010404
124	0x3d1ebd5b	0.038754802
125	0xbca2f8b1	-0.019893976
126	0xbbb4c800	-0.005517006
127	0x3b947ad0	0.004531242
128	0x3d2d36be	0.042288534
129	0xbdacf9dd	-0.08446095
130	0xbd9bff85	-0.07617096
131	0x3c257274	0.0100980885
132	0xbcab783d	-0.020931358
133	0xbda92440	-0.08258867
134	0x3d177b89	0.036983047
135	0xbcc6a604	-0.024249084
136	0xbcef2820	-0.029193938
137	0x3cff097b	0.03113245
138	0x3c8bfe6d	0.017089093
139	0x3d423fb2	0.047424026
140	0xbda6cb7e	-0.08144282
141	0xbd542da0	-0.051801324
142	0x3c98618c	0.018601201
143	0x3d5ff063	0.05467261
144	0x3c092734	0.008371163
145	0x3d674238	0.056459635
146	0x3c92e0ec	0.017929517
147	0xbd02d236	-0.031938754
148	0x3d35bf42	0.04437185
149	0x3bfe4594	0.007759759
150	0x3b330195	0.0027314175
151	0x3cc85ac9	0.024457352
152	0xbc0dfc71	-0.008666144
153	0xbba7a177	-0.0051156837
154	0xbbe84cb3	-0.0070892214
155	0x3ce34054	0.027740635
156	0x3cef724c	0.029229306
157	0xbcda5be7	-0.02665515
158	0x3d184796	0.037177645
159	0x3d71f170	0.059068143
160	0x3d8bead7	0.068319015
161	0x3baace0f	0.0052125524
162	0x3a4c6e80	0.0007798448
163	0xbc34e7d6	-0.011041602
164	0x3ca15cac	0.01969751
165	0xbc283744	-0.010267083
166	0x3cfc4ab8	0.030797347
167	0x3cab1bae	0.020887222
168	0x3c6be0bf	0.014396845
169	0xbd298400	-0.04138565
170	0x3d3fa266	0.046785735
171	0x3d21be64	0.03948821
172	0x3c97fe38	0.018553838
173	0x3d06954f	0.032857236
174	0xbe19a17f	-0.15003012
175	0xbd347225	-0.04405417
176	0xbd8023c6	-0.06256823
177	0x3d0152cb	0.0315731
178	0x3c49e20c	0.01232196
179	0xbbae75bc	-0.0053240936
180	0x3c97b318	0.018518016
181	0x3ce3aeaa	0.027793247
182	0xbe0029e8	-0.12515986
183	0xbd2f0f81	-0.042739395
184	0x3d5a5ade	0.053309314
185	0xbcc1b2a1	-0.023644747
186	0x3d8089a9	0.062762566
187	0xbc148f18	-0.009067319
188	0x3d823141	0.06357051
189	0xbcf56da3	-0.029959505
190	0x3d9297d1	0.07157863
191	0xbac639d6	-0.0015123438
192	0xbd13ab4a	-0.036052026
193	0x3c5a7f6e	0.013336046
194	0xbc0572f4	-0.008145083
195	0xbd39fdc4	-0.045408025
196	0xbd1c7b6a	-0.038203634
197	0x3cb918c2	0.022594813
198	0xbd1e8c27	-0.03870788
199	0x3d60faf8	0.054926842
200	0xbc1c4ed1	-0.009540276
201	0xbe143e64	-0.14476925
202	0xbdc919bf	-0.09819364
203	0x3e056219	0.13025703
204	0x3d7dc8fa	0.061959244
205	0xbdf40759	-0.11915464
206	0xbd997528	-0.07493049
207	0xbe21bd54	-0.15794879
208	0xbcbacd28	-0.022802904
209	0x3d3d5bba	0.046230055
210	0xbdcea196	-0.10089414
211	0x3d06baca	0.03289298
212	0xbd60b697	-0.05486163
213	0x3ce0032c	0.027345262
214	0xbe4143ee	-0.1887357
215	0xbd37ea94	-0.044901446
216	0x3caf7a68	0.021420673
217	0xbdf895df	-0.12137961
218	0x3d3ebda4	0.046567574
219	0xbc1c697d	-0.009546635
220	0x3d590e72	0.05299229
221	0xbddfd931	-0.10930098
222	0xbd727687	-0.059195068
223	0xbda7ef87	-0.08199983
224	0x3c93c590	0.018038541
225	0x3be9d283	0.0071356907
226	0xbd0e398c	-0.03472285
227	0x3b701760	0.0036635026
228	0x3c25f2b5	0.010128667
229	0xbdc600f5	-0.09668151
230	0xbe63da04	-0.22251135
231	0xbcf805fe	-0.030276295
232	0xbccf2ea1	-0.02529079
233	0x3db077cd	0.086166
234	0xbddc3a74	-0.107533365
235	0x3d22ae73	0.03971715
236	0xbd8ceee0	-0.06881499
237	0xbcb12df5	-0.02162836
238	0xbe341cde	-0.17589137
239	0x3e025655	0.12728246
240	0x3d100ff2	0.035171457
241	0x3d31163a	0.043234088
242	0xbe047422	-0.12934926
243	0xbcf4c147	-0.029877318
244	0x3cb9c26a	0.022675712
245	0x3d2f953b	0.042866927
246	0xbdf97b3e	-0.1218171
247	0xbd09a298	-0.033602327
248	0x3d8dfef1	0.06933392
249	0xbdc56545	-0.09638456
250	0xbdad35ff	-0.084575646
251	0x3dbff192	0.09372248
252	0xbcf24941	-0.029575946
253	0xbde753be	-0.112952694
254	0xbd5ba318	-0.053622335
255	0xbda2107d	-0.07913301

bias f4 [3]
0	0x3bee8537	0.007279064
1	0x35a99bf6	1.2636872e-06
2	0xbbf008fb	-0.0073252893
