WeakLossVectorClassExample/Models/F1_model.pt (torch, 86047 bytes, 6 tensors)

weight f8 [100, 1]
-0.5129282974616249 -0.7603591021519814 0.07782025755023507 -0.6125256592023656 0.7230992471043769 0.3293796719526306 -0.9640317157561727 -0.43783321963298305
-0.8073920837585945 -0.47675527721615496 0.512232464108472 0.8815291108168614 -0.2696113346178295 -0.43106141688022853 -0.8387173921799681 0.6671270786401606
0.5462359666954718 -0.7849283746826222 0.026297402257744573 -0.5076376664362089 -0.8704782415620983 0.21112814300825944 -0.17549760390441804 0.3045805223108122
0.6732443432791896 0.6796902874740104 -0.2629514397882923 -0.602199924231031 0.38821715323427536 0.25746159181776723 -0.6483110037667259 -0.3766759659941038
-0.01394915910566858 -0.563329772684968 -0.036258830942460074 -0.8976100485213233 0.5750547086121945 -0.35748262988637186 0.28218067387913454 0.5546798095871284
0.4799256043387248 -0.5198142224870648 -0.6450393171754181 0.5197211634026139 -0.9868461061505536 0.3769848063665367 0.5934346596920571 -0.09665167412165876
-0.07773730213435814 -0.21527621482131926 -0.6423730962551084 0.31814415361410014 -0.47145347912562685 0.127817831644443 0.5045955129035539 -0.7033294959102107
0.2441633124700805 0.01162475539775254 0.017148431562271527 -0.6612527168625197 0.02744496790724049 -0.840918458321419 0.3928760957126619 0.020045466073206016
-0.9921924575482227 -0.06975975510806864 -0.6308966915663998 -0.4652235058251004 0.241208369708783 -0.33878517034274286 -0.654566506223506 -0.7365877355470551
0.11169292093868954 0.3588478018448534 0.04304923761364223 0.22566909464330878 -0.5972331249879289 0.5596766417161205 -0.6137286629804453 -0.560320311414929
-0.979435826617317 -0.4743002998279431 0.004602472079630382 0.5809673601128067 -0.797796051476746 0.26046366130590054 0.7032048767669293 0.6327432464550016
0.5804990286413737 -0.6664378411345816 0.19541092294087425 -0.6812658403545897 0.48431128911266647 -0.3190834703444147 0.09464986220033234 0.17334939217960466
0.18314148785243722 0.43602420685178667 -0.28944147688559085 0.09364741401176205
00000000: ea4c d99a e869 e0bf 89ad 9e9c dc54 e8bf
00000010: ab01 2545 07ec b33f 2285 4769 cf99 e3bf
00000020: ac6a 4208 a123 e73f 8e3d c079 8e14 d53f
00000030: 4f58 6f0a 59d9 eebf 5c44 db9f 7505 dcbf
00000040: cd5b 59ec 27d6 e9bf e4ae f590 2883 debf
00000050: c373 2956 3564 e03f abc5 ad89 7c35 ec3f
00000060: 9c20 34e6 4f41 d1bf 2d5a 04a0 8296 dbbf
00000070: d5fa 3fdb c5d6 eabf e622 21e3 1a59 e53f
00000080: 5364 9bd9 c37a e13f 85db 5e1c 221e e9bf
00000090: a0c5 aaca b4ed 9a3f f5f5 f158 913e e0bf
000000a0: 0d71 6c2f f5da ebbf f02a be3a 3f06 cb3f
000000b0: 00de a59a b476 c6bf d3b4 944d 3f7e d33f
000000c0: 593c 93b8 378b e53f c582 83d8 05c0 e53f
000000d0: c2ea 9446 32d4 d0bf 083b 87c6 3845 e3bf
000000e0: b5cb 38c2 8cd8 d83f 9d56 352f 407a d03f
000000f0: a614 dab7 f6be e4bf 8e91 c882 751b d8bf
00000100: 640a 5371 6091 8cbf 1071 d128 cc06 e2bf
00000110: 2099 2d7a 8490 a2bf c9b8 5eb5 38b9 ecbf
00000120: 51ce dc21 d966 e23f a500 10d3 fee0 d6bf
00000130: a7f1 7787 3f0f d23f 02b4 3ddf efbf e13f
00000140: 8476 c9e1 19b7 de3f ca7b b26f 51a2 e0bf
00000150: 08e2 7c7e 29a4 e4bf 394e fb46 8ea1 e03f
00000160: 1440 0349 3e94 efbf 05b9 9be1 8420 d83f
00000170: bb16 f6ae 6afd e23f d0c7 7403 2abe b8bf
00000180: b0a9 5882 97e6 b3bf 82d2 21c7 2b8e cbbf
00000190: d4de 0706 528e e4bf 0dea cb4b 795c d43f
000001a0: e484 9b36 4b2c debf 1217 61af 555c c03f
000001b0: ab21 347d a525 e03f 7fe3 e7db ac81 e6bf
000001c0: 4494 f850 be40 cf3f c00b 0f42 b8ce 873f
000001d0: a05a f3c2 5b8f 913f f819 2a75 fb28 e5bf
000001e0: e0cc 679e 881a 9c3f c5fb a2d3 cde8 eabf
000001f0: bed3 9dc7 e124 d93f a2b7 de74 cc86 943f
00000200: 513d 9065 0ac0 efbf b020 c47a c6db b1bf
00000210: 4ad5 2d42 4e30 e4bf 785a b6cf 38c6 ddbf
00000220: 80d9 b575 eadf ce3f cb7a bffe a7ae d5bf
00000230: 9a2e 2975 35f2 e4bf c6e5 5971 2092 e7bf
00000240: c85a a042 e897 bc3f 8d91 4ac5 5cf7 d63f
00000250: e32e 56b7 8c0a a63f 1500 9b92 b9e2 cc3f
00000260: 3327 7da4 881c e3bf e62f 10fd dee8 e13f
00000270: 5ccd 034b aaa3 e3bf 15f9 99dc 24ee e1bf
00000280: 6d44 7bcd 8957 efbf dc9d 0fa5 ef5a debf
00000290: 8016 01b1 0ada 723f 724b 77dc 4897 e23f
000002a0: cd0e bf95 8b87 e9bf a3bc c6c6 6fab d03f
000002b0: e540 8383 a780 e63f 4e40 c9c3 6e3f e43f
000002c0: a3fb ebb2 7293 e23f 07ad 8f73 7553 e5bf
000002d0: 30f7 a7a1 3903 c93f b48e 0605 eecc e5bf
000002e0: e5a3 f4c6 f4fe de3f 5bb3 7413 dd6b d4bf
000002f0: 58a9 b82e f93a b83f 4cb0 1819 5030 c63f
00000300: d4f9 6e26 2e71 c73f 3a56 2c13 d2e7 db3f
00000310: 6417 558b 3586 d2bf e215 89e4 46f9 b73f

bias f8 [100]
0.8991394621490886 -0.1872862707526337 0.6435122212507156 -0.6844486303101305 -0.2728838390622341 -0.39033427164255974 -0.4765552702101059 0.6686465109265444
0.7549662964461976 -0.5642334241585718 0.5473878240018675 0.36620131725567584 -0.38931123617561836 0.6903265045054086 -0.7859953722733439 -0.9834165198271329
-0.16737529183557584 -0.24455355362949294 -0.6955239487980394 0.5950630231819022 -0.7868598758574405 -0.07413207417861985 -0.4384746185931778 -0.1425303020995536
-0.9430154097945288 -0.45120021397422205 0.3389794616417608 -0.8242553035650442 -0.4578722692735408 -0.43685514279210214 -0.15558233674522182 0.6100423556212393
0.09365282560778836 -0.4023055084174547 -0.33925817235487377 -0.5402742982253756 -0.38707774455968835 0.47582811619711995 -0.5366224764556194 -0.6138949282573841
-0.1032309632189743 -0.8310754400075999 -0.11895809253136536 0.2738076284695715 0.36750813878655836 0.15824188187857666 0.30579140942984906 -0.5472931160542243
0.5346593980807034 0.27441285652641345 -0.6667869737079242 0.40595290885350926 -0.65608845478479 -0.24952551052400773 -0.7437935920713358 0.5119826200476484
-0.5961502253346378 -0.03942788463745428 -0.4842875846839654 -0.05023543260631659 -0.7639006980616025 -0.20054417297072047 -0.964709639761272 -0.04124681214139781
-0.0962994422265846 -0.9602956390372928 0.679604291979384 0.7261910223264046 -0.4617625274881274 0.4469989510034992 -0.33574221513163205 -0.9378652957784459
-0.6073862598385422 0.5933665722496131 0.6675439499843148 0.38714237511308175 0.8824698121627239 -1.0230961731793167 -0.21790769064925675 0.9363838156410645
-0.5377122695075056 -0.25171486864219506 -0.580643527344501 0.5260272227519381 -0.11226948875817877 -0.5045133604148329 0.5598946220594547 -0.44813016810793255
-1.0800656059435312 0.8233947983256373 -0.03605137695157118 0.9511733104270521 -0.44703950233482603 0.46368934397780304 -0.6066391566845044 -0.028746177460900187
-0.8389802591489233 0.14593148158817648 -0.9056127131822669 -0.36173080948173036
00000000: cf25 0f1f c0c5 ec3f 98a9 ef1b fff8 c7bf
00000010: f623 1bf1 a697 e43f 0c2b 5fd0 00e7 e5bf
00000020: 3045 18c7 ed76 d1bf 189e cd98 3cfb d8bf
00000030: 7c7c 12ad e17f debf cf72 205e 8d65 e53f
00000040: 7632 1a14 af28 e83f f646 0241 330e e2bf
00000050: ca21 4a78 3384 e13f 3a60 57a6 d76f d73f
00000060: 38bc d5ac 79ea d8bf 0e35 0d9c 2717 e63f
00000070: 5c15 57c4 df26 e9bf 131e e0eb 2578 efbf
00000080: fbce 4bb6 8d6c c5bf d8c8 7ae5 874d cfbf
00000090: f483 b570 bb41 e6bf 4f01 f49b c10a e33f
000000a0: 58f4 2ac3 f42d e9bf a58b 2ed2 51fa b2bf
000000b0: 20f6 bed8 f70f dcbf 4f71 1ad5 6e3e c2bf
000000c0: 1721 16a7 2e2d eebf 4aeb bddc 76e0 dcbf
000000d0: 5517 71e9 d6b1 d53f b0b9 8ba8 4c60 eabf
000000e0: 479c 917d c74d ddbf 506a d845 6ff5 dbbf
000000f0: 60f7 133c 1fea c3bf 422d d28b 7785 e33f
00000100: 5bd7 29af a1f9 b73f ecd4 699a 5fbf d9bf
00000110: f48d cae8 67b6 d5bf 34ea 3753 ed49 e1bf
00000120: e22b 79bb e1c5 d8bf ea5e 65c5 f773 de3f
00000130: 019d 55e6 022c e1bf a176 01fa 06a5 e3bf
00000140: 61c7 f52a 586d babf 2ced 6a85 2b98 eabf
00000150: 204a 049d 0974 bebf 2604 6b6e 1086 d13f
00000160: c388 46db 4085 d73f 5f53 c31d 4541 c43f
00000170: 5c88 b921 1692 d33f 24ec 58da 6c83 e1bf
00000180: 6b2e a806 ee1b e13f 3481 18f1 fa8f d13f
00000190: d82d afa2 5156 e5bf 257b cfe8 21fb d93f
000001a0: e2ae 1237 adfe e4bf d0f1 9bb1 73f0 cfbf
000001b0: cd76 1d38 28cd e7bf 8f33 2760 2962 e03f
000001c0: f016 2aa3 a913 e3bf c0fb 2246 e42f a4bf
000001d0: c0e4 845a 91fe debf 6201 4a68 75b8 a9bf
000001e0: ee1d 72e0 df71 e8bf a803 2874 6eab c9bf
000001f0: ac23 1dc0 e6de eebf 8151 6c5a 4d1e a5bf
00000200: 1079 fc8a 14a7 b8bf d002 85eb bdba eebf
00000210: dfb9 0880 51bf e53f 874d 71f4 f43c e73f
00000220: 941b 856a 848d ddbf 6601 fa7c a19b dc3f
00000230: 0c20 78ea cc7c d5bf 527f ad14 fe02 eebf
00000240: 447b 414f b56f e3bf 3441 cbe4 dbfc e23f
00000250: ca68 3a21 855c e53f af69 00d0 f0c6 d83f
00000260: f646 de54 313d ec3f 977c c717 9a5e f0bf
00000270: 3056 7132 66e4 cbbf 7bd3 1531 dbf6 ed3f
00000280: 642a 865c f034 e1bf ec0c 2fae 181c d0bf
00000290: d284 12bc a194 e2bf 1bcf d00a 37d5 e03f
000002a0: a015 8e76 b1bd bcbf 7c0e ec33 f924 e0bf
000002b0: d273 5e20 a8ea e13f abf8 1728 2aae dcbf
000002c0: 80fd 70df f247 f1bf 022a 500c 4059 ea3f
000002d0: 282d f779 5375 a2bf 8297 a302 0370 ee3f
000002e0: 9a15 a392 4b9c dcbf deda f811 16ad dd3f
000002f0: dcda 4d85 9669 e3bf 0f7d 5150 a36f 9dbf
00000300: 6a18 e120 edd8 eabf c063 70fe e1ad c23f
00000310: 92b5 3e83 c7fa ecbf 337f 2bfb 9826 d7bf

weight f8 [100, 100]
0.02970996204265877 0.04575539369236613 -0.09250280941399004 0.028597946638381097 -0.1062811552700538 -0.13394697854568557 -0.0076649087118622755 -0.021657264130271626
-0.04129913962943756 -0.016601449742861818 0.015930391518915593 0.0042735037447176475 -0.012410044457201466 -0.07685427300047176 -0.04211484018096538 -0.0635375836245376
-0.13220331029800012 0.0852785253959669 0.016707704339787896 -0.03034722368177342 -0.04596639423414734 -0.01673759329675878 -0.056241638729808245 -0.07401192624973982
-0.155937788400487 -0.0412711595118715 -0.03052194899145029 0.08831824813299248 -0.1076543951218164 -0.07336838508900058 0.02261472561956994 -0.08984991998683352
-0.04351854173163338 0.05965815219926311 0.05071142414290787 0.09843394737717075 -0.14265757687880015 -0.15056663354323666 -0.14270079844973887 -0.01162303991213476
-0.12638521673218592 -0.07853488145305744 -0.06614002739898843 0.018299722469443606 0.004426020415512463 -0.13778573856626722 -0.024163693336261432 0.0963778115359812
-0.03181211707968274 0.030248693958172597 -0.006928877284175156 0.01228495546099343 -0.07826656232889273 -0.13488049109866246 -0.09130841654509335 -0.030291824151221294
0.08929605806387221 -0.08086011212216243 -0.02460870819783252 0.06769786014795419 0.09444675712711521 0.03543543078884294 -0.0828709652104165 -0.025786998236257033
0.09816806594025047 -0.04728066083488735 -0.12669875541889 -0.15280383939450642 -0.1467643571934593 -0.11092708878911103 -0.010780646570233768 0.024342161959945985
0.05263365775065075 0.04080232792549466 0.018266144285489627 -0.06493700492279116 -0.06794946753553 -0.13534243039932045 -0.03069273580673093 -0.007038590805358407
-0.09302933209921403 0.011610538576514146 -0.0018089848371149186 -0.11418957095146527 -0.0768429759329568 0.005315713396078129 -0.028442418431115137 -0.02831340206046861
-0.15440765123125638 -0.14266626846327587 -0.0437575057907721 0.02963549384062141 -0.044395192286686105 0.01541534710473016 0.012509211235111978 -0.13490463943374192
-0.028113974971058733 -0.12273816763019463 -0.06312083262616146 -0.0909686168461767 -0.0739220798756998 0.09821420031389459 0.017679780541071374 -0.022742461486336712
0.0023208255778049275 -0.06741201535503728 0.021172716417417664 0.0862876958351881 -0.07203713462389905 -0.07120044242627012 -0.08841064378620697 -0.08725233920710808
-0.08779360359971379 -0.007051046131414523 9.486310893727645e-05 0.0279201896518015 -0.04644395065794429 -0.06087247710469543 0.04094760444246191 -0.0038727799439793043
0.06958541376206427 0.07887767248013856 -0.05633209517278525 -0.06547403581751293 -0.042842474526379785 -0.030086182144520926 0.07097610069789102 0.0756227410164896
-0.012343785748396272 0.005089619546933877 0.05614962987939452 -0.06331736699692703 -0.014514321578900466 0.007028768622519929 0.049925161850269115 -0.08299281539465946
0.046398907005826814 0.03801179878601217 0.0386082275759687 -0.06384045387203818 -0.0632767796563422 -0.00016023982046646512 0.016289492144389836 -0.030982036287068013
0.015144882472205135 0.01739690599578063 0.0684231914443535 -0.007784584864295535 0.04966176737348764 -0.03072307006723851 0.08649070641628469 -0.09079973524581945
-0.09432345055206642 -0.04626560477967114 -0.04955845329879233 0.050257336034777875 -0.0010797166301943217 -0.06454488112274998 0.01127148331501944 0.08126584426377344
-0.095399554189994 -0.027100763675814155 0.0996114804747678 0.07331007185630063 0.06401418185924111 0.015091312715371813 0.05296149802731841 0.09088419131798019
-0.011737865438802647 -0.0405328536930831 0.06602027731568137 0.00960697567954387 -0.035300562390031834 -0.09078335741525857 -0.08585196649612858 -0.08805664188806143
-0.033878727083652485 0.09914938299960198 -0.06633050426594005 0.057562392906072665 -0.02876765271138175 -0.09218973569318273 0.07608064842314195 0.017613740499975772
-0.07495932769428172 -0.021985726281094492 0.0006497832726907599 -0.08401534175938986 -0.08060366217512122 -0.0575014619894659 0.0770877085431509 0.006312323740713929
0.06836606888144252 0.008804092196026875 0.09093547408591256 -0.029654355796033857 -0.08819625265031716 0.08727526487503566 -0.09027440310515322 -0.05265430520191236
-0.14357636620853761 -0.08276689132041741 -0.11493416624710982 0.0903528714803374 -0.1409459186052758 0.03214357914008988 0.045910788546948175 0.02164129704447284
-0.1328437765428377 0.023861752826440888 -0.05861523210430627 -0.01875358962850885 -0.03797165537597127 -0.056798422091630496 0.08521396035189126 -0.13066674963637534
-0.02794276394983625 -0.03591765252233965 0.08670886331580992 -0.014515592312031284 -0.008206166001517828 -0.15740770974213728 -0.04222508953475614 -0.07676156820413185
-0.12217412598220101 0.028198872651981725 0.02563345758833776 -0.05104599795177584 -0.05825640437857792 0.01573391519115261 -0.03583131029578568 -0.11621799597007289
-0.013892567857889528 -0.04642714011508968 0.020058220573195507 0.057149361567001164 0.031851411516278474 0.0365189768484818 -0.03155581458601979 -0.09612210377714629
-0.024727128336900463 -0.08758344521982679 0.042378418113860075 -0.14151229884857272 -0.11399423334535229 0.032291260774949086 -0.0084332107359849 -0.09497772163735868
0.005305502895584397 -0.011667910875802585 0.06699228508084672 -0.10491050950346854 -0.08103554617689934 -0.012214512002544763 -0.12081270083761939 0.032264132112117865
00000000: 67bf 5acd 496c 9e3f 4e73 0c3f 406d a73f
00000010: 19a1 389d 43ae b7bf 9cab 2db6 c748 9d3f
00000020: 02e4 10e6 3d35 bbbf cb38 20b2 2c25 c1bf
00000030: d08b e843 3d65 7fbf ed32 a464 522d 96bf
00000040: 236c 1f2c 2925 a5bf a0dc d86e f8ff 90bf
00000050: 9849 587a 0e50 903f d194 2aed 1781 713f
00000060: e847 aff8 6f6a 89bf 304a 18bd b8ac b3bf
00000070: 76cc 818a 1390 a5bf 14f8 bbc3 ff43 b0bf
00000080: 9b90 13bf 09ec c0bf df74 a03d d0d4 b53f
00000090: 4c29 ec0e d31b 913f f750 f3b4 5713 9fbf
000000a0: e9c2 e63f e888 a7bf 7016 4bdf a823 91bf
000000b0: cf33 093e b4cb acbf 4eb0 c112 72f2 b2bf
000000c0: 2401 b2fa c4f5 c3bf 9933 be50 7e21 a5bf
000000d0: 34f1 e952 2541 9fbf ff07 5f53 069c b63f
000000e0: 08a1 510a 3d8f bbbf e180 843e 45c8 b2bf
000000f0: 4cb9 c68b 5028 973f 4544 e483 6700 b7bf
00000100: 6f92 03f3 0f48 a6bf b670 4569 838b ae3f
00000110: 626a 7408 d9f6 a93f 1317 cd98 f732 b93f
00000120: 724b 9c7d 9a42 c2bf 35f0 7777 c445 c3bf
00000130: 2234 3a0f 0544 c2bf 41f9 6b02 d2cd 87bf
00000140: 9f03 480a 642d c0bf 79a5 6fab dc1a b4bf
00000150: 6b9c a286 8dee b0bf 6ee8 2096 29bd 923f
00000160: 2314 face 0421 723f 4da8 7f8c f6a2 c1bf
00000170: 7bee 8402 5ebe 98bf 4d6a 9b5c 37ac b83f
00000180: b990 f284 ad49 a0bf 9231 307d 83f9 9e3f
00000190: 2023 5655 7461 7cbf 9394 80cf da28 893f
000001a0: 30ac 9205 4709 b4bf ee8e 1191 c343 c1bf
000001b0: 0725 e906 fd5f b7bf 3441 43e8 d104 9fbf
000001c0: d1c9 0b41 1bdc b63f b496 1d91 3fb3 b4bf
000001d0: f440 a073 0633 99bf a73a 589f a554 b13f
000001e0: bdff 12a5 a92d b83f 422b b7c0 9724 a23f
000001f0: 91df 5d15 0837 b5bf b4d0 5828 e867 9abf
00000200: 2596 b9d8 8a21 b93f afc8 09b8 2b35 a8bf
00000210: 95e8 7b31 aa37 c0bf c289 7382 138f c3bf
00000220: ada3 2ea9 2cc9 c2bf e6f7 96ba b765 bcbf
00000230: e852 97e3 2914 86bf 40ab 20d6 26ed 983f
00000240: 1e72 6a7d ccf2 aa3f 51d2 14f0 0ae4 a43f
00000250: b31e 5231 5cb4 923f 658e 7128 b69f b0bf
00000260: c880 d8e4 2265 b1bf 27c2 2998 e652 c1bf
00000270: a007 0fa2 ea6d 9fbf 8561 1a55 7fd4 7cbf
00000280: 2752 ef32 c5d0 b7bf f0f3 cc1b 44c7 873f
00000290: 8036 b8ad 6ea3 5dbf 7de3 c718 873b bdbf
000002a0: 8432 8f34 fbab b3bf d199 0ef3 edc5 753f
000002b0: 7753 ec63 0220 9dbf 5e87 8d3f 30fe 9cbf
000002c0: 7e2c 2542 a1c3 c3bf 6364 a566 e342 c2bf
000002d0: f2db a640 6267 a6bf ce96 6253 c458 9e3f
000002e0: 2220 f175 f7ba a6bf cdd4 5edd 1492 8f3f
000002f0: 907e 3ae9 6d9e 893f fa29 3923 8e44 c1bf
00000300: e4ba 3eec e8c9 9cbf a051 f1bf c46b bfbf
00000310: 035e d3d7 af28 b0bf 2d12 5122 b849 b7bf
00000320: dbb7 84b3 8eec b2bf 2fd9 59da 9024 b93f
00000330: 4cbe e5fc a51a 923f 78e6 41c1 cc49 97bf
00000340: 60c4 9abe 1f03 633f 81ad 4ef1 e941 b1bf
00000350: d837 52f2 4cae 953f bdc9 a84f f316 b63f
00000360: 60a4 4e91 0671 b2bf c97a ae33 313a b2bf
00000370: b618 ae77 14a2 b6bf 01df 6457 2b56 b6bf
00000380: 013e 4240 a479 b6bf a09a 97c8 8ee1 7cbf
00000390: 0048 4bcd 27de 183f b477 cf35 1c97 9c3f
000003a0: 7387 5862 80c7 a7bf 2c48 c864 ad2a afbf
000003b0: 3e1e dc9b 15f7 a43f 4022 87e6 ceb9 6fbf
000003c0: 67fe 6284 59d0 b13f c1d1 afbf 5331 b43f
000003d0: 5fec f674 8fd7 acbf 1cc7 920a e8c2 b0bf
000003e0: 3fe7 f0e5 72ef a5bf 5426 7d81 e9ce 9ebf
000003f0: 0d88 4b5f 7d2b b23f 61ec 7f0f 035c b33f
00000400: 5819 c9e0 b247 89bf 00f5 0c58 dad8 743f
00000410: 0e6d 07f0 a4bf ac3f 1848 8524 9135 b0bf
00000420: d83f 0a44 afb9 8dbf 3086 d6b5 32ca 7c3f
00000430: 76f0 c972 ca8f a93f 8b4b ec63 043f b5bf
00000440: fe01 52f8 98c1 a73f d6cd 4b51 4876 a33f
00000450: fe32 9725 75c4 a33f a8cd 8a15 d957 b0bf
00000460: 3b5e 3833 e832 b0bf 00d6 ab93 c100 25bf
00000470: 2c4a 1d50 31ae 903f ac3c 7742 c1b9 9fbf
00000480: 80ec 5bb7 4704 8f3f 4cbf 3699 7ed0 913f
00000490: 299c 8aa9 2e84 b13f 603b 7b96 bae2 7fbf
000004a0: e61c 7665 446d a93f 409f af54 de75 9fbf
000004b0: eb43 7743 4124 b63f c3c2 5dc5 a63e b7bf
000004c0: 9cf3 5de7 9425 b8bf b3ac ea16 20b0 a7bf
000004d0: 693b 51c0 b95f a9bf 6e91 4e5d 54bb a93f
000004e0: 8083 66e7 a8b0 51bf 1ce2 8b69 0386 b0bf
000004f0: 282d b9e1 8015 873f 6d0d 659f d6cd b43f
00000500: 878b 4ced 1a6c b8bf 20ab bc76 4dc0 9bbf
00000510: 3bfd f152 2380 b93f bd18 17e9 72c4 b23f
00000520: 97cd 90c1 3b63 b03f 10a4 87b4 31e8 8e3f
00000530: cef1 f2fb c41d ab3f 4723 6fb5 2f44 b73f
00000540: 50de 79a1 050a 88bf fcf9 0ce2 b8c0 a4bf
00000550: 7796 f173 b4e6 b03f 985b db72 d2ac 833f
00000560: 8abe fd51 ea12 a2bf 119f 1eff 933d b7bf
00000570: d0ed 65fc 64fa b5bf abd4 1a4d e18a b6bf
00000580: 8273 b571 8d58 a1bf e1e0 669d da61 b93f
00000590: 8ba5 8c32 09fb b0bf deac 0566 d178 ad3f
000005a0: acf1 4f7e 4475 9dbf 2440 d41b bf99 b7bf
000005b0: 7dfb d578 057a b33f e068 a11d 5609 923f
000005c0: 6122 fad4 8830 b3bf b8a7 6c1d 6d83 96bf
000005d0: 80cd edf3 c64a 453f 1106 3889 0782 b5bf
000005e0: d4df fa0c 71a2 b4bf 2c13 6fe5 d470 adbf
000005f0: 3dcd 1d23 05bc b33f 3039 7380 f3da 793f
00000600: 237b 004e 7080 b13f 1059 6c40 e107 823f
00000610: b3c8 3e17 8c47 b73f 8cc8 4f21 b65d 9ebf
00000620: 284b c394 0794 b6bf ff54 63f8 ab57 b63f
00000630: 60a7 0029 391c b7bf 1cf0 ab4d 81f5 aabf
00000640: 5f0e acda b560 c2bf e3ab 6903 3630 b5bf
00000650: e76f 3955 536c bdbf dd94 1ba4 5d21 b73f
00000660: 0309 750f 840a c2bf dbbb 5d8a 1f75 a03f
00000670: 2e78 af6e 9e81 a73f 8635 32dc 2229 963f
00000680: 6a43 dd5d 0601 c1bf 8427 0f20 376f 983f
00000690: 9bf2 ded1 d002 aebf ea56 8c18 2434 93bf
000006a0: 2391 0754 0571 a3bf 6827 b2ca ae14 adbf
000006b0: 5bbf df04 95d0 b53f ef71 2e24 b0b9 c0bf
000006c0: 112e 4c25 079d 9cbf fa75 dd6d cc63 a2bf
000006d0: 0df9 3654 8d32 b63f 1013 19d2 59ba 8dbf
000006e0: 1008 d1f4 64ce 80bf e588 bd92 ef25 c4bf
000006f0: b3b1 3ee5 869e a5bf 72c3 0669 a5a6 b3bf
00000700: c8cc 82b3 cd46 bfbf 3e1d 4c4f 2ae0 9c3f
00000710: d6eb 1938 a83f 9a3f 99d0 9677 b322 aabf
00000720: 8e55 2d8f c8d3 adbf 7874 bc2c 8d1c 903f
00000730: 2055 c943 7b58 a2bf 61eb e56b 76c0 bdbf
00000740: 4e55 dbe4 b473 8cbf 76da e150 4cc5 a7bf
00000750: a0e5 8265 248a 943f 06c9 d55d ae42 ad3f
00000760: 0274 9605 d44e a03f cdc6 7e86 9db2 a23f
00000770: 668b 4a6f 1528 a0bf 8343 254c 759b b8bf
00000780: d7b9 1f7e 1152 99bf c3e1 e360 de6b b6bf
00000790: 6ae2 b5bf 9fb2 a53f b3a8 c433 131d c2bf
000007a0: 1fa0 26e0 b92e bdbf 0735 f3e9 7a88 a03f
000007b0: 3b9b 7d62 6e45 81bf b4f2 47c0 7550 b8bf
000007c0: fa4e ce16 39bb 753f 5764 fe7c 58e5 87bf
000007d0: f5ac 8109 6826 b13f ddf7 5247 6adb babf
000007e0: 08ae a4dc bebe b4bf 8642 b30c ec03 89bf
000007f0: 5efc 09c7 94ed bebf cfbf 82a0 ec84 a03f

bias f8 [100]
-0.09398771282492745 -0.07345119868605095 -0.016721539798097432 0.04760952863988825 -0.14529309445044558 -0.10186188378747885 -0.12958155217795952 -0.0005810096055061109
0.05101293204864382 0.03310302738619306 0.037791997454059235 0.035481026376153746 -0.02933646252307983 -0.12652972310999883 -0.040691987184430546 -0.03602734525383973
-0.0714199334079651 -0.11111138176807932 -0.10206329423720603 0.09255019495481433 0.03696852862055979 -0.02166927120508038 -0.06371071114414922 0.05699629187794005
0.017762013985274903 -0.14283709077951384 -0.003078096957973162 0.04372493974821137 -0.08952902328506025 -0.04203373825604806 -0.044236188164914876 -0.10928737672980425
0.02469527057172323 -0.03653599503753119 -0.13284566577921134 -0.03946374554206318 -0.15363428623707442 -0.13443299962594638 -0.04095036048682836 0.0043913884172545855
-0.011550806661007258 -0.04992701378673312 -0.07117450471937752 -0.037192041644009355 0.03306860079553538 -0.057309095047089295 -0.1568708678884939 0.030927230229334215
-0.03889877411610963 0.07055773356373674 -0.05148622646140533 -0.08033005956147857 0.0870728822198614 -0.044358312727887726 0.04463165744608405 0.035668924577466454
0.03001427179723374 -0.032313021401273845 -0.03989724945229771 0.05573413969885197 -0.1041634561616622 0.048110788988834696 -0.07617387850420283 -0.0098697114077433
0.0068592342821312755 -0.08580515701026037 0.027209593147186528 0.051819336473523 -0.008133737708338137 -0.1083675897795396 -0.05039238113188509 -0.13435480480323334
-0.03438122112724451 -0.02620173717584498 0.017000601147946954 -0.06248428185900017 -0.02356008127572801 -0.15233698341533228 -0.025200806166718416 -0.051764859467867776
0.03902116601954799 -0.0017173555819195512 -0.03795340821282278 -0.09201234203648102 -0.06897818189147097 -0.13552553254995311 0.0340949271024856 -0.14388444001016243
-0.08737665841428302 0.06344395068357941 0.04889989776075302 -0.06677380003515028 -0.01442386332533616 -0.030325954897923606 0.02188830325775967 0.02932936685949495
0.04051172893433011 -0.1032456485364656 -0.1537031887750498 -0.05834367860700839
00000000: 4714 cf28 940f b8bf f565 35a0 b2cd b2bf
00000010: 214f 498a 731f 91bf b6fb f8b0 4660 a83f
00000020: 28e9 7fd0 f698 c2bf 2880 93d3 9e13 babf
00000030: e876 62d8 2096 c0bf 0040 8da0 dc09 43bf
00000040: 98dc a4f5 5d1e aa3f cc69 0b48 e1f2 a03f
00000050: fd3c 3b02 7959 a33f 1804 d4af 912a a23f
00000060: b6c3 77ac 600a 9ebf 565c 5d3f 2032 c0bf
00000070: cd2f 5584 94d5 a4bf 9afe 401b 2d72 a2bf
00000080: 940b 45a6 9348 b2bf ef42 e8a6 cb71 bcbf
00000090: 66ee deee d120 babf 09c1 919c 5eb1 b73f
000000a0: 9326 d0fa 89ed a23f 8eab 9d2c 7830 96bf
000000b0: bcde c45c 584f b0bf dbd1 3733 9e2e ad3f
000000c0: 661e b694 3430 923f c2e2 c65c 7c48 c2bf
000000d0: 61d4 96b8 3c37 69bf 44ed 7984 1d63 a63f
000000e0: 1d5a 0dc3 5feb b6bf e0d5 4636 7285 a5bf
000000f0: 399f ef2a 20a6 a6bf 578e ebec 41fa bbbf
00000100: 94bc e28d b749 993f 7843 a08f d8b4 a2bf
00000110: 8df1 f736 1601 c1bf fa2e f690 9734 a4bf
00000120: 645d 77cd 49aa c3bf 71c4 72bc 1935 c1bf
00000130: f6c5 1916 72f7 a4bf dda2 2d5a b4fc 713f
00000140: 77c2 cf06 f3a7 87bf 9d4a cd96 0890 a9bf
00000150: 4327 140a 7e38 b2bf 90a2 10d5 d50a a3bf
00000160: 9af2 e11d 5eee a03f 7630 fb21 9e57 adbf
00000170: 1b5b a337 5814 c4bf c73b 9049 63ab 9f3f
00000180: 0eca 5d45 8aea a3bf 78d9 2256 1210 b23f
00000190: 403f b115 675c aabf cac8 b3c2 8290 b4bf
000001a0: 2eb5 808d 684a b63f 63ac f1fc 21b6 a6bf
000001b0: f8c4 31ea f5d9 a63f 0861 1681 3243 a23f
000001c0: aa26 21af 0fbc 9e3f f88c 4e14 558b a0bf
000001d0: 7629 328b 696d a4bf 9df5 8d66 2f89 ac3f
000001e0: 4e15 a7cd 74aa babf 1067 9532 faa1 a83f
000001f0: d52a fc9c 2180 b3bf 88db bc3d 9236 84bf
00000200: 587d adae 6d18 7c3f 38ed 2fa7 53f7 b5bf
00000210: 038b d1e2 d4dc 9b3f 118d e866 1088 aa3f
00000220: 7ec8 9ccb 6ba8 80bf d5a9 0c76 fabd bbbf
00000230: b7a7 dbb9 07cd a9bf 6b5d 58ca 8932 c1bf
00000240: 2016 ad58 6a9a a1bf c816 13d1 a0d4 9abf
00000250: 1566 c507 9b68 913f 4768 3296 f0fd afbf
00000260: d10a 484a 2220 98bf 1fbd de3c c77f c3bf
00000270: 4a8b 4679 3dce 99bf ed38 fe74 ec80 aabf
00000280: d3bd cf0f 95fa a33f 212e d683 1c23 5cbf
00000290: a074 170e a16e a3bf 6903 e0ef 1e8e b7bf
000002a0: 2f85 5cdb 8da8 b1bf a79a 0991 e658 c1bf
000002b0: 4cb7 bae9 e374 a13f 209b 1f2a ce6a c2bf
000002c0: 42b7 5212 515e b6bf 86a4 50dd dc3d b03f
000002d0: d502 524b 6809 a93f ed6f 6177 1618 b1bf
000002e0: 7245 1d2a 428a 8dbf ceb5 0662 c40d 9fbf
000002f0: b7c6 a02a e369 963f 824a e57d 8408 9e3f
00000300: f435 c10d f4bd a43f 3b1e eb8b 4e6e babf
00000310: 5a35 8acc 8bac c3bf 5f43 17ff 38df adbf

weight f8 [1, 100]
-0.039928283320237644 0.020729323690581558 -0.027115178074893553 -0.0025863071598636713 -0.03139454860647905 -2.4697918507389485e-05 0.012823942917338146 0.08865042338186142
-0.004182389028759476 -0.11091517896979085 -0.009379737813140368 -0.017145040922494918 -0.018351457177766654 -0.04860244985068975 -0.03180939486453713 -0.03740596848717172
-0.03684697073925345 -0.009013957023123716 -0.028680659569173556 -0.047009723508253276 -0.005914910558716815 0.0021512724576242806 -0.04793789601718113 -0.004848669436402701
-0.02699331722058646 -0.02344101609127232 -0.014214484015167539 0.0032388314576295824 0.05060387827417902 -0.08077595857819886 0.020455585849248437 0.08120069396153724
0.043101433080401444 -0.024664842189921352 0.03327656458218465 -0.08912635011093008 0.013554305610255592 0.018624295457443187 -0.015651658184506687 -0.0077072205831006345
-0.003413434607344619 0.0912518781334379 -0.0030863421984194533 -0.06254308941678788 -0.09578674012741155 0.032265368494132966 0.013298798980220298 0.03560859941358625
0.06210303619410505 0.0027522723138536064 0.07218370218947788 0.007554639172668267 -0.09936536031924804 -0.02295385519941648 -0.000848976740105241 0.06590069196774324
0.0008441428220092202 -0.05057530080009761 0.04740511526406827 0.03441180221530266 0.02081491575832769 -0.0872662223971518 0.014466220885511609 -0.02116217429552035
-0.02097321624828493 -0.08198425105448738 -0.0014646813254692392 0.040395805722270556 -0.022817595583239033 -0.05317375055848685 -0.04791754379154309 -0.009458504397658657
0.0168941848910446 0.09520470426594581 0.05309631713037854 -0.07071764731853351 0.028234955253714455 -0.00848290819280879 0.03000193106030311 -0.03566158088099365
-0.009725515081419766 -0.008123220109821907 -0.01444446865869376 -0.06622347250004587 0.05179109762095235 0.01936685180520185 -0.032989022402261 -0.00042822115298089044
-0.04062278184495624 -0.0005628329027858776 2.090257236544357e-05 -0.039042777560183824 0.001925994108869112 0.023354188027951493 -0.03718720829988074 0.02517733390989652
-0.019552599595409823 -0.05358687095001757 -0.0299926090338984 0.047371152627712604
00000000: bb78 17de 7a71 a4bf 60e8 465d 113a 953f
00000010: d03f 3acc 14c4 9bbf 5aa7 6815 e12f 65bf
00000020: 7f34 133f f212 a0bf c7b4 4a09 cce5 f9be
00000030: 4b64 7c7b 7043 8a3f 3d9f 334d cbb1 b63f
00000040: a00f 9081 8d21 71bf 1f24 4eea ef64 bcbf
00000050: f54d 3819 af35 83bf 01ea 3338 788e 91bf
00000060: e159 a671 b9ca 92bf 7277 3a99 6be2 a8bf
00000070: 4c27 4c2d 5249 a0bf 62bc a706 e026 a3bf
00000080: 2d43 902c 9bdd a2bf d194 f9d4 e875 82bf
00000090: 855d 827b 765e 9dbf f0b7 1f92 a811 a8bf
000000a0: dc06 89b6 3b3a 78bf 3e82 359b 8b9f 613f
000000b0: d103 44df 508b a8bf eb11 89ca 32dc 73bf
000000c0: b21f b1da 22a4 9bbf f5f3 fcf5 eb00 98bf
000000d0: 331a ccbf 7b1c 8dbf db40 0266 5288 6a3f
000000e0: d20a 7a64 c0e8 a93f 707b 65b4 bbad b4bf
000000f0: 1de0 f820 4ff2 943f cd30 fa94 91c9 b43f
00000100: ca6b fb1a 6411 a63f 7950 448a bd41 99bf
00000110: 211a 3539 a009 a13f d133 f006 fcd0 b6bf
00000120: 743e 871a 5cc2 8b3f ca60 9a4f 3f12 933f
00000130: ac5c 1f00 fd06 90bf 3c42 8f45 9b91 7fbf
00000140: 90b5 2dc0 7df6 6bbf 0d1d 4878 485c b73f
00000150: 60a7 ce59 8748 69bf d8ca a2eb d202 b0bf
00000160: d3d8 3cd4 7a85 b8bf 9f8d f31c 1685 a03f
00000170: a2a9 9195 663c 8b3f 8a1c e053 4a3b a23f
00000180: 7e39 df1a f8cb af3f 786a 7cf2 ee8b 663f
00000190: 3740 3590 a17a b23f 5c03 e002 9df1 7e3f
000001a0: 492a ed1c 0270 b9bf 182e 9825 3781 97bf
000001b0: 7481 baaa bbd1 4bbf a504 c924 dede b03f
000001c0: a0c1 26e8 2ea9 4b3f cbf3 d77d 01e5 a9bf
000001d0: 29cf 71b7 7b45 a83f 09e8 387a 6c9e a13f
000001e0: 36d6 cd59 8150 953f 3bc1 3d43 1457 b6bf
000001f0: afc4 cc4c 77a0 8d3f bcc9 0b7a 89ab 95bf
00000200: 3666 83b7 007a 95bf 69ea 107d ebfc b4bf
00000210: 29bf 1599 51ff 57bf 9408 f250 c2ae a43f
00000220: 7fa5 36eb 7e5d 97bf a308 4fff 9639 abbf
00000230: dc88 faf6 a588 a8bf ddc4 74f8 fa5e 83bf
00000240: 2e01 668e b54c 913f fd61 3fe3 555f b83f
00000250: cfdd 39c3 702f ab3f 9bb0 7b3e 8d1a b2bf
00000260: c3c6 acc5 9fe9 9c3f e6cb 1aaa 7c5f 81bf
00000270: 1926 e282 d3b8 9e3f ba0d 3717 3c42 a2bf
00000280: 190e b189 f8ea 83bf 3bdd ad25 e8a2 80bf
00000290: 033d fac3 0f95 8dbf 2e81 9d80 05f4 b0bf
000002a0: c009 03dd 5c84 aa3f abef 846c e7d4 933f
000002b0: 737f b0e8 efe3 a0bf 704e f6d8 5b10 3cbf
000002c0: 3c46 fe5e 82cc a4bf aad2 8d74 6271 42bf
000002d0: b418 dcd5 fdea f53e 2130 8839 6afd a3bf
000002e0: d0b2 6e6d 348e 5f3f b6ff 3707 29ea 973f
000002f0: 7d7e f4a6 330a a3bf 2152 f946 16c8 993f
00000300: 0c9b 41bf 9805 94bf 405a 7304 bd6f abbf
00000310: 7471 b0eb 61b6 9ebf aca4 9e1e 0841 a83f

bias f8 [1]
-0.15141720410671763
00000000: 7f55 d891 a361 c3bf
