WeakLossVectorClassExample/Models/F1_model.pt (torch, 44511 bytes, 5 tensors)

weight f4 [100, 1]
000000 5a aa ac 3d 76 60 e5 3e d0 72 b7 be c8 e8 47 3e
       0.084309295 0.44800156 -0.35829782 0.19522393
000010 08 ab f4 be 01 1e dd 3d 00 fc 18 3f b8 56 58 3e
       -0.47786736 0.107967384 0.5975952 0.2112683
000020 20 69 87 3d 1a 96 7e be d8 6b 07 3d a6 5f 79 bf
       0.06611848 -0.24861947 0.033061832 -0.9741157
000030 08 3b 07 bf c6 41 59 bf c0 c6 cc bd e0 ac 63 bd
       -0.5282445 -0.8486599 -0.09998846 -0.05558479
000040 51 41 3a 3d 0e 63 36 bf fa e9 2b 3f 43 bb b6 3e
       0.045472447 -0.71244895 0.67153895 0.35689744
000050 72 ea 28 bf b0 35 00 3e c2 d0 19 be 73 99 69 3e
       -0.65982735 0.1252048 -0.15021041 0.22812442
000060 ca 95 cd 3e ef bf 6c 3e 90 11 cf be 48 cb 5c 3e
       0.40153342 0.23120092 -0.40443087 0.2156192
000070 92 98 45 bf e0 ae 18 bf 1f ef ce 3e d5 f4 c6 be
       -0.7718593 -0.5964184 0.4041681 -0.38858667
000080 56 78 62 bf 9f 63 40 3f da 41 74 bf ff 3f 2b bc
       -0.8846487 0.7515201 -0.9541298 -0.01045227
000090 e6 92 03 bf af 3e 99 bc 95 37 29 3f 25 03 93 3e
       -0.51396024 -0.018706648 0.66100436 0.28713337
0000a0 dd 11 02 3f 8b 2a 6a be 0c 01 2d bf 45 8e fe 3d
       0.5080851 -0.22867791 -0.6757972 0.124294795
0000b0 c2 fc 71 bf 33 37 63 be b0 e3 ba be 78 a2 d5 3e
       -0.945263 -0.22189026 -0.36501837 0.41725516
0000c0 8a 53 3b bf 40 d1 7e 3d 68 be 23 bf 86 1c 87 be
       -0.73174345 0.062211275 -0.6396241 -0.2638895
0000d0 40 32 87 bd 35 75 8f 3e 44 51 ec be b6 17 99 3d
       -0.06601381 0.2801911 -0.4615575 0.074752256
0000e0 84 11 b2 3e 48 f3 b0 be 00 91 56 bd 1c 71 73 3b
       0.34778988 -0.3456061 -0.052384377 0.0037146276
0000f0 30 2f 2b bf 02 a2 e2 3e 87 80 d2 be 3c 1b bd 3e
       -0.6686888 0.44264227 -0.41113684 0.3693484
000100 84 3c 30 bf 98 01 3e be 21 19 05 3f 61 42 ab be
       -0.6884234 -0.18555295 0.5199147 -0.3344908
000110 dc 6c b2 3e 8a 02 25 3e d3 2e 18 3f 84 34 27 3f
       0.34848678 0.1611425 0.5944645 0.6531451
000120 ed 3e 7f be 5e 1e 44 be bc 8b 0d 3e 00 58 91 bd
       -0.24926348 -0.19152209 0.13822836 -0.07096863
000130 04 bf fa be be 4a eb be a9 bb b8 3d b4 7e 16 3f
       -0.48973858 -0.4595546 0.09020168 0.58787084
000140 c0 e2 85 bd f1 a3 db 3e 6c ad ba be fa 7f de 3e
       -0.0653739 0.42898515 -0.36460435 0.43457013
000150 2c d4 49 bf ea 7e 63 bf 58 b0 73 be 16 ac 94 be
       -0.78839374 -0.8886553 -0.23797739 -0.2903754
000160 f1 e8 f4 bc 5b c8 3c 3f bd da 51 be 64 10 4a 3e
       -0.029896231 0.7374322 -0.20493598 0.19732815
000170 84 4f f8 3e 07 2a 2c 3e 60 56 06 bd 2b eb ac 3e
       0.48498166 0.16812907 -0.032797217 0.3377317
000180 85 bb b7 3e e7 17 4f 3f a6 a9 3f bf b3 b5 c8 3e
       0.35885254 0.8089585 -0.7486824 0.39201126

bias f4 [100]
000000 10 9a 37 3e 2c 99 35 3f 78 55 27 be 2f 8f 68 be
       0.17929864 0.70936847 -0.16341197 -0.2271087
000010 b6 1e 1b bf 05 ea a7 be 31 e3 87 bf 20 d8 1a bf
       -0.60593736 -0.3279573 -1.0616208 -0.6048603
000020 d0 18 9f be 16 5d 19 3f 17 6f 46 bd 9c 32 c0 be
       -0.31073618 0.5990766 -0.048445787 -0.37538612
000030 6a f6 4b bf 30 17 35 be 58 20 f2 be 6e a8 5b bf
       -0.79672873 -0.17684627 -0.472903 -0.8580388
000040 a0 60 0d be c0 c5 d0 bd 63 3e 23 3f 93 e6 02 bc
       -0.13806391 -0.10193968 0.6376707 -0.0079895435
000050 a8 34 fd be e9 91 15 3f f2 9c f1 3e bd 2c 24 bf
       -0.49454236 0.58425766 0.47190052 -0.64130765
000060 5e 37 27 be 22 f4 1c 3f 92 20 70 bf d6 04 49 bf
       -0.16329715 0.6131002 -0.937997 -0.78523004
000070 1c 84 f7 be 10 ad a2 be 2c 7a 86 3e f5 bf 05 3f
       -0.4834298 -0.3177266 0.26265085 0.5224603
000080 c0 43 15 bf cd fe fa 3e 00 b4 97 be e1 ea 8a 3e
       -0.58306503 0.49022523 -0.29629517 0.27132323
000090 ec bb 23 bf 1a 72 0e 3f e0 a2 1f bf 84 c2 17 bf
       -0.6395862 0.55642855 -0.623579 -0.5928118
0000a0 e6 16 50 3d 40 37 8b b9 f8 1a 2f be 6f 18 c0 be
       0.050803088 -0.0002655331 -0.17100132 -0.3751864
0000b0 56 54 1a 3f 6f 74 32 3f e0 68 9e bd 53 06 96 be
       0.60284936 0.69708914 -0.07734847 -0.293017
0000c0 ea ba 4a bf 8e 83 4d bf c8 96 b6 be 95 0f 2b 3f
       -0.7919146 -0.8027886 -0.35661912 0.6682065
0000d0 6c aa f6 be ed ae 46 bf 02 d4 a0 3e 74 93 69 3f
       -0.48176897 -0.77610666 0.3141175 0.9124062
0000e0 d5 a5 cb 3e 5c 7f 5e bf a0 60 12 bf cb 4c 0c 3d
       0.39774957 -0.86913085 -0.5717869 0.034252923
0000f0 68 54 f7 be 7f ff 27 3f e9 10 61 3f f5 e2 57 3f
       -0.48306584 0.6562423 0.8791643 0.84330684
000100 da 0a 8d 3f 40 1c b4 be 63 9f 3e be 34 cb 49 3f
       1.1018937 -0.35177803 -0.18615489 0.7882569
000110 16 89 62 bf 6a dd f3 be f8 4b 8a bf d0 3b 8b bf
       -0.88490427 -0.47629863 -1.0804434 -1.0877628
000120 ce 15 1e 3f 95 34 c8 3e 02 9c d6 be fc 8e 18 bf
       0.6175202 0.39102617 -0.419159 -0.59593177
000130 fb ce 6b 3f e1 c3 0c 3f 5b a0 20 3f 30 49 bb 3e
       0.921127 0.5498639 0.62744683 0.36579275
000140 98 eb f3 be 63 08 0c 3e 60 10 0f be 05 34 0d 3f
       -0.4764068 0.13675074 -0.1397109 0.551575
000150 ba 26 12 bf 16 20 0d 3f 48 2a 5a be 31 f0 b2 3e
       -0.5709034 0.55127084 -0.21305192 0.34948877
000160 ae 92 97 3c 32 3a 73 bf 8c 96 ec 3e 3b 8f 41 bf
       0.01850256 -0.95010674 0.46208608 -0.7560918
000170 cd 7c 2e 3f 52 3b 49 3d 18 1a 20 bf 21 78 64 bf
       0.6815918 0.049128838 -0.62539816 -0.892458
000180 ac 94 90 3e c7 0c 3e 3f bc ba ce be 0c ee 15 3f
       0.28238428 0.74238247 -0.40376842 0.58566356

weight f4 [100, 100]
000000 94 ea 9d bd 6d 41 ad 37 72 71 2c 3d fd d5 0a be
       -0.07710758 2.0653673e-05 0.042100377 -0.13558193
000010 aa 08 be bd 1a d0 9b bc 61 a9 ec bd cd ce c2 bd
       -0.09278996 -0.019020129 -0.11555744 -0.095121
000020 40 11 f5 ba 77 85 b7 bd 76 dc e9 bc a8 ff 8b bc
       -0.0018697158 -0.08961003 -0.028547507 -0.01708968
000030 2c a6 89 3c 23 0e ac bd 30 a6 55 3c 97 27 b3 bd
       0.01680287 -0.08401134 0.0130401105 -0.087477855
000040 fe ed 08 be eb e4 b3 3d 3d 31 77 bd e6 a7 4a bd
       -0.13372037 0.08783897 -0.06034969 -0.049476527
000050 84 a6 81 bd bd de 4c bd ca f8 9e 3c 1a d8 2e bd
       -0.063305885 -0.050017107 0.019405741 -0.04268656
000060 57 9f f7 bd 31 5d d0 bc fd f0 89 bd bb 6e aa bd
       -0.120909385 -0.025435062 -0.06735418 -0.083219014
000070 c0 f3 4a 3b 2d b8 94 bd 83 cf 11 bd 1d 1f 17 be
       0.003096804 -0.07261691 -0.03559829 -0.14757963
000080 47 93 34 bd 77 3c c4 bd 63 ca 36 bd 36 2f 0f be
       -0.044085767 -0.09581845 -0.044626605 -0.13982853
000090 49 3d 86 3d 14 0f 21 be 7c ab ca bd ce e8 43 bd
       0.06554658 -0.15728408 -0.09895989 -0.04782944
0000a0 e1 f0 cd bc e8 a3 23 3d f6 ac 13 3d 1e e6 23 bd
       -0.025139274 0.039951235 0.03605362 -0.04001438
0000b0 60 bc 78 bb 3d 51 60 bc 80 21 20 bc 53 eb f6 bd
       -0.0037954077 -0.013691244 -0.009773612 -0.12056603
0000c0 00 0f 52 3a 0e bd 7a 3d b2 b7 b4 bd bc db 08 be
       0.00080130994 0.061215453 -0.088240996 -0.13365072
0000d0 83 93 1b bd 2c b5 5f 3c 40 bc 84 3c 96 0e 22 be
       -0.037982475 0.013654035 0.016203046 -0.15825877
0000e0 3a 13 ae bd ad e6 35 bd fd 58 2d bd de 0a 9d bd
       -0.08499761 -0.044409443 -0.042321194 -0.076680884
0000f0 c0 12 8d 3c 68 29 70 bd 77 7f 82 bd ef 60 87 bd
       0.017220855 -0.058633238 -0.06371968 -0.066102855
000100 83 01 0b be ee fd 03 3d c1 72 bf bc be 91 17 be
       -0.13574795 0.032224588 -0.023370149 -0.1480169
000110 7c 81 3e bc aa f7 03 bd ea 1f 9b bd 28 cc e2 bc
       -0.011627551 -0.032218613 -0.075744465 -0.02768524
000120 67 bd 0a be 00 ab 29 bd 09 83 04 be bd 32 8a 3d
       -0.13548814 -0.041422844 -0.12940611 0.06747959
000130 8b dc 18 be 75 ef ad bd ea d8 6c bd 1b 62 a5 3c
       -0.1492788 -0.084929384 -0.057824053 0.020188382
000140 c0 43 38 3b 09 5a db 3c e0 cd bc 3c 56 7e e7 bc
       0.0028116554 0.02677633 0.023047388 -0.028258484
000150 85 c6 cb 3d 56 11 2e 3d e7 8b c0 3d 41 d0 92 bd
       0.09949974 0.042497 0.09401684 -0.071686275
000160 4a 54 85 bd 78 1b 00 bd 1d e5 67 bd 2b fc 7c 3c
       -0.065102175 -0.031276196 -0.056614984 0.015440981
000170 52 b3 09 3c 17 da bd bd 2a 38 0e 3d ec 92 94 bd
       0.00840457 -0.09270113 0.03472153 -0.072545856
000180 d4 b5 c9 bc 2f 40 06 3d ca 40 6a 3d c7 7d 11 be
       -0.024622835 0.032776054 0.057190694 -0.14208136
000190 f0 8a f9 bd 88 bd 0a be e1 07 b7 3d 2e e0 9b bd
       -0.12184703 -0.13548863 0.0893705 -0.07611118
0001a0 60 08 a3 bc 11 1f 16 be 17 64 5f bc df ee c9 bd
       -0.019901454 -0.14660288 -0.013634703 -0.09860014
0001b0 ee 4c 1e 3d b6 f4 62 bd 6d 80 a7 3b 00 cf 49 3c
       0.038647585 -0.055409156 0.005111745 0.012317419
0001c0 50 1f 4e bc 0b e9 99 3d 18 70 42 3c 40 bd 84 ba
       -0.012580708 0.075151525 0.011867546 -0.0010127202
0001d0 90 d4 79 bd 35 7a a4 3d 58 49 77 bd c5 4a ba 3c
       -0.06099373 0.08031122 -0.06037268 0.022740731
0001e0 c0 b8 31 bd 0b bb 5e bc ca 57 8c 3c 01 e5 b5 bd
       -0.043389082 -0.013594399 0.017131705 -0.0888157
0001f0 fb 46 1d bd 71 b1 ca bd 82 21 72 3d 25 3e 9a 3d
       -0.03839777 -0.098971255 0.059113987 0.075313844
000200 bf 47 b8 3d 00 95 1b 3c 27 d7 ff bd e8 88 23 bc
       0.089980595 0.009495974 -0.12492209 -0.009981371
000210 87 9a 6e bd 7d 78 70 3c 70 37 07 bd c7 4f f2 bc
       -0.058252838 0.014677164 -0.033011854 -0.029579056
000220 95 ca bf 3d 7f 79 0f 3d 08 04 10 be 49 7f da bd
       0.09364811 0.035027977 -0.14064038 -0.10668809
000230 9d f4 e3 bd a5 99 10 bd a7 b8 66 bd c9 48 05 be
       -0.11130641 -0.035302777 -0.056328442 -0.13016047
000240 5a eb ce bd 0c 7b ef bd 40 f5 6a bc 15 4a 80 bc
       -0.101034835 -0.11693391 -0.014340699 -0.015660325
000250 fa 17 57 3d 28 3a 23 3c f6 c4 20 3d 44 0c b9 3c
       0.0525131 0.009962596 0.039250337 0.022588857
000260 86 1d 37 3d 53 a8 5c bd 0c 6e 62 bd a6 68 eb bd
       0.04470589 -0.053871464 -0.05528073 -0.114945695
000270 d2 7f 98 bc df d0 c6 bd 2f b2 ad bd eb 7d a4 bd
       -0.018615637 -0.09707808 -0.084812514 -0.080318294
000280 91 1d af 3d 0a be 0d 3d 71 d8 cf bd 73 1d a9 bd
       0.08550561 0.034605063 -0.10148705 -0.0825757
000290 9b 4c d9 bc 80 2f 24 bc 72 ca 3a bd 13 6d e6 bd
       -0.026525786 -0.0100210905 -0.045603223 -0.11251273
0002a0 49 c4 a2 3b d1 ff d6 bd f1 e1 ee bd a0 e4 5c bd
       0.0049672467 -0.10498012 -0.11664189 -0.05392897
0002b0 0c 9b 9d bd d4 3a 09 39 35 83 15 3d ba 3a 7a 3d
       -0.076955885 0.00013087253 0.036502082 0.061091162
0002c0 49 77 11 3c 3e 26 1c bd df 96 02 be ca c0 c2 bc
       0.008878537 -0.038122408 -0.12752865 -0.02377357
0002d0 fd ab 84 3d 00 82 c5 bd 30 0c 0d bd 37 3a 23 3c
       0.06478117 -0.09643936 -0.03443545 0.00996261
0002e0 41 2f 8d 3d e2 f5 10 be e0 99 e6 3b 5e e1 86 bd
       0.068937786 -0.14156297 0.0070373863 -0.06585954
0002f0 14 cf a9 bd 42 ee 1f be ba 28 c0 bc c7 47 8a bd
       -0.0829145 -0.15618232 -0.02345692 -0.06751972
000300 f9 77 82 bd 22 87 7e 3c f0 26 5f bd 9b 53 d6 3c
       -0.06370539 0.015535148 -0.054480493 0.026162913
000310 b3 b5 11 be 48 89 f3 bc 98 cc db bc 76 72 48 bd
       -0.14229469 -0.029728547 -0.026830956 -0.048937283
000320 e6 c0 3b 3d 70 b0 66 bd 19 45 8d 3d 7c 5e 39 bd
       0.04583826 -0.056320608 0.06897945 -0.045256123
000330 92 35 33 3d 67 df 09 bc 29 7c 77 3d c7 e0 36 bd
       0.04375226 -0.00841508 0.060421143 -0.044647958
000340 2d 86 23 bd 60 6d a0 bd 01 93 92 3d 72 3b 6c 3d
       -0.039922882 -0.078333616 0.07156945 0.05767388
000350 13 1b a1 bd 4c 35 dc bc a9 a7 81 3d 88 eb f6 bc
       -0.07866492 -0.026880883 0.06330807 -0.030141607
000360 7e f5 cd bd da 99 08 bd af 4d 21 bd 89 4d c5 bc
       -0.100565895 -0.03334985 -0.039380725 -0.024084823
000370 12 f6 44 3d 24 bd 23 bd 7f af a5 3d 2d c3 80 bd
       0.048086233 -0.0399753 0.08090114 -0.06287227
000380 9c b8 28 3d ae b6 ed bc d0 93 3b 3c 30 57 65 bd
       0.041191682 -0.029017773 0.011448815 -0.05599135
000390 a8 87 8f bd d0 97 9d bb 3e b0 27 bc eb 8e 06 be
       -0.07008296 -0.004809357 -0.0102348905 -0.13140456
0003a0 40 30 82 3c ec 0b 09 3d c0 d4 a4 ba 34 50 37 3d
       0.015892148 0.033458635 -0.0012575611 0.044754222
0003b0 74 1f 84 bd 33 5b af bd c5 cf 98 bd aa 76 2f bd
       -0.06451312 -0.08562317 -0.07461504 -0.042837776
0003c0 b8 4d 20 3d 4b 9a 00 bd 8b 04 97 bd dd d4 03 3d
       0.03913662 -0.031397145 -0.073739134 0.032185424
0003d0 14 96 51 bc 46 d3 e4 bd 32 0b 7e 3d 6a 79 a0 bc
       -0.012792129 -0.1117311 0.062022395 -0.019589145
0003e0 e5 0d c0 bd 2f ab c9 3d 17 2a af 3d fa 50 81 3d
       -0.0937765 0.09847104 0.0855295 0.06314273
0003f0 e0 dc 33 bd 0b 98 fa bd fb 53 99 bd 87 4a f0 bd
       -0.043911815 -0.12236031 -0.07486721 -0.11732965

bias f4 [100]
000000 43 53 16 3d 43 df 28 38 24 d6 e8 bd 42 af 3f 3d
       0.0367005 4.026225e-05 -0.11368969 0.046798
000010 be e1 9e bd 4a 91 f6 bb 05 02 d3 3c 8e fa 99 bd
       -0.07757901 -0.007524644 0.025757799 -0.07518493
000020 27 2d 04 3d 55 ae 1f 3c c3 65 65 3d 5a 53 39 bd
       0.032269623 0.009746154 0.05600525 -0.045245506
000030 ce 5c 54 bd dd e6 a9 3d 64 99 e4 bd d6 2a 09 3d
       -0.051846318 0.08295987 -0.111620694 0.033488117
000040 d0 e6 2c 3c 6c 57 ce bc 72 65 1a bd b5 13 03 be
       0.010553077 -0.02518817 -0.037694402 -0.12800486
000050 1f f3 1f be fd 2b bb bd 97 32 15 bd f3 bc f8 3b
       -0.15620087 -0.091392495 -0.0364252 0.007590884
000060 fd cb b1 bd 53 7b ec 3d e0 4d 6e bd 47 8a e0 bd
       -0.08681486 0.1154696 -0.058179736 -0.10963874
000070 1a c1 41 be 22 c6 05 3d d7 36 54 3d e1 84 23 bd
       -0.18921319 0.032659657 0.05181011 -0.039921645
000080 0f b3 07 be 3d b3 cb bd 8b 4e 13 3d 72 6b 95 3d
       -0.13251899 -0.09946296 0.035963576 0.07295884
000090 62 f7 44 bd 4f 91 c5 bd f2 31 01 be 07 b1 90 3d
       -0.048087485 -0.09646856 -0.12616709 0.07065015
0000a0 36 ba 14 bd 63 5b c2 3c ea 7f 94 bd 75 6e 79 bc
       -0.036310397 0.023725217 -0.0725096 -0.015224089
0000b0 c6 9f 82 bd 56 f0 d7 bd c3 b5 56 bd 8a c7 52 3d
       -0.063781306 -0.10543887 -0.052419435 0.051459827
0000c0 d1 2b 50 bc d0 02 ed 3b f9 3e b4 3d 52 48 c5 bd
       -0.012705759 0.0072330013 0.088010736 -0.09632935
0000d0 67 8f 55 bd e0 fc 7a bd 5a f2 8c bd 2d 79 49 bd
       -0.052138712 -0.061276317 -0.068821624 -0.049187828
0000e0 ae 76 f4 bd 36 bc 06 bd c6 15 80 3d c8 3c b5 3c
       -0.11936699 -0.032894336 0.06254153 0.02212371
0000f0 85 17 92 bd de ca 17 3d 3d 0a 4a 3b ac c5 3d 3d
       -0.07133392 0.037058704 0.0030828856 0.046331093
000100 7e 92 ab bd 57 92 21 bd 8f 1f 20 be 40 03 11 bb
       -0.083775505 -0.0394462 -0.15637039 -0.0022127181
000110 00 d8 22 3d 64 69 5f be 5a d4 9b bd 4f 3c 18 bb
       0.039756775 -0.21817547 -0.07608862 -0.0023229306
000120 38 bb 8d bd c4 17 47 3d 72 45 98 bd 67 af c8 3c
       -0.06920475 0.04860665 -0.07435121 0.0244977
000130 a5 df de bd 77 6b bb bd c7 70 b5 3d 86 d2 51 3d
       -0.108825006 -0.09151357 0.08859401 0.05122616
000140 0e 31 3a b8 0a 13 74 bd 76 42 33 be 19 1c e7 bd
       -4.439154e-05 -0.05958847 -0.17505822 -0.11284656
000150 27 e2 82 bd 0f 8f 81 3d 44 ca b8 bc 25 f5 02 bc
       -0.063907914 0.063261144 -0.022557385 -0.007993017
000160 b8 c8 9c bd 9c 9d ae bd 17 8a 66 bd f7 4c 7b bd
       -0.076554716 -0.08526155 -0.056284036 -0.061352696
000170 30 dc 66 bd 38 8f 74 bd 52 38 7d 3d 1d b5 d3 bd
       -0.05636233 -0.059706897 0.06182129 -0.10337279
000180 c9 56 1a bc d0 58 4e 3d 52 a2 a1 bd 14 22 ee bc
       -0.009420105 0.050377667 -0.07892288 -0.029068984

weight f4 [1, 100]
000000 3e 9b 52 bc a8 b7 8f bc af 27 72 3c 8e 91 72 3d
       -0.012854395 -0.017543629 0.014779969 0.059220843
000010 3f 11 aa bc f0 7a 29 3d f0 3d a3 3c ed 73 6b 3b
       -0.020760177 0.041377008 0.019926995 0.0035927251
000020 34 e7 9a bb e0 96 d3 ba 8f 11 49 bc ec 49 cf bc
       -0.0047272686 -0.0016142987 -0.012272253 -0.025303803
000030 fb 36 11 bc 75 20 80 bd 73 ec cc 3c 1a 7a 00 3d
       -0.008863206 -0.06256191 0.025015092 0.031366445
000040 ae f6 78 3d d6 8d ab bd 59 65 99 bc 18 c9 72 3d
       0.060782127 -0.083766624 -0.018725084 0.05927381
000050 7e 2a ec 3c 63 51 3d 3b 55 75 9a 3d af e2 96 3c
       0.028828856 0.0028887622 0.075419106 0.018418638
000060 c9 5a 5b 3d 0b 0c ac bd 68 49 e7 bc 8e 1b 12 3c
       0.053553376 -0.084007345 -0.028233245 0.008917702
000070 67 e5 b7 bd 18 ca b7 bd df 39 b8 3d fe 2a f2 3b
       -0.08979302 -0.08974093 0.08995413 0.007390379
000080 88 dd 4e bd 28 67 49 bc df 1e 3b 3c b6 7c 00 bb
       -0.050504237 -0.012292661 0.011420934 -0.0019605584
000090 42 c4 9a 3c a5 50 1c 3a 8c aa f2 3b 20 cc e9 3b
       0.018892411 0.00059629447 0.0074055847 0.0071349293
0000a0 4c 23 94 bc c6 50 31 bc 7b 19 4d 3c 8a c8 57 bd
       -0.018083237 -0.010822481 0.012518282 -0.052681483
0000b0 a5 d3 ca bd 5a bb 48 3d c2 86 a0 bd c0 8f 8a bd
       -0.09903649 0.049006797 -0.07838203 -0.067656994
0000c0 ad 23 61 bd 73 47 66 bd ea c1 6e bd 40 10 27 bd
       -0.054965664 -0.056220483 -0.0582904 -0.04078698
0000d0 b4 1f 8b bd 24 20 f0 3c 74 2b 14 bd d2 25 30 3d
       -0.06793156 0.0293122 -0.036174253 0.04300482
0000e0 ff 3c d5 bc c2 65 20 3d 37 d6 19 bd a5 9c 6e 3c
       -0.026030062 0.039159544 -0.037557807 0.014563714
0000f0 c0 65 5b bc aa c5 61 3c 84 5a 1d 3d 33 34 03 3a
       -0.013390958 0.013780037 0.0384164 0.00050050317
000100 e5 49 bd 3d 0e a3 5b 3d c9 f8 5e bd 32 39 53 3d
       0.0924261 0.053622298 -0.05443648 0.051568218
000110 00 a5 55 3b 50 8f dc 3d 00 7a 58 bb 02 31 a5 3c
       0.0032599568 0.10769522 -0.0033031702 0.02016497
000120 c0 0e df 3a 1d fc 82 3c 01 83 c8 3d 14 39 47 bc
       0.0017017946 0.015989358 0.09790612 -0.012159605
000130 f7 7a ca bb ed 94 84 bd 4d ee bf bd 86 3e 11 3d
       -0.0061792093 -0.06473718 -0.09371624 0.035460018
000140 41 e1 d2 3c 26 cb 14 3c d6 1a 0d bd 65 4e 3d bd
       0.025742175 0.0090816375 -0.03444942 -0.04621734
000150 d3 ed 69 bd ee e1 06 3c 69 99 5a 3d 62 d8 a7 3c
       -0.057111572 0.008232577 0.05336896 0.020488922
000160 5f 8f bd ba 44 af e1 bc 90 eb 44 bd 19 ec c6 3d
       -0.0014462284 -0.027549393 -0.048076212 0.09713001
000170 c2 72 78 3d 26 ad 48 bd d8 34 c9 3c 2e e8 6e 3b
       0.060656317 -0.048993252 0.02456133 0.0036454308
000180 cf a2 fc bc ef d3 0a bd e0 aa a6 3b 4a bf 5c 3d
       -0.030839352 -0.033893522 0.005086288 0.053893365
