WeakLossVectorClassExample/Models/F2_model.pt (torch, 44511 bytes, 5 tensors)

weight f4 [100, 1]
000000 d4 58 9a be 44 bd 13 bf 74 74 1d bd 83 c2 10 3f
       -0.30145895 -0.5771067 -0.038441136 0.565468
000010 a0 4f 76 bf 39 83 08 3f cd d2 64 3e a6 37 23 3f
       -0.9621525 0.5332523 0.22346039 0.6375679
000020 89 88 1b bf cb 7e 29 bf f4 4d d7 3d 51 f8 91 be
       -0.6075521 -0.66209096 0.10512915 -0.28509763
000030 ca b5 65 bd f0 44 e4 be d0 51 06 be 92 41 6b 3e
       -0.05608157 -0.44583845 -0.13117146 0.22974232
000040 eb ae 32 3f 9c 13 11 3f 67 b3 0c 3f 6e 1b 97 3e
       0.69798154 0.56670547 0.54961246 0.29513115
000050 e0 fe a6 be b5 f4 a7 be ec 03 1f 3e 5d e1 da 3e
       -0.3261633 -0.32803884 0.1552884 0.42750064
000060 6c 22 06 3f d4 3e 5f bf 5e 9b 8d be ce 2e 6b bf
       0.52396274 -0.87205243 -0.27657598 -0.91868293
000070 ad c7 1b 3f a1 f1 96 be 12 aa 51 bf 22 00 23 bf
       0.60851556 -0.29481223 -0.8190013 -0.6367208
000080 0a 3d e0 3e 73 2a 09 bf 07 d8 17 3f e3 25 25 3f
       0.4379657 -0.535804 0.59314007 0.64510936
000090 67 90 5d 3e b1 e0 aa 3e 0f fd e5 3e 90 47 bb be
       0.21637116 0.3337455 0.4491963 -0.36578035
0000a0 d0 45 8b 3d 04 ec 16 bf 03 56 5a be 1b 33 4c be
       0.06800425 -0.5895388 -0.21321873 -0.1994137
0000b0 b9 bd ab be bc 97 9c be 3f 00 3f bf 77 d2 d5 3c
       -0.33543184 -0.30584514 -0.7460975 0.026101334
0000c0 02 ee c6 3d e8 93 f8 be b2 0f 2f bf e0 02 7a 3e
       0.09713365 -0.48550344 -0.68383324 0.24415159
0000d0 ac d4 8f be 28 a8 31 3d 8f 1b 99 3e 3e da 89 be
       -0.28091943 0.043373257 0.29903838 -0.26924318
0000e0 a7 f5 44 3e 8c 47 fc bd b0 fc 5c bf 83 f6 bc be
       0.19234334 -0.12318334 -0.8632307 -0.36906824
0000f0 3b 82 cf 3e e0 c9 c6 be 3e c8 06 bf 20 77 90 bd
       0.40529045 -0.38825893 -0.52649295 -0.07053971
000100 08 4a b9 be 30 06 c5 3d 54 44 a5 3d a3 07 00 bf
       -0.36189294 0.09620321 0.08069673 -0.5001165
000110 d3 77 69 3e 70 b4 1c bf 26 27 2a 3f 46 70 44 bf
       0.22799616 -0.61212826 0.66465986 -0.76733816
000120 5a 7c 1c bf 9d 62 83 bf 4c 87 5a 3e 16 c4 2a 3f
       -0.61127245 -1.0264469 0.21340674 0.66705453
000130 b4 03 d9 3e b3 ee 93 3e eb 9f 16 bf 2d ee d7 3e
       0.42385638 0.2889305 -0.58837765 0.421739
000140 d0 80 0d 3f d0 25 bc 3e 1e 18 04 bf b8 d7 28 3e
       0.5527468 0.367476 -0.515993 0.1648854
000150 4c d7 8a 3e 5b cc bb 3e 5c 37 84 be 6e d6 dc 3e
       0.27117383 0.36679348 -0.25823486 0.43132347
000160 8f dd ea 3e 07 2a bf 3e 8f 0d e0 3e 67 b2 f5 3e
       0.4587216 0.37336752 0.43760344 0.47987673
000170 13 b1 1a 3d a7 a2 4d 3d 64 c4 04 3e cf 62 b2 be
       0.037766527 0.050203945 0.12965542 -0.3484101
000180 d4 5a 2f bf 17 c6 e8 3e 14 54 f6 be 9c a5 3e be
       -0.6849797 0.4546363 -0.48111022 -0.18617862

bias f4 [100]
000000 14 8f c7 3e 62 45 3b bf 25 39 03 3e 72 d4 5e 3f
       0.38976347 -0.73152745 0.12814768 0.87042916
000010 0d 7b 01 3f a8 da d1 be 0f d7 07 bf 00 df 7c bf
       0.50578386 -0.40987134 -0.5306253 -0.9877777
000020 4c 4f e7 3d 9e be 3b 3f a1 b2 66 3f 0e 33 c8 3e
       0.112944216 0.73337734 0.90116316 0.39101452
000030 17 f4 53 3f c0 fb 8e bd 87 11 3a 3f fd f1 fa be
       0.82794327 -0.06981611 0.72682995 -0.49012747
000040 35 48 1d bf cc ab 15 bb 34 ba 30 3f 17 8a 4c 3f
       -0.61438304 -0.0022837995 0.69034123 0.7989821
000050 d0 ac 70 3f 1c ef 7b 3f 60 04 b5 be 40 90 31 be
       0.9401369 0.98411727 -0.353549 -0.17340183
000060 16 85 70 bf f0 21 19 3f b6 7d 84 3f c0 71 13 bf
       -0.93953073 0.5981741 1.0350864 -0.57595444
000070 0e 98 49 bf 78 17 6c 3f d8 17 ed be c0 12 42 be
       -0.7874764 0.9222331 -0.46307254 -0.18952465
000080 77 17 22 3f ea 89 7c 3f 6d 3b 76 3f 5e 00 e6 3e
       0.63317055 0.9864794 0.96184427 0.44922155
000090 8d 6e 5d bf e9 06 62 3f a6 19 0d 3e e2 b0 01 bf
       -0.8649681 0.88291794 0.13779315 -0.50660527
0000a0 f2 9d 36 bf 88 77 66 bf 71 80 c2 3d 4d 15 2e 3f
       -0.71334755 -0.9002614 0.094971545 0.6800125
0000b0 fd e1 2d 3f a2 e3 6a 3f e9 34 83 3d ad 8b 77 be
       0.67922956 0.9175359 0.06406576 -0.24174376
0000c0 b3 3b 8f be 40 68 d3 bc 0c ab 16 3f 23 65 21 bf
       -0.27975234 -0.025806546 0.58854747 -0.6304495
0000d0 18 be f4 be ad e7 08 be cc fd 42 3f 67 c7 4e 3f
       -0.4780128 -0.13369627 0.76168513 0.80773014
0000e0 de d9 79 3f f6 c2 7a 3e 60 b0 54 bd 52 5d 19 3e
       0.97598064 0.24488434 -0.051926017 0.14977005
0000f0 57 d6 53 bf 48 2a f0 be e0 5f 27 bf 38 b4 78 bf
       -0.8274893 -0.46907258 -0.6538067 -0.9714999
000100 68 71 34 be 40 7a 5a bf f1 b6 bd be 4f a0 32 3e
       -0.17621386 -0.8534279 -0.37053636 0.17443965
000110 0e 0b f9 be 0a 63 53 bf 31 8b 8c be 22 21 5d bf
       -0.48641247 -0.82572997 -0.27449945 -0.8637868
000120 d8 d5 36 be ad 7e 8c 3e 23 74 01 bf 7e 37 85 bf
       -0.17855012 0.27440396 -0.50567836 -1.040756
000130 bd 7b ba 3e e8 19 9a 3e b1 b4 6b 3f 04 b8 59 bf
       0.3642253 0.3009789 0.9207259 -0.8504641
000140 8d f6 27 3f 59 f7 d7 be 3a a6 20 bf 93 66 28 3f
       0.6561058 -0.421809 -0.6275364 0.65781516
000150 e8 af 25 bf 22 ab 14 bf 15 53 46 3f eb 33 d4 be
       -0.64721537 -0.5807363 0.77470523 -0.4144586
000160 18 c1 cf 3e 22 a8 40 bf 03 6f 3d bf ac 28 62 bf
       0.40577006 -0.7525655 -0.73997515 -0.8834331
000170 0d c2 de bd 98 59 1d be d1 2f bf be be 43 54 3f
       -0.10876856 -0.15366209 -0.3734117 0.82915866
000180 cf 65 ac 3d e0 f1 68 3f 80 c0 28 bd a5 20 f8 3e
       0.08417856 0.9099407 -0.041199207 0.48462406

weight f4 [100, 100]
000000 a8 42 42 3e 0d e0 5f bd 39 82 e5 bc 4d 56 c8 3d
       0.1897074 -0.05465703 -0.028016197 0.097820856
000010 da fb 33 3d 0d cc 34 3c f6 5b a5 bd 38 05 40 bd
       0.043941356 0.011034978 -0.08074181 -0.046879977
000020 9d ea 0a 3e 42 c0 73 3e 08 3f fc 3d fb 5b 88 3e
       0.1356606 0.2380381 0.1231671 0.26632676
000030 c6 01 2f 3e c0 de 32 bd 5f a3 30 bc e7 50 a1 bc
       0.1709052 -0.043669462 -0.010781138 -0.019691898
000040 5d b4 c6 bd 5f ac d4 3c 54 bc 39 bc fd 17 c9 3d
       -0.0970237 0.0259611 -0.011336405 0.098190285
000050 8c df af 3e 2c 5f 89 3e 68 ae 0b 3c d3 a1 89 3c
       0.3435024 0.26830423 0.008525468 0.016800797
000060 74 91 0f be 07 81 15 3e ec 6a 79 3e 10 67 0b bd
       -0.1402033 0.14600001 0.24357194 -0.034033835
000070 91 3c e8 bc a6 db 4b 3e cc d9 b6 bc 50 f1 5e bd
       -0.028349193 0.19908008 -0.02232065 -0.054429352
000080 0c 2c d2 3c a7 2f b8 3e c7 cc 1b 3e 55 d7 47 3d
       0.025655769 0.35973856 0.15214835 0.04878934
000090 d8 da 01 3e 89 73 1e 3e fd 72 37 3d 33 80 69 bd
       0.12681139 0.1547376 0.044787396 -0.057007026
0000a0 f3 9c 27 bd 6b 5c b5 bd 5d 57 8f 3d 23 6a 63 3e
       -0.040921163 -0.08855518 0.06999085 0.22208457
0000b0 fa ce 9d 3e 58 96 8f 3e 4c 41 b4 3d 33 44 2e bd
       0.30821973 0.2804439 0.08801517 -0.04254551
0000c0 c7 ca c9 bd 80 88 47 bc 81 bb 7f 3e ea 1a 64 bd
       -0.0985313 -0.01217854 0.24973871 -0.05568973
0000d0 a8 a3 47 3c 66 20 05 bd 1b c9 db 3d f8 52 9c 3e
       0.012185015 -0.0325016 0.10731717 0.3053205
0000e0 0e 0a 96 3d f3 ce 83 3d 61 3f a5 3d 11 fc 3a 3e
       0.073261365 0.06435957 0.08068729 0.18260218
0000f0 ca 90 80 be 55 f0 91 3d c2 95 74 3d 40 c1 38 bd
       -0.25110465 0.07125918 0.059713133 -0.045106173
000100 5a 54 10 bd 07 1c a8 3d 9a 3d ee bd 15 7d df 3d
       -0.035236694 0.08208471 -0.11632843 0.109125294
000110 6b aa b7 3c c0 f8 41 bc 3a 41 75 3c b3 50 6d bd
       0.022420129 -0.011839092 0.0149691645 -0.05793829
000120 d8 05 2a 3c 99 d3 85 3d ab 24 5c bd 54 67 3a be
       0.01037737 0.065345 -0.053745907 -0.18203479
000130 53 59 19 3d c8 2d 4f bd 2d aa 98 3e dc 6c 01 3c
       0.0374387 -0.05058077 0.29817334 0.007899489
000140 fa 0f f3 3d f8 c5 b1 3d 22 d1 83 bd 6c 2c 88 3d
       0.11868282 0.08680338 -0.06436373 0.06649098
000150 20 c1 ed 3a 79 75 0b 3d c0 e8 89 3e 91 04 6d bd
       0.0018139221 0.034047578 0.26935387 -0.057865683
000160 c3 7a 96 3d 0a ca c8 3c 66 02 18 be 17 6e 15 be
       0.07347634 0.024510402 -0.14844665 -0.14592777
000170 bb 65 88 bc db fb 64 bc c8 79 fd bd 90 56 6d 3e
       -0.016650071 -0.013976063 -0.123767436 0.23177552
000180 53 4d 34 3c d6 74 0a 3e 34 91 ba 3c b4 b0 ab 3e
       0.011004764 0.13521132 0.022774316 0.3353325
000190 8f 35 22 3e 10 89 3f 3c e4 d2 e0 bb c0 53 c0 3d
       0.15840743 0.011690393 -0.0068610776 0.09390974
0001a0 a4 b2 1a bb 7d d4 58 3c 71 e0 47 be e5 26 a7 bd
       -0.0023605013 0.013234255 -0.19519211 -0.081617154
0001b0 ab 55 83 3c c8 f8 fb 3d 96 c2 b7 3d 3b 70 48 3e
       0.01603206 0.12303311 0.08972661 0.19574063
0001c0 a1 d4 18 3e 4d 8c ad 3d 5f 0a 1e 3d 26 6c cc bd
       0.14924861 0.08474026 0.03858411 -0.09981565
0001d0 9a 18 c6 bd f3 ce 87 3d 6b 9e df 3d ef 2f 2f 3c
       -0.09672661 0.06631269 0.10918888 0.010692581
0001e0 9c 7e 93 3e 1a 22 4d 3e ef 4d 9b bb 49 6b cb 3c
       0.28807533 0.2003254 -0.004739515 0.024831431
0001f0 fe f1 f6 bd ba 18 40 3e a5 25 48 3e 80 3d 94 3a
       -0.12057875 0.18759432 0.1954561 0.0011309832
000200 3d 4d d9 bd 05 3c b4 3d f1 bd ba 3d 00 2a b4 3c
       -0.10610435 0.0880051 0.0911826 0.021992683
000210 df 23 99 bd cf e9 7c 3e 0e 0c 2d bd 9e dc ac 3d
       -0.07477545 0.24698566 -0.042247824 0.08440517
000220 40 2b f3 bc 0d 85 b1 3c 8b bf 1d bb 98 03 94 3c
       -0.02968371 0.021669889 -0.0024070467 0.01806812
000230 b0 4f bd 3b eb a0 b1 3d cd 61 03 3e 90 f8 38 3e
       0.0057773218 0.08673271 0.12830277 0.18063569
000240 3e 1d a2 3e 96 6a 2d 3e 2b 7e bd bd c0 ed 22 3d
       0.31662935 0.1693519 -0.0925258 0.039777517
000250 18 76 01 be bf df be bd 16 4c e1 3d 64 19 fd 3c
       -0.12642705 -0.0932002 0.1100084 0.030895896
000260 62 96 0c 3d 7c de 49 3d 80 65 54 3d 63 19 ad 3e
       0.034323104 0.049284443 0.05185461 0.3380843
000270 90 b9 2e 3d aa 90 e8 3d 37 d0 2b bd 2c ba c2 3d
       0.042657435 0.113557175 -0.041946616 0.09508166
000280 67 e4 89 be 5d fe a3 3d fc bb eb 3c bf 7a a3 3d
       -0.2693207 0.080075 0.028776161 0.07982396
000290 58 22 a8 bd 53 59 c1 3d cc bf fd 3c ff 28 02 3e
       -0.082096756 0.09440865 0.030975245 0.12710951
0002a0 fb 8c 7a bd 92 6e 10 3d cd 92 5c bd e6 1d 2a 3d
       -0.061169606 0.035261698 -0.053850938 0.04153242
0002b0 f6 3b 37 3d de 04 cd 3d 31 59 81 3d cc 45 06 be
       0.044734918 0.10010694 0.0631584 -0.13112563
0002c0 6c ea 9a 3d 3c e7 6a 3d e4 04 b7 3e 85 76 42 bd
       0.07564244 0.05734943 0.3574592 -0.04747631
0002d0 c7 13 7e 3d 3d 50 52 bd 28 09 bf bd 5e 8f 73 3d
       0.06203058 -0.051346052 -0.09327918 0.059462897
0002e0 ab c5 03 3d 1a 97 04 be b5 f7 c6 3d b4 8a e7 bd
       0.032170933 -0.12948266 0.09715215 -0.113057524
0002f0 aa 76 48 bd 3e 4f f9 bd 05 e0 4c be 18 40 19 be
       -0.048941292 -0.121733174 -0.20007332 -0.14965856
000300 b9 67 21 3d 9f f9 bd bc 2b 5b 14 be 70 1a a6 3e
       0.03940556 -0.023190318 -0.14487903 0.32442045
000310 ad 42 6f bd 17 9f a1 3d 00 9b 29 3c 92 f7 46 3e
       -0.058413196 0.07891672 0.010351896 0.19430378
000320 c5 9b 8c bb a1 a9 87 3d 06 d8 82 bd a4 c2 64 bc
       -0.00429103 0.06624151 -0.063888595 -0.013962422
000330 50 6e 0f 3c 23 ec 56 3d 03 0e d1 bd 67 21 ff bc
       0.008754328 0.05247129 -0.10207751 -0.031143857
000340 cd 8e 0a be bd a5 01 be 64 83 fa bb f9 7a fd bb
       -0.13531037 -0.1266088 -0.0076450575 -0.0077356067
000350 4d e3 3a bd fa 0f c7 bd 98 3c b2 bc e2 1f 3b bd
       -0.045626927 -0.09719844 -0.021757409 -0.045684703
000360 12 ca a9 3c 88 1b aa bd d8 f2 1d bd 87 e5 03 be
       0.020726237 -0.083060324 -0.038561672 -0.12880526
000370 2a 43 8d bd df f1 ec bd 87 36 a8 3b bd 9d 01 be
       -0.06897576 -0.11569571 0.0051334533 -0.12657829
000380 aa 3e 16 3d be a4 85 bd a6 74 81 bd b2 bf 46 3d
       0.036680855 -0.06525563 -0.06321077 0.04852266
000390 25 c6 87 3d 6d f5 09 bd e3 57 c2 bd 5b 0f 9a bd
       0.0662959 -0.033681322 -0.09489419 -0.0752246
0003a0 02 f0 9b 3c 60 fe 26 be 12 a0 7e 3d c7 bd c8 bd
       0.019035343 -0.16307974 0.062164374 -0.09801822
0003b0 08 19 38 3b b2 4e c4 ba d1 f3 8a 3d 2f fe 98 3d
       0.0028091092 -0.0014977066 0.067847855 0.07470357
0003c0 e4 9a f3 3c be 3f 0a 3d f6 80 00 be 67 4d dd bd
       0.029736944 0.033752196 -0.12549195 -0.10805779
0003d0 1b 7e c3 bc bc fb b3 bb 6f c1 dc 3c 80 b9 91 bc
       -0.023863843 -0.0054926556 0.026947705 -0.017788649
0003e0 61 7d 7a bd d7 34 1c bd 95 d2 1b bd aa 34 7a 3d
       -0.061154727 -0.03813633 -0.038042624 0.06108538
0003f0 fd 2c 84 bd 61 ed 29 3c 95 46 a6 bc bf 08 f2 bd
       -0.06453893 0.010371537 -0.020297328 -0.118180744

bias f4 [100]
000000 ee a1 54 3e 44 6f 49 3d bf ed d5 bc f5 1c 13 3d
       0.20764896 0.049178377 -0.026114343 0.035916287
000010 ea 90 e0 bd 11 da 73 bd 41 1c af bd 4f 07 c7 bd
       -0.1096514 -0.059534136 -0.08550311 -0.09718191
000020 b7 cb a6 3d 20 5c 65 bd 16 b1 52 3d 01 72 4d bc
       0.08144324 -0.05599606 0.051438414 -0.012539388
000030 81 8e 98 bd 13 83 23 be 17 c4 dc 3c a2 da 5c 3d
       -0.074490555 -0.1596797 0.026948972 0.053919442
000040 c7 94 a5 bc 58 7b d8 bd 26 07 c5 3d 7a 57 d0 bd
       -0.020212544 -0.10570401 0.09620504 -0.10172935
000050 f0 d0 f4 3b f3 13 8d bd 1f d4 9f bd f6 ae 78 3d
       0.0074711964 -0.06888571 -0.07804131 0.06071373
000060 14 12 d7 bd 49 51 a0 bd b0 8d 0d 3d 3a 36 37 3d
       -0.10501495 -0.07828004 0.03455895 0.04472945
000070 c0 a4 2c bc c7 e7 f4 bc 5c e3 94 bd 00 6e 9b 3a
       -0.010537326 -0.029895676 -0.07269928 0.0011858344
000080 0b ae 28 3d aa 46 37 bd 31 25 f1 3c 4c f2 cc bd
       0.041181605 -0.044745125 0.02943668 -0.10007152
000090 ed fc b5 bd e3 41 77 bd d7 62 fb bd c4 e6 c8 bd
       -0.088861324 -0.06036557 -0.122747116 -0.0980964
0000a0 b5 5d 1a be 20 22 5e bd 5e 6b 04 bd 48 7e 07 bd
       -0.15074809 -0.054231763 -0.032328956 -0.033079416
0000b0 bb c3 0c bd a6 33 65 bd 91 ea 8c 3d ac f4 c1 bd
       -0.03436635 -0.05595746 0.068806775 -0.094704956
0000c0 bd dd b5 3d bb 4f cb bd 82 54 63 3d 13 5b 67 bd
       0.08880184 -0.09927317 0.055500515 -0.05648334
0000d0 7d 7d 98 bd f4 20 be bd 55 9e 95 bd 2c fe 5d 3c
       -0.0744581 -0.09283629 -0.0730559 0.013549369
0000e0 06 68 4f 3d 70 01 4c bc ec be 16 be 51 d2 4e 3c
       0.050636314 -0.012451515 -0.14721268 0.0126233855
0000f0 5b 6a f7 bc c7 7e d4 bc b2 7c 08 3d 3c a6 fa 3c
       -0.030202081 -0.025939358 0.033322044 0.030596845
000100 46 33 b4 bd 40 74 c8 bc f0 57 90 bd 5e fd d8 bd
       -0.08798842 -0.024469495 -0.07048023 -0.10595201
000110 05 04 a5 bd 12 b2 37 bd 70 b4 42 bc b4 6b f1 3c
       -0.08057407 -0.044847555 -0.01188384 0.029470302
000120 71 7d 8c bd 3d ad 02 bd 88 38 9f 3d 7e fc a6 3d
       -0.068598635 -0.031903494 0.07774454 0.08153628
000130 eb ca 93 bd 91 57 a0 3d 9d 08 b1 bd 72 6e 5e 3d
       -0.07216438 0.07829202 -0.08644221 0.054304548
000140 17 7c 24 bd e8 d5 95 3d 07 8b 45 be a9 e3 01 bd
       -0.040157404 0.0731619 -0.19291316 -0.031711254
000150 cd bc 8f 3d d0 a7 47 bc e5 ef 14 3d 60 aa a9 bd
       0.07018433 -0.012186006 0.036361594 -0.082844496
000160 eb 62 85 ba 56 eb 05 be a3 cb b2 bb 6c 44 b1 bd
       -0.0010176575 -0.13078055 -0.0054564043 -0.086556286
000170 e5 db 3c 3e 58 b7 e4 bc c9 e4 aa 3c d7 41 22 bd
       0.18443258 -0.027919456 0.020861046 -0.03961357
000180 ed 50 03 be d2 8c 3e bd 50 6f 51 3c 86 f9 0a bd
       -0.1282384 -0.046521015 0.012782887 -0.03392937

weight f4 [1, 100]
000000 36 77 f4 3d 50 1e 59 3d b6 b3 7e 3c a1 d4 21 3d
       0.119368 0.053007424 0.015545776 0.03950942
000010 63 1f 17 bd 6c dd a7 3b 36 c9 fb 3b 6a 69 60 3d
       -0.036895167 0.005122831 0.0076838983 0.05478803
000020 48 a3 89 bc 60 4b 68 bd 5f 0b b5 bd fa b7 84 3b
       -0.016801491 -0.05671251 -0.088400595 0.004050252
000030 74 de ce bb f8 5c 42 3d 8e cc 2f 3d e0 30 95 3b
       -0.0063131396 0.047451943 0.042919688 0.0045529455
000040 ed bd 13 3d 36 f4 83 bc a5 4e 93 3c b9 90 9c bc
       0.0360698 -0.01610766 0.017981837 -0.019111978
000050 a2 95 04 3c e3 44 b2 3d 0c f3 6c 3d e0 ef ae bb
       0.008092316 0.08704545 0.057848975 -0.005338654
000060 a6 cd 0a bd 83 e0 a9 bc 65 dd eb 3c 49 ae aa 3d
       -0.033887528 -0.020736938 0.028792093 0.083340235
000070 c8 3f a8 3c 7f e6 1c bd e5 b7 9e bc 38 a9 88 bc
       0.020538226 -0.038305756 -0.019374797 -0.016682252
000080 f0 54 9f 3b a8 74 5c 3c 4f b2 ca bd b6 3d b2 3c
       0.0048624203 0.013455547 -0.09897291 0.021757942
000090 b2 90 3e 3d 50 a4 51 bd dc 03 59 3d 57 dc 44 3d
       0.04652471 -0.05118209 0.052982196 0.048061695
0000a0 29 a4 b7 bd 4c 0b 9e 3c 46 83 5d 3c eb 51 ba 3c
       -0.08966858 0.019292496 0.013520068 0.02274414
0000b0 11 f1 3a bc 1d 8b 26 bb 57 3c 5c bd 40 ba db 3b
       -0.011410014 -0.0025412508 -0.053768482 0.0067055523
0000c0 99 13 98 3d eb 0e bd 3d 98 68 78 3c 55 59 a0 3d
       0.07425613 0.09231361 0.015161656 0.07829539
0000d0 ea c3 7a 3d 84 27 13 3d 0b cc b1 bd cc 31 6f 3d
       0.061221994 0.035926357 -0.08681496 0.0583971
0000e0 83 2c 24 bd e8 c0 38 3c 22 3c e9 bc a4 ef 14 bd
       -0.040081512 0.011276461 -0.028471056 -0.03636135
0000f0 2a 3f 68 3d da c1 ae 3c 4d f8 47 bd 87 72 1f 3d
       0.056700863 0.02133267 -0.048820782 0.03892758
000100 f6 05 5d ba 5f ee 45 3b a0 34 42 bd fc 2c 23 3b
       -0.0008431369 0.0030201895 -0.04741347 0.002489864
000110 68 b3 8f bc 57 18 64 bb 21 70 93 3d 7a 2b 57 3d
       -0.017541602 -0.0034804547 0.07199121 0.052531697
000120 85 42 48 3d ee ba b9 3b 0c 5f ba 3c 3b 06 a4 3c
       0.048891563 0.0056680357 0.0227504 0.020022502
000130 a6 60 4c 3d 17 15 c8 3d e2 0e 74 3d d4 cc f5 3c
       0.04989686 0.097696476 0.059584506 0.030004896
000140 c3 4e 9f 3d 7e 11 0d bc c0 ad a3 3d 98 e4 32 ba
       0.077786945 -0.0086101275 0.079921246 -0.0006824224
000150 bf f5 ce 3c 10 42 48 bc 91 8e 4e 3d f0 43 0a 3d
       0.025263665 -0.012222782 0.05042893 0.033756196
000160 31 80 16 3c eb f4 72 3c ef 71 96 3b 66 11 d2 bd
       0.009185837 0.014828901 0.0045912187 -0.10257225
000170 ca 40 e4 3d d2 cb 54 3d 13 2e c2 3b 90 5e 75 bd
       0.1114517 0.05195219 0.0059259026 -0.059904635
000180 42 0f 3f 3d e1 bb a0 bc 5d a7 64 bd c6 4d 2b 3d
       0.04664541 -0.019620838 -0.055823673 0.041822217
