WeakLossVectorClassExample/Models/F3_model.pt (torch, 44511 bytes, 5 tensors)

weight f4 [100, 1]
-0.16011512 0.63699627 -0.21125413 -0.2546227 -0.41925028 0.025030375 -0.23991139 0.5553029
-0.3021288 -0.6854781 -0.3848198 -0.38734138 0.3582667 0.49796996 -0.14786063 0.5845284
-0.8753433 -0.40339112 0.15675792 0.17818226 -0.68942344 -0.25850323 0.41673544 0.34877664
-0.60243434 -0.23937333 -0.32656044 0.31048164 0.3366981 0.24101609 0.78404623 -0.5996008
-0.30998313 -0.047187947 0.35995212 -0.5245253 -0.016524196 -0.09464018 0.41779462 0.06913364
0.6588247 -0.4756206 0.34320047 0.5456758 -0.471386 -0.48344213 0.68712527 0.12944162
-0.14842546 -0.23414819 -0.7586098 -0.28724447 0.19061527 -0.38708055 0.2661773 0.803424
-0.3743036 0.6455375 -0.3108976 -0.21126807 0.309274 0.21774076 -0.29595944 0.24357735
-0.5798129 0.11154306 0.44290948 0.694599 -0.8710214 -0.4150639 -0.56553906 0.19221379
0.24654813 0.17099358 -0.07060916 0.3045159 -0.028392846 0.4481354 0.32321954 0.64339715
-0.9787256 -0.8304101 -0.44313583 0.34274137 -0.42811942 -0.95408285 0.48674175 -0.067717314
-0.23130892 -0.54921436 -0.48209274 0.47615328 0.60014015 -0.35782754 -0.2756989 -0.5728873
0.45184097 0.23574392 0.029850937 -0.40554395
00000000: 38f5 23be 3012 233f 0153 58be e85d 82be
00000010: f9a7 d6be 800c cd3c 55ab 75be 5528 0e3f
00000020: a0b0 9abe 7e7b 2fbf 1a07 c5be 9c51 c6be
00000030: bc6e b73e ebf5 fe3e c768 17be a7a3 153f
00000040: 8016 60bf 4889 cebe 2685 203e 6975 363e
00000050: 0e7e 30bf 895a 84be 595e d53e da92 b23e
00000060: 2339 1abf 481e 75be ee32 a7be 73f7 9e3e
00000070: b263 ac3e eccc 763e 41b7 483f 707f 19bf
00000080: 1cb6 9ebe 2648 41bd a54b b83e 4a47 06bf
00000090: c05d 87bc b6d2 c1bd 2de9 d53e f095 8d3d
000000a0: bca8 283f 8b84 f3be f9b7 af3e 69b1 0b3f
000000b0: 8159 f1be ba85 f7be 71e7 2f3f 588c 043e
000000c0: d8fc 17be 8bc4 6fbe 4034 42bf b511 93be
000000d0: a630 433e 6c2f c6be 6448 883e 32ad 4d3f
000000e0: b9a4 bfbe f241 253f f82d 9fbe a856 58be
000000f0: 2959 9e3e 6ff7 5e3e ff87 97be 576c 793e
00000100: 9e6e 14bf b070 e43d 08c5 e23e 3dd1 313f
00000110: 42fb 5ebf 4183 d4be 2bc7 10bf b1d3 443e
00000120: 1d77 7c3e f118 2f3e 899b 90bd 82e9 9b3e
00000130: 1d98 e8bc 0172 e53e 087d a53e adb5 243f
00000140: c38d 7abf c295 54bf b3e2 e2be cc7b af3e
00000150: 7832 dbbe c63e 74bf 3736 f93e 60af 8abd
00000160: 3fdc 6cbe 5099 0cbf dcd4 f6be 5dca f33e
00000170: c9a2 193f 2c35 b7be 6828 8dbe bea8 12bf
00000180: b357 e73e db66 713e f489 f43c 75a3 cfbe

bias f4 [100]
-0.61572933 0.6253659 0.46479514 -0.91067016 0.12925896 -0.66669583 0.15349834 0.73722816
-0.7568536 -0.36972117 1.0455092 -0.45525622 -0.23587918 -0.49928138 0.41858786 -0.45649368
-0.132792 0.75285184 -0.32778025 0.7751539 0.4627514 0.681399 -0.21989165 -0.33365822
0.45393154 -0.7673501 0.37659892 -0.4831026 -0.7918824 -0.124909304 -0.7406387 -0.09987259
-0.86454105 -0.05945741 -0.7530756 0.7667259 -0.7031344 0.5165037 0.5007229 -0.46706522
0.40412447 0.6276139 -0.4949974 0.105178915 1.1966984 0.49589556 -0.10655545 -0.42249882
-0.2876686 0.8123622 0.9226266 0.8618404 -0.78310937 0.24708492 0.0028140107 -0.84402114
0.718742 -0.47687593 -0.021279693 -0.0500257 -0.23136127 0.60012376 0.24243993 -0.09012541
-0.8949548 -0.4257735 0.576062 0.5656473 -0.6371789 0.35698143 0.9185364 -0.40191838
-0.7835442 0.49595135 0.06319618 0.4142437 -0.09409685 0.5668746 0.5422133 0.4010461
0.92092144 0.906602 0.78497833 0.4210928 1.2517406 -0.11453879 0.3737475 -0.58562815
0.65118665 1.1493013 -0.9790791 0.3292974 -1.0727782 -0.92177415 0.8258405 1.3445073
0.5588761 -0.80166626 0.30196297 0.105077036
00000000: 70a0 1dbf fb17 203f a1f9 ed3e ae21 69bf
00000010: 765c 043e 94ac 2abf ab2e 1d3e fcba 3c3f
00000020: 28c1 41bf 184c bdbe 3fd3 853f 5817 e9be
00000030: 508a 71be cfa1 ffbe 2651 d63e 8ab9 e9be
00000040: a0fa 07be e6ba 403f d0d2 a7be 7c70 463f
00000050: c0ed ec3e 2a70 2e3f 472b 61be 40d5 aabe
00000060: b769 e83e 0e71 44bf 93d1 c03e 3959 f7be
00000070: ceb8 4abf 73d0 ffbd 7f9a 3dbf 008a ccbd
00000080: 9052 5dbf 9d89 73bd 90c9 40bf 2648 443f
00000090: 9e00 34bf 9639 043f 602f 003f 2c23 efbe
000000a0: 67e9 ce3e 4eab 203f 4d70 fdbe 0b68 d73d
000000b0: 6a2d 993f 06e6 fd3e be39 dabd c451 d8be
000000c0: 4c49 93be f8f6 4f3f 4231 6c3f 93a1 5c3f
000000d0: db79 48bf d403 7d3e 446b 383b c511 58bf
000000e0: 7aff 373f 1529 f4be c052 aebc c0e7 4cbd
000000f0: f8e9 6cbe b6a1 193f 2c42 783e ac93 b8bd
00000100: c21b 65bf fcfe d9be cd78 133f 43ce 103f
00000110: 281e 23bf 45c6 b63e 3425 6b3f 3fc8 cdbe
00000120: 5a96 48bf 56ed fd3e 006d 813d c017 d43e
00000130: d9b5 c0bd b21e 113f 7ece 0a3f ea55 cd3e
00000140: 82c1 6b3f 1217 683f 57f4 483f 7a99 d73e
00000150: 0939 a03f 5093 eabd d55b bf3e baeb 15bf
00000160: 2bb4 263f 4e1c 933f eea4 7abf ab99 a83e
00000170: cc50 89bf 64f9 6bbf 486a 533f d118 ac3f
00000180: 8112 0f3f 003a 4dbf e49a 9a3e a132 d73d

weight f4 [100, 100]
-0.056170046 0.010999767 -0.08477305 -0.02967234 0.07224315 -0.014150307 0.017143466 -0.0764819
0.03944289 0.07349267 -0.062457237 0.0834798 -0.031064188 -0.14825575 -0.070088945 -0.10783529
0.060715504 -0.07892802 -0.10534375 0.047324672 0.04879167 -0.07220235 -0.08767653 -0.14838903
-0.009558916 0.059340708 -0.067229606 0.04744392 0.09126214 0.034605093 -0.030283617 0.0078114644
-0.06999272 -0.07687473 -0.07362969 -0.020586357 0.09376741 -0.0076472135 -0.08423476 0.044547237
-0.007812301 0.025387608 0.022032682 -0.124782935 -0.03686817 0.04044936 -0.13771969 -0.038932156
-0.08076759 -0.1499747 -0.0017143041 0.050368287 0.07863443 -0.07113367 -0.054098904 0.001204528
0.0038185716 -0.07609962 0.027604349 0.0059769973 -0.0676919 -0.115507014 0.017132543 0.020429585
-0.079030715 -0.023004793 0.03642937 0.03958619 0.0032824427 0.0686919 -0.063446 -0.054986775
-0.09488904 -0.07920706 0.037101306 -0.11798779 -0.061083663 -0.037843425 -0.08847951 -0.12880756
-0.09016184 -0.06333281 0.061738364 -0.023375953 -0.10233172 0.021828666 -0.1416276 -0.06564245
0.00899066 -0.08081553 0.057912655 -0.071247295 -0.09456618 -0.08263938 -0.119966455 -0.06526646
0.045433175 -0.09297352 -0.06131335 -0.069293454 0.05400244 -0.039446115 -0.09184545 -0.028698742
0.021813773 0.026707776 0.044115208 -0.009354368 -0.092691936 0.026944555 -0.094026625 -0.031889357
-0.060081434 0.07223595 -0.011810638 0.089765735 0.032092802 0.0791147 0.030419089 -0.06383727
0.02955053 0.08949945 0.0961251 0.08770818 -0.0050283223 -0.078450784 -0.05151237 0.006070927
0.015188113 -0.012594245 0.069958024 -0.020343147 0.09009843 0.017910853 -0.04925238 0.08505387
0.0098032355 0.013514176 -0.047094144 0.015294597 0.049447306 0.057193227 0.016718194 0.026343532
0.056755073 0.0047703013 -0.009939954 0.07976789 -0.02429451 -0.0948623 0.04345215 -0.047159027
-0.037077114 0.029114671 0.06794166 0.06608801 -0.022163808 -0.03620644 0.06835436 -0.046540536
-0.0447235 -0.0939106 0.0994209 -0.03641077 -0.090183735 -0.00031051785 -0.06389399 -0.09647637
-0.0546783 -0.032735705 -0.0809264 0.053469397 0.022123598 0.06436754 0.06258256 0.008938178
-0.03422562 -0.08977312 -0.088557735 -0.08579774 -0.05367936 0.04094287 0.05110497 0.022482768
0.07594111 0.07565961 -0.079988755 0.00431142 0.0460703 -0.0025753155 -0.046463013 -0.018375158
-0.012642279 0.060577206 -0.029911853 -0.042600274 -0.014955901 0.01090996 -0.08082495 -0.08032788
0.023537733 -0.0067244824 0.08253675 0.0014952421 0.46849298 0.061684527 0.15222524 -0.017982094
-0.034757175 0.06586153 0.105355516 -0.056022417 -0.055577915 0.023589453 0.042734582 0.007632223
0.048335917 0.10614141 0.06299499 -0.06432084 0.36539808 0.40651464 0.027919596 -0.0426964
0.6769386 0.09319026 0.28478217 0.031206867 0.034419935 0.007305469 -0.056090184 0.04669144
0.021974862 0.15035325 0.036845066 0.7322652 0.0672399 0.03472847 -0.012369748 -0.0033896118
-0.069530845 0.55936325 -0.048242956 -0.0093161715 0.33301678 0.59100586 -0.06466615 0.05178467
0.048529096 0.05625258 0.33638236 0.47524154 0.040797908 0.19976702 -0.0036068517 -0.14551443
00000000: 9012 66bd 5e38 343c 7e9d adbd 6813 f3bc
00000010: 37f4 933d b0d6 67bc 7470 8c3c 8ba2 9cbd
00000020: de8e 213d 5383 963d 29d3 7fbd 75f7 aa3d
00000030: 537a febc 5bd0 17be cb8a 8fbd c0d8 dcbd
00000040: d2b0 783d 04a5 a1bd 77be d7bd 84d7 413d
00000050: c6d9 473d d3de 93bd c18f b3bd 4bf3 17be
00000060: 009d 1cbc 3e0f 733d adaf 89bd 8e54 423d
00000070: a5e7 ba3d 12be 0d3d 5915 f8bc 50f7 ff3b
00000080: 5858 8fbd 8070 9dbd 2acb 96bd b8a4 a8bc
00000090: 2109 c03d 7a95 fabb 4683 acbd 2a77 363d
000000a0: 55fe ffbb acf9 cf3c e27d b43c 328e ffbd
000000b0: 1403 17bd 3aae 253d 6406 0dbe 5377 1fbd
000000c0: 7a69 a5bd f892 19be 80b2 e0ba fa4e 4e3d
000000d0: 170b a13d 88ae 91bd d096 5dbd 41e1 9d3a
000000e0: 0041 7a3b 1eda 9bbd 8422 e23c b0da c33b
000000f0: 0da2 8abd f18e ecbd 8c59 8c3c f25b a73c
00000100: dbda a1bd 8c74 bcbc f736 153d 2125 223d
00000110: 401e 573b 57ae 8c3d faef 81bd d039 61bd
00000120: 2f55 c2bd 5037 a2bd 8af7 173d 95a3 f1bd
00000130: dd32 7abd b501 1bbd bf34 b5bd 21e6 03be
00000140: c5a6 b8bd a2b4 81bd 5ee1 7c3d ed7e bfbc
00000150: 4b93 d1bd 08d2 b23c d306 11be 8c6f 86bd
00000160: 904d 133c 9d82 a5bd d235 6d3d 1aea 91bd
00000170: eaab c1bd d63e a9bd f9b0 f5bd 6caa 85bd
00000180: 2318 3a3d e768 bebd b523 7bbd bae9 8dbd
00000190: aa31 5d3d 4092 21bd 7819 bcbd a019 ebbc
000001a0: ccb2 b23c 44ca da3c 26b2 343d 1043 19bc
000001b0: 45d5 bdbd d4ba dc3c 0891 c0bd 6a9e 02bd
000001c0: f317 76bd 71f0 933d 6881 41bc 19d7 b73d
000001d0: be73 033d e306 a23d 7431 f93c 1dbd 82bd
000001e0: f413 f23c 7d4b b73d 3ddd c43d 59a0 b33d
000001f0: a0c4 a4bb ceaa a0bd a3fe 52bd a0ee c63b
00000200: 90d7 783c 1858 4ebc 2746 8f3d aca6 a6bc
00000210: 8785 b83d c8b9 923c ddbc 49bd b930 ae3d
00000220: c09d 203c 906a 5d3c cae5 40bd 3096 7a3c
00000230: 4289 4a3d 7243 6a3d 98f4 883c 64ce d73c
00000240: 0278 683d 3050 9c3b 30db 22bc 595d a33d
00000250: 4805 c7bc 2a47 c2bd e2fa 313d d329 41bd
00000260: 2cde 17bd e481 ee3c ff24 8b3d 2759 873d
00000270: e090 b5bc 344d 14bd 5ffd 8b3d 4aa1 3ebd
00000280: fd2f 37bd 3354 c0bd 2f9d cb3d 7623 15bd
00000290: 40b2 b8bd 00cd a2b9 dada 82bd 6795 c5bd
000002a0: 5af6 5fbd e015 06bd bebc a5bd ba02 5b3d
000002b0: 8c3c b53c 21d3 833d 492b 803d 7071 123c
000002c0: 2a30 0cbd f8da b7bd c25d b5bd bab6 afbd
000002d0: e3de 5bbd b6b3 273d 7253 513d c82d b83c
000002e0: 0387 9b3d 6df3 9a3d 25d1 a3bd d046 8d3b
000002f0: 36b4 3c3d a0c6 28bb 0050 3ebd 8087 96bc
00000300: 9021 4fbc ce1f 783d b409 f5bc a07d 2ebd
00000310: 9809 75bc b0bf 323c 8d87 a5bd f282 a4bd
00000320: 34d2 c03c 0c59 dcbb 0709 a93d 00fc c33a
00000330: 50de ef3e eaa8 7c3d efe0 1b3e 2f4f 93bc
00000340: 8a5d 0ebd 69e2 863d a2c4 d73d c377 65bd
00000350: aba5 63bd ab3e c13c 750a 2f3d ba17 fa3b
00000360: e2fb 453d ab60 d93d 8403 813d a5ba 83bd
00000370: 7515 bb3e b022 d03e a3b7 e43c 6ce2 2ebd
00000380: d94b 2d3f 89da be3d f8ce 913e 8ba5 ff3c
00000390: ebfb 0c3d b762 ef3b d2be 65bd 863f 3f3d
000003a0: a004 b43c 34f6 193e daea 163d bb75 3b3f
000003b0: 13b5 893d 713f 0e3d 7caa 4abc 4024 5ebb
000003c0: 3066 8ebd 6e32 0f3f 689a 45bd dba2 18bc
000003d0: 2d81 aa3e 294c 173f b06f 84bd 2a1c 543d
000003e0: 72c6 463d 1b69 663d 4f3a ac3e dc52 f33e
000003f0: b51b 273d ba8f 4c3e ee60 6cbb bc01 15be

bias f4 [100]
-0.0028487942 -0.0043269396 -0.06904284 -0.119146 -0.046310373 -0.03093378 -0.0059693605 0.031080611
-0.018476253 -0.13472511 -0.0027467012 -0.01902497 -0.12605765 0.03152221 -0.12633364 -0.065528825
-0.04369575 -0.115510024 -0.11036502 -0.08131595 -0.03667682 0.049200498 -0.15261297 -0.13675578
-0.08574974 -0.036504645 -0.040249575 0.0012874308 -0.035585202 0.00794746 0.0025487393 -0.01899703
-0.09036595 -0.04658642 -0.12665823 0.03058246 -0.08093559 -0.037852503 -0.020211473 0.06302865
-0.027003506 -0.0943788 0.027687378 0.07329846 0.015273854 -0.02394816 0.018494502 -0.113491826
-0.096789815 -0.09962589 0.028178059 0.033061422 -0.10430196 -0.10510026 0.0036068303 -0.016724005
-0.08056162 -0.046702843 0.024471436 0.051058233 0.07236644 0.05201902 0.016483806 -0.057256464
-0.08000096 -0.04549136 -0.07095128 -0.03917754 -0.056949306 -0.08747174 -0.10494863 -0.09026356
0.04980726 0.025583873 -0.07285081 -0.06560466 -0.018893566 -0.05655397 0.008902203 -0.029998854
-0.061404042 -0.06460926 -0.097485796 0.053215295 -0.041571748 -0.14297858 -0.04931692 -0.06513509
-0.045692887 -0.11675578 -0.024287915 -0.028499201 0.03892056 -0.05582236 -0.057145894 -0.02887657
-0.1225091 -0.09054301 -0.05603263 -0.10180176
00000000: d6b2 3abb 00c9 8dbb 5566 8dbd d102 f4bd
00000010: f2af 3dbd d768 fdbc a09a c3bb c49c fe3c
00000020: 835b 97bc 61f5 09be 0002 34bb 41da 9bbc
00000030: 4215 01be 6f1d 013d 9b5d 01be fa33 86bd
00000040: 51fa 32bd 8590 ecbd 0e07 e2bd fa88 a6bd
00000050: 6f3a 16bd 7686 493d 9346 1cbe b509 0cbe
00000060: 8f9d afbd e585 15bd bddc 24bd 02bf a83a
00000070: cac1 11bd 1036 023c c008 273b a99f 9bbc
00000080: c811 b9bd 67d1 3ebd b2b2 01be 1188 fa3c
00000090: 8fc1 a5bd 3a0b 1bbd 8892 a5bc 2a15 813d
000000a0: 7536 ddbc ac49 c1bd a4d0 e23c 811d 963d
000000b0: 303f 7a3c ee2e c4bc c881 973c 676e e8bd
000000c0: bd39 c6bd a908 ccbd acd5 e63c 6a6b 073d
000000d0: 449c d5bd ce3e d7bd 9260 6c3b c800 89bc
000000e0: 7efd a4bd 7b4b 3fbd 5278 c83c 7022 513d
000000f0: db34 943d e511 553d 0c09 873c c185 6abd
00000100: 8bd7 a3bd 2655 3abd e84e 91bd a178 20bd
00000110: ad43 69bd 6224 b3bd 4fef d6bd 1adc b8bd
00000120: b302 4c3d 4595 d13c ce32 95bd bc5b 86bd
00000130: aec6 9abc 23a5 67bd 8cda 113c 28c0 f5bc
00000140: ce82 7bbd dc51 84bd a2a6 c7bd 48f8 593d
00000150: 2347 2abd fa68 12be 8a00 4abd 8c65 85bd
00000160: 7728 3bbd a81d efbd 73f7 c6bc 2877 e9bc
00000170: 2a6b 1f3d fda5 64bd d011 6abd 8e8e ecbc
00000180: 0de6 fabd 9d6e b9bd 7982 65bd 717d d0bd

weight f4 [1, 100]
-0.02572515 -0.05843289 -0.05788711 -0.018037736 0.019218108 0.0027738921 -0.0516559 -0.07064851
-0.02647386 0.03486275 0.049082167 0.011687036 0.022435311 -0.011206747 0.009185512 -9.7978314e-05
-0.015975693 -0.033306606 0.034818355 -0.07215923 -0.023101391 -0.01583925 0.05099679 0.026892483
-0.0517714 -0.04956234 0.04061745 0.033022113 0.05319763 0.07246486 -0.027656853 -0.014962241
0.06777636 -0.032876395 -0.024197206 -0.046903703 -0.03250963 0.0016364595 -0.0878677 0.007922312
-0.023285663 0.033229165 -0.013610378 0.02165066 0.0735336 -0.040436678 -0.00019688904 -0.059070993
-0.0006738257 0.030016467 0.057975642 -0.02061057 0.015684243 0.0005380393 0.0012985364 0.08255876
-0.037197236 0.0769112 -0.019621748 -0.041667096 -0.043882966 -0.022215838 0.03841605 0.046086982
-0.13339044 0.046328925 -0.04218971 0.003928094 0.03892781 0.051382057 0.042753246 -0.04988063
0.03529322 -0.00921672 -0.020035084 0.032844286 -0.042351417 -0.03249965 -0.021331783 -0.02335125
0.011122015 0.03702737 -0.07966429 -0.012325384 0.013611472 0.034530986 0.062037684 0.021921739
0.049990736 0.02977956 0.027086154 -0.019319192 -0.029981911 -0.04456846 0.017391985 -0.017334124
0.054842435 -0.015570678 0.11653485 0.051230118
00000000: 8dbd d2bc 5357 6fbd 091b 6dbd e0c3 93bc
00000010: 4b6f 9d3c 30ca 353b 2395 53bd 2ab0 90bd
00000020: b5df d8bc 3ecc 0e3d 620a 493d fb7a 3f3c
00000030: 42ca b73c 819c 37bc d47e 163c b579 cdb8
00000040: 75df 82bc 826c 08bd b19d 0e3d 38c8 93bd
00000050: 213f bdbc 51c1 81bc 03e2 503d a04d dc3c
00000060: 3f0e 54bd e101 4bbd 7c5e 263d 3242 073d
00000070: c2e5 593d 7568 943d a090 e2bc 3024 75bc
00000080: 55ce 8a3d 66a9 06bd 3839 c6bc 191e 40bd
00000090: d128 05bd 787e d63a fbf3 b3bd 96cc 013c
000000a0: 93c1 bebc 4e1b 083d 10fe 5ebc ba5c b13c
000000b0: c998 963d eea0 25bd 0074 4eb9 6df4 71bd
000000c0: ada3 30ba 18e5 f53c de77 6d3d 80d7 a8bc
000000d0: 3e7c 803c 350b 0d3a a733 aa3a 9114 a93d
000000e0: 215c 18bd 9f83 9d3d cabd a0bc 1eab 2abd
000000f0: a0be 33bd fdfd b5bc 265a 1d3d b4c5 3c3d
00000100: 8197 08be 66c3 3d3d 1ecf 2cbd 3eb7 803b
00000110: c472 1f3d fe75 523d 071e 2f3d a24f 4cbd
00000120: a08f 103d ba01 17bc 9e20 a4bc bb87 063d
00000130: ae78 2dbd 5a1e 05bd febf aebc 1f4b bfbc
00000140: 1d39 363c 03aa 173d 0827 a3bd 68f0 49bc
00000150: a702 5f3c 5d70 0d3d 3a1b 7e3d 3895 b33c
00000160: 16c3 4c3d 44f4 f33c c8e3 dd3c 4843 9ebc
00000170: a09c f5bc 6b8d 36bd a379 8e3c 4b00 8ebc
00000180: 76a2 603d 281c 7fbc d3a9 ee3d acd6 513d
