WeakLossVectorClassExample/Models/F9_model.pt (torch, 44895 bytes, 6 tensors)

weight f4 [100, 1]
000000 fe 20 14 be 50 96 7c be 26 c5 21 3f 80 75 a9 3e
       -0.1446571 -0.24666715 0.6319145 0.33097458
000010 41 69 87 3d 02 0b b5 bd c0 74 bc 3d f0 05 84 be
       0.066118725 -0.0883999 0.09201956 -0.2578578
000020 6f 4e ac 3e 00 a1 43 3f b0 3b d4 bd 84 d5 b4 be
       0.3365359 0.7641754 -0.10362947 -0.3531915
000030 dc f4 b7 3d 29 64 0a 3f 30 d1 57 bf 0c 1a f1 be
       0.0898225 0.5405908 -0.8430357 -0.47090185
000040 e2 01 50 bf d7 4a d6 be 82 85 6b 3e 49 80 9a bc
       -0.8125287 -0.41853973 0.23000148 -0.01886
000050 b3 b2 4f bf 6d d7 6d bc 25 b7 e4 3e 3c 3e 81 be
       -0.8113205 -0.014516694 0.44670978 -0.25242794
000060 9a 78 dc be 86 42 04 3f 12 bc 68 bf f3 d4 33 be
       -0.43060762 0.51664007 -0.9091197 -0.17561702
000070 c1 3b 7d bf dd ef 3e 3f 00 dc 04 bd 35 85 4f 3e
       -0.989193 0.7458475 -0.03243637 0.20265658
000080 cc 77 bb be e8 f7 31 3e 40 16 c7 bd 5c 95 f9 be
       -0.36614835 0.17379725 -0.09721041 -0.48746765
000090 54 04 99 3e 6b 5b eb 3e bb 10 b2 3e 24 94 6a 3e
       0.29886115 0.45968184 0.3477839 0.22908074
0000a0 70 0c 96 3e fc e6 54 bf 80 fe ce bd d3 c2 b8 3e
       0.29306364 -0.83164954 -0.10107136 0.3608614
0000b0 d8 1c 36 3f 04 a6 9b 3e f8 63 e5 bd da 3d 8e 3e
       0.7113776 0.30400097 -0.11200708 0.27781564
0000c0 06 6a 95 3e cd 87 ae 3c 40 aa e0 3d 3a 77 3b be
       0.29182452 0.02130499 0.109699726 -0.183072
0000d0 e2 cd 26 bf 08 6f 4d bf 90 70 87 be 44 41 73 bf
       -0.651579 -0.80247545 -0.26453066 -0.9502146
0000e0 34 c9 14 3f c8 99 6c bf 60 1f 2f 3d 4c 2b 3b 3f
       0.5811951 -0.9242215 0.04275453 0.7311294
0000f0 6e 96 ee 3e f9 d4 18 3f 41 1d 26 bf fd c3 20 be
       0.46599144 0.5969997 -0.6488839 -0.15699764
000100 a7 b9 ff bd 9f f0 6b bd f1 58 d1 3e 22 dc b4 be
       -0.12486582 -0.05760252 0.4088817 -0.35324198
000110 11 cd bd be 3e 65 59 3f e7 7a 01 3f 21 39 18 bd
       -0.37070516 0.8492011 0.5057816 -0.037163857
000120 00 65 93 bd 4b 24 27 be 40 b7 9a 3c 45 5c 1d 3e
       -0.071969986 -0.16322438 0.018886209 0.1536723
000130 bd 79 a4 3e 74 df a6 3e 4e 2e 3f 3f b0 5d 75 bf
       0.3212413 0.32592356 0.7468003 -0.9584608
000140 05 de 73 be 1c 39 02 bf 35 d7 04 3f 1a 41 55 bf
       -0.23815162 -0.5086839 0.5189088 -0.8330246
000150 43 72 6b bf 89 b3 60 bf 8d cd 36 3f e8 c0 dc be
       -0.91971225 -0.8777395 0.71407396 -0.43115926
000160 7e 7f 11 bf 50 72 53 be 80 19 eb be a1 03 8b bf
       -0.5683516 -0.20649076 -0.45917892 -1.0860482
000170 e3 f0 71 be d6 c1 1e bf b6 38 8c be 98 2f be be
       -0.23627047 -0.6201452 -0.27387017 -0.37145686
000180 10 66 ac 3d ea b9 5d 3e ff e9 3d bf 74 fa 5b bf
       0.084179044 0.21652952 -0.74185175 -0.85929036

bias f4 [100]
000000 35 ae e8 3e ad 61 46 3f 67 6b c2 be 04 b3 30 3f
       0.4544541 0.7749279 -0.37972566 0.69023156
000010 0c dd 54 be e4 34 06 3f 8e a7 2a bf bb 61 4f 3f
       -0.20787448 0.52424455 -0.6666192 0.810085
000020 2a ee de bc 98 df 8e 3e 0a b0 a6 3e d4 06 8e 3f
       -0.027213175 0.27904963 0.32556182 1.1095834
000030 d4 ac 08 3f f9 8d f5 bd 84 96 a5 be be cc 54 bf
       0.53388715 -0.1198997 -0.32341397 -0.8312491
000040 bc 50 90 be 04 f0 5b 3f 8c 2d fc bd c5 d7 36 be
       -0.28186595 0.8591311 -0.12313375 -0.17855747
000050 5b 59 10 3e 06 39 8a 3c e1 7b 4f 3e 30 c0 7a be
       0.14096586 0.016872894 0.202621 -0.24487376
000060 49 c0 1a 3f 5f ca 40 be 20 7a 55 be 51 3d 0d 3f
       0.60449654 -0.18827198 -0.20847368 0.55171686
000070 7a 22 1e 3f 49 1c 12 bf e0 32 8b bd 0e 5b 92 bd
       0.6177136 -0.5707441 -0.06796813 -0.071462736
000080 86 8d 46 3f 1c 8e 2a bf 00 10 6c bf 98 97 76 be
       0.775597 -0.6662309 -0.92211914 -0.24081266
000090 a5 9c 2f 3f 3d bb 3d bf c2 31 04 be 37 a4 86 3e
       0.68598396 -0.7411383 -0.12909606 0.2629716
0000a0 14 cb 3c bf 80 35 8b bd 5a 1a 5b bf ea f3 02 bf
       -0.7374737 -0.06797314 -0.85587084 -0.51153433
0000b0 98 54 63 bf 54 51 fc be a3 29 b4 3e 7b b5 d9 3e
       -0.88800955 -0.49280798 0.35188016 0.4252127
0000c0 e8 47 4f 3f 68 81 1d bd f4 83 4f bf 3a 3c 13 3f
       0.80969095 -0.03845349 -0.8106072 0.57513773
0000d0 6c f6 a2 be c4 7a d0 3e c7 52 4a 3f 1e 9e 0c bf
       -0.3182863 0.40718663 0.7903256 -0.5492877
0000e0 25 58 f1 3b 00 17 0a bc f4 39 ee be e3 ef a0 bf
       0.007365244 -0.008428335 -0.4652859 -1.2573208
0000f0 ce f5 83 bf e8 45 43 bf a6 11 7e 3e ad 87 fc 3e
       -1.0309389 -0.76278543 0.2481142 0.49322262
000100 46 df 07 3f e2 66 1d 3e 29 d2 1f 3e 58 46 18 3f
       0.53075063 0.15371278 0.15607513 0.59482336
000110 c2 11 95 3f 23 31 13 be 57 bd 49 3d 4b a4 a7 3d
       1.1646044 -0.14374213 0.049252834 0.08185633
000120 e2 0f 3b bf e4 45 03 3f 06 d0 6f bf 95 09 1f 3f
       -0.7307111 0.5127852 -0.93676794 0.62123996
000130 f0 4c 73 bd 45 ef 6a bf a5 c4 03 3f a0 e4 4e bf
       -0.059399545 -0.91771346 0.5147193 -0.80817604
000140 47 f0 9f bb d2 4e 76 bf d3 31 2a 3f 18 be 55 be
       -0.004880938 -0.9621402 0.66482276 -0.20873296
000150 94 eb 4e 3f 6c ab 8a 3e 87 47 79 bf d4 36 24 bf
       0.80828214 0.2708391 -0.9737477 -0.6414616
000160 b8 fb d8 be 30 57 63 be fe 4f 16 bf a9 39 55 3f
       -0.42379546 -0.22201228 -0.5871581 0.8329111
000170 b7 65 59 3d 10 96 70 bf 7a 42 5c 3f 20 c1 82 bd
       0.05307552 -0.9397898 0.86038935 -0.06384492
000180 2e 66 50 bf 8d 7d 0b bf 63 4e 58 3f f0 ae ac be
       -0.81405914 -0.5448845 0.8449461 -0.33727217

weight f4 [100, 100]
000000 76 7b 3c 3d 3d 47 aa bd 3a 64 0b 3d 36 1a 67 3d
       0.04601618 -0.08314369 0.03403113 0.05642148
000010 9a 83 75 3d 8f db ab 3d ea dd 56 bd 60 9c 1a bd
       0.05993996 0.08391487 -0.052457727 -0.037746787
000020 2c 7e 9f 3c ea 54 9f bd 1d 2f 81 bd 49 9c cc 3d
       0.019469343 -0.07779868 -0.06307814 0.099907465
000030 78 25 a3 bd ee a0 9f bd 9f 13 8d 3d d1 55 bc 3d
       -0.07966131 -0.07794367 0.06888508 0.09196056
000040 62 d3 af bd 30 12 ec 3b 40 aa 5d bc fe f4 94 bd
       -0.0858524 0.0072043166 -0.01352936 -0.07273291
000050 bd 92 7a bd 98 47 b9 bd b1 09 a5 3d 10 83 03 3c
       -0.061175097 -0.090468585 0.08058489 0.008026853
000060 97 be ae bd fe 3d 79 3d 46 18 8a bd 8c c4 91 bc
       -0.08532446 0.060850136 -0.06742911 -0.017793916
000070 d0 be 7f 3c 40 fe 7a bd 8e f7 4f 3d 80 64 f4 ba
       0.015609458 -0.061277628 0.050773196 -0.0018645674
000080 1a c4 3c 3d b3 22 3b bd 6b 78 b9 3d c6 11 03 3d
       0.046085455 -0.04568739 0.09056171 0.031999372
000090 c7 4b b0 bd cd ec aa bd 0b 37 83 3d a8 bd c0 3c
       -0.086082034 -0.083459474 0.06406983 0.023527935
0000a0 cd 96 ae 3d 04 39 d6 3c d8 39 9a 3c a2 e7 05 3d
       0.08524857 0.026150234 0.01882641 0.032691605
0000b0 d6 f1 12 bd c2 2a 5c 3d 5d 80 7d bd 4b fd 92 3d
       -0.035875164 0.053751715 -0.061889995 0.07177218
0000c0 8d b1 6b bd 9a 19 b9 bd e6 7a 17 bd 20 cc 99 bd
       -0.057542372 -0.09038086 -0.03698244 -0.07509637
0000d0 18 45 be bd c7 b0 b3 bd c4 1f fe 3c 82 4d 62 3d
       -0.09290522 -0.08773952 0.031021006 0.0552497
0000e0 60 b8 e4 3b 11 52 9b 3d 27 70 71 bd 57 c0 8e 3d
       0.006979987 0.07584012 -0.058944847 0.0697028
0000f0 20 4e 8a bc 91 8a af 3d 0b 32 99 3d bf 5b b6 3d
       -0.016882956 0.08571351 0.07480248 0.08904218
000100 75 d4 c2 bd 13 9f ae 3d 40 7a 90 bd bb 17 a9 3d
       -0.09513179 0.08526435 -0.07054567 0.08256479
000110 00 16 d0 3b e2 32 b3 bd 40 44 b6 bd 09 26 b7 3d
       0.006350279 -0.087499395 -0.088997364 0.089428015
000120 a5 40 95 3d c9 79 9b 3d fc 0a 18 bd 00 74 cb bc
       0.072877206 0.07591588 -0.03711985 -0.024835587
000130 ac 47 bb 3c 39 ee a7 3d cd 6a be bd 75 03 8e 3d
       0.022861324 0.08199734 -0.092977144 0.06934253
000140 d8 98 38 bc fa e8 98 bd e8 f7 b3 bc b0 9c 3d bc
       -0.01126691 -0.07466312 -0.021968797 -0.011573002
000150 a2 df 2a 3d 32 7a 11 3d ea 65 aa bd 9a a0 1b bd
       0.04171718 0.035516925 -0.0832022 -0.03799496
000160 ef 82 c2 bd 84 8d d2 3c 1e e2 98 bd ed fd b5 bd
       -0.0949763 0.025702246 -0.074650034 -0.08886323
000170 1a b5 3b 3d 00 32 66 bb 18 54 8a bd 8e 9b 73 3d
       0.04582701 -0.0035125017 -0.06754321 0.05947452
000180 40 13 a0 3a e0 20 23 bd f4 d4 ef 3c d5 b6 8d 3d
       0.0012212768 -0.039826274 0.029276349 0.06919638
000190 03 d4 48 be 8f 1d 85 bb 58 ce 8e 3d f6 6f c5 bc
       -0.19612126 -0.0040623615 0.06972951 -0.024101239
0001a0 d6 a6 c5 3c 6e 1a 3c 3c d2 70 09 3d 58 cd dc bd
       0.024127405 0.011480911 0.03355486 -0.10781354
0001b0 e3 84 97 3c b2 1d 76 3d 02 5c 40 be 22 ec 83 be
       0.018495983 0.060086913 -0.18785098 -0.25766093
0001c0 57 dd fa bd 44 cc 0c bb 1b dc c6 3d 8c 1e d0 bc
       -0.122492485 -0.0021484056 0.097099505 -0.02540519
0001d0 6c 05 db 3c e2 2c a2 bd ca 70 74 bd f5 9f b2 3c
       0.026735984 -0.07918717 -0.059677877 0.02180479
0001e0 3f ae f1 3c 2c 84 12 be d8 77 b3 3c a8 b9 2c 3c
       0.029502032 -0.14308232 0.021907732 0.010542311
0001f0 4d 2d 71 be dd b4 4f 3c d1 02 84 3d 3c 1b 51 be
       -0.23552437 0.0126773985 0.0644585 -0.20420545
000200 42 f6 1c be ed 2c b8 bd 0a 39 25 3d b8 77 b0 3c
       -0.15328315 -0.08992944 0.0403376 0.021541461
000210 c9 0e 69 be 68 4c 87 bd d6 7b 19 3d 05 17 c1 bd
       -0.22759546 -0.0660637 0.037471615 -0.09428219
000220 9e ef 5e 3d 79 32 a5 3b 84 e2 21 bd 67 72 97 3c
       0.054427736 0.005041417 -0.039522663 0.018487168
000230 0e 35 a1 3d 13 7e 98 bd 7e cb 43 3d 5d c1 48 bd
       0.078714475 -0.07445922 0.047801487 -0.04901253
000240 22 eb c3 bd b9 a7 f4 3c e4 f4 cc bd 5a 94 66 3d
       -0.095663324 0.029865133 -0.10007647 0.056293823
000250 f3 f9 aa bd 12 99 94 bd 80 78 ab bc fe b8 4d be
       -0.08348455 -0.07255758 -0.020931482 -0.200901
000260 57 a6 94 3d 75 35 f8 bd 76 6a cc bd 60 fe cf bc
       0.07258289 -0.12119571 -0.09981243 -0.02538985
000270 6a f3 d4 3c 08 88 ca bc 4d ea c1 bd 63 b1 ba bc
       0.025994975 -0.024723068 -0.094685175 -0.022789663
000280 7a 0e a2 bd 50 3a 37 bd f8 86 30 be ad a7 5b bc
       -0.079129174 -0.044733346 -0.17238986 -0.013406676
000290 2c cc 6a bd 33 a8 f6 bd b9 0e 90 3d 63 7e a9 bd
       -0.05732362 -0.120438 0.07034058 -0.082760595
0002a0 f3 89 04 be 4c b6 29 bb 4a c9 a9 bd fb 95 64 3d
       -0.12943248 -0.002589601 -0.08290346 0.055807095
0002b0 cc e0 d7 bc b7 15 32 be 9f c9 9b 3d ed 68 00 3d
       -0.026352309 -0.17391096 0.076068155 0.031350065
0002c0 32 b3 15 3d 0d 91 d7 3d af ed fd 3c 2f 26 b8 bd
       0.036547847 0.10525713 0.030997125 -0.08991658
0002d0 f0 82 8b 3c 8a 29 b5 bd 40 ee 3f bd 8a 0a 1d bd
       0.01703021 -0.088458136 -0.046858072 -0.03834013
0002e0 1a f7 2f be 2a fe 8f bd 67 81 b3 3d d7 7d 7e bd
       -0.17184106 -0.070309 0.08764916 -0.06213173
0002f0 53 27 41 bd d5 b3 c2 3d 4a fc b3 bd 27 f0 27 be
       -0.047156643 0.095069565 -0.08788355 -0.16400205
000300 51 da 2d bd 7a 9a 45 3d 16 c5 b6 be fa 7f 16 bd
       -0.04244453 0.048243023 -0.3569724 -0.03674314
000310 c1 ea bb 3d f6 f1 b1 bc ad 2d c0 bd 2b 2e 84 3d
       0.09175635 -0.021721821 -0.09383712 0.06454118
000320 1b b2 c6 bd f8 bd fe bd 4a 17 0e 3d b9 95 81 bc
       -0.0970194 -0.124385774 0.03469018 -0.015818464
000330 08 61 d5 bd 2c 5d 73 3c e0 46 83 3b bd 39 8e bc
       -0.10418898 0.014853757 0.0040062517 -0.017361516
000340 1e e1 4a bc e6 2e 03 bc 12 89 e7 bd 73 de 20 be
       -0.012382774 -0.008006787 -0.11305441 -0.15709858
000350 63 79 5e 3c 61 02 01 be 4c 8a bf bc 12 7e 16 3d
       0.013578746 -0.12598564 -0.023381375 0.036741324
000360 60 59 4d bd 7a 23 26 be 96 bd 86 3c 73 87 13 3d
       -0.050134063 -0.1622447 0.016447823 0.036017846
000370 4a 95 e2 bc 83 25 89 bd 41 bb 1e bd c0 42 11 3c
       -0.027659077 -0.06696608 -0.038752798 0.008866012
000380 10 26 f5 3c 41 c1 68 bd 83 64 6e bd c3 7d 44 bd
       0.029925376 -0.056824926 -0.058201324 -0.0479715
000390 22 20 f6 bd e3 fe 75 bd 9e 2f 8e bd 94 69 03 bc
       -0.120178476 -0.060057532 -0.06942676 -0.008020777
0003a0 22 65 16 be b8 58 bb bc c6 46 95 bd 78 59 a9 3c
       -0.14687017 -0.022869453 -0.072888896 0.020672545
0003b0 6f 07 9b 3b af cf 10 3d 9e db b2 bd e2 df d8 3b
       0.0047311108 0.035354313 -0.08733295 0.006618486
0003c0 b7 69 cd bc 95 27 94 3d 0a 09 79 bd 04 80 28 3d
       -0.025074823 0.07234112 -0.060799636 0.04113771
0003d0 92 74 90 bc 10 0e a3 bd a7 44 f9 bd bb 69 87 bd
       -0.01763371 -0.079616666 -0.121712975 -0.06611963
0003e0 59 23 b0 bd fd 45 c4 3c 52 8b 1e 3d 71 bc 95 bb
       -0.08600492 0.023959154 0.038707085 -0.004569583
0003f0 5a 51 5e bd f8 ae e7 3c 81 57 a9 bd 64 39 ce 3c
       -0.0542768 0.028281674 -0.08268643 0.02517385

bias f4 [100]
000000 f2 75 4c 3d 67 bf 36 3c 48 5d ba bd 02 3c 1a bc
       0.04991717 0.011154032 -0.09099823 -0.009413721
000010 b2 9d 84 bd 58 a5 af bc a1 1c 9b 3d 96 8d e3 bd
       -0.064753905 -0.021441147 0.0757382 -0.1111099
000020 45 48 dd 3c 22 d0 de bd 40 71 d2 ba 1a ca 34 bd
       0.027012 -0.10879542 -0.001605548 -0.04413805
000030 48 e6 84 3d 0a 2b bc 3b ca 41 2e 3d 99 18 4a bc
       0.06489235 0.0057424353 0.04254321 -0.012334966
000040 3d af d5 bc ff db ca bc 37 86 a5 bd 38 7a 6a 3d
       -0.026084537 -0.024763105 -0.0808224 0.057245463
000050 80 c8 51 3c ed d4 e4 3c d6 d8 0f be 4d 1b 5e bc
       0.012804151 0.027933562 -0.1404756 -0.013556314
000060 ef dc 07 be 09 95 bb bd 66 ef 2f bc f7 a5 cf bd
       -0.13267873 -0.091592856 -0.010738229 -0.10139077
000070 0e d3 19 bd a2 40 ce bd 00 d4 df bc 71 84 c9 bc
       -0.037554793 -0.100709215 -0.02732277 -0.024599286
000080 da 01 cb bd da 32 5e 3d a1 dd da bd e1 1b 11 bd
       -0.099124625 0.054247715 -0.106868036 -0.035426978
000090 3d 77 0b be 80 5e ca 3c a3 8f 19 be ed 8e 18 be
       -0.13619705 0.024703264 -0.149962 -0.14898272
0000a0 7a 4b 9f bd ac 34 fa bc 93 c3 9d 3d 71 d1 00 be
       -0.07778068 -0.030542694 0.077033184 -0.12579896
0000b0 b2 02 2f bd e2 17 0b 3d 60 96 ab bd 65 8f e4 bd
       -0.04272718 0.033958323 -0.08378291 -0.11160163
0000c0 82 d2 63 3d ee 66 35 3d 35 0d 9b 3c 29 cf 0d be
       0.055620678 0.044287615 0.018927196 -0.13848557
0000d0 1f 6e ca bd ba 11 0c 3c 88 58 8c bc ea c0 78 bd
       -0.09884285 0.008549148 -0.017132059 -0.060730852
0000e0 74 4d 35 3d 40 82 d6 bd 38 41 b9 bd 81 d9 36 3c
       0.04426332 -0.10474062 -0.090456426 0.011160255
0000f0 ca dc 7f bd 39 c8 a4 bc 79 88 18 3d 8e 75 ef 3d
       -0.06246642 -0.020115005 0.037239525 0.11692344
000100 dc 2d 24 3d 7a 16 34 bd e5 c1 b1 bd 40 ab f3 3c
       0.040082797 -0.043966748 -0.086795606 0.029744744
000110 dc 2f b9 3b 5d 13 0b 3d d0 56 11 be f0 e8 24 bd
       0.0056514572 0.033954013 -0.14193273 -0.04026121
000120 c0 36 07 bd 13 48 4d bd a5 8e 29 3c fd 1d 78 3c
       -0.033011198 -0.050117563 0.0103489505 0.0151438685
000130 06 88 b6 bd d1 8b 1c 3d bb 98 8a 3d a7 e5 b9 3c
       -0.08912663 0.038219277 0.06767412 0.022692515
000140 c0 ab 50 3d a0 9b 4d bd 55 1c a8 bd 5c 47 bf 3c
       0.050945044 -0.050197244 -0.08208529 0.023349456
000150 ed d8 e2 3c f1 42 8d bc bc 88 86 3d 36 26 eb bd
       0.027691329 -0.017243834 0.06569049 -0.114818975
000160 5e 85 fb bd e3 19 64 bd aa 98 f6 3c 7b fc c0 bd
       -0.12281297 -0.05568875 0.030102093 -0.09423157
000170 74 18 c4 3c 82 b3 c0 bd f2 d7 93 3b 53 6f 60 bd
       0.023937441 -0.094092384 0.0045118267 -0.054793667
000180 c4 45 19 be 80 90 93 3d 0f 2f ab bd 87 e3 58 3d
       -0.1496802 0.072052956 -0.08358585 0.052951362

weight f4 [2, 100]
000000 2a c0 2b 3d b3 4a 6b 3d a7 80 26 3d 27 79 0b 3e
       0.04193131 0.057444286 0.040650036 0.13620435
000010 8c 0d 16 bd 40 47 37 bb 0b df c7 bd 8c 91 fa 3c
       -0.036634013 -0.0027966052 -0.09759339 0.03058698
000020 f8 b6 b6 3d e1 ba e6 3d 72 e5 0f 3d a8 46 a0 bc
       0.08921617 0.11266113 0.035130925 -0.019564942
000030 93 5d cb 3c 83 53 1e 3d a7 03 47 bd 43 d8 61 bd
       0.024824893 0.03865386 -0.048587468 -0.055137884
000040 b3 d6 11 3d 76 96 0a be a3 a8 b5 3d 37 ce 04 bd
       0.035605144 -0.13533959 0.088700555 -0.032423224
000050 4a 6a bb bd 70 9a 32 be 38 b3 19 3c d4 34 91 3d
       -0.091511324 -0.17441726 0.009381108 0.07090154
000060 bb d7 01 be 91 f7 67 bc 24 6f ab bc 4e 65 0a 3e
       -0.12679951 -0.0141581455 -0.02092702 0.13515207
000070 fc d7 4c bc 94 09 6f 3d c1 a0 a7 3c da 52 8f 3d
       -0.012502667 0.058358744 0.020462396 0.069982246
000080 34 ce b6 3c 81 71 ec 3c 87 f0 68 bd 64 3b 92 3c
       0.022315122 0.028862717 -0.05687001 0.017850585
000090 50 13 e4 3d 8f d6 ba 3d 84 16 87 3d 47 2e df 3c
       0.11136496 0.09122955 0.065960914 0.027243746
0000a0 2b 13 23 3d 69 67 ac 3d 28 bc be bd 25 08 ef bc
       0.039813202 0.084181614 -0.09313232 -0.029178688
0000b0 82 d0 53 3c c0 f0 53 3b 22 fa 6e 3d ca 1f 35 3d
       0.01292813 0.0032339543 0.058344014 0.04421977
0000c0 1e 70 a0 3d 50 23 9a bd 49 e3 1c bd 95 c0 5d bd
       0.07833885 -0.075262666 -0.038302694 -0.05413874
0000d0 6f 82 78 bd c7 c1 a4 bd d3 b2 0c 3d 31 78 af 3d
       -0.060671266 -0.080447726 0.034350228 0.085678466
0000e0 ab 47 a6 bd be f3 8e bd 18 94 94 bd 05 a3 93 bd
       -0.08119138 -0.06980084 -0.07254809 -0.07208828
0000f0 7f f5 89 bd c2 4e 8e bd e3 d1 70 bb 66 85 c1 3c
       -0.06736278 -0.069486156 -0.0036746196 0.02362318
000100 68 21 2b 3d 70 d2 11 bd 4a 74 3d 3d 19 56 59 bd
       0.041779906 -0.03560108 0.04625348 -0.053060625
000110 51 1c 2e bc d0 66 d8 3d ed b7 f2 3d e0 46 7c bd
       -0.010626868 0.10566485 0.11851487 -0.06159103
000120 30 e3 6f 3c fd 55 64 3c bd e5 a5 bd 8c 17 f9 3c
       0.014641568 0.013936517 -0.0810046 0.030406736
000130 b6 18 ab bc 8c 43 df bc a7 af 6c bd fa d9 97 3d
       -0.020885807 -0.027253889 -0.057784703 0.074146226
000140 db eb 2c 3d 4e 12 3c bd 7a 70 af bd f8 15 ec 3c
       0.042217117 -0.045915894 -0.08566375 0.02881907
000150 a3 90 a4 3d fa 4a 43 3d 51 f6 b2 bd e1 86 da 3c
       0.080354 0.047678925 -0.087383874 0.026675643
000160 19 ff c1 bd 61 6f 8b 3d ef 57 2e bd 3e 2d fc bb
       -0.09472484 0.06808353 -0.04256433 -0.007695823
000170 e0 ad c6 bd 45 12 dc 3c fd ba aa 3c ed 1b be bd
       -0.09701133 0.02686418 0.020841116 -0.0928267
000180 ff 46 25 bd 9d 4f 05 3c c3 3a c1 3b 32 94 5c 3b
       -0.04035091 0.008136657 0.0058968975 0.0033657667
000190 95 2d a5 3d 72 25 d1 3b 3c f1 f7 bb 4c dc 0c bd
       0.08065335 0.0063826377 -0.007566599 -0.03438978
0001a0 d8 1a ac bc dc 37 12 bd 60 e6 e3 bb 79 ad 19 bd
       -0.021008894 -0.035697803 -0.006954953 -0.037518952
0001b0 76 0e 44 bc 63 f8 e1 bc bf ae c5 3d 50 1d 77 bc
       -0.011966338 -0.02758426 0.09652471 -0.015082672
0001c0 16 5b 62 bd d0 27 c9 bd d9 bd 80 3d 9e a4 90 3c
       -0.055262648 -0.09822047 0.062862106 0.01765662
0001d0 76 6e 7f bb 88 83 f5 3b 99 a4 8b 3d d5 24 6e bd
       -0.0038975752 0.0074924864 0.06818504 -0.058140595
0001e0 80 dc b2 3c 34 18 42 3c 9b 6b 31 bd 6c 7a 37 bd
       0.021833658 0.011846591 -0.04331551 -0.044794485
0001f0 fa 8d 2b 3c 93 74 b7 3c 25 34 26 bd ef 90 82 bc
       0.010470862 0.022394454 -0.040577073 -0.01593825
000200 a0 4a 95 3c 77 89 f5 3c fb cf bd bc 00 09 00 bc
       0.01822406 0.029972775 -0.023170462 -0.007814646
000210 55 f1 c0 3d 4e 24 41 bc 14 b7 7e 39 60 52 35 bc
       0.094210304 -0.011788441 0.0002429153 -0.011067003
000220 b9 cf 33 bd b7 8d 21 bd e1 18 bf bc 76 80 81 3b
       -0.04389927 -0.03944179 -0.023327293 0.0039520813
000230 47 96 13 bd 60 89 d8 bc c9 bb a8 3d 2c 77 8d 3c
       -0.036031988 -0.026432693 0.08238942 0.01726874
000240 10 ac e7 bd 2f 17 93 3d eb a8 8f bc 1e ac 0f 3d
       -0.11312115 0.07182156 -0.017536601 0.035076253
000250 2a 1d 4d 3c 3b af c9 bd 03 11 e2 bc 50 ca 0f 3d
       0.01251916 -0.09847876 -0.027596002 0.03510505
000260 4e 2b 15 3d 2e eb ee bc a1 dc b8 3c 48 43 fa bc
       0.03641825 -0.029164877 0.022566142 -0.03054966
000270 f1 ee b4 bd 49 e8 68 bc 95 c6 8c 3d 4d 3a 1d bd
       -0.08834637 -0.014215537 0.06873814 -0.038385678
000280 5b 53 18 3d 29 d4 5b 3c 1d 34 96 bb ac 89 3c bd
       0.03718887 0.013417282 -0.004583849 -0.04602973
000290 05 b4 4c bd bc 9b 00 bd b9 e4 9d 3d b4 88 20 3d
       -0.049976368 -0.03139852 0.07709641 0.03919287
0002a0 71 79 16 3d db 68 82 3c 47 f2 8c bc 2d 76 1e bc
       0.03673691 0.01591914 -0.01720537 -0.00967173
0002b0 44 d8 ce 3c 18 c5 00 bc 7f 1a c3 3c 63 26 06 bc
       0.025249608 -0.007859491 0.023816345 -0.008187863
0002c0 ee 50 16 3d 03 15 a0 bc 18 b9 51 bc 4a ec fb bc
       0.036698274 -0.01954127 -0.012800477 -0.03075232
0002d0 3b 82 7f bd 83 65 60 3d 63 72 58 bd c9 ef 6f bb
       -0.062380057 0.05478431 -0.052843463 -0.003661143
0002e0 10 20 5f bb 63 c1 92 3c 22 b4 8d 3d 07 a2 d9 bc
       -0.003404621 0.01791448 0.06919123 -0.026566518
0002f0 f3 60 d5 3c df 93 b2 bd 31 28 1f bb 02 38 74 bc
       0.026047206 -0.087196104 -0.002428543 -0.014905931
000300 d1 4b b0 3d ca 62 9d bc 0f 79 cf bc a6 c2 00 bd
       0.08608211 -0.019212145 -0.02532628 -0.03143563
000310 22 a3 0e bd 50 b8 43 bd 75 a8 9c 3c cc e4 6e bc
       -0.034823544 -0.047783196 0.019123295 -0.014580917

bias f4 [2]
000000 04 a4 2b be 90 1d c9 bd
       -0.16761786 -0.09820092
