WeakLossVectorClassExample/Models/F9_model.pt (torch, 44895 bytes, 6 tensors)

weight f4 [100, 1]
0	0x3f55598d	0.8333977
1	0x3ee47afb	0.44625077
2	0xbe3d435f	-0.18482731
3	0x3e142fbf	0.14471339
4	0x3eabcd7e	0.33555216
5	0x3f28ca83	0.6593401
6	0xbdc24d62	-0.09487416
7	0x3f0980a5	0.5371192
8	0xbe5adeea	-0.21374097
9	0x3f0dc130	0.55372906
10	0xbe904cf7	-0.2818372
11	0xbebc76e3	-0.36809453
12	0xbead5638	-0.33854842
13	0xbe3ffe44	-0.18749338
14	0x3c8558d4	0.016277708
15	0x3db239eb	0.08702453
16	0xbe9d8e7c	-0.3077277
17	0x3f2bd2e5	0.67118675
18	0xbe5e5604	-0.217125
19	0x3edf41e3	0.43604955
20	0xbe0a3e18	-0.1350025
21	0xbeb91c18	-0.36154246
22	0xbe8f584c	-0.27997053
23	0xbf3decaa	-0.74189246
24	0x3eb543b6	0.35403222
25	0xbe139acf	-0.14414524
26	0x3e32f195	0.17474969
27	0xbec4a40c	-0.38406408
28	0x3e276609	0.16347517
29	0x3f3df024	0.7419455
30	0xbe24c873	-0.1609209
31	0x3e965160	0.2935896
32	0xbea1116d	-0.31458607
33	0xbf44b409	-0.7683721
34	0x3f1431bd	0.57888395
35	0x3f24137e	0.6409224
36	0xbf647917	-0.8924727
37	0xbf7c5f39	-0.985828
38	0x3f4e040d	0.8047493
39	0xbf0e5c9e	-0.5561007
40	0xbe74a508	-0.2389108
41	0x3f0ea998	0.5572753
42	0x3f1f32c0	0.62186813
43	0x3d149599	0.03627548
44	0xbf348bb0	-0.70525646
45	0x3ecd385f	0.4008207
46	0x3ec8e1cb	0.39234766
47	0xbe4c2658	-0.19936502
48	0xbe51ec00	-0.20500183
49	0x3e9dcbf3	0.30819663
50	0x3eadf449	0.33975437
51	0x3d44505d	0.047928203
52	0x3eefe5e1	0.4685507
53	0xbe85d068	-0.26135564
54	0x3ecac589	0.39603832
55	0xbe189f7e	-0.14904591
56	0x3f25552d	0.6458309
57	0x3f3a2f2f	0.72728246
58	0x3ee0147d	0.4376563
59	0xbddf069c	-0.108899325
60	0x3f1261bc	0.5718038
61	0xbf225912	-0.6341716
62	0x3e99867a	0.2998541
63	0xbe024c08	-0.12724316
64	0x3ef73abe	0.48287004
65	0x3ec9cd24	0.39414322
66	0xbf1694c4	-0.5882075
67	0xbcbbf170	-0.022942275
68	0xbe04806e	-0.12939617
69	0x3f224a1a	0.6339432
70	0xbf4614b8	-0.77375364
71	0xbf571534	-0.8401673
72	0x3c521676	0.012822738
73	0xbe922e60	-0.28551006
74	0x3f3b8608	0.7325139
75	0xbe6ccab7	-0.23124205
76	0x3e6bd386	0.23029909
77	0xbe7d9348	-0.24763215
78	0x3eef5404	0.46743786
79	0xbee60f90	-0.44933748
80	0xbe607718	-0.2192043
81	0xbecbf9ee	-0.3983912
82	0xbef61dbc	-0.4806956
83	0xbf5a7c4e	-0.85345924
84	0x3e5a619e	0.213263
85	0x3c1002d8	0.0087897405
86	0x3e8f6fb7	0.2801492
87	0xbf175eb1	-0.5912886
88	0x3ecc8713	0.39946803
89	0x3e20c860	0.15701437
90	0x3edde4c8	0.4333861
91	0x3e7dcb44	0.24784571
92	0x3ec36280	0.38161087
93	0x3f121ffb	0.5708005
94	0xbf5f6637	-0.8726534
95	0xbdac60b9	-0.08416886
96	0xbcef0218	-0.029175803
97	0x3eb2df03	0.3493577
98	0xbed43610	-0.41447496
99	0x3f368dc8	0.7131009

bias f4 [100]
0	0x3e663cc1	0.22484113
1	0x3d8bccf3	0.068262
2	0x3f2ce798	0.67540884
3	0xbed264fa	-0.41092664
4	0x3f1b741a	0.6072403
5	0x3ead9185	0.33900085
6	0xbccf7667	-0.025325013
7	0xbda70c7a	-0.081566766
8	0x3f242739	0.6412235
9	0xbe2210c5	-0.1582671
10	0x3f587381	0.84551245
11	0x3f8d5930	1.1042843
12	0xbee7a5d8	-0.45243716
13	0x3f19d999	0.6009765
14	0xbd6a1dda	-0.057157375
15	0xbbf46490	-0.007458277
16	0x3f6c55c6	0.9231838
17	0x3f02a8f7	0.5103907
18	0x3f26c095	0.65137607
19	0xbf92efd9	-1.1479446
20	0x3f571260	0.84012413
21	0xbf78ebc6	-0.9723476
22	0x3f57047e	0.8399123
23	0xbddeea50	-0.10884535
24	0x3d86f367	0.06589394
25	0x3e9dd00f	0.308228
26	0xbf2e7182	-0.6814195
27	0xbf382ae4	-0.71940446
28	0x3eac1092	0.33606392
29	0xbf814736	-1.0099857
30	0x3f087891	0.5330897
31	0xbe9c1c7f	-0.3049049
32	0x3f719a32	0.9437591
33	0x3e8972b9	0.2684534
34	0xbddddc53	-0.10833039
35	0xbf895519	-1.0729095
36	0x3f511a46	0.81680715
37	0x3f388a15	0.72085696
38	0xbe4f704c	-0.20257682
39	0xbf077fae	-0.529292
40	0xbde112d0	-0.10989916
41	0x3ebf0536	0.37308663
42	0x3f0ef483	0.55841845
43	0x3f0034bd	0.5008047
44	0xbe8ad208	-0.27113366
45	0xbf4e7096	-0.8064054
46	0xbe0ba64e	-0.13637659
47	0xbf1930f4	-0.5984032
48	0xbecc5da8	-0.39915204
49	0x3f466852	0.7750293
50	0xbecdbd9c	-0.40183723
51	0x3f1ffde7	0.624968
52	0x3edb7d82	0.42869192
53	0x3f48b8ac	0.78406787
54	0xbf4671d4	-0.7751744
55	0x3ee4ef56	0.4471385
56	0xbf147d0d	-0.5800331
57	0xbe78441c	-0.24244732
58	0x3eab0b95	0.33407274
59	0x3ea74539	0.3267
60	0xbf191fcf	-0.5981416
61	0x3f889fc8	1.0673761
62	0xbf4aa7cd	-0.79162294
63	0xbf057d60	-0.5214443
64	0xbe7ca7a5	-0.24673326
65	0x3d51e195	0.051240522
66	0xbedf2e20	-0.43589878
67	0x3f4872b6	0.78300035
68	0x3f497227	0.7868981
69	0x3f383275	0.7195199
70	0xbf1db5c6	-0.6160549
71	0xbef42380	-0.47683334
72	0x3f043f62	0.51659214
73	0x3f1a53ae	0.60283935
74	0x3ee8d674	0.45476115
75	0x3f3d6759	0.7398582
76	0x3f15bb5b	0.58489007
77	0x3f3e2e80	0.74289703
78	0xbf899658	-1.0749006
79	0xbede0324	-0.4336177
80	0xbf571398	-0.8401427
81	0x3e4c12c8	0.1992904
82	0xbf03f89c	-0.5155122
83	0x3f69123f	0.91043466
84	0x3f0238dd	0.50868016
85	0x3f124181	0.571312
86	0xbf256bd7	-0.64617676
87	0x3f98c766	1.1935852
88	0x3ecbbdae	0.39793152
89	0x3edef4fe	0.4354629
90	0xbf7e09d1	-0.9923373
91	0xbf7a0050	-0.97656727
92	0x3edefd00	0.435524
93	0x3e78776a	0.24264303
94	0x3f85343a	1.0406563
95	0x3e81489b	0.25250706
96	0x3da8ebd8	0.082481086
97	0xbd247654	-0.04015191
98	0xbe841ccc	-0.2580322
99	0x3f1d435d	0.61430913

weight f4 [100, 100]
0	0xbd28dcbd	-0.041226137
1	0xbc8b2168	-0.016983703
2	0x3d3bcb16	0.045847975
3	0x3d96b6a9	0.073590584
4	0xbb86a1b0	-0.00410863
5	0xbc836088	-0.01603724
6	0x3d2e5f92	0.04257161
7	0x3cd76724	0.026294298
8	0xbdad06c0	-0.08448553
9	0x3d675c32	0.05648441
10	0xbaffcc00	-0.0019515753
11	0x3d5e293e	0.05423855
12	0x3caf2754	0.021381058
13	0x3da41979	0.08012671
14	0x3d60621e	0.05478107
15	0x3dc06249	0.093937464
16	0x3d920387	0.07129579
17	0xbd081220	-0.03322041
18	0xbdcc9a72	-0.099903956
19	0x3c562d40	0.013072312
20	0xbda3cedb	-0.07998439
21	0x3ccdfd1c	0.025145106
22	0xbcd4054c	-0.025881432
23	0xbbd05330	-0.006357573
24	0xbb31f360	-0.002715312
25	0x3d0f9e6e	0.0350632
26	0x3dc94d4b	0.098291956
27	0xbd868b14	-0.06569496
28	0x3d9ed1b5	0.07754842
29	0x3da39e2d	0.07989154
30	0x3d6a9e52	0.057279892
31	0x3d55c4f6	0.05218979
32	0xbdc0c433	-0.09412422
33	0x3d569e52	0.05239708
34	0xbc57d2f0	-0.01317285
35	0xbc9dcc74	-0.01926253
36	0xbd2ccfdd	-0.04219042
37	0x3d9477e7	0.07249432
38	0xbdb028bf	-0.08601522
39	0xbc5b2728	-0.013376035
40	0xbd9c5c72	-0.0763482
41	0x3c82270c	0.01588776
42	0xbda262b0	-0.079289794
43	0xbd90a1c6	-0.07062106
44	0x3d0bdcbe	0.034146063
45	0xbda80c60	-0.08205485
46	0x3d4da5b2	0.050206847
47	0x3c865440	0.016397595
48	0xbcd895e0	-0.026438653
49	0x3d5f8e9e	0.05457937
50	0xbd305e3d	-0.043058623
51	0xbdac5fa8	-0.084166825
52	0xbdbfde98	-0.09368628
53	0x3d208082	0.039185055
54	0x3d47deae	0.04879635
55	0xbdb1d4db	-0.08683177
56	0x3cea4cc4	0.028601058
57	0x3bc8e620	0.0061309487
58	0xbd874314	-0.06604591
59	0x3d03d76a	0.032187857
60	0xbdb0fdda	-0.08642168
61	0xbd2098e3	-0.039208304
62	0x3d843c07	0.06456762
63	0xbd249b90	-0.04018742
64	0xbc0a9e28	-0.008460559
65	0xbdcb3a85	-0.09923271
66	0x3d5bbe3a	0.05364821
67	0xbdaeb65a	-0.085308746
68	0x3d33585a	0.04378543
69	0xbd593a33	-0.05303402
70	0x3daf1f4f	0.085508935
71	0xbc6dde18	-0.014518283
72	0x3d129712	0.035788603
73	0xbda11076	-0.07864468
74	0x3d6c8882	0.05774737
75	0x3dcc035b	0.099615775
76	0xbdbc1690	-0.09183991
77	0x3d47290e	0.048623137
78	0x3c6656f0	0.014058813
79	0x3d898d69	0.06716425
80	0x3d9ce9b1	0.076617606
81	0xbd8323fe	-0.06403349
82	0xbd03d6ec	-0.032187387
83	0x3bd970e0	0.00663577
84	0x3c998298	0.01873903
85	0x3d4a3f52	0.049376793
86	0x3d112cc2	0.035443075
87	0xbbb529a0	-0.0055286437
88	0xbb62e1c0	-0.003461942
89	0x3d1746fe	0.036932938
90	0x3d83b279	0.06430525
91	0x3db3ed49	0.08785493
92	0x3d850289	0.06494624
93	0x3d903653	0.070416115
94	0xbd1c2c70	-0.038128316
95	0x3da15823	0.07878139
96	0x3d75ee86	0.060041927
97	0xbd5c4370	-0.05377525
98	0x3ce3b71c	0.027797274
99	0x3d30a91a	0.043130018
100	0xbd0ef5d6	-0.034902416
101	0xbd73fe9a	-0.05956898
102	0xbc3ab3a8	-0.011395372
103	0xbc27b358	-0.01023563
104	0x3c80a508	0.015703693
105	0xbaff9f40	-0.0019502416
106	0x3cc55178	0.024086699
107	0xbd69277a	-0.056922413
108	0xbca8fd8c	-0.020628713
109	0xbcc00cd8	-0.023443624
110	0xbd521497	-0.051289167
111	0x3d1ea2ea	0.038729586
112	0xbca5fac8	-0.020261183
113	0x3d8e4d8f	0.06948387
114	0xbd9e961a	-0.07743473
115	0xbc42d298	-0.01189103
116	0x3cba6f38	0.022758111
117	0x3ca3898c	0.019963048
118	0xbdad6efd	-0.08468435
119	0x3d9546b9	0.0728888
120	0x3c9a5514	0.018839397
121	0x3d53846e	0.051639967
122	0x3db361b7	0.08758872
123	0x3dc6dd89	0.09710223
124	0xbd432683	-0.04764415
125	0x3db62743	0.08894207
126	0x3db0f7f9	0.08641047
127	0x3d8f6a85	0.07002739
128	0xbd69b94a	-0.05706147
129	0x3d0bd4ee	0.034138612
130	0x3d840335	0.06445924
131	0xbc5a6d98	-0.013331793
132	0x3d301782	0.04299117
133	0xbdbe22e0	-0.09283996
134	0xbd4aad97	-0.049481954
135	0xbd89b15d	-0.067232825
136	0x3d49afbe	0.049239866
137	0xbdbf3935	-0.09337083
138	0xbc4c7c50	-0.01248081
139	0xbd69fd00	-0.057126045
140	0xbc3f05c0	-0.011659086
141	0xbc23bc00	-0.009993553
142	0x3d66f54e	0.056386285
143	0xbd04b01c	-0.032394513
144	0xbda2bcf2	-0.07946195
145	0x3cae8b08	0.02130653
146	0xbad00380	-0.0015870184
147	0xbdc48322	-0.09595324
148	0x3cd10b64	0.025518127
149	0x3c2f0118	0.010681413
150	0xbd278d5d	-0.0409063
151	0x3d66e72e	0.056372814
152	0xbd8e8c78	-0.06960386
153	0xbd10df76	-0.03536936
154	0xbc65c9a8	-0.014025129
155	0xbd88602a	-0.06658967
156	0xbd414077	-0.04718062
157	0x3dc79461	0.09745098
158	0xbd92c108	-0.07165724
159	0xbd9a6826	-0.07539396
160	0xbb4c5b00	-0.003118217
161	0xbd60300d	-0.054733325
162	0x3d81c999	0.0633728
163	0xbcd83b54	-0.026395477
164	0xbbc58520	-0.0060278326
165	0xbd2aa82d	-0.04166429
166	0xbdb802d0	-0.089849114
167	0xbc49f340	-0.012326062
168	0xbd37f70d	-0.04491334
169	0x3da4a143	0.08038571
170	0xbdc3348a	-0.095315054
171	0x3c9267a8	0.017871693
172	0xbd6fe10a	-0.058564223
173	0x3d8ac44d	0.06775723
174	0x3d764122	0.06012071
175	0xbd626823	-0.055275094
176	0x3cb78b20	0.022405207
177	0xbbef3e50	-0.0073011294
178	0xbd815195	-0.06314389
179	0xbd5067e0	-0.050880313
180	0x3d817a57	0.063221626
181	0xbcf686f4	-0.030093648
182	0xbbf118e0	-0.0073577017
183	0x3c349490	0.011021748
184	0x3d4814be	0.048847906
185	0xbd61ca37	-0.055124488
186	0xbbf22ba0	-0.0073904544
187	0xbd1ddcaa	-0.03854052
188	0xbdafb688	-0.08579737
189	0x3dad38c1	0.084580906
190	0xbcd415ec	-0.02588936
191	0x3d8e4021	0.06945825
192	0xbcc6c308	-0.02426292
193	0xbcf651d4	-0.030068316
194	0x3d2cd96a	0.04219953
195	0xbc9d3028	-0.019188002
196	0x3d119f32	0.03555221
197	0x3d38ce02	0.04511834
198	0x3da8edb1	0.08248461
199	0xbd8fdc50	-0.07024443
200	0xbdac8935	-0.08424608
201	0xbb82ae00	-0.0039880276
202	0xbd0fbf30	-0.03509444
203	0x3da34abb	0.07973238
204	0xbd3e3c2d	-0.046444107
205	0x3c657b98	0.014006518
206	0xb9bd9d00	-0.00036165863
207	0xbce30acc	-0.02771511
208	0xbd6f5d67	-0.058438685
209	0xbd5684d7	-0.05237278
210	0xb9f48000	-0.00046634674
211	0x3d2c371e	0.04204475
212	0x3d5a1d3a	0.05325053
213	0x3d970d09	0.07375533
214	0x3d81b941	0.063341625
215	0xbd4ac33a	-0.04950259
216	0x3d72ba5a	0.05925975
217	0xbd3b478d	-0.045722533
218	0xbdbe6acf	-0.09297716
219	0xbcedfcac	-0.029051147
220	0xbd5b1553	-0.053487133
221	0x3d2cc10e	0.0421763
222	0x3bac1780	0.005251825
223	0xbb15ff60	-0.002288781
224	0x3d36fe5a	0.044676162
225	0x3d34c38e	0.044131808
226	0xbc067680	-0.008206964
227	0xbd8be78e	-0.06831275
228	0x3da08b81	0.07839108
229	0xbd988258	-0.07446736
230	0x3d6202e6	0.055178545
231	0xbcc5aa4c	-0.024129055
232	0xbda4d33e	-0.08048104
233	0x3d9bbc81	0.07604314
234	0xbd24778a	-0.040153064
235	0x3d08a8be	0.03336405
236	0x3d44498a	0.047921695
237	0xbbe25f50	-0.006908335
238	0x3ce0c404	0.027437218
239	0xbd58bb23	-0.052912842
240	0xbd35b703	-0.044363987
241	0xbdcad4f2	-0.09903897
242	0x3c8ca348	0.017167702
243	0xbdbaf8f5	-0.09129516
244	0xbce84a4c	-0.02835574
245	0x3db49119	0.08816738
246	0x3d77948a	0.060444392
247	0xbd8b24a0	-0.06794095
248	0xbd89baec	-0.06725106
249	0x3ca03734	0.019557573
250	0xbdc9e9c3	-0.0985904
251	0x3c6c98d8	0.014440738
252	0xbd950a32	-0.07277335
253	0x3d1c82d2	0.038210697
254	0xbd76ad7d	-0.060224045
255	0xbd85bb46	-0.0652986

bias f4 [100]
0	0x3d01bb5a	0.031672813
1	0x3d2920c2	0.041291006
2	0x3c635a10	0.013876453
3	0xbdafb877	-0.08580106
4	0xbd8105a4	-0.06299904
5	0xbdff4a74	-0.12465373
6	0x3cf37254	0.029717602
7	0x3cc981e8	0.024598077
8	0x3cc29b75	0.023755768
9	0xbe0cee2b	-0.13762729
10	0xbd9f97d7	-0.07792633
11	0x3c8462aa	0.016160328
12	0x3d168702	0.036749847
13	0x3d4ba07f	0.049713608
14	0xbde0029c	-0.10937998
15	0xbe056a28	-0.13028777
16	0x3c5c7886	0.013456469
17	0x3d502432	0.05081577
18	0xba1acd00	-0.0005905181
19	0x3e01e307	0.1268426
20	0xbd4b2497	-0.04959544
21	0x3c3a199c	0.011358645
22	0xbd892e56	-0.06698291
23	0xbc70cecc	-0.014697742
24	0xbdaa5463	-0.08316877
25	0xbdb2a443	-0.08722737
26	0x3d1878df	0.037224647
27	0x3cf714f4	0.030161358
28	0xbdbd1a68	-0.09233552
29	0x3ca2dc3b	0.019880405
30	0x3d443166	0.047898673
31	0x3d9472b1	0.07248438
32	0xbdf3c62e	-0.11903034
33	0xbd06452e	-0.03278082
34	0xbd321443	-0.043476354
35	0x3e1f36b7	0.15548216
36	0xbcd0e2a2	-0.025498692
37	0xbe11d475	-0.14241202
38	0xbda25bb4	-0.07927647
39	0xbd7b8e99	-0.06141529
40	0xbd8efd02	-0.06981851
41	0xbd144a8c	-0.036203906
42	0xbc998f1d	-0.018745
43	0xbc56808c	-0.013092171
44	0xbd9718c0	-0.073777676
45	0xbe01cf4d	-0.12676735
46	0xbcd072e6	-0.025445413
47	0xbe2a6dc7	-0.16643439
48	0x3d3f1bdc	0.04665743
49	0xbdfa50c5	-0.12222437
50	0xbd88c203	-0.0667763
51	0xbd3273f6	-0.04356762
52	0xbe0e0a20	-0.1387105
53	0x3cb1c9d6	0.021702688
54	0x3ce1442f	0.027498333
55	0xbe0472ed	-0.12934466
56	0xbc4ffef5	-0.012695064
57	0xbd6bd22d	-0.057573486
58	0xbd1f3020	-0.038864255
59	0x3cf4c074	0.029876925
60	0x3c3e14c0	0.011601627
61	0xbd8303f9	-0.06397242
62	0xbe00c624	-0.12575585
63	0xbcc99b80	-0.024610281
64	0x3ce39aa5	0.027783701
65	0x3b0c1df0	0.0021380149
66	0xbe0de2b9	-0.13856019
67	0x3c4a7990	0.012358084
68	0xbcef0c7a	-0.029180754
69	0x3d122533	0.035680007
70	0xbcac4c9d	-0.021032626
71	0xbc88bd48	-0.016691819
72	0x3da954b9	0.08268113
73	0xbcec0154	-0.028809227
74	0xb8e18c00	-0.00010754913
75	0xbd8de453	-0.06928315
76	0xbd33f472	-0.043934293
77	0xbda8d793	-0.082442425
78	0x3cc4e6bf	0.02403581
79	0xbd857921	-0.06517244
80	0xbd953572	-0.072855845
81	0xbd78c06f	-0.060730394
82	0x3ce37ef5	0.027770499
83	0xba87cc0a	-0.0010360491
84	0x3c44be79	0.012008303
85	0xbddab4ff	-0.106790535
86	0xbca86ec5	-0.020560632
87	0x3ca4e3ac	0.020128094
88	0x3d94064f	0.07227766
89	0xbcb3142c	-0.021860205
90	0xbdb9dd9f	-0.09075474
91	0xbcfc424c	-0.030793332
92	0xbe171cdb	-0.14757101
93	0xbd9f9345	-0.07791761
94	0xbd2e2503	-0.042515766
95	0xbd875f1f	-0.0660994
96	0xbb788b34	-0.0037924768
97	0xbe233005	-0.15936287
98	0xbd747ea0	-0.05969107
99	0x3d15ca63	0.036569964

weight f4 [2, 100]
0	0xbc6b82d8	-0.014374457
1	0x3db7d0e1	0.08975387
2	0x3d8710e5	0.06595019
3	0x3d9a993b	0.07548758
4	0x3b312fa0	0.0027036443
5	0xbd83c37c	-0.0643377
6	0xbc2f1850	-0.010686949
7	0xbc88e574	-0.016710974
8	0x3dc761df	0.09735464
9	0x3e10e909	0.14151396
10	0xbdd2b872	-0.102890864
11	0xbcf18acd	-0.02948513
12	0xbd8abf2c	-0.067747444
13	0xbdb9dd98	-0.09075469
14	0xbcff5b59	-0.031171488
15	0x3c6850e2	0.01417944
16	0x3e1667b3	0.14687996
17	0x3c2566d8	0.010095321
18	0xbc531ab0	-0.012884781
19	0x3c31bb34	0.010847855
20	0xbdc8aebd	-0.09798954
21	0x3c72f8c2	0.014829816
22	0x3d8fc775	0.07020465
23	0x3c636615	0.013879319
24	0x3d7d1e12	0.061796255
25	0x3db40fdd	0.08792088
26	0xbe1bbff6	-0.15209946
27	0x3d3c5abe	0.045984976
28	0x3d19be3a	0.03753493
29	0xbc240360	-0.01001057
30	0xbccfa9bf	-0.025349496
31	0x3cfbf436	0.030756097
32	0x3d4433a6	0.04790082
33	0xbdb1e7b0	-0.08686769
34	0xbdb9f67f	-0.090802185
35	0x3b8d24d7	0.00430737
36	0xbcf61535	-0.03003941
37	0xbdac6815	-0.084182896
38	0xbcc37c2b	-0.023862919
39	0x3d12398e	0.03569942
40	0xbde77bbd	-0.11302898
41	0x3dcf45fb	0.101207696
42	0xbd0edd27	-0.034878876
43	0xbd92b12b	-0.07162698
44	0xbcd32607	-0.025774969
45	0xbde88073	-0.11352625
46	0x3ca8b3d8	0.020593569
47	0x3d2f7894	0.0428396
48	0xbcfaa1a7	-0.03059466
49	0xbcffcbf8	-0.03122519
50	0x3db7056e	0.089365825
51	0x3ceefe30	0.02917394
52	0x3d9d4758	0.07679623
53	0x3b68b143	0.0035506047
54	0x3c6cd509	0.014455088
55	0x3cb1910f	0.021675615
56	0xbd65f3fe	-0.056140892
57	0x3c5f7b92	0.013640301
58	0x3cba3758	0.022731468
59	0x3ccfa444	0.025346883
60	0xbda5d2e2	-0.08096863
61	0xbdb2705d	-0.08712838
62	0xbdc3f2bd	-0.09567783
63	0xbc1240b0	-0.0089265555
64	0xbe18fa4b	-0.14939229
65	0xbda71053	-0.081574105
66	0x3d851be7	0.064994626
67	0xbd6ed972	-0.05831284
68	0xbd9e16fb	-0.07719227
69	0xbc5d8b2a	-0.013521949
70	0x3c836e08	0.016043678
71	0x3da8fe11	0.08251584
72	0xbbc575b0	-0.0060259923
73	0xbd830545	-0.063974895
74	0x3c4134d8	0.011792384
75	0x3e65c2b2	0.22437552
76	0x3ca7c25d	0.020478422
77	0xbbce67d8	-0.0062990002
78	0xbd8962f1	-0.06708325
79	0x3d15175f	0.03639924
80	0x3c45550d	0.0120442035
81	0xbd31b16f	-0.043382104
82	0x3d7daca7	0.061932232
83	0xbba4274b	-0.005009567
84	0x3c5c4556	0.013444265
85	0x3d805a46	0.06267218
86	0xbd4f3ba2	-0.05059398
87	0xbdd7c63f	-0.10535859
88	0xbc9635d6	-0.018336218
89	0x3d5cdaaa	0.05391947
90	0x3d0b6a1e	0.034036748
91	0x3d0b62d6	0.034029804
92	0xbdd290c5	-0.10281519
93	0xbcb8bca0	-0.02255088
94	0x3cf0d25b	0.02939718
95	0xbd62dbfb	-0.05538557
96	0x3d443081	0.04789782
97	0x3e00db19	0.12583579
98	0x3d5fee9a	0.054670908
99	0xbd97ae2a	-0.07406266
100	0x3d844615	0.064586796
101	0x3a610500	0.0008583814
102	0xbd56301a	-0.052291967
103	0xbdb4ee8b	-0.08834561
104	0xbda03e06	-0.0782433
105	0x3d1966b8	0.037451476
106	0x3abfdb40	0.0014637485
107	0xbd5443f0	-0.051822603
108	0xbcfbf35a	-0.030755688
109	0x3cf45720	0.0298267
110	0x3b884384	0.004158439
111	0xbd76c30a	-0.060244597
112	0xbcb532e0	-0.022118986
113	0x3ca7942c	0.020456396
114	0x3ca01060	0.019539058
115	0x3caf9beb	0.021436652
116	0xbd01b0ea	-0.03166286
117	0x3d55aefa	0.052168824
118	0x3db0761b	0.08616277
119	0xbd39ea23	-0.045389306
120	0x3dad3a69	0.084584065
121	0xbbbea0ce	-0.0058175093
122	0x3cffc07a	0.03121971
123	0xbd636538	-0.05551645
124	0x3d9b6b5b	0.07588836
125	0xbc82284c	-0.015888356
126	0x3c0c57bf	0.008565842
127	0xbd6b071d	-0.05737983
128	0x3d9f0da3	0.07766273
129	0x3d12f774	0.03588052
130	0x3d6325b9	0.055455897
131	0xbc63335d	-0.013867226
132	0xbd6d264a	-0.057897843
133	0xbd39731a	-0.045275785
134	0x3d7ab50a	0.06120781
135	0xbda98720	-0.08277726
136	0x3b9ac219	0.0047228453
137	0xbb9f84b8	-0.004868116
138	0x3c1e0075	0.009643664
139	0x3c8a9ad6	0.016919535
140	0x3b351d05	0.0027635705
141	0xbb712dd3	-0.0036800995
142	0xbcb96e15	-0.022635499
143	0xbd1aa106	-0.03775122
144	0xbd9379aa	-0.0720094
145	0x3cbe7be8	0.023252442
146	0x3c823b0e	0.0158973
147	0x3c0eb707	0.008710629
148	0xbc83811c	-0.016052775
149	0x3d6367a3	0.055518758
150	0x3c8051d3	0.015664017
151	0x3ba17ea0	0.004928425
152	0xbc27d0f8	-0.010242693
153	0x3d050c6d	0.032482553
154	0xbcf35c81	-0.029707195
155	0xbb03dbf5	-0.0020120118
156	0x3d0dae9f	0.03459036
157	0xbcf0ecaa	-0.029409725
158	0x3ce570d4	0.028007902
159	0x3dc6cd71	0.097071536
160	0xbd7145bd	-0.0589044
161	0x3d0a6aac	0.033793136
162	0xbc3a5fa2	-0.01137534
163	0xbd2a415d	-0.04156624
164	0x3cfed6d9	0.031108307
165	0x3d139964	0.036034957
166	0xbd2e5da9	-0.04256979
167	0xbc7c150a	-0.0153858755
168	0xbbcf0740	-0.006318003
169	0xbd19e2f5	-0.03756996
170	0x3b21ad0a	0.002466979
171	0x3dbbaeb7	0.091641836
172	0xbd7a4daa	-0.061109222
173	0x3ace8680	0.0015756637
174	0x3d818fb1	0.06326235
175	0xbd3f84b5	-0.04675742
176	0xbd478f62	-0.048720725
177	0x3d2039c5	0.039117593
178	0xbb0e416a	-0.002170647
179	0xbc7f514d	-0.015583348
180	0x3d8e2232	0.06940116
181	0x3d62a944	0.055337206
182	0xbd4a38a1	-0.04937041
183	0xbc010ead	-0.007877034
184	0x3d05a739	0.03263018
185	0xbd4ac027	-0.049499657
186	0xbd69e033	-0.05709858
187	0xbd0ea621	-0.0348264
188	0x3b2e2247	0.0026570724
189	0xbd897605	-0.067119636
190	0xbb3d42fe	-0.0028879042
191	0xbdbf851d	-0.09351561
192	0xbcba04c0	-0.022707343
193	0x3d14d7d6	0.03633865
194	0xbc64d7cf	-0.013967468
195	0x3c0a6608	0.008447178
196	0xbd11b7d2	-0.035575695
197	0x3c07beb4	0.008285213
198	0xbd6c4d0a	-0.057690658
199	0x3cdc4492	0.026888166

bias f4 [2]
0	0xbe1873e0	-0.14887953
1	0xbd420466	-0.047367476
