WeakLossVectorExample/Models/F6_model.pt (torch, 86047 bytes, 6 tensors)

weight f8 [100, 1]
0.0395278608540635 -0.37745743894050193 0.7474216240418387 -0.4990304969054207 0.582865937251502 -0.43807539312037225 0.7997331407079545 -0.5557500315210169
-0.62932744612919 0.8415866198717271 -0.8251695877631123 -0.016577799671749723 0.379404542102161 0.706848024408246 -0.5555088682444873 -0.391270336326504
0.21857812130432808 -0.021570873604221896 -0.4079884300843517 0.8304206866816778 -0.14345551208929996 -0.3775766454462871 -0.8276530715613412 -0.0006967333643441709
-0.31343283239426317 0.645551176779324 -0.23155202807327083 0.19047385751488036 -0.5800413070315811 -0.11072929485646488 -0.1632653290049554 -0.17823128558569054
-0.9872615752072679 -0.33152462214131706 0.5862067437669365 0.6126412279962818 -0.9016959220594368 0.7733703505878983 0.31069064852759126 0.4338079915194391
-0.36576894797727527 -0.7611906121557085 -0.9220118395931233 -0.3478625698541601 -0.6296709294421693 -0.36072272488878077 -0.15364863974406393 0.504847079267918
-0.8004144049091168 -0.625058226033429 -0.16469435312696942 0.1902753316966687 -0.9542185570374088 -0.4690427599312304 -0.2432686027402342 -0.8691767167923268
0.7626978566941862 -0.4633034910409288 -0.07621038957913104 -1.0077934793146628 -0.2278172392681126 0.05199104951719073 0.4800597733934644 0.2937665644135466
-0.13094798252044537 0.08176303561799067 0.2471398292573533 0.18222030571010206 -0.6464580433051528 -0.03954089597074868 -0.4147670205750682 0.49791114406750336
0.13650126050001898 0.436185879103989 0.5287025578347704 -0.9129865626114907 0.3366332869287663 0.6200358505227311 -0.23261217381505223 -0.5158193608791135
-0.17760732608085572 0.8018474136582664 0.24614301012962256 0.811851591769253 0.20751447106023188 -0.8950749617818027 -0.49346971436616593 -0.2039824131281954
-0.20229812958597893 0.3189547211475438 -0.15689864914891774 -0.33179314392449744 -0.4312870189095303 -0.17197165366417838 0.11150548744142286 -0.4797235566731262
-0.7679613588925446 -0.3648425050620769 -0.718964952082392 0.650962043554912
00000000: 264f 4ceb fe3c a43f 6968 f83e 4328 d8bf
00000010: 27a7 f2c0 e0ea e73f 1896 fa9b 1df0 dfbf
00000020: a752 4e77 d6a6 e23f 1099 a85f 6d09 dcbf
00000030: e9c6 9bf4 6997 e93f 9247 444a b4c8 e1bf
00000040: cc33 f34f 7323 e4bf 4335 2310 47ee ea3f
00000050: 7515 230d ca67 eabf b21e b84d c5f9 90bf
00000060: b816 12fd 2948 d83f 886b 82bf 7f9e e63f
00000070: feef b788 bac6 e1bf 50b4 9abc 920a d9bf
00000080: 58c5 4f2d 5efa cb3f 7383 b4d2 ac16 96bf
00000090: 80f4 1681 7b1c dabf 8707 6767 ce92 ea3f
000000a0: 785f 6d0e c05c c2bf 5236 fb3b 372a d8bf
000000b0: ed46 594b 227c eabf 0028 c781 9fd4 46bf
000000c0: 8b10 2895 480f d4bf 1a2b 05f1 5aa8 e43f
000000d0: 89d6 f231 7fa3 cdbf e17a 6286 7261 c83f
000000e0: 98f3 80c9 b28f e2bf d01e 1e4c c158 bcbf
000000f0: b5cf 52d8 e0e5 c4bf 4377 5b63 48d0 c6bf
00000100: e99a 4396 a597 efbf 109b 7a0c b337 d5bf
00000110: 7e8e 25a5 34c2 e23f 249c cdc6 c19a e33f
00000120: afd1 0568 b1da ecbf 1113 6f2d 73bf e83f
00000130: 9756 a607 5be2 d33f a571 1498 82c3 db3f
00000140: 2d1a 5d29 c268 d7bf 4164 276a ac5b e8bf
00000150: ef78 32f9 1e81 edbf 2aac 415e 6143 d6bf
00000160: f745 26a6 4326 e4bf 7c90 94c4 1416 d7bf
00000170: 2f48 6335 c2aa c3bf 7efa dd0f b527 e03f
00000180: 679f 8aab fe9c e9bf 6c19 dd1b 7a00 e4bf
00000190: 2313 425e b414 c5bf 15b6 6f2b f15a c83f
000001a0: 8dc8 f65a f588 eebf 3922 95ec cb04 debf
000001b0: a0da 74f2 6c23 cfbf 942a a2b0 4bd0 ebbf
000001c0: ea62 e755 0568 e83f c42d 89af c3a6 ddbf
000001d0: ee97 db2a 8682 b3bf db74 2c0e ec1f f0bf
000001e0: f88e 0f84 1d29 cdbf a6db b822 929e aa3f
000001f0: 0c68 b6a0 4cb9 de3f 1d20 b446 12cd d23f
00000200: e084 334b e7c2 c0bf 763e 001c 6cee b43f
00000210: 8384 1926 47a2 cf3f cc93 d8b6 fe52 c73f
00000220: c46a 47c7 c8af e4bf ea09 194e b43e a4bf
00000230: e012 35f9 8a8b dabf 265e 05b4 c6dd df3f
00000240: 04ed da90 df78 c13f 14a2 6e2d 78ea db3f
00000250: c8c7 66a0 21eb e03f 6752 8398 2f37 edbf
00000260: 85a8 8657 668b d53f 31f7 8a6c 55d7 e33f
00000270: 72f3 9757 3cc6 cdbf 3ed2 b39a 9781 e0bf
00000280: 600d 863c d6bb c6bf 096c 41e8 bba8 e93f
00000290: 23a7 5239 9d81 cf3f f057 7b30 b0fa e93f
000002a0: 6f41 538d d58f ca3f 0748 0a3f 74a4 ecbf
000002b0: a839 31ff 0195 dfbf 1b21 ac80 181c cabf
000002c0: 588f 4eb5 e7e4 c9bf abf1 0e10 c169 d43f
000002d0: 81ca 7043 4115 c4bf d055 8c4f 193c d5bf
000002e0: 13f8 59de 349a dbbf ced0 29ca 2a03 c6bf
000002f0: d8ac e2a5 9f8b bc3f 510a c26e cab3 debf
00000300: 5720 21b3 2393 e8bf 5fab db60 9459 d7bf
00000310: 2640 85c9 c201 e7bf 7d2e 005a aed4 e43f

bias f8 [100]
0.1664514592644191 1.030608549630149 -0.336242468450656 -0.2728019076719006 -0.484964282179073 -0.5173520995924865 -0.3300831169238772 0.33310705489026055
-0.8905418682151636 -0.48275362330239374 -0.861609301263665 -0.2732972528082765 0.06893152729064328 -0.8259025624688492 -0.13095676403111622 -0.9199267048363144
0.3047777902826871 -0.14040362124318134 -0.23215098131042033 -0.051394478986711775 -0.9142196571989483 0.8870355495104806 -0.8206940809894687 -0.2271463578547075
0.03251702505870811 -0.10842034006313696 0.5057435669531595 0.11804459117956484 -0.8023625074382463 -0.35122985702633636 0.10942965904070821 0.6129783323711607
0.11915407568440907 -0.23813606676342802 0.023584289983051412 0.06505150776857445 -0.845026300848791 -0.6405740860627298 0.11497458087011012 -0.5094769316042131
0.728811637468145 -0.4180409788914996 -0.5855863916817436 0.44674029798236603 0.45802933076013086 -0.9498104278573007 0.46457587015267715 -0.591012284271635
-0.05157198845040223 0.8136502395701691 0.48994854303141305 -0.22130601967088384 -0.6115909933033004 1.18346604771638 -0.677045887503156 0.4155358424035182
0.7054720751431828 -0.9613836695486762 -0.00889413267791336 0.07857202140611218 -0.11880708584196609 -0.21579567143996975 0.5412876103970178 0.12477128320394254
-0.5660084352477259 0.08329059384555149 0.6551281816344314 -0.10821728404824964 0.06517603878829475 0.3034008282632443 -0.6179764492500761 0.21995684816902222
-0.6939927616688164 -0.0753653239400949 0.19937255148473654 -0.17414022895259196 -0.12726324457659408 -1.0064867234656394 0.4933527460332185 -0.7265975141197618
0.5075738248945413 -0.45815675738780576 -0.2867814007284929 -0.06401721548181274 0.26540664554322674 -0.13620954000658791 -0.350721816515273 0.6322785557724796
-0.25734263641322763 -0.3727674451105896 0.29453034495938907 -0.7743364853035966 0.5038393812453164 0.5026197438384763 -0.7404509483357653 0.6177704312720942
-0.39379176560754714 0.8186921557529777 -0.26494469926172304 0.27282854930236683
00000000: 89c1 f40a 484e c53f 523b fa63 5f7d f03f
00000010: 7866 6121 ff84 d5bf b02e ef21 9675 d1bf
00000020: a5fb eba0 a709 dfbf 8488 88fd 258e e0bf
00000030: 4596 09f0 1420 d5bf d383 b440 a051 d53f
00000040: e87d f6a8 517f ecbf 85fe 0674 6fe5 debf
00000050: 566b 5bab 4d92 ebbf f97b b9c2 b37d d1bf
00000060: c46b 601f 7fa5 b13f ce8f ef35 cb6d eabf
00000070: a810 5af5 30c3 c0bf 04a6 ff20 0a70 edbf
00000080: 23ec 73b4 7a81 d33f 1e5e bdf0 bef8 c1bf
00000090: 4035 3b94 1fb7 cdbf fec1 e28c 6050 aabf
000000a0: 3cf4 2095 4941 edbf 4f2e 7160 9862 ec3f
000000b0: 7edb bb3b 2043 eabf 101c 32c1 2113 cdbf
000000c0: 5e77 614e 12a6 a03f e1d8 ca76 6fc1 bbbf
000000d0: 153d 0722 0d2f e03f ecfe 959a 2b38 be3f
000000e0: 7e7b 1f23 f4ac e9bf c4a3 53cb 8c7a d6bf
000000f0: 5fd2 ca06 9503 bc3f a71a 56bc 849d e33f
00000100: c9e8 3faa e180 be3f 909d 5f1d 3e7b cebf
00000110: 04d3 b4e8 7a26 983f 8de8 6b32 37a7 b03f
00000120: 28f9 cc98 740a ebbf 94be c939 957f e4bf
00000130: ae5b b560 f96e bd3f 0ccf e990 a24d e0bf
00000140: 26d6 7bc8 6c52 e73f 2c84 2ef3 2ec1 dabf
00000150: fc2e 28ac 1fbd e2bf 80ee 689e 6497 dc3f
00000160: 4c4e 0e41 5a50 dd3f fe7f a1d6 d864 eebf
00000170: 6341 346e 9cbb dd3f c263 0f98 92e9 e2bf
00000180: 607e 91c7 a467 aabf 21c4 2a3a 6c09 ea3f
00000190: b5bc 4222 515b df3f 017b 7272 c153 ccbf
000001a0: ae81 5846 2792 e3bf 43e4 2d18 7aef f23f
000001b0: 88f4 1623 5caa e5bf 4717 5ca5 2398 da3f
000001c0: 3166 5f2c 3a93 e63f 54d7 73af a7c3 eebf
000001d0: 2ec9 d247 1637 82bf 97e2 51c6 4b1d b43f
000001e0: 506c 3924 246a bebf eefc b94b 319f cbbf
000001f0: 6753 0c65 3a52 e13f 6444 d7c4 02f1 bf3f
00000200: 90c5 d4b8 bd1c e2bf 508d a148 8852 b53f
00000210: c0d9 5960 cff6 e43f 8363 d9bf 20b4 bbbf
00000220: 141c 147b 60af b03f 9c13 be4e eb6a d33f
00000230: e245 e78b 76c6 e3bf 6a66 b5c6 8b27 cc3f
00000240: bee7 e04e 3035 e6bf 423d 9351 244b b3bf
00000250: 246b 2c2e 0a85 c93f 9079 221e 3a4a c6bf
00000260: ab3b b878 294a c0bf 354a 92d2 911a f0bf
00000270: 97af 6665 1793 df3f 10fa 0f6e 4940 e7bf
00000280: 3349 4776 0b3e e03f 9302 5bb8 7052 ddbf
00000290: 76b7 4e60 a05a d2bf 4a18 e0a6 6e63 b0bf
000002a0: 45f3 af27 6cfc d03f c0a1 dd6f 506f c1bf
000002b0: dc50 fbea 3972 d6bf 3d28 e03c a03b e43f
000002c0: 04b8 d03f 4d78 d0bf 7ddc 70fc 6bdb d7bf
000002d0: 61ee d1cd 95d9 d23f 2250 0f4f 5dc7 e8bf
000002e0: 1856 1cc4 731f e03f 6086 4300 7615 e03f
000002f0: 169e ec2f c6b1 e7bf 94fb d77e c6c4 e33f
00000300: 1cfc ad60 e233 d9bf c56c 4ee4 b932 ea3f
00000310: 50f8 a49c daf4 d0bf 71cd 2ae0 0576 d13f

weight f8 [100, 100]
-0.03339290313826649 0.0733242472082752 -0.03400332495360782 -0.016657066523371664 0.007754015179475202 -0.0027519191272281224 -0.0619443749490389 0.043750246267442
-0.048819064426146516 0.01913132742143339 -0.010305239528041008 -0.08144977065988869 -0.09970587255213896 0.08878083535648897 0.04758684764755221 -0.020177135827710482
0.030603667946132493 -0.06723254434728473 -0.04039837209723651 -0.05352654349380534 0.09971549377655213 -0.002145758170892928 0.01172560742267606 -0.05793210307091616
-0.05089047154319587 0.07020496859463259 -0.042934750395168 0.06424825612256485 -0.08291737892763748 -0.016676711530294278 0.04563709255684267 -0.008866856282073524
-0.030706001906470323 -0.06921725638206896 0.017425368122336356 -0.00026896615964036444 -0.012381050922490894 0.06097007079385176 -0.048364131571701184 -0.09369506734801156
-0.010004328473135928 0.05292094484473277 0.03664619546754751 -0.025982367358177997 0.05645340467932105 0.053732927707794934 0.011957381732635249 -0.013641041579865607
0.07974094322992696 -0.09879608793104606 -0.07203698558180587 -0.01018376166317951 0.01730450764066911 0.0192723758654932 0.04665443869885218 0.0774906238958017
-0.06430556240846688 0.03465014847900709 0.026305715845451896 0.029015511473488204 -0.05140214939241949 0.0819928142251974 -0.0711033141130462 -0.02766122939248738
-0.08343039020768596 0.05184640779932347 -0.06826348247469669 0.04885838988954051 0.06199273815259588 -0.07440153250959798 0.04190540593594348 0.03315413686427813
-0.03355869525589528 -0.0944456746316591 -0.03524393518837168 0.003817604370723024 0.05035233151723216 -0.026932441976134383 0.07789840411809984 0.07979302163370332
-0.08932359550670624 0.05889549552252747 -0.054607397569851376 0.03606086153195786 0.0892462070157832 -0.031296309573064854 -0.039096929752678485 -0.02555330533750016
-0.09146874353419122 0.06842749684358936 0.08579141847764027 -0.0024904786377838856 0.06862589648512973 0.08121304067852128 -0.09594175234525397 0.06359919481631705
0.04035406327300391 -0.02218526141040275 -0.08999063346643363 0.044667683391484775 -0.0165325940250428 -0.018220326750479996 -0.15020942856971917 -0.026182716569353934
-0.09461739370621722 0.012558240696364534 0.0010710834693730955 -0.08189308063863439 -0.005951035760439802 -0.14981539255290843 0.05215397471110679 0.0401128919259023
-0.06887947173534253 -0.11285169307392547 -0.01662447622580006 -0.03433622347749707 -0.12556321180329724 0.010405478006733086 -0.01771525960691435 -0.018175744055156658
0.021689375615216513 -0.1371359344474253 -0.08382165842941929 -0.0031817746439935374 0.008903029481247332 -0.06495293750454412 -0.14162260019963016 -0.04410321436305337
0.0791342926204331 0.07639441322594213 -0.029934884981225346 -0.15134539204595499 0.023210311870992918 0.019577597310897213 -0.042791687700056785 -0.062249634275316934
0.05135165451142172 -0.003896343397341905 -0.0012164698671848818 0.08390307054369468 -0.03764698966877468 0.07670930171171646 0.009713576097661505 -0.04928442771897448
-0.14035066223224657 0.095006331294561 -0.10764103914380044 -0.1531716262379666 0.02641054182911827 -0.10066137839002441 0.026505106488250295 -0.06720283380050203
0.034265666476939724 -0.04547051068759653 0.04106859699074046 -0.015790400179675507 0.019938036039564785 -0.031378815081838374 -0.07613050092093102 -0.11873835397210755
-0.02962309453532712 0.007766920339369288 -0.03932593013717582 0.03673702237601751 -0.02303497554936411 -0.037809058144620544 -0.07939218318236625 -0.14718151656885073
0.011724720218381517 -0.12669616207146572 -0.09087105098831244 0.03444153738151552 0.04483190988842921 0.01959411099115772 -0.1394169932775222 -0.050680803262440816
-0.12841748006197107 -0.11859457639154479 -0.09146887967104904 -0.0913482775014137 -0.13379410209412892 -0.04927738179529909 -0.0655802137357755 -0.051543701941805
-0.05805535363509309 0.02178130570150616 0.07756908218679086 -0.04902389641897022 -0.09243959376733206 -0.026045896742925373 -0.08406351917451554 0.09463988784010764
-0.14673010648194726 0.0035801584858845812 0.019877393799076173 0.08833199309322999 0.005643803829623442 0.022907276044964196 0.017112562215592625 -0.045835323662084676
-0.02603146247837694 -0.009928612987375404 -0.007289959935356666 0.0017627222493543926 0.037577371028374204 -0.0671188829887821 -0.05373936907999872 -0.10784732482330264
-0.05994775196981427 0.0312805719979201 0.06130948284392555 0.08749302773624977 -0.00793686378452674 -0.0912433852303937 -0.022177136106341727 0.030784987106374437
-0.16369658491297992 -0.03885144382934216 -0.07031540336988244 0.016293382144068863 0.03904045222438311 -0.04214209499045999 -0.07604706429062784 0.020950189794930393
-0.05945623860468431 -0.031661366511227945 -0.0718407629822314 -0.023611879076059706 0.0946279346037135 -0.01849963889654549 -0.12342445105214347 -0.14112700594196945
-0.13027308361260118 0.007016694450509148 -0.001462661800606062 -0.08015903392589532 -0.022754360743823948 -0.02480349454176463 -0.03292027004004668 -0.025311973364548712
-0.02251030022583123 0.08872984251081105 0.03699920487628135 -0.04001889524527947 -0.06417345484341246 -0.03882725791471217 0.024159072398751983 0.06372395583716227
-0.051234616716015875 -0.09342991315159017 -0.0997613790704981 0.032127944804286476 -0.08443738958983343 -0.038530092205131546 0.0542110983464351 -0.08021392240257628
00000000: 8171 cbe5 df18 a1bf a56b c3bb 60c5 b23f
00000010: 4213 4341 e268 a1bf 8c57 dccf 8c0e 91bf
00000020: b08d bc99 acc2 7f3f a0c4 e254 318b 66bf
00000030: bc91 2751 2cb7 afbf 673b d2a9 6e66 a63f
00000040: 3663 43fa cffe a8bf 989f 6aa6 2997 933f
00000050: 98c8 00d6 e91a 85bf 713c 4065 e4d9 b4bf
00000060: f3a0 d4f5 5286 b9bf 5120 5e40 57ba b63f
00000070: 9660 bba4 4d5d a83f 3422 07aa 50a9 94bf
00000080: 2c79 dd63 9156 9f3f 1ece 32eb 2636 b1bf
00000090: 2044 f06d 18af a4bf 8c31 8cc3 d467 abbf
000000a0: 93be ac60 f486 b93f 2d59 6925 fb93 61bf
000000b0: 50c0 3f63 9803 883f e6fa 27d0 46a9 adbf
000000c0: b87e e9dd 500e aabf 8b72 21ec f3f8 b13f
000000d0: 7c4b 9e29 8bfb a5bf 3417 dfde 9272 b03f
000000e0: 66a5 c3c6 123a b5bf a47f 822a b313 91bf
000000f0: b046 08b8 be5d a73f 08ab ff4d c928 82bf
00000100: 5fb4 eae7 6471 9fbf 5ed6 7adc 38b8 b1bf
00000110: ef24 d3a8 f4d7 913f e6b9 00dc 80a0 31bf
00000120: 90ec 6a86 3c5b 89bf f254 3018 7837 af3f
00000130: 63bf ccf6 2ec3 a8bf e664 0e62 66fc b7bf
00000140: 816d e23c 267d 84bf 225a c33e 7418 ab3f
00000150: 2aa4 1c46 4ac3 a23f 71db 4d28 1f9b 9abf
00000160: 43ea b0ed 75e7 ac3f e255 72de e182 ab3f
00000170: 714f e69b 1c7d 883f 184e c09b d5ef 8bbf
00000180: 6f21 5307 e769 b43f 1df7 a24e b34a b9bf
00000190: ab20 2d11 0471 b2bf 9852 595a 39db 84bf
000001a0: d46a 8fd9 45b8 913f d4ea 3b40 23bc 933f
000001b0: 4a80 d930 17e3 a73f fd0c 61ef 6cd6 b33f
000001c0: dac8 7e4f 5476 b0bf 96aa 090d aabd a13f
000001d0: d42e 04b5 e2ef 9a3f 75df 6b03 3eb6 9d3f
000001e0: df49 2bed 6151 aabf 95ae 9a27 7bfd b43f
000001f0: 23b4 c0a8 d333 b2bf fe79 6eae 3953 9cbf
00000200: 593d 6fad b15b b5bf 7f8b d3c3 9c8b aa3f
00000210: 8669 bd30 b779 b1bf 22ed 6b85 f703 a93f
00000220: 71e7 e81d 83bd af3f 35a8 e694 fa0b b3bf
00000230: 8e7c 0a18 a074 a53f 2d4d 1e3b 94f9 a03f
00000240: 40b2 3df5 9a2e a1bf 70a8 ca7b 972d b8bf
00000250: 9465 083a 7e0b a2bf 6078 7bbd 1846 6f3f
00000260: 4ea8 49e2 c7c7 a93f 14a6 f495 2d94 9bbf
00000270: 6c0b 195a 26f1 b33f 83a3 5dc2 506d b43f
00000280: 3262 7641 e9dd b6bf ee4b 4de6 8c27 ae3f
00000290: e646 5d35 80f5 abbf 0f04 e4b9 9176 a23f
000002a0: f6c1 6ce4 d6d8 b63f d21f 34e4 1106 a0bf
000002b0: a9d2 5245 8304 a4bf 8fc4 ea4a a52a 9abf
000002c0: 71e7 15de 7e6a b7bf cd21 17e5 7684 b13f
000002d0: f08f a328 6df6 b53f 6013 9f89 e966 64bf
000002e0: c8f3 0f7d 7791 b13f 5614 b9b9 60ca b43f
000002f0: e3cf a480 a38f b8bf 51bb c96d 0948 b03f
00000300: 3a5a 09ac 49a9 a43f b8f3 d7b0 bbb7 96bf
00000310: 9645 af4b a009 b7bf 4482 b5be aede a63f
00000320: 9c56 9f9a ebed 90bf 991f 106e 59a8 92bf
00000330: 53ff a003 103a c3bf 6c12 8b5d a4cf 9abf
00000340: 76d8 9973 d838 b8bf 2880 b088 22b8 893f
00000350: 7c3d 391e 738c 513f 7d93 1ce7 f1f6 b4bf
00000360: 30a1 7eff 1c60 78bf d8df b999 262d c3bf
00000370: da31 7bff ecb3 aa3f d280 f04d ad89 a43f
00000380: d413 78c6 15a2 b1bf 45fd 0c3b d9e3 bcbf
00000390: b4cf cfb6 0106 91bf bcd8 ce79 8494 a1bf
000003a0: 2150 2390 7412 c0bf 82c3 e79d 774f 853f
000003b0: c47d 9bf2 f223 92bf 4280 3089 a99c 92bf
000003c0: f486 c05b bd35 963f 8b6f c798 ab8d c1bf
000003d0: 5b9d a611 5675 b5bf 6014 4141 aa10 6abf
000003e0: 0383 a863 c03b 823f 4074 5c76 c1a0 b0bf
000003f0: b9ae 1d7a b020 c2bf 08f3 ac4e b294 a6bf
00000400: a5fe cb1e 2542 b43f 4b0c 6792 958e b33f
00000410: 48fa 0320 40a7 9ebf 246c 9e2a 495f c3bf
00000420: 2ddb a9a9 71c4 973f 94fd bc50 260c 943f
00000430: 4cbe 6cc6 cae8 a5bf 6007 cd1e 2fdf afbf
00000440: 2ab0 7199 c34a aa3f fef0 e56e 39eb 6fbf
00000450: 15c5 f392 3eee 53bf fde6 04f0 ab7a b53f
00000460: 5229 d75a 7746 a3bf 139c 2686 38a3 b33f
00000470: a853 551d b6e4 833f b498 82fa ce3b a9bf
00000480: 6035 21b0 02f7 c1bf 6db5 d2bd 5552 b83f
00000490: 0a80 d4f6 5c8e bbbf 7a00 afba 209b c3bf
000004a0: 7ceb b375 5d0b 9b3f a7ca 27b0 f1c4 b9bf
000004b0: d616 2d96 2724 9b3f 6526 5f75 3434 b1bf
000004c0: 6ec7 c9f9 448b a13f bcd9 ab28 e947 a7bf
000004d0: fa87 ef71 f106 a53f 6828 73d1 5b2b 90bf
000004e0: df12 f2f2 a26a 943f e0a0 2051 e210 a0bf
000004f0: a2f9 aedb 497d b3bf 9a50 1703 a365 bebf
00000500: 0c33 f138 8455 9ebf da57 92cd 34d0 7f3f
00000510: e6dc a53f 8722 a4bf c198 50eb 31cf a23f
00000520: 2c3f 980a 7b96 97bf d089 7278 b55b a3bf
00000530: ad88 53ce 0b53 b4bf 2594 1e0c d8d6 c2bf
00000540: 293f 244f 2103 883f a815 5070 9437 c0bf
00000550: 14e0 2540 5343 b7bf 8aea 5a39 52a2 a13f
00000560: ae77 9345 35f4 a63f 83d8 9a87 7a10 943f
00000570: 1f1a 5181 6ad8 c1bf bc29 1891 d5f2 a9bf
00000580: 38ea 8ce6 fb6f c0bf 2fac 15d3 365c bebf
00000590: 53f6 c926 816a b7bf f61c 6ac8 9962 b7bf
000005a0: 092c 7246 2a20 c1bf d593 7c8e e23a a9bf
000005b0: 4085 4269 ddc9 b0bf 1d45 4fa4 ef63 aabf
000005c0: 74dd 706a 6eb9 adbf 80cc 9bae d64d 963f
000005d0: eb49 2c3f 91db b33f 8216 afff a819 a9bf
000005e0: 4b12 1608 1faa b7bf 48cc d28a c6ab 9abf
000005f0: 8c26 a4d1 2f85 b5bf 659d 2bd7 513a b83f
00000600: 17db 5658 0dc8 c2bf 3d5a 90f3 2254 6d3f
00000610: 04de 2f51 bd5a 943f bda2 86ed ec9c b63f
00000620: 50ec f80d f51d 773f 7673 d045 0175 973f
00000630: 5856 449c f485 913f 54ad 4240 ba77 a7bf
00000640: dcf5 0be0 fda7 9abf de74 9ae0 7355 84bf
00000650: 2022 2fb8 13dc 7dbf 8018 6d9a 64e1 5c3f
00000660: 9ee6 4557 573d a33f b080 61ff b32e b1bf
00000670: f99b 6901 ba83 abbf aac1 13dd e19b bbbf
00000680: 4faf 5bc4 78b1 aebf 1e65 76d3 0104 a03f
00000690: 9ea8 7fdf f463 af3f af55 c16c f165 b63f
000006a0: 814a 19d3 3341 80bf 7b76 8afb b95b b7bf
000006b0: 58c6 2e69 9ab5 96bf 5c92 5183 1986 9f3f
000006c0: 7985 557b 02f4 c4bf e37e 4c21 56e4 a3bf
000006d0: 0bf2 e0b5 3000 b2bf 68ce cc5d 36af 903f
000006e0: 6eaf 0c33 1cfd a33f f5b3 890f a693 a5bf
000006f0: 3bc6 1506 d277 b3bf 6c8f 0e70 f773 953f
00000700: 7259 b350 0c71 aebf dcbe 6c2b eb35 a0bf
00000710: 5743 87ff 2764 b2bf ed12 b761 b62d 98bf
00000720: bd35 694c 8939 b83f c0a2 31c0 91f1 92bf
00000730: 96b3 cbac be98 bfbf 3b34 8d21 7310 c2bf
00000740: 2125 d5d4 c9ac c0bf a02d 0e93 89bd 7c3f
00000750: 144a 5126 d9f6 57bf 12d0 306d 4d85 b4bf
00000760: d8c6 f14c eb4c 97bf 5498 8857 1666 99bf
00000770: 4b1d 65f6 ecda a0bf 601c 31c7 61eb 99bf
00000780: e11e 2cad f00c 97bf b75e c3bb ffb6 b63f
00000790: 2ae0 d74d 8ff1 a23f 71de 994c 5b7d a4bf
000007a0: dbe3 d2e9 ab6d b0bf 7cc4 df95 2ae1 a3bf
000007b0: 11d7 6ae7 27bd 983f 1fd8 4a92 3650 b03f
000007c0: e9cf 6f76 6c3b aabf 7546 74d5 05eb b7bf
000007d0: 61fb 8234 f689 b9bf 8eb7 71f0 1273 a03f
000007e0: f412 d952 b09d b5bf a9a5 dd5b 37ba a3bf
000007f0: ced3 f49c 8ec1 ab3f 8727 674d e688 b4bf

bias f8 [100]
-0.0034571966444209446 0.028187354311776328 -0.16140289079106007 -0.0035830699147482575 -0.11037850748152309 -0.10918988199719604 -0.05325967831211893 -0.022544998003821336
0.001650604914002282 -0.041207257904095386 0.06718983582851337 0.008113192408221743 -0.08352205653079964 -0.024943907287087026 0.013371841097725273 0.015018012279259392
-0.14419093191588947 -0.04959358281883865 -0.028560491525671736 0.03316660003664133 -0.15383167396199582 -0.084586716916241 -0.035531124110748234 0.02841713506091252
-0.06134929076893594 -0.07850417695885148 -0.027022303292046117 -0.06164023729259409 0.016326748281899544 -0.12237332915609081 -0.010218895341213346 -0.03155682635899269
-0.02412823761528116 0.004760564805136758 0.0031378170706706596 -0.12603767517904488 0.013984274352852358 0.035124008998113264 -0.12223979437770054 -0.023931147784710664
-0.052274805363028996 -0.09244225622598225 -0.04834176625401017 -0.07143552178483488 -0.0074737773110848255 0.06934730760015469 -0.09979791562946148 -0.10411170683807817
-0.02976231522934654 -0.10124283866994745 0.00458329070000136 -0.10789487086418702 0.07763679975352117 -0.09023300062544072 -0.09395147545740852 -0.008469924377727261
-0.07234957771893276 -0.08840241439964913 -0.04216684550356888 -0.11244179979344272 0.013574921562546832 -0.12000791690289132 -0.028101713668773266 0.024680099645621487
-0.049202174386645335 0.05345317082865739 0.004198218349696206 -0.009450536879300996 -0.05952768662805719 -0.051889772355279765 -0.0955243040366801 0.03932150831888448
-0.10605997750402772 -0.15565341255319487 -0.05386190300070325 -0.02647585555806127 0.08803821349840082 0.030518752437243883 -0.08496522450760474 -0.03238901727729249
-0.16419351605522992 0.03574907260766389 -0.07224496885577579 -0.0703677796490963 -0.033558819222318514 -0.12915632415433811 0.0748051718949631 0.031313026387214414
-0.13432293443906954 -0.07157901511131659 0.008507001985251082 -0.07766148803190565 -0.048657710228369844 -0.047038826678456776 -0.008634932064478153 0.0712573386123054
0.054524201437370926 0.062093079471137125 -0.05186874392440475 0.06439025206558133
00000000: 6491 c150 4452 6cbf 0129 b853 25dd 9c3f
00000010: 18b7 b694 d9a8 c4bf 60cd 4c03 3e5a 6dbf
00000020: ae7e d00f c441 bcbf 0868 3b3c def3 bbbf
00000030: 6a91 1741 da44 abbf 968d 7534 0916 97bf
00000040: 59d2 f387 230b 5b3f 7da2 1c22 1e19 a5bf
00000050: 9acf 8163 5a33 b13f 4aca 7940 a69d 803f
00000060: ec60 4b95 b361 b5bf 5546 2148 e58a 99bf
00000070: 83c6 9d21 b262 8b3f 1107 b97c c3c1 8e3f
00000080: 63b0 7a34 d974 c2bf 32c5 9880 5464 a9bf
00000090: 5ce5 3d24 f63e 9dbf 862a f46c 36fb a03f
000000a0: 00bb 609c c1b0 c3bf cacd d49e 79a7 b5bf
000000b0: 9370 17b0 2231 a2bf ac37 eea6 6119 9d3f
000000c0: 0483 f89a 2c69 afbf f03d a388 d918 b4bf
000000d0: db93 9b13 bcab 9bbf 7628 9426 4f8f afbf
000000e0: abe1 ae87 f5b7 903f 1ac8 a0c6 db53 bfbf
000000f0: 4385 55ea a4ed 84bf 5ed7 5a62 3728 a0bf
00000100: c1f9 de9d 12b5 98bf 0077 6062 d07f 733f
00000110: 542a 61b6 7ab4 693f 719b 7aa6 0022 c0bf
00000120: 55c4 0788 c9a3 8c3f 9b11 e72b c6fb a13f
00000130: a33a 1f6f 1b4b bfbf ce42 5d24 6881 98bf
00000140: 53c1 e066 c3c3 aabf d950 42b3 4baa b7bf
00000150: fa06 2f82 40c0 a8bf f5ab d62d 9949 b2bf
00000160: b023 0fd2 d29c 7ebf 3d54 35c2 bec0 b13f
00000170: af66 d62f 5b8c b9bf b312 0098 10a7 babf
00000180: 14ce 402a 037a 9ebf 29a8 0af9 0ceb b9bf
00000190: c910 a2ba edc5 723f 4790 c48d ff9e bbbf
000001a0: 3c50 e85b 01e0 b33f 89ca b48a 8219 b7bf
000001b0: d521 8032 340d b8bf 638e 9d01 ae58 81bf
000001c0: 65a6 2e7e 8085 b2bf 00e3 bb66 8aa1 b6bf
000001d0: c39d d38c e496 a5bf 89f3 d05c fcc8 bcbf
000001e0: d056 4121 2bcd 8b3f ade7 5bbe d6b8 bebf
000001f0: eafd ac14 b2c6 9cbf e91f 5c73 bd45 993f
00000200: 43f5 c303 0731 a9bf 1c36 27c9 365e ab3f
00000210: d0ef 36a8 2632 713f 8c23 9c96 cd5a 83bf
00000220: 414f 8cb6 697a aebf 3a8f 86d6 4b91 aabf
00000230: 278a cfe1 4774 b8bf c09b 84e0 f221 a43f
00000240: e756 cb26 bf26 bbbf 54a0 3676 73ec c3bf
00000250: 1fd5 c68f c993 abbf f49f 0597 7c1c 9bbf
00000260: 221e c61f ac89 b63f fedd 87ce 4e40 9f3f
00000270: b4b5 8eec 47c0 b5bf e03d e913 4b95 a0bf
00000280: 4813 d60a 4b04 c5bf 7dab 6cd3 b34d a23f
00000290: 8f3d 8972 a57e b2bf f4f5 4870 9f03 b2bf
000002a0: 70be 1a1e 9f2e a1bf 2140 28c6 3188 c0bf
000002b0: 5b4b dc86 6e26 b33f ab32 8bd0 4208 a03f
000002c0: 0960 4271 7e31 c1bf 88a5 fb98 0053 b2bf
000002d0: 6c60 827a 1e6c 813f 8877 418f 9fe1 b3bf
000002e0: 8018 42d4 a9e9 a8bf 69ce 731c 7915 a8bf
000002f0: ae98 8ff6 30af 81bf fe99 f0c2 eb3d b23f
00000300: 322e 079c 98ea ab3f 78de 4503 aaca af3f
00000310: 9d09 ae3d 8a8e aabf c688 cd2a e17b b03f

weight f8 [1, 100]
-0.08307597782142692 -0.035277265317802745 -0.05239583340346712 -0.09148766725104557 0.003928996998767172 0.0058004688345252116 0.00041185443958856994 -4.114992742579773e-05
0.01977740204462781 -0.08439144497206394 0.013109647927777997 0.0158353012353077 0.016395473004655867 0.024800007793322802 -0.004364623987954404 -0.016598383286112715
-0.020137438804036678 -0.04172001859325225 -0.050495206842494575 -0.005325866946928839 -0.058967499295260364 -0.0029575375515430305 0.009476658902986832 0.03191794453369841
-0.059761970082918586 -0.03049500649641458 0.024400860470290556 0.002505314365068062 -0.03978897945774916 0.008128934806167006 0.0326302281297471 -0.027217208622344936
-0.03231770498212316 -0.04268683279609173 -0.0015327836229116014 0.05237419986202467 -0.0452149239940502 -0.03226600496272317 0.06396881425847997 -0.007154088891752006
-0.020421143907492022 -0.015722950387712858 0.04551058058489399 -0.019187562168692066 -0.09041986896223513 0.0793550902477814 0.05043681318564611 -0.02323059367594692
-0.03922237247035458 0.002987620894532447 -0.03263243318183944 -0.00023505222817680877 0.00815296721573619 -0.01867786242612976 -0.04383379381951331 -0.03303729257388554
0.04234629337711797 -0.01902471339965099 -0.006262391937975433 0.053203889735441406 0.046728402945731204 -0.06351287569899282 0.034479739142523336 -0.04636974618579904
0.09714593396220449 0.008659506807585315 -0.09847313901612699 0.05292084192436801 0.09552027967310842 0.04289034887242806 -0.03921553050996942 -0.013588138118897251
0.03378349426608555 -0.04565078203203668 0.050255022742512194 -0.028035841038386234 -0.008242416155133105 -0.030373881536450053 -0.012640555686090509 0.08705286137579386
0.03425410769501177 0.017194999240014934 -0.008169661087202724 0.05481986904584395 0.017261685639074167 0.04343348126995168 -0.022843666810696283 -0.00040385245953497296
0.01406303497918836 0.08531296424507119 0.024319103755785193 -0.004692737666162237 -0.005394620410961986 0.02667983289331973 0.022028430208278948 -0.025026327337060884
-0.0014861571328334334 -0.008054287540601076 -0.09934756947615765 -0.013462582693080507
00000000: 1e85 d39f 7744 b5bf 5220 aa99 dc0f a2bf
00000010: a340 d46d a0d3 aabf 4ca0 d45a bc6b b7bf
00000020: a243 da19 da17 703f ebcd 217f 3bc2 773f
00000030: 7d5f 4759 c5fd 3a3f a392 7ebd 0c93 05bf
00000040: 9313 edfb 8640 943f 4e9a 3780 ad9a b5bf
00000050: b121 e528 3bd9 8a3f d439 b613 2137 903f
00000060: cc06 6e91 f9c9 903f 7ec6 a659 2c65 993f
00000070: c803 9ad4 a3e0 71bf 7974 85a5 2aff 90bf
00000080: f0a9 5aa4 e89e 94bf a09f e486 535c a5bf
00000090: d68d fcfb 81da a9bf 8f2d c285 93d0 75bf
000000a0: 1206 00f2 fc30 aebf e22e f0e1 673a 68bf
000000b0: 6568 82a0 7f68 833f 8a05 db7f 8c57 a03f
000000c0: dcf0 19f6 1e99 aebf 64a6 5f3e 153a 9fbf
000000d0: 014c db06 8afc 983f f30c 7468 0686 643f
000000e0: 6e45 069b 385f a4bf 6482 2629 e7a5 803f
000000f0: ea47 5bc5 e8b4 a03f 6d7e aff3 d3de 9bbf
00000100: f0c1 f53b f28b a0bf 2c77 a86d 0cdb a5bf
00000110: 2661 10e2 f51c 59bf 4685 1f87 cad0 aa3f
00000120: b9ee b017 6926 a7bf d5c8 2c78 2b85 a0bf
00000130: ee3d 349d 4260 b03f bdfd 291d 9b4d 7dbf
00000140: 1619 ebc4 47e9 94bf 1bf1 d856 ad19 90bf
00000150: f0da 77ae 294d a73f 749b 0480 e7a5 93bf
00000160: b3f5 19ac c125 b7bf 46a6 627d 9d50 b43f
00000170: e42a 4b9e dad2 a93f 7d5f 6bc0 c2c9 97bf
00000180: 763b 106e f414 a4bf 4699 1dc1 7e79 683f
00000190: 971c 9cc2 32b5 a0bf c9b5 0744 0bcf 2ebf
000001a0: b0a0 74bc 80b2 803f d81e 1e21 4a20 93bf
000001b0: 692e d40d 6271 a6bf 1f73 4e96 43ea a0bf
000001c0: c6b5 52d2 69ae a53f ac16 78e7 367b 93bf
000001d0: 29ea 1709 98a6 79bf 5c0f de4c 8a3d ab3f
000001e0: ae77 e404 c9ec a73f cb88 003c 6142 b0bf
000001f0: 80c6 fb0f 54a7 a13f a19d c87e c6bd a7bf
00000200: 6f9a 4e51 8ede b83f c0f6 4d54 13bc 813f
00000210: 89d5 9b1f 8935 b9bf 9613 afca 7018 ab3f
00000220: 8aff 4c5d 0474 b83f 3335 714b b9f5 a53f
00000230: 533b 12da 0e14 a4bf 3f6e ac06 19d4 8bbf
00000240: 05ee 08f6 114c a13f 8495 ba0f 8a5f a7bf
00000250: 3714 47be 06bb a93f adbd 8071 6db5 9cbf
00000260: 014d 9c5e 66e1 80bf 0312 68af 541a 9fbf
00000270: 9c40 33aa 4ae3 89bf 8bdb a1a8 1849 b63f
00000280: 7b83 9b20 c189 a13f cefb 8fdd 909b 913f
00000290: b7f2 8259 41bb 80bf 4620 7291 5911 ac3f
000002a0: 44b4 2c1d 0cad 913f ba34 36cb e93c a63f
000002b0: e39a 7d87 5464 97bf cd25 2a1b 8577 3abf
000002c0: 7981 8b9a 14cd 8c3f 717e 5b07 12d7 b53f
000002d0: a84e 326d 1be7 983f bec3 e02c b138 73bf
000002e0: aca5 d463 ab18 76bf 764d f546 f551 9b3f
000002f0: 839e 4eed 9e8e 963f dd81 ce65 80a0 99bf
00000300: 9f2a 1012 6559 58bf ebbc a22c c47e 80bf
00000310: c151 d6a1 d76e b9bf ee80 1743 4592 8bbf

bias f8 [1]
-0.012520650226226823
00000000: b86b f839 6da4 89bf
