WeakLossVectorExample/Models/F7_2_model.pt (torch, 86063 bytes, 6 tensors)

weight f8 [100, 1]
000000 9b ea 0d 19 7e c2 bf bf b4 d2 45 f9 95 6a ca 3f
       -0.12406147109678971 0.206377741542061
000010 c2 94 03 8d 68 8b d1 3f 72 02 3b 3a fb 23 f6 bf
       0.2741338135804875 -1.3837845110539573
000020 46 fb 6b d5 14 3e 8c 3f d8 6c 8b 2b 14 0f a5 3f
       0.01379028583823828 0.04113066703367857
000030 f1 73 38 25 8c cd 81 3f 4c 6e 3e 74 f7 c5 cf 3f
       0.00869283188426981 0.24822896171541442
000040 c0 dd 01 b7 60 be c8 bf bc 8e 86 e8 12 e9 d7 bf
       -0.19330986915495707 -0.3736006994970287
000050 40 5b 86 fe 3a 9c 91 bf 7d 2d bd 3c 7d 5a f0 bf
       -0.017197534356081734 -1.0220920918098664
000060 ee ef e7 bd 7f 46 d1 3f d7 01 4d ed 6e 80 f8 bf
       0.2699279169607952 -1.5313557881892075
000070 f5 01 c5 92 cc c7 af 3f 8b 48 c7 59 50 ca d2 bf
       0.06207122127171153 -0.29359825866152595
000080 12 6e 96 fa 22 bc d0 bf ec 60 30 b9 b8 0b dc bf
       -0.2614829489845941 -0.4382154282079813
000090 28 b2 7f 37 31 4b f0 bf 50 be 24 c6 ed 68 b6 bf
       -1.0183574836656906 -0.08753858649719715
0000a0 e0 a5 0f 27 c7 9b d3 bf af a8 5d f3 7b 78 f4 bf
       -0.30638293089449853 -1.2794150835493772
0000b0 02 57 5b 9c 57 83 e1 bf 42 19 92 87 99 f1 d8 bf
       -0.547282987007492 -0.38974607695890395
0000c0 b8 b3 34 23 4b da dc 3f ae a2 78 26 2a f5 be bf
       0.4508235782439516 -0.12092841567267484
0000d0 69 b4 3f 4f 33 43 5e bf 90 36 68 94 8d b3 f7 bf
       -0.0018470765180567345 -1.4813361928130782
0000e0 fa a8 7f db 7b 49 9b 3f 8e 71 96 3a 23 71 9b 3f
       0.026647506019721746 0.02679877324190865
0000f0 b4 8a 65 b4 83 80 e5 3f 9a aa ce c5 d4 e9 cd 3f
       0.6719378016826654 0.23369846018370738
000100 03 ce dc 6f e2 a9 e9 bf 98 21 2e 34 da 35 95 3f
       -0.8019878563704314 0.020713242945505778
000110 2a 31 7c ef 13 f7 e6 bf 30 53 ff e2 fd 27 a4 3f
       -0.7176608731693126 0.039367612800253915
000120 30 b0 b6 fe f2 23 e6 bf a6 ed e4 a0 34 55 d5 3f
       -0.6918883299708849 0.3333255358918116
000130 ff 62 36 b6 38 ee e6 3f 0c d1 a4 92 c7 86 ba bf
       0.7165797766529919 -0.10361907320185909
000140 50 91 f7 f9 f0 21 db bf d0 1f b5 55 31 53 ae 3f
       -0.42394661341520123 0.05922846003755888
000150 e0 dc ed 36 13 d2 c6 bf b0 04 4a 6b cc d3 c7 bf
       -0.17828598196113088 -0.18615107763983962
000160 ec ce 73 44 a5 8b 37 3f 9d 3e 7e a2 c2 fa 89 bf
       0.0003592756733745556 -0.01268531855001181
000170 00 dd 26 bc 99 04 65 3f 2e 3c db d4 b9 6c e7 bf
       0.002565670264825237 -0.7320222051001843
000180 86 fe 5e 05 e7 2e e1 bf e3 9d 8d ca 3d 0b ac bf
       -0.5369753937629447 -0.05477326486180425
000190 da 79 1f 4f 17 37 11 c0 04 0a 8a e0 b8 c4 13 c0
       -4.303799854560987 -4.942111500191917
0001a0 f2 02 b2 e4 59 18 e5 bf fd 46 b8 c1 3c 1a e2 3f
       -0.6592225519853783 0.5657027991857998
0001b0 4f 0a a7 fa 7b 48 d8 bf 61 55 58 1f f0 cb ce bf
       -0.3794240901735621 -0.24059869318504482
0001c0 18 2e aa 75 67 cd b3 3f 4e dd 5d 0a fb 0a e7 bf
       0.07735296843218753 -0.7200904085611144
0001d0 88 79 04 f9 80 3c 02 c0 57 e5 1c fd f8 91 8e 3f
       -2.2795428709498005 0.014926858162300034
0001e0 d6 5f c6 48 4c 92 f7 bf e6 53 d6 16 40 44 86 3f
       -1.4732172816056752 0.010872364708839965
0001f0 18 1b bf d9 bc 03 cc bf e5 5b 95 41 db 36 75 bf
       -0.21886406547692938 -0.005179268331025865
000200 a0 6a c7 45 cb 3e c4 bf 20 ef 7f 42 94 81 94 3f
       -0.15816632182289414 0.020025555189916777
000210 ab 7b 5b e8 93 53 ec bf 12 8a 72 4e 6b 01 d4 bf
       -0.8852023637990575 -0.31258661900406637
000220 6d 18 71 f1 25 5c e9 bf 0b 44 27 eb 2b 8b e9 3f
       -0.7924985614452119 0.798238715442609
000230 f2 e0 bb e6 48 43 d5 3f 8a 87 d2 98 c4 88 e4 bf
       0.3322317364941362 -0.6416953072368738
000240 fb 06 f2 52 d6 d9 f6 bf 34 8e 4d 1a 78 a7 d3 bf
       -1.4281829109244757 -0.3070965058197743
000250 be 3e e6 5d 76 4f 72 bf d7 73 0e 2f a3 f7 ed bf
       -0.004470312471667346 -0.9364791792937649
000260 d0 e9 b8 dc 45 ec ab 3f 10 8f 77 f3 da 9a c3 bf
       0.0545369941650794 -0.15316330802954115
000270 76 dc 7a 4b 60 2d 04 c0 4a 0b 15 df 9f 59 83 3f
       -2.5221563240880256 0.009448288913181852
000280 07 87 e9 32 e8 94 c9 bf a3 74 d9 a9 b8 5f d0 bf
       -0.1998567818255241 -0.2558423670469187
000290 d0 8c 04 05 54 e7 d1 bf e2 a0 4a 18 07 59 77 bf
       -0.2797441529275604 -0.005700137819680347
0002a0 93 b2 dc 19 47 04 a7 bf e5 55 57 33 e8 b1 e0 3f
       -0.0449545115537592 0.5217171671635553
0002b0 84 d3 44 aa c0 5b e5 bf d8 f8 fc 8e b3 8e db bf
       -0.6674502683223271 -0.4305848022812717
0002c0 b6 a5 b6 61 c5 d2 e1 bf 95 ed de d3 54 72 f8 bf
       -0.5569788845506796 -1.5279129291728613
0002d0 c9 5c a7 04 12 c0 ed bf ff ea ad 36 70 94 d6 bf
       -0.9296960917371503 -0.35280995692998823
0002e0 db b4 06 66 71 29 d4 bf 3f 95 68 e9 8c 0d 6a bf
       -0.31502947772498907 -0.0031802894766480845
0002f0 94 15 ce dd 59 39 d7 bf 1a d2 92 68 af 57 e1 bf
       -0.3628754297318093 -0.5419537584735423
000300 8c 3c 60 f0 06 f0 73 3f bf 94 b5 c6 00 cb 54 bf
       0.004867579560609358 -0.0012691028194578428
000310 a4 ec 86 47 51 07 d1 3f 5c ce a1 01 06 78 e8 3f
       0.26607162461341205 0.7646513015628886

bias f8 [100]
000000 e2 86 9f 86 d0 24 aa bf 2c 81 7a 4a 4c 13 e6 bf
       -0.051062122758379194 -0.6898557142886026
000010 73 54 6d 46 7e f3 d3 bf b5 2a ec 51 1d 0a d3 3f
       -0.3117366493000368 0.2974923419975924
000020 74 c4 05 63 8a 00 b1 bf cc 7a 3c 45 e1 44 c2 bf
       -0.06641449849645814 -0.14272704964328964
000030 fc c2 99 6c 5d e8 9e bf 55 06 36 49 3f 71 ec bf
       -0.03018327689500476 -0.8888241224196444
000040 54 5c f3 8d d3 54 d2 bf fe c7 67 83 b9 06 e4 bf
       -0.28642739164701436 -0.6258208815108899
000050 58 93 ea 6f be 42 c1 bf 48 8f 82 62 e1 87 e6 3f
       -0.134849362036358 0.7040869640372671
000060 0c b0 fe 5e 0a a5 d3 bf a4 51 b8 b0 8c fd dc 3f
       -0.3069482734379114 0.45297543771564563
000070 68 3f 80 be 4e 70 a0 3f 8f a8 b3 61 42 79 e3 3f
       0.03210683894587768 0.608552161048708
000080 e8 00 c6 cc 52 2f 46 3f 86 12 37 41 93 7b 50 3f
       0.000677028112065184 0.0010060251268992084
000090 07 a5 9d a1 81 1e d4 3f f8 85 9a 1d 50 eb ec bf
       0.31436196120064647 -0.9037247255511707
0000a0 32 ed f4 be c3 9a e6 3f f4 ae 51 85 4e 11 e6 3f
       0.7063921670555031 0.6896126369369697
0000b0 9c 45 30 a9 b3 f0 d7 bf fe 8c ec 6c dc 08 f1 3f
       -0.3740662719947865 1.064663339123228
0000c0 08 65 7d e1 f6 63 e0 bf 55 ac 89 c5 56 a8 35 3f
       -0.5122026828859427 0.00033046835372968947
0000d0 a2 c3 8f 66 2e 20 c7 bf 52 09 ee 15 f5 59 d3 3f
       -0.18066959388627618 0.30236556188187536
0000e0 86 3a 17 f3 8d a4 c9 bf 64 09 29 c4 f0 c5 ba bf
       -0.20033430452027207 -0.1045828322321874
0000f0 b1 b8 c6 1a 1a 1b f1 bf 2c 3a 22 fb db 98 c4 bf
       -1.069116692156552 -0.1609148956526537
000100 c0 66 1e 50 c7 06 b7 bf 35 fc 68 a7 83 b4 b3 bf
       -0.08994718271278668 -0.07697317921791653
000110 ec 0b 97 e1 b5 05 e9 bf 0c 15 06 d2 44 31 de bf
       -0.7819470792823018 -0.47175713071949654
000120 20 35 d0 45 02 8a bb bf 37 ee 32 ad d7 3f d8 bf
       -0.1075745983545926 -0.3788966361423464
000130 32 b3 06 63 4c 77 e1 bf 61 b9 1d c9 ce 0c 63 bf
       -0.545812791262142 -0.0023254431516114703
000140 30 15 5c 99 80 c2 d3 bf bc 1a 96 a5 9d 33 eb bf
       -0.30874648071797406 -0.850050757799941
000150 d8 18 5f 20 f7 47 d0 bf 8e 60 93 6b f6 fa e3 bf
       -0.2543924156310715 -0.624385080441259
000160 4e 6f a2 a6 91 49 c2 bf 25 99 e3 7e 4c 2e b1 bf
       -0.1428701461453507 -0.0671127137935384
000170 26 33 54 69 94 2e e5 bf 54 3b e0 0e 1b d1 e2 bf
       -0.6619360024647889 -0.5880255976243043
000180 56 be a0 88 f2 cb e6 bf 3f 06 01 f4 e2 5b 25 3f
       -0.7123959225190883 0.00016295571731643647
000190 c1 35 1e 77 f5 ef dc 3f 3d 16 39 11 d2 46 d0 3f
       0.4521459258329195 0.2543225448792759
0001a0 d3 89 4c 2d e5 fb 40 bf 29 49 a2 e2 a4 7d e1 bf
       -0.0005183095005104006 -0.5465874124950335
0001b0 e0 f3 b7 2a dd af 70 bf a0 fb 00 b3 f2 f2 24 3f
       -0.00407396691616399 0.0001598283065522262
0001c0 12 21 ff 8b cf eb ea bf 50 37 eb 2b e0 7b cd bf
       -0.8412854894932329 -0.23034288544152526
0001d0 72 b7 dd 00 50 d3 d9 3f 53 40 ed a2 a3 79 ab bf
       0.40352249226167836 -0.053662408484001965
0001e0 5a 06 e3 e6 0d 3c d5 3f 7e 3b 99 67 a7 3f a2 bf
       0.33179042384663193 -0.03564189090376767
0001f0 18 ad ec 2c 28 aa c2 bf ef 3a 75 d9 10 28 b0 bf
       -0.14581777757244008 -0.06311135586768633
000200 c0 24 50 b1 e9 d7 90 bf 20 d8 cc 17 91 0d dd bf
       -0.016448642203646058 -0.45395304989085794
000210 56 3f ee 54 70 28 e7 bf f3 d9 59 02 a7 af 84 bf
       -0.7236863764573893 -0.010100655326124452
000220 c8 4e 7d a7 4b f4 d0 bf af 5d 0d e9 05 87 e3 bf
       -0.2649106155051695 -0.6102323104668609
000230 a0 1b c1 b8 4a b5 f0 bf 70 30 46 be 15 1e b0 bf
       -1.044260713287919 -0.06295905967107429
000240 d4 de 43 04 7d 74 df 3f c4 20 43 e7 f3 28 e5 bf
       0.49148488441958915 -0.6612491146888932
000250 fb 0f 29 98 c9 5a bf bf ac f9 95 0c 73 90 de bf
       -0.12247905697682875 -0.47756649235807447
000260 b2 62 64 a6 8d 2d e5 bf ca d5 ae 2c d5 7c ed bf
       -0.6618107080313023 -0.9214883682931767
000270 8e 38 20 29 ad 92 d6 3f 14 f1 04 be 4c c6 a2 bf
       0.35270241752812914 -0.03666915721484734
000280 a3 06 80 73 cd 56 65 bf 68 4a 2d aa 95 9f d2 3f
       -0.0026048672407349024 0.29099027270164024
000290 37 77 f7 48 c2 ec 43 3f be 07 2e 61 19 a1 96 bf
       0.0006080578477243086 -0.022098919445404645
0002a0 c2 4a f7 39 93 b9 21 3f 1b 91 1e b0 45 09 dd bf
       0.00013523027608516007 -0.4536909313121826
0002b0 20 e5 86 79 d3 92 a6 bf 40 3f 4b 4d f3 85 ef bf
       -0.0440889440391834 -0.9851013669631143
0002c0 ac b0 3f d8 71 20 dc bf ab 56 e5 2f 73 6c e3 3f
       -0.4394802676968179 0.6069885192361729
0002d0 fa dd 10 94 53 62 ec bf 05 2d 65 d1 5f e6 83 bf
       -0.8870027439033372 -0.009716747834906512
0002e0 2a c6 04 d4 0f 6c e9 3f 4d 93 2f 9c d8 6f a7 bf
       0.7944411412228807 -0.04577519327702948
0002f0 f9 43 cb 71 16 10 f1 3f b3 d1 a6 cc d2 e6 99 bf
       1.0664276547506673 -0.025294584027237565
000300 44 f2 95 2b b9 43 b9 bf 38 a9 13 00 49 a6 a5 bf
       -0.09868962587456404 -0.042284280070662594
000310 74 69 1c ab 67 5f d3 bf 7d 78 6a b2 a5 40 e4 bf
       -0.3026980563169197 -0.6328915104566161

weight f8 [100, 100]
000000 00 a6 78 77 d8 aa 26 3f 8b 1e 1c 70 2c 4a b9 bf
       0.00017293827453217225 -0.09878804909760157
000010 f2 62 88 bd 7d ac ad 3f 5c 8b 21 9f a6 52 b1 bf
       0.05795662821419069 -0.06766740212473848
000020 60 c4 0b e5 fb 40 a0 bf 36 41 fc f4 60 b3 a8 bf
       -0.03174578829737906 -0.048243551164093665
000030 d8 d1 30 8e 36 f9 94 bf 98 d1 43 e3 3b 43 b2 bf
       -0.020481922558433258 -0.07133840845546613
000040 04 6b 81 9f c8 0d b4 bf 38 7c ac 21 ce ff 90 bf
       -0.07833532232454493 -0.01660081940201172
000050 81 21 ef 54 c2 3c b1 3f e8 7a c5 00 33 f4 8e bf
       0.06733336042009876 -0.015114210568467581
000060 76 a5 59 3d 1b ab ac bf be b6 0f 6f b6 74 a8 3f
       -0.05599293826964928 0.04776544671754611
000070 98 da 1e dd bd 4d 8f bf 5c 02 27 cb f5 bd 9b 3f
       -0.015284999189913592 0.027091827892720452
000080 00 d8 87 1c 8d 19 7e 3f 30 c5 8a 5e b5 d8 7b bf
       0.007348586289017689 -0.006798466180655979
000090 b2 58 56 32 c2 d9 a2 3f 38 08 fd 52 0d 2a 9e bf
       0.03681761612385638 -0.029457290830812805
0000a0 8c 6d bc d4 e8 31 ad bf a3 6c 45 0a d1 8d ac bf
       -0.05702140423656052 -0.05576947451000904
0000b0 de b6 35 5b 27 c4 ac 3f e4 50 07 0d 7a c5 95 bf
       0.05618403423691885 -0.021261126561356827
0000c0 e4 8b c5 48 ea 27 9b 3f 5f 16 b1 5e 2c 4b b9 3f
       0.026519451800947183 0.09880330383119816
0000d0 f6 5f 19 2c 49 5d b4 bf 24 c4 f3 96 26 26 97 3f
       -0.07954842878950771 0.022606471026794264
0000e0 29 1f da 54 14 e3 b6 bf e8 33 ea 65 2e ba 81 3f
       -0.08940245696623762 0.00865589378852323
0000f0 e3 6e b0 fd 5b 59 b1 bf 8a bd ea 41 74 e7 a8 3f
       -0.06776976531585492 0.04864085487985921
000100 82 4c 7c 2d 5b d0 a9 3f 9b 85 86 77 38 cd b4 bf
       0.05041775636905134 -0.08125641744711347
000110 5b cf 3d cb 4c 86 b8 3f 6c b0 76 03 d2 64 b1 bf
       0.09579925500821444 -0.06794464668809191
000120 9c 61 d5 21 aa 4c 9c 3f f4 26 99 2f 7a 81 b5 bf
       0.02763620215896055 -0.08400691663805643
000130 a7 b0 dc 30 80 25 b8 bf de 28 58 1b b4 4e ae 3f
       -0.09432221596643107 0.059194210374771336
000140 f1 77 04 da 01 9c b4 3f 81 44 81 eb a2 29 b7 3f
       0.08050548145953919 0.09047907113678556
000150 f3 89 d1 24 73 a7 b0 bf 20 ab 1d cc 24 65 91 3f
       -0.06505508088006433 0.016987395246739756
000160 b9 ca 3f 18 a3 cb a8 bf d4 8b 67 28 eb 41 b0 bf
       -0.04842862769136986 -0.06350583778798519
000170 90 4d 77 2c 3c 29 87 3f 3e 82 39 fe 19 5b aa 3f
       0.011309118372912846 0.05147629955604714
000180 a5 8e e8 8a d5 7d b9 3f 58 90 f5 cf 5b b7 88 bf
       0.09957632676428803 -0.012068478855049289
000190 5e 2b e7 6c 69 e6 b6 bf f9 8b 93 28 a0 4d ae bf
       -0.08945330532803328 -0.059185986474197656
0001a0 9b b8 c5 d1 e6 90 b2 3f 98 6b 42 b9 72 06 80 bf
       0.07252352353472917 -0.007824798849744671
0001b0 30 fc 2c 2d ce 7e 8c bf 14 ff 0b 2f 41 6c 97 bf
       -0.013913737062123926 -0.02287389611865283
0001c0 2f 3e 68 f7 ae d6 aa bf 06 b4 83 ef 6e 7c a5 3f
       -0.052419154835771635 0.04196497606049125
0001d0 82 1c ef 6b e2 e9 aa 3f 06 0e 99 b3 10 a7 a3 3f
       0.05256564681581556 0.038383981631820815
0001e0 e9 fa 3a 84 54 1d b2 bf f6 5f a5 23 90 ed a8 bf
       -0.0707600424602607 -0.048687462188070116
0001f0 09 bd 75 88 9c 36 b7 bf c0 d0 5b 82 71 36 53 3f
       -0.09067705470600997 0.0011726482857144366
000200 58 3c 00 ae 02 d3 83 bf f3 10 a9 2a 53 db a9 bf
       -0.009679814276777929 -0.050501440961427856
000210 79 0b 0f 5d 93 a9 ae bf e8 b4 cf f5 fd d2 8c 3f
       -0.05988750945063876 0.014074310363833623
000220 7c 00 33 99 1f 77 b3 bf a4 c0 8d a0 b9 08 b7 bf
       -0.07603642931189997 -0.08997688455360958
000230 d4 4b 35 de de 21 9e bf 5c 37 57 02 10 3e b4 bf
       -0.029426081001769536 -0.07907199914117541
000240 13 7c d7 9a 42 ed b2 bf 90 3e 90 bc 4e 50 85 3f
       -0.07393280296626896 0.010407080773830374
000250 00 b8 f3 92 22 84 67 bf 9e 06 73 36 87 85 a7 3f
       -0.0028706240915346015 0.04594061412491367
000260 e6 37 19 ba 37 0d ab 3f d8 91 c8 18 f5 69 92 bf
       0.05283521792135541 -0.01798232043997125
000270 30 3a 1c de 49 f2 a0 bf 09 73 81 64 87 da b4 bf
       -0.033098514903134535 -0.08145948604346755
000280 ce 8d 3d cb c8 85 a5 3f a9 40 58 5b 2c b8 a5 bf
       0.042036318597435604 -0.04242075552986197
000290 3c 7b d7 d0 a0 9c 99 3f d4 7a 84 37 ff 78 91 3f
       0.02501155161541678 0.0170631291995232
0002a0 c4 de 55 8d 65 81 9d bf a2 ca 70 46 f5 f9 ad 3f
       -0.02881392169135101 0.058547654007630415
0002b0 70 57 b2 2b 2c 72 8d bf d4 27 7a f2 63 86 9f 3f
       -0.014377923091426686 0.030786096262580845
0002c0 87 92 3f 33 e8 51 b8 3f 20 d3 ee de 10 4e 7f 3f
       0.09499980212383195 0.0076428088204252564
0002d0 7d 37 4c 3c 95 2e b8 3f 19 6e ea 13 da fc b0 3f
       0.09446079942810388 0.06635821329330617
0002e0 d8 50 d3 8f 08 44 b6 bf 2b ba d1 9f 49 05 b7 bf
       -0.08697560798038084 -0.08992443229519924
0002f0 90 30 4d b5 8f e9 8c bf 58 e7 ea 77 03 a1 87 3f
       -0.014117357941039438 0.011537577721685885
000300 3e ac 61 c8 05 70 a7 3f 05 3f 09 cc bf 4b b8 3f
       0.04577653952659276 0.09490584117270025
000310 19 9e 93 74 fb e5 b4 3f 5e 02 c3 82 8b fc a6 3f
       0.08163425060376318 0.044895515167358666
000320 9e e8 37 5f 5c 34 d2 bf c0 46 9b 92 5b ba 55 3f
       -0.28444585131331646 0.0013261694206686964
000330 4a c2 58 37 ab 74 c5 bf 04 b3 bf f5 65 b5 ca bf
       -0.16762294962383556 -0.20866083621458398
000340 21 85 54 14 23 99 d4 bf d1 ba 41 88 1b a7 b8 3f
       -0.32184674249045214 0.09629985882359483
000350 a6 a9 7f 93 13 24 d3 bf 06 59 77 4f 63 0b a7 3f
       -0.29907693294685556 0.04500875802084363
000360 2e 5e f1 cc bb b1 a5 3f 6a ef ad 5a f4 1b a0 3f
       0.04237162472480481 0.03146327597548189
000370 d6 7a 4e b1 bb c3 b2 bf 6d 3e 7c b8 ba 8c d7 3f
       -0.07329915121816141 0.3679644395460631
000380 96 39 b8 80 46 af d2 bf 14 e4 8e 59 a8 9b c0 3f
       -0.2919479615237831 0.1297502934737912
000390 69 fa a4 85 61 fa d5 bf 88 51 1a 68 76 dc d1 bf
       -0.34340704013076234 -0.2790809647206278
0003a0 ec 51 7f 3c f9 80 d4 3f 78 bb 91 bb 7e fc d0 3f
       0.32037192256873825 0.26541107480345927
0003b0 b9 02 a2 2b ca 96 d3 3f 8d fa 0a e5 8c 85 b4 3f
       0.3060784746267405 0.08016281692378353
0003c0 fb ba 97 f9 bf 96 d2 bf c4 cd 4b e7 70 cd c9 3f
       -0.29045104383742143 0.2015820626616983
0003d0 7f f4 fa ce 0f 13 b7 3f 40 75 02 01 15 b9 c5 bf
       0.09013460925321402 -0.16971075581833794
0003e0 76 e7 78 ce cb d5 d4 bf f6 d6 0e a0 ef 80 c3 bf
       -0.3255490795451047 -0.15237231555300185
0003f0 5c 60 57 a0 4f 3b b8 bf ad 70 81 d8 78 cf a1 3f
       -0.09465501465399612 0.03478601115122735
000400 5d aa b2 41 b8 8d d0 bf f5 f3 85 e7 80 60 d2 bf
       -0.2586498872357533 -0.28714010820095776
000410 e9 d4 0f 02 8a fb cd bf 62 ca 67 c4 08 d3 ca bf
       -0.23423886395145324 -0.20956525411709764
000420 58 03 65 25 b7 b8 b3 bf 55 c4 56 3f 28 f3 cc bf
       -0.07703728354409856 -0.22617056935044624
000430 26 2b c0 7c 4b 91 af 3f 30 cc 18 50 6b ae 7d bf
       0.06165538690409837 -0.007246417227679422
000440 41 ce db 84 53 e7 b6 3f ad 42 f8 61 7f 9f c8 bf
       0.08946725839251092 -0.19236748012237595
000450 7f f5 7e c5 80 6c c9 bf b4 81 31 5d 80 8f 9f 3f
       -0.19862374919277312 0.030820851982186162
000460 87 38 92 ce aa f5 b7 3f 4e 03 24 e2 64 3c b1 bf
       0.09359233420602396 -0.06732779046070655
000470 34 6f d2 bd 3d b7 92 3f f6 9d 18 28 2a 6f af 3f
       0.018277134619537352 0.06139499415831644
000480 fd 0b b4 50 c6 99 d0 bf fe 2b 3e 86 c3 8d d2 bf
       -0.2593856609457246 -0.28990257367757966
000490 ff 8a 2e 66 0c b6 b0 3f 8c e8 d6 c6 60 37 91 3f
       0.06527783865616853 0.016812812935065355
0004a0 f4 69 a4 98 bf 82 9d 3f 3a ca ee 25 b3 a0 d1 bf
       0.028819078151267122 -0.2754333372533072
0004b0 59 4f c0 c1 fd 11 d3 3f 6d 0f c1 9e bf 34 d3 3f
       0.2979730980016391 0.3000945139249243
0004c0 25 eb d0 e2 09 0f d6 3f 4b 4c ae 5e fb 70 d4 bf
       0.344667884349905 -0.319395868741769
0004d0 7f ec 48 6a bd a6 ce bf 4c 5b 25 3b 5c a8 d3 3f
       -0.2394634980172192 0.30715089584321187
0004e0 a0 ac 6a 24 7a f5 b5 bf 78 52 10 df 2e 21 98 3f
       -0.085776933565898 0.02356408344720015
0004f0 39 d5 a5 7c b2 74 ca 3f 95 0e 48 92 b4 9a d0 bf
       0.20668631635968795 -0.2594424656419759
000500 be f9 07 46 35 41 c3 bf f8 d0 62 e5 79 28 cc bf
       -0.15042749328126875 -0.2199852342652162
000510 2e a4 ef c7 07 41 a4 3f b5 70 e1 e5 9d 2f d0 bf
       0.039558642536413266 -0.2529062981536854
000520 d0 57 f1 97 3c 0b ca bf be 35 d5 53 21 78 a5 3f
       -0.20346791667060282 0.04193214557981716
000530 0e e5 dc 9c 2a ed a3 3f a5 c7 85 2d ba e6 bb 3f
       0.03891881146268804 0.10898936854735426
000540 45 85 00 82 23 b2 b0 3f fc 91 c5 86 d4 67 d4 bf
       0.06521818088414928 -0.3188372913485009
000550 7e c0 95 03 3c 32 a5 3f 70 80 38 c3 cb af b6 bf
       0.04139888328325102 -0.08861993328219042
000560 5a 4e 41 97 10 ef b3 bf 8e c5 2e b6 85 7c a1 3f
       -0.07786658947707661 0.03415315483961044
000570 3e 32 5e e0 0f 1d d6 bf 8d 0c ef f5 91 82 b5 3f
       -0.34552380476887723 0.08402359251253895
000580 9e 6e 07 d4 f1 3b af 3f 4c 3a ce 8c cd 89 a4 bf
       0.06100421632046714 -0.040113852918797294
000590 fa 11 f5 75 6c 81 b1 bf e6 bc c2 fd 16 56 cb bf
       -0.06838109855477362 -0.21356475248965195
0005a0 5e 33 61 29 00 17 cf 3f 3b f3 f1 d1 1b 7f dd 3f
       0.24288942356579474 0.46088309767201324
0005b0 7a 3d dd 76 4a 40 b2 3f 00 3e bc 77 34 50 7e bf
       0.07129350091894607 -0.007400708152786262
0005c0 64 40 45 aa 62 a5 9d bf 34 bd 59 9a 3c 63 d6 bf
       -0.02895120777367345 -0.34980692933364144
0005d0 03 65 8f df 26 94 b9 3f 42 bb 4e e8 dd 17 a0 3f
       0.09991686780940161 0.031432089431624025
0005e0 3c 7d 8b 5e 7b 68 b4 bf 1a 69 b1 c6 0f 2d ce bf
       -0.07971926744675256 -0.23575017167861106
0005f0 a9 c7 ef 58 30 18 b5 bf 29 40 39 e8 91 8f ca 3f
       -0.08240034266762443 0.2075064071564168
000600 ea 34 47 56 62 9a ce bf 4d 0b 3c 1f 23 5d d4 bf
       -0.2390864297180209 -0.3181846432709577
000610 de b4 8f 45 b7 0f ca bf d4 93 f6 38 2f a8 7d bf
       -0.20360461136389224 -0.007240471327723836
000620 71 0c d1 cc b0 94 d3 bf 3b e9 ec 83 04 dc d1 bf
       -0.30595035554524147 -0.2790538109144511
000630 aa 03 95 6d d7 33 d4 bf a3 08 a4 bc 5f 9a d0 bf
       -0.3156641550195284 -0.25942223951290994
000640 38 b5 ae 12 ab 79 a5 3f dc 5f 68 f2 6c 47 b2 bf
       0.04194388011033329 -0.07140236776501702
000650 f9 1a 8e 8f 36 5a bf 3f 58 ac 56 23 4e 08 bf bf
       0.12247029309046899 -0.12122047770269384
000660 57 9d 71 08 68 98 a3 bf f6 5f 3e 0c 0b ff 9b bf
       -0.03827214339326684 -0.027340099928181837
000670 6f 52 62 48 d3 4a b3 bf fa dd ad 30 9a 7a c0 bf
       -0.0753604938239023 -0.12874152542984502
000680 f3 4d d8 a6 e3 49 b6 3f 30 2b 11 9c fa a0 7b bf
       0.08706496070254115 -0.006745318359274319
000690 ba d1 11 59 36 e8 ab 3f 32 85 29 55 4e 5e c3 bf
       0.05450601422572583 -0.15131549032506936
0006a0 63 0a 3b b1 ff 13 af 3f ea 78 ce 6c b2 23 a3 bf
       0.06069945372066312 -0.03738172128872626
0006b0 de aa c3 b7 2b f5 a9 bf c5 5f ab 4e ab e0 a1 3f
       -0.05069862955300207 0.034917214730455316
0006c0 ee 57 b7 0f 5b ba b4 3f 10 3b 7d 9b 36 e4 b1 bf
       0.08096856244750913 -0.06988850875971431
0006d0 0d 8e dc e5 b5 d2 ba bf 64 fd ea 7b 42 25 9e 3f
       -0.10477768766264024 0.029439009488439707
0006e0 1b b2 90 6b 6a f9 aa bf 4b 71 05 9c 81 a3 bd bf
       -0.05268414080669378 -0.1157761579428939
0006f0 29 81 00 12 ee cd a7 bf cf fb 28 0e 7d 50 90 bf
       -0.04649299592733975 -0.01593203925062508
000700 d9 63 71 f6 81 77 c5 bf 3c d8 9c 59 1a 8d b1 bf
       -0.167709584554159 -0.06855930984315334
000710 ef ce de 9b 15 e9 91 bf 69 a1 16 46 16 2d 87 bf
       -0.017490708960123887 -0.011316465391090618
000720 71 36 2c 37 cf e7 93 3f e0 ea c4 b6 99 36 a9 bf
       0.019438970320200647 -0.04924469333714909
000730 bb 51 de 9c d4 16 4b bf fc 2a ed b8 35 ff b3 3f
       -0.0008266962192800467 0.07811294331365198
000740 3f 2a 2f 54 af 86 a6 bf dc 3f bd 3c a0 5d b6 3f
       -0.04399631407394055 0.08736611826793655
000750 8e 3a 99 13 4e 35 a1 3f 20 13 30 c4 41 db 9c bf
       0.033609809772873964 -0.028180148696281937
000760 17 5b f9 32 20 96 b2 3f 42 5f 3d 75 9d fa ac 3f
       0.07260323757632779 0.05659954124592882
000770 3f f5 3b fb 6c f3 50 bf e8 22 cb 78 36 52 71 bf
       -0.001034599711544473 -0.004228794842398222
000780 88 ba 87 f0 1f e9 b3 bf f5 d6 79 c3 14 66 b9 3f
       -0.07777595159834949 0.09921388409005856
000790 59 4a c8 19 a8 f8 a7 bf 93 61 36 2b bf 42 b7 bf
       -0.04681897463537572 -0.09086222462645414
0007a0 84 bb 99 b7 cd 7a a0 bf 3f 04 50 66 62 dc a3 3f
       -0.03218691698281531 0.03879077433521915
0007b0 8e f1 46 be f9 3d a4 3f b9 81 36 5a b9 54 b1 bf
       0.039535335995853335 -0.06769903614486496
0007c0 91 aa f0 a4 0a ce b6 bf b7 39 91 52 90 1a ae 3f
       -0.08908144499643302 0.058796415404333606
0007d0 b5 8f 3c ce db 9b c6 bf 1e 51 ae db 7f ed 94 bf
       -0.17663142748017227 -0.02043723848653755
0007e0 43 ee 82 bc cc 01 42 3f 56 f1 87 1a 2b 42 bf bf
       0.0005495309533424881 -0.12210339925508626
0007f0 ba 5a 63 80 de b3 91 3f 56 92 13 93 4d 18 6d bf
       0.01728770884150308 -0.003551627648095394

bias f8 [100]
000000 94 4a 98 53 65 f0 a4 3f 5d 84 fb 5e 58 55 c7 bf
       0.040896574453786944 -0.1822920287877733
000010 d8 27 36 e8 67 2e a9 3f 8d c0 1f 88 a3 5d a2 bf
       0.04918217382062523 -0.03587065731687842
000020 63 a0 52 17 58 05 b2 bf b0 5f 2d 13 1f 3f ab bf
       -0.07039404458430591 -0.05321595295998749
000030 ce 2e 0b 8a bd 45 c1 bf be b8 e8 cc 24 5a 90 3f
       -0.1349408077279492 0.01596887112298683
000040 a5 0a 68 a6 8f 43 57 bf ab b3 19 70 01 5d c1 3f
       -0.0014199164230609765 0.13565080617573008
000050 b3 19 0e 68 8b b9 c7 bf 79 3e c5 c6 54 46 d7 bf
       -0.1853498704987949 -0.3636676732175839
000060 3c c1 6d 09 aa a7 db bf 64 b0 bf 49 9f 23 ef bf
       -0.43210841103338615 -0.9730984154134714
000070 95 3d 4f f0 14 62 c1 bf c6 c3 a6 b2 6e be 53 3f
       -0.1358057187448877 0.0012050705941926017
000080 41 e2 c1 e5 c4 c3 d7 bf 10 25 9e 80 b2 89 c6 bf
       -0.37132379948846866 -0.17607718734897349
000090 e8 31 55 2a 86 34 b6 bf f0 ad fb ff 06 0b aa bf
       -0.08673895391002129 -0.0508653819541357
0000a0 5f b9 f5 2c 59 57 dd 3f 20 4e d9 b9 3d cd d1 bf
       0.4584563197194224 -0.2781519236498031
0000b0 50 7d 05 11 c7 c2 86 3f c1 a3 81 25 d7 9d d1 bf
       0.011113696295693615 -0.27525881445631845
0000c0 71 59 b4 00 f2 72 ca bf 47 bc 30 17 a6 6f aa 3f
       -0.2066328528823749 0.05163306267819983
0000d0 49 4d e8 2d 5e 7b c0 bf 66 ed 5d 85 57 a0 b5 bf
       -0.1287648891599054 -0.08447787290599748
0000e0 3a 0b 72 c7 60 4a 9f 3f 96 3c a2 be 64 2c ad bf
       0.03055716721838595 -0.05697932078430161
0000f0 d4 60 23 23 e2 63 9f 3f ef b3 85 fd 03 24 c9 bf
       0.030654462237038896 -0.19641160849587844
000100 4e ba 22 bf cd 35 c8 bf d3 12 f8 9c cd 0e cc bf
       -0.1891419585494582 -0.21920175709251186
000110 90 4d 97 79 68 5b b6 bf 33 f9 28 b9 0b e5 90 3f
       -0.08733227699786128 0.016498740364334807
000120 3c be 17 9c e0 f3 bd bf 55 a4 eb 20 de 8d 91 bf
       -0.11700252352579182 -0.01714274478846208
000130 00 d3 21 b2 78 f2 60 bf ea c9 88 23 69 e0 d0 bf
       -0.0020687444057848614 -0.26369694204473026
000140 78 da 9c 96 0a 2c d7 bf 6a 50 24 82 a8 f7 bd bf
       -0.36206307132980653 -0.11706021477977094
000150 fa b7 9d 7c b6 e9 c8 bf 0c 2a cc 2e bf ea ce bf
       -0.19463234982271144 -0.24153890404734601
000160 d1 61 5b ab 58 38 d4 bf 0d 12 55 24 05 06 b6 bf
       -0.3159391091735673 -0.08602935921687323
000170 1f 61 d1 65 db 4c b7 bf 52 c1 2b b9 8d a5 b5 bf
       -0.09101649509228026 -0.08455739756368999
000180 f8 bc 16 7f 4c b1 a3 bf 38 00 6a 58 5a 6d d5 bf
       -0.038462057603618705 -0.33479937204538457
000190 11 99 05 72 b6 4b a2 bf 47 41 92 5e 01 09 93 bf
       -0.035733891886410636 -0.01858904018132648
0001a0 d9 b8 99 49 68 b3 c8 bf 3f 2a 5d b7 1c b0 d2 bf
       -0.19297507852338106 -0.2919990339911784
0001b0 e7 94 fe 05 f7 9e b3 bf 70 df 4c 42 f1 3b b6 bf
       -0.0766443624148284 -0.08685214871081626
0001c0 e9 cd cb 60 ce 87 d3 bf 5e a9 cd 90 22 30 97 3f
       -0.30516395046944794 0.022644558036895794
0001d0 d2 15 cf 88 09 59 bb bf ec 05 ac a2 58 99 c3 bf
       -0.10682735052167594 -0.15311725562064227
0001e0 96 3a e2 3e 15 4d bb bf fe 9e 73 51 dc 2d d0 bf
       -0.10664494309660663 -0.25279910997640787
0001f0 d1 5b 2b 8d b1 b6 a4 bf 76 7c f6 4f 42 6b ca bf
       -0.040456341250027734 -0.2063982859080828
000200 32 47 bb 9a 86 89 b4 3f 57 71 6c f8 10 47 62 bf
       0.08022347715020997 -0.0022311526730744258
000210 f4 42 dd b8 ae 98 bd bf ec 02 61 2e d5 6a c2 bf
       -0.11561100018776554 -0.14388527645680627
000220 44 99 87 2b 6e 51 c3 bf 92 b7 21 83 3c 1f c9 3f
       -0.15092255712006353 0.19626575854220768
000230 00 f4 1e a7 1d ce b4 bf 83 de 85 8c 18 f3 d0 bf
       -0.08127007799244268 -0.26483739588682215
000240 16 41 ae be de e6 a5 bf 75 69 68 cb eb 58 c7 bf
       -0.04277702405591037 -0.18240115577720997
000250 d5 e5 e2 ed 32 6b d3 bf a4 a9 ca 4c a5 90 d3 bf
       -0.3034179041966046 -0.3057034730833499
000260 5f 5c 75 ee 51 84 d5 bf 58 1f 22 af 73 50 a8 bf
       -0.3362011746116362 -0.04748879921777299
000270 83 ac 87 7c 23 39 c7 bf 6b 65 61 85 cc 33 c1 bf
       -0.18143123226704824 -0.13439327728955716
000280 11 33 1b 25 15 18 be bf 56 13 22 f6 48 e5 9c bf
       -0.11755497127451188 -0.028218402884266545
000290 b9 91 65 6a 26 ba c8 bf c3 e8 6c 01 11 85 a4 3f
       -0.19318084902910274 0.040077716278078344
0002a0 9b ef 7e 59 1f 5b c8 bf ea b8 c4 59 52 38 be bf
       -0.1902808367721008 -0.11804690066921678
0002b0 0f d7 9d 6b ff b2 be bf 59 68 de 20 01 8d bf bf
       -0.1199187886939763 -0.12324530651531641
0002c0 25 52 4c 76 b0 cb bf bf 93 bd 5b e6 db 1e 87 bf
       -0.12420180214059735 -0.011289327590445796
0002d0 af 40 d0 89 4d 02 ca bf 22 da 4d 19 f9 b4 d3 bf
       -0.20319527844595117 -0.3079207179174849
0002e0 c4 da 6a be 05 ce b1 bf f6 84 92 15 ff 3d cc bf
       -0.06954990290510482 -0.22064198067986468
0002f0 ed 0c 9a ff 9a 36 c9 bf cd 53 4f e3 0d 52 d2 bf
       -0.1969789264731853 -0.28625819395284396
000300 3f 30 a0 a3 22 15 be bf 85 d6 88 58 56 64 b8 bf
       -0.11750999922532034 -0.09528102551925073
000310 19 a8 08 9d 54 0a a1 bf c7 28 a8 c3 11 09 cc bf
       -0.03328194062153517 -0.21902677587087835

weight f8 [1, 100]
000000 d8 af 47 e7 95 e9 81 3f b8 74 d4 33 84 0e c8 bf
       0.008746310349088945 -0.18794300585515145
000010 eb 45 ae df d5 a1 52 bf f7 35 8e 61 cf 6e 84 bf
       -0.0011372173891895886 -0.009976978459031989
000020 be 9d ba f8 0e 17 a1 bf 36 8a e6 2a 51 f6 a9 bf
       -0.033379047262595204 -0.05070737503708182
000030 7e 3f 73 53 1d e1 8b bf 3a 9f c5 41 83 d4 a8 3f
       -0.013612965687940234 0.04849634340172178
000040 fc be 90 95 75 15 4c bf bb 4f ca 05 ba b3 98 bf
       -0.000857050337009085 -0.024123102763567533
000050 a8 34 65 f9 52 19 90 bf ed 6f c1 b6 0c 1a c4 bf
       -0.015721603843577597 -0.15704497264493913
000060 02 8d 7f ab f3 b9 c1 bf 2b bd ac f1 2f c7 e9 bf
       -0.13848729967057954 -0.8055648536882577
000070 38 9e bc d0 3c 22 c8 bf 06 2a e6 1b 8e 47 82 bf
       -0.18854484741426503 -0.008925543047344508
000080 1f 1d e5 42 52 8c 9c 3f 28 e7 28 2f 4e 9e 9c bf
       0.027879033406205452 -0.027947637203602188
000090 57 dc 54 7a 8f d6 74 3f 56 c3 8a d9 12 99 b5 3f
       0.005087433300381048 0.08436696826062237
0000a0 b5 8a de 7e 02 b1 c0 3f ce bb 5b 9a 84 98 c5 bf
       0.13040190882482752 -0.16871697937992142
0000b0 3b 22 f5 f0 63 ed 95 bf 24 87 b5 9c f5 36 91 bf
       -0.02141338499248689 -0.01681121605850601
0000c0 9f 1a 65 15 ec f4 89 3f 7c 25 b4 fd 55 d6 a3 bf
       0.012674183276101756 -0.038744628162087985
0000d0 fd 55 32 f9 c1 18 ac bf b5 fd 47 5b 3e 09 a7 3f
       -0.054876386327276074 0.04499239792130131
0000e0 f4 32 56 87 92 93 80 3f cf 07 33 0f ec 5a 6c 3f
       0.008093971972607396 0.003461323789083238
0000f0 e5 3c c1 c6 06 8d 90 bf ab 67 c4 74 82 d7 b1 bf
       -0.016162973290474354 -0.06969466543924223
000100 7d 1d c7 d5 c9 dd c2 bf 07 67 50 30 82 d8 b7 bf
       -0.14739344538086732 -0.0931474082903173
000110 09 8f 2f 1a 5f 6e 9d bf de 7c 74 ee 7d 44 ad bf
       -0.028741346333744953 -0.05716317687824256
000120 7e 87 a1 93 00 4a 86 bf 6a 5a a9 86 43 d1 a8 3f
       -0.010883335595454954 0.04847155588929726
000130 00 e6 e5 a5 84 ec 56 bf e9 59 f6 ee 74 a4 c8 bf
       -0.0013991637602813745 -0.1925188223655845
000140 51 7e 1c e2 d2 fa cd bf d6 aa 49 66 7f 12 9a bf
       -0.23421703377333583 -0.025461187952184293
000150 d1 0e 20 ba 94 69 ac bf 2b b4 48 83 64 c9 c6 3f
       -0.05549301883732272 0.17802101526595612
000160 c1 e6 02 a8 63 53 c2 bf 81 46 6c df ae a0 b7 3f
       -0.14316983894041438 0.09229557947790036
000170 a3 68 19 56 fb 1a ac bf c9 f9 5a b4 e3 42 b5 3f
       -0.054893354664004045 0.08305190232474681
000180 61 4b 8e fe 9c f0 a6 bf cc 1c 97 13 2d f1 c4 bf
       -0.04480448348399225 -0.16361010986859126
000190 ae 31 87 17 e9 0f a3 bf d2 ff ff fa fd 68 a8 bf
       -0.037230762598116626 -0.047676026239059546
0001a0 7e f0 b0 24 b1 28 cf 3f 26 57 df d8 df 18 ad 3f
       0.24342932025490777 0.05683040163391544
0001b0 e7 85 53 cd 8b 13 93 3f 36 c9 bf 7f c2 13 ae 3f
       0.01862924996101425 0.058744505018597
0001c0 77 60 b5 12 50 76 b3 bf 06 da 86 67 8a b6 6d 3f
       -0.07602405983686987 0.0036270812235799114
0001d0 59 de 45 eb dd 5c 60 bf 6c cf 24 ad 6a 8b b9 bf
       -0.0019974073749684904 -0.09978358008521376
0001e0 66 9a c7 5e 82 c5 c9 bf c0 66 c7 d0 09 14 52 bf
       -0.20134000423350357 -0.0011034103255184585
0001f0 be 62 c5 95 70 11 72 3f 98 02 05 0c 64 42 a8 bf
       0.004411163125347782 -0.047381521670563476
000200 60 79 c7 7e eb a7 63 bf 6d 09 24 53 91 8d 75 3f
       -0.002399406386970046 0.005261962580563978
000210 38 06 5d d4 70 f4 b8 bf f3 c3 1d 36 8e 5a ca bf
       -0.0974798696961664 -0.20588853495021872
000220 05 70 6d 6a f9 2e b1 3f 79 f1 3f 4b e8 2e c3 3f
       0.0671230206330052 0.14986900018983443
000230 2f 8f 4b 73 03 65 a8 bf e1 5e ba d8 50 ca cb bf
       -0.04764567167674582 -0.2171116884462583
000240 cb 4c c9 0a 6c 92 9d 3f 43 3e f4 8a 7f cf aa bf
       0.02887886825403711 -0.05236433573929535
000250 c7 1b c2 48 81 6e c5 3f 4a 69 c7 0e 3a 4b c5 3f
       0.16743484547279605 0.16635823938015398
000260 35 ce 21 f6 be 71 ca 3f cc 42 7a 82 31 18 9c bf
       0.20659625070730817 -0.027436040486068333
000270 75 9b f0 7e 4f 2c bf bf d3 df fd e3 97 64 a1 3f
       -0.12176987504117938 0.03397059114553227
000280 f1 ec e1 c2 f5 52 c7 bf 66 a5 0c 81 af 1c 7b bf
       -0.18221923843143586 -0.006619153559577517
000290 e8 fe 2c b1 73 a1 a0 bf d5 1a ac dd ed a2 9d bf
       -0.032481780412579486 -0.028941837935259358
0002a0 07 be 82 8a 87 cf 86 3f 4e 0f 68 0c 9b 0d aa bf
       0.011138018526565053 -0.050885052933181116
0002b0 0e 33 9c 56 bf eb ca 3f b8 ab 1c 7c 8d 0f c0 bf
       0.21031944016467502 -0.12547462997585312
0002c0 b6 91 4d 44 cd f0 9e bf 88 20 90 e3 20 70 a0 bf
       -0.03021546105755287 -0.03210547235363587
0002d0 09 05 fc 98 c6 7e c2 3f 23 c7 24 f4 f7 8e b2 3f
       0.14449388952201783 0.07249402723826086
0002e0 f5 98 69 0f b6 e3 9e 3f 3c e7 08 0b 95 e8 ca 3f
       0.030165524187759158 0.21022284544761216
0002f0 c1 68 dc d6 c5 90 c1 3f 01 60 44 20 2c e4 7b bf
       0.13723061553247898 -0.006809399001461714
000300 c8 4d de 89 b8 d1 a7 3f 62 63 3e 12 e2 be a1 3f
       0.046521918134341755 0.03465944740964379
000310 ad d6 88 0d c8 21 a2 bf 4a 8c 92 c9 8d 71 c1 bf
       -0.03541398205963495 -0.13627788870243968

bias f8 [1]
000000 7b 0b 23 ec c2 cf 6c bf
       -0.003517037113029029
