WeakLossVectorExample/Models/F7_4_model.pt (torch, 86063 bytes, 6 tensors)

weight f8 [100, 1]
-0.613980807078911 -1.3847691130877595 -3.0452738361103853 0.13621036467727377 0.0004361051832524867 -0.7287490613607299 -0.9307249812112431 -1.9647905451383803
-0.08513002411413391 -0.016576068070412456 -0.42827970418195194 -0.017520348418844714 0.38301720415828555 -0.6195546798518186 -0.003936166543137498 -0.9631137007949974
-0.09931398384682291 0.37134150837618335 -0.5977780372430921 -0.24066894548388218 -0.04165092407629749 -0.24440037820354005 -0.0450335343071809 0.006053751443498338
-0.941701113603682 -0.07221957702419823 -0.040226961687213875 -0.4983862313001397 -11.223420056425587 -0.6925606059803029 -1.3363149082002161 -0.07822239733635783
-0.21349902623979844 -0.015289759294243763 -4.363449704695993 -5.6122757127259595 -0.9947225469784934 -0.27215450040557765 -0.0004446692367782396 2.8932822001246006
-0.42405046539725566 -5.061522244613467 -0.03170082951681108 -1.5680947437794 0.04423549237658507 -0.03098527977391702 0.24239009670958125 -0.09110689508597614
0.006906402300285151 -0.001435208828541219 -0.2880332489462283 -0.5636275974849149 0.00831191862511552 -0.6593133505437815 0.030153675951925727 -0.32115442459532106
-0.021839467189501086 -0.7585154089605303 -0.4475848085801133 -0.2826308191457987 -0.6243673171627332 -0.1133234525747644 2.1310366473846316 -0.05664391460774229
-0.43832833352039957 -0.30639680958053367 -0.5575507503427716 -0.3661478432733083 -0.007087860216415951 0.16002299519863528 -0.1428972224621962 -0.4321546986384224
-2.6956298179413873 0.0025155045566273406 -0.09994542480639962 0.002101914078678048 -0.32514749548370303 -0.5309535912326792 0.17625402148611025 0.006372057769674651
-0.8708570858513526 -0.9109314516597354 -0.3391187845577906 -0.8474092299822439 -0.6020878581160609 -0.7070622230198833 -0.02460251636596178 -0.3568837703111609
-0.9865630847591075 -61.77475261075832 0.024715083414160118 0.0003380058457444128 0.15668209878057227 -0.4118552689607291 -0.45237422899913965 -0.2278274859875966
0.00024877789902166624 0.13929015853273918 -0.014918459669692597 -1.7580570117091205
00000000: c8d1 d813 bba5 e3bf ce90 53a8 0328 f6bf
00000010: 26ab 6b87 b85c 08c0 cc22 d55a 576f c13f
00000020: db63 eb7f a194 3c3f fc1e 318d e951 e7bf
00000030: 8deb 7bc1 7fc8 edbf ebbf ed35 c86f ffbf
00000040: 6d57 7acd 14cb b5bf 61e6 0819 51f9 90bf
00000050: 6421 c046 ef68 dbbf 94d3 e4ad daf0 91bf
00000060: 8092 6a97 5a83 d83f 9283 0156 64d3 e3bf
00000070: 40ae 30a9 5e1f 70bf 33cf e7d2 d3d1 eebf
00000080: f256 a828 a46c b9bf 85df 872c 0fc4 d73f
00000090: a03c 0768 ff20 e3bf f00e 0271 3dce cebf
000000a0: 4602 8319 4553 a5bf 7ad2 c1f7 8248 cfbf
000000b0: 8b30 25aa a20e a7bf b8ac 7c87 d1cb 783f
000000c0: 671b b15f 6a22 eebf a02b 7371 fb7c b2bf
000000d0: f461 bad9 a098 a4bf 9c7d 0d5d 8fe5 dfbf
000000e0: 9b3c 171d 6472 26c0 f2dd 25dc 7429 e6bf
000000f0: e408 bebd 8b61 f5bf 00d7 5f0e 6206 b4bf
00000100: 80c1 b6a3 ef53 cbbf 6556 0fc1 3c50 8fbf
00000110: fea3 cd28 2c74 11c0 1f2c 8967 f872 16c0
00000120: fbb9 fb60 c4d4 efbf 0ce0 acb5 fa6a d1bf
00000130: a519 5ad4 4f24 3dbf 9c12 5d23 7125 0740
00000140: d806 2f90 a423 dbbf 8c5d f2af ff3e 14c0
00000150: c0c1 0f54 173b a0bf 0bfe 9883 ea16 f9bf
00000160: 5ee7 28d2 08a6 a63f d141 25ed 9aba 9fbf
00000170: 85f7 1e81 a306 cf3f 5099 d50e c852 b7bf
00000180: f132 3440 e349 7c3f 5224 d1be b383 57bf
00000190: 8c9e 1802 236f d2bf ad43 4abe 3c09 e2bf
000001a0: 128a 4bd5 d605 813f efda cc4f 1819 e5bf
000001b0: d953 45f0 9ae0 9e3f 0891 a649 cb8d d4bf
000001c0: d127 5dd5 155d 96bf dfeb 5f1b c245 e8bf
000001d0: b46e c2c0 3aa5 dcbf 54aa 4493 9f16 d2bf
000001e0: 63f7 fc2a d1fa e3bf f0ac ad0a c402 bdbf
000001f0: 7dc1 18f1 5c0c 0140 4ced 8361 6e00 adbf
00000200: c856 5848 920d dcbf 01d1 2f5d 019c d3bf
00000210: 8da3 d2ab 74d7 e1bf d806 175d f76e d7bf
00000220: 0a01 40fd 2808 7dbf a438 7e2d a27b c43f
00000230: 0d0a 95c8 744a c2bf a0be 5d2e 6ca8 dbbf
00000240: 0f72 b15d a690 05c0 5a87 b739 659b 643f
00000250: f4a5 edfa 0596 b9bf 83f6 4287 0838 613f
00000260: dca4 de70 37cf d4bf 3138 c162 92fd e0bf
00000270: 2c21 09e5 7d8f c63f 08e2 a93b 9619 7a3f
00000280: e715 e7ad 0fde ebbf 03d8 38b7 5926 edbf
00000290: 85a3 4846 1fb4 d5bf e145 23f6 f91d ebbf
000002a0: 60ab 7dc1 4d44 e3bf 4a70 83f4 40a0 e6bf
000002b0: 80b2 c3ec 6631 99bf 486a 7d06 2fd7 d6bf
000002c0: 5766 0fbf ec91 efbf 4bd9 f217 2be3 4ec0
000002d0: 8f4a ed2b e94e 993f 64f9 a60d cc26 363f
000002e0: 24cb 10b5 280e c43f 8cc8 b733 d65b dabf
000002f0: 73b0 c609 b3f3 dcbf 082b b978 7329 cdbf
00000300: db3f b5f0 cc4d 303f 2cc1 c689 42d4 c13f
00000310: adac 1ac3 918d 8ebf e3b4 9c63 0021 fcbf

bias f8 [100]
-0.11063547837526877 -0.0029441966845828835 1.5527219430546675 -0.4560076719697457 -0.0021450486515731506 -0.010020156890218394 -0.08191735047734902 1.6256987483162824
-0.0037787918676130895 -0.06251756429562877 -0.30346341103660945 -0.025262594446720698 -1.2174520883337125 -0.5882561735820793 -0.01588549161324054 -0.5311891737455372
-0.18252425336574749 -1.251131299706573 -0.47044335585370867 -0.6908929229496028 -0.08656150465070714 -0.008721010575695224 -0.13458252543316787 -0.019324588670624917
-0.7488031630002914 -0.9542047656794823 -0.0004289375681164782 -0.1541242075761704 2.934154668975168 -0.9860985553180841 -0.007031538484515674 -0.705166652038701
-0.36094199568483654 -0.003197586967225622 -0.10458833561196769 -0.01467615158459813 -0.3932434493343999 -0.6018627145069706 -0.08096013790415874 -3.6189096791007827
-0.12714526020177125 0.008336388971439247 -0.2568873452421792 -0.04415131250320397 -0.19091802490188853 -0.014036593000526277 -0.7791160704528104 -0.015310574828691546
-0.03467634737956389 -0.004973878644089882 -0.5596205693130336 1.6233044744524174 -0.03194463973807417 1.525833150005261 -0.1057675081921889 -0.3212163331731912
-0.11891910840729934 -0.42171208776315106 -0.2401527482441539 -0.15842854335212286 -0.013487827776472193 -0.9622284569997588 -3.4397972797263763 -0.041139590778292656
-0.47230224271041843 -0.1324897764498116 0.0006864267803232641 -0.6233706664629906 -0.0032026805300533917 -0.5266485838699182 -0.22257888876702597 -0.04379046252742896
-0.08491714876748635 -0.009345821709052996 -0.11433288356287866 -0.009739244846491711 -0.07254136361461083 -0.13785356378726835 -0.6139110918614971 -0.04858512874733379
-0.9832189542955823 -0.005298889077828435 -0.08940827629730749 -0.4182310970369185 0.001784495390993539 -0.29257985838410905 -0.019821538582434833 -0.9339549313462676
-0.5975136479652077 5.655484334821354 -0.08251902937096446 -0.0017443752521098393 -0.6082207557429068 -0.05962710083525424 1.1801452833231036 -0.07934141415744511
-0.0010545037876845606 -0.5639301112018267 -0.02488760264654788 -0.007060285531111469
00000000: 102b 6651 9b52 bcbf d911 258f 6d1e 68bf
00000010: d138 d3f6 f2d7 f83f 2873 75cd 3a2f ddbf
00000020: da98 d139 7e92 61bf bc7a 27b1 7285 84bf
00000030: 7672 4615 89f8 b4bf 43aa d2b0 dc02 fa3f
00000040: f159 ac6f b3f4 6ebf 0c47 13ae 2601 b0bf
00000050: 78d4 7bcc f16b d3bf d3d5 d703 70de 99bf
00000060: 7471 7d0a af7a f3bf 6c90 669c fed2 e2bf
00000070: cfc8 d64b 4944 90bf 363e 2770 80ff e0bf
00000080: d362 7769 f45c c7bf 07de f340 a204 f4bf
00000090: 60c7 0073 be1b debf 9067 a379 cb1b e6bf
000000a0: 223d 910f e528 b6bf 9579 af39 52dc 81bf
000000b0: 199d ac0c 003a c1bf 9f5c 6531 d3c9 93bf
000000c0: 9248 070d 32f6 e7bf a8fb c86e d888 eebf
000000d0: 3fe9 bbd3 601c 3cbf 70e1 878f 57ba c3bf
000000e0: 803b 4515 2679 0740 282b b78e 1e8e efbf
000000f0: 1712 4e3d 1acd 7cbf 948d 97a7 b990 e6bf
00000100: c409 ce74 ac19 d7bf 2244 696e d331 6abf
00000110: e118 ff18 4dc6 babf 8726 b2b8 870e 8ebf
00000120: 907a 9092 e62a d9bf b8a7 6f98 7542 e3bf
00000130: 94f8 93b8 cdb9 b4bf 6353 f7ea 86f3 0cc0
00000140: ee39 34bf 4b46 c0bf a716 fe2f ab12 813f
00000150: 2992 a49e d770 d0bf 77b0 8d36 009b a6bf
00000160: c2d3 9578 0070 c8bf ba80 139f 37bf 8cbf
00000170: 5440 4cd3 84ee e8bf aca5 6091 265b 8fbf
00000180: ba42 e123 19c1 a1bf 432d c561 7d5f 74bf
00000190: c6c9 6b65 69e8 e1bf de93 d31c 0ef9 f93f
000001a0: 7241 ea3d 0c5b a0bf dccd 6605 d069 f83f
000001b0: 7d34 aa54 9413 bbbf 94df 7af3 ce8e d4bf
000001c0: 8f94 7a91 7b71 bebf c451 51b2 54fd dabf
000001d0: a067 e043 53bd cebf f8a2 39f2 6247 c4bf
000001e0: cc5e 8d99 819f 8bbf 3206 4355 93ca eebf
000001f0: 3d5b aa6f b484 0bc0 b05b ed99 3f10 a5bf
00000200: 6832 912f 333a debf 5f01 74cc 6cf5 c0bf
00000210: da87 4a49 2a7e 463f 0cd1 370a a7f2 e3bf
00000220: 650e 5b04 823c 6abf a697 8621 4eda e0bf
00000230: 2a67 040c 777d ccbf d731 dd18 b46b a6bf
00000240: 886f d358 21bd b5bf 15cd c1f4 e623 83bf
00000250: 6a8b c27b eb44 bdbf 0ccd d350 2bf2 83bf
00000260: d0fd 5420 1292 b2bf 253b 0d82 2fa5 c1bf
00000270: 094c c6df 28a5 e3bf 0160 1566 26e0 a8bf
00000280: 1238 b098 8776 efbf bbe1 b5b4 49b4 75bf
00000290: 864c b0f6 75e3 b6bf b066 fc5c 4cc4 dabf
000002a0: 7b0b 0756 b73c 5d3f 8898 cede a0b9 d2bf
000002b0: db30 dfef 184c 94bf a03e c273 f5e2 edbf
000002c0: 3e93 1df1 d41e e3bf 6264 1449 379f 1640
000002d0: 292a 7294 f71f b5bf c090 39aa 7094 5cbf
000002e0: 0941 d55f 8b76 e3bf 40de 1580 7187 aebf
000002f0: 126c 4605 e0e1 f23f 604d 060b b84f b4bf
00000300: dbf3 05d2 e846 51bf 7aed 1a29 b70b e2bf
00000310: 8064 c5bd 227c 99bf eb02 4ef7 3eeb 7cbf

weight f8 [100, 100]
-0.08972953779149703 -0.10152252102549815 -0.026001299000147176 0.01954955603266814 0.019482427229360257 0.03369458883252518 0.04335204146446032 0.034369629853990294
-0.12928690552556868 0.014692205837402194 0.03912927140259832 -0.1519047776542934 0.15013487101262452 0.0019648869448564976 -0.042186762213025204 0.05770191909341259
0.03510198109565814 0.011893179041313564 0.04191779581993864 0.027424443357739817 -0.027374277750919596 -0.12617606295232672 -0.15403341654327626 -0.07758771091091468
0.08795163559033918 -0.023091394968188392 -0.0098215489590703 0.006844489483100374 0.12194502593233035 -0.028114400019096347 0.004047835328550271 -0.08483451471305616
-0.009075339794925669 -0.11592719301970829 -0.05899012660509888 -0.08539328674994867 -0.06004430643692331 0.04326644332939873 -0.09824260158237663 -0.15932056368924824
-0.07407784850271709 -0.01780046005621607 -0.1256165646410268 0.04908212237764589 -0.0037863572762498136 -0.1232792201396682 -0.020747876271896948 -0.05618509858037386
-0.04748667853475508 -0.14194581997563752 -0.07983131835533776 -0.09208565009456329 0.006838555824192593 -0.12046648182766773 -0.10133106087085031 -0.08030266608622218
0.07139768990404474 0.051045935938577966 -0.06158341955171284 -0.09331837341135309 0.00026697714301020275 0.0434629324987089 -0.024986793507226133 0.0168617173606399
0.058931674186916014 -0.03415340950977829 0.03152128959524084 0.01307085596936483 -0.15806495797009212 -0.008217500357089902 0.02128056552992641 -0.0023319533816451216
0.09320913771823215 -0.021091300973411286 -0.11310898320326325 -0.14125094467614902 0.0985143432587693 0.012020209069429194 0.005579418652856124 -0.07054971449766988
0.05763756858208695 0.10895466520229977 -0.10472389151107989 -0.06890177602748586 -0.09583416722300266 -0.05322138125404658 0.02375963433549955 -0.008522728969995508
-0.09777032879540257 -0.1294943159152762 -0.051785910806876695 -0.12984480830926792 0.032152731079458 0.07438279386708753 0.016589268704450065 -0.04747959063424407
0.020818276025914552 0.017798889068622162 -0.08443862308260623 0.05622148436652761 0.08586053498830103 -0.11280408292011972 -0.7411441002901755 0.05418521065213884
-0.0030832683493996647 -0.009915574319026737 -0.08192565617124672 -0.5418393775077888 -0.05803724666008758 -0.009006875898656766 -0.036497647797272506 0.031193263660125526
0.09129686592411905 0.045436921479898154 -0.006978381152968724 -0.08193304636024357 -0.12720453948014407 -0.060702463420054024 -0.09340784314201493 -0.030990333028446518
-0.07356126428075938 -0.1282839117729758 -0.007844522100653945 -0.043684561027987394 -0.022980250736401656 0.08910201126688296 -0.12831845550661802 -0.09733771927355016
-0.7359665347247909 -0.0686788412731276 -0.01320704170030257 0.07167269636774586 -0.07135032909939884 0.02227546090885962 -1.1364202851792247 -0.3683558619157462
-0.01736900645308599 0.03318236754854452 -0.07579637527193331 -0.37213635829100317 -0.009843160304570909 -0.7732360751581666 -0.322059501697891 -0.04002832232158516
-0.335324054302601 -0.026720018462892466 0.01199385761035783 -0.07704529217158249 -0.3424056850301808 -0.044734803945972935 -0.048876557080196024 -0.10226385526792311
-0.11426555259890019 -0.09704468514632494 -0.003157082836158004 0.03916679755201012 0.026495912703900545 0.06185171454654807 0.005364992734611371 -0.00353763015403237
0.039145271600337234 0.08410334797313897 -0.25406967704407496 0.00797565827475713 -0.060036469007760045 -0.13306769014737482 -0.11826931360637939 0.08907765725448498
-0.10308153959012206 -0.015743808487182126 -0.06698733682211402 -0.11505595630361719 -0.3908633678051628 -0.08876362160974798 -0.03807159011644854 -0.12402235164458017
0.03616220628240892 0.0056525648043458014 -0.02291838522820966 -0.08735447317299307 -0.03742956551029343 0.0014784556595065685 -0.15408872571070442 -0.0832599526076248
-0.0940541587527028 0.003245100814643978 -0.37145405178832036 -0.06597062548897634 -0.01694686272958125 -0.158098520406547 -0.15991934984250028 -0.15338385091808684
0.09182011501702088 -0.028615245759259486 -0.03865577937921305 0.05305433081978196 -0.14511210775675512 0.06130882653681925 -0.13423319736637743 -0.04734382585700349
-0.0970110842318827 -0.12772900429088752 -0.12176161835307199 0.013939818470346046 -0.029121174790150764 -0.14437230089402944 -0.09369658498534172 -0.07637501029059926
-0.06588222851549631 -0.059928067835942705 -0.05060050218738423 -0.1524467322011347 -0.010086143117629523 0.09588189526562975 0.0902763600571158 0.0928861178281744
0.06434668093083822 -0.09856238441321187 0.03663470714002119 -0.04296766908818841 0.04431372138284033 -0.0004083758891143668 -0.014570915696391643 -0.0831917150253105
0.06544146261041432 -0.00517536760705721 -0.13935604592143844 -0.09120033577476132 0.023978310539854077 0.071714143593835 0.02871818623654995 0.08131186618725257
-0.04713155279049252 -0.15734098758644519 0.017215969173126226 -0.1604573673789685 -0.05895310977767571 0.07356569995744082 0.06555448564215392 -0.2810764674928064
-0.059391807471999895 -0.1314731419663754 -0.36200423070190324 -0.07624219023848473 0.07421500657001763 -0.0005297960031232785 0.08162560478556842 -0.023632345264053195
-0.09848368471613975 0.05206021117849938 -0.04168219568596301 -0.2678685061996093 -0.05556294942581614 -0.1694196840794379 0.026375957478640535 -0.06662912947540342
00000000: 8eb7 4cd6 83f8 b6bf 2dab 9c43 61fd b9bf
00000010: ebc4 6fa3 15a0 9abf b81b 3f7f cc04 943f
00000020: eaec 2f8f 33f3 933f 4ffc 2cca 6a40 a13f
00000030: b900 9c20 3d32 a63f 92a3 6568 e598 a13f
00000040: 1d45 842b 798c c0bf 9337 9f7c f216 8e3f
00000050: 9a1e fb79 c008 a43f cecf 10a2 9d71 c3bf
00000060: ea83 7e94 9e37 c33f c051 64a5 aa18 603f
00000070: 81e2 0ed8 8099 a5bf ee64 d81e 1b8b ad3f
00000080: 864c a909 e3f8 a13f 2e2b 3978 735b 883f
00000090: 8686 55d4 3f76 a53f 147a 543d 2715 9c3f
000000a0: 7d6c c4ae 0008 9cbf 378a f587 8926 c0bf
000000b0: bbb2 45f3 5db7 c3bf d212 efc8 c9dc b3bf
000000c0: d37e 7d96 ff83 b63f 8c5d d448 45a5 97bf
000000d0: 0b27 9afc 511d 84bf 20c0 cda7 f708 7c3f
000000e0: 070b 4a0a ca37 bf3f d8c4 8372 05ca 9cbf
000000f0: 2104 b185 7694 703f 49bd 43fa b6b7 b5bf
00000100: f04f f47c 1796 82bf 1d9a bc8e 67ad bdbf
00000110: b691 1c31 f433 aebf 2c94 e39d 55dc b5bf
00000120: f648 ea98 20be aebf da5e 3aee 0427 a63f
00000130: b8c9 de58 6d26 b9bf de13 50c1 9d64 c4bf
00000140: cc5d ad10 c4f6 b2bf 8649 2ea7 483a 92bf
00000150: d10a 7c1e 3414 c0bf e44a dcbc 4a21 a93f
00000160: 74d4 8415 9104 6fbf f1b8 c61a 3a8f bfbf
00000170: 106f 3268 ee3e 95bf 4ab9 d911 4bc4 acbf
00000180: 30d9 9a86 2c50 a8bf c5b4 4cd7 472b c2bf
00000190: a961 8845 d36f b4bf d248 96d7 ec92 b7bf
000001a0: 1952 ded9 be02 7c3f 70c9 b62f e4d6 bebf
000001b0: a860 8218 d5f0 b9bf f936 9f2c b78e b4bf
000001c0: a2d7 2577 1e47 b23f be59 e662 b122 aa3f
000001d0: dca1 e6a9 dc87 afbf e9ec ea81 b6e3 b7bf
000001e0: 0513 1719 227f 313f ce25 5703 c640 a63f
000001f0: c921 c853 2396 99bf 1f2f 79b2 3244 913f
00000200: 4ea4 a9da 4a2c ae3f af64 c841 8e7c a1bf
00000210: 84ec e0f7 8e23 a03f 706a 5a97 e4c4 8a3f
00000220: 4005 90f8 783b c4bf 80fd 4e3a 56d4 80bf
00000230: 8036 f793 92ca 953f ad9c 51f0 751a 63bf
00000240: b92b 30d6 8ddc b73f 83c1 a43f f598 95bf
00000250: 81e8 bdd7 b5f4 bcbf 9ae2 f4cd 8214 c2bf
00000260: a9bb 7b6a 3c38 b93f 6316 c126 0d9e 883f
00000270: d6ba 50ca 71da 763f 0f77 82cc 8b0f b2bf
00000280: 867b 29e0 ab82 ad3f a65e caf3 73e4 bb3f
00000290: 7a62 2659 2fcf babf 6ba3 acfa 8ba3 b1bf
000002a0: c9eb 0f86 9688 b8bf 693f de37 d53f abbf
000002b0: c159 be11 7254 983f c025 9751 5d74 81bf
000002c0: 1e07 b2ec 7907 b9bf 59df ef0d 4593 c0bf
000002d0: 7443 9ed2 ae83 aabf 6431 9f32 c19e c0bf
000002e0: da3c eda0 5276 a03f fd53 0b33 c00a b33f
000002f0: 965f 33fa c6fc 903f a9ca 00b2 3e4f a8bf
00000300: 3af9 c2da 6251 953f e4c7 d139 df39 923f
00000310: 73b8 a804 c59d b5bf bda5 5ff9 0fc9 ac3f
00000320: 7fb4 cabd f4fa b53f 9b47 ff76 bae0 bcbf
00000330: 28d4 0bd5 73b7 e7bf 8a09 5bf7 29be ab3f
00000340: 26ff 3617 1542 69bf a3c6 5edb 9d4e 84bf
00000350: e276 f56d 14f9 b4bf 2697 c288 bf56 e1bf
00000360: 80bd b5d8 0eb7 adbf 7511 646b 3272 82bf
00000370: 0226 57d7 d1af a2bf bd5c 1a7d 20f1 9f3f
00000380: 4b13 5f3d 3b5f b73f 7afc 9217 8243 a73f
00000390: 3ddf 4bed 5c95 7cbf a832 946a 90f9 b4bf
000003a0: a327 7c04 3d48 c0bf 4ffe 59ae 6414 afbf
000003b0: 431f 7c8f 93e9 b7bf d4b5 650b eebb 9fbf
000003c0: 2899 5638 e9d4 b2bf 1b7d d572 9b6b c0bf
000003d0: 5d1e 00ef c910 80bf f71f e9a1 d25d a6bf
000003e0: c486 7785 2288 97bf 7d2a 66b0 63cf b63f
000003f0: 54e4 ef38 bd6c c0bf e776 f2f0 1feb b8bf
00000400: 57fd b2b0 098d e7bf 6efc 31c1 ef94 b1bf
00000410: a10a 7021 4b0c 8bbf 2f65 ea4e 2459 b23f
00000420: ee6e 0ae2 0344 b2bf 8f71 6de0 60cf 963f
00000430: 35b1 7509 c72e f2bf 12f4 0d77 2493 d7bf
00000440: 7456 b84a 2ec9 91bf fe85 d97e 47fd a03f
00000450: 92c3 f228 6467 b3bf 1dcb 2004 15d1 d7bf
00000460: cd82 c79c a628 84bf 0089 dc94 59be e8bf
00000470: d624 ca74 9f9c d4bf a1e5 919e 977e a4bf
00000480: d7ac b205 f375 d5bf d25b c915 7e5c 9bbf
00000490: 28d3 8351 3c90 883f de0d 3082 3db9 b3bf
000004a0: 97d2 ca88 f9e9 d5bf fdc0 e1ef 7ae7 a6bf
000004b0: 73aa 661c 5906 a9bf 8e48 f0c9 f62d babf
000004c0: abbd 78db 8140 bdbf c23e f4a4 ebd7 b8bf
000004d0: f3a5 06f1 e1dc 69bf 0e5e 26a5 ab0d a43f
000004e0: ece7 299a be21 9b3f 869f 5b26 07ab af3f
000004f0: 3039 6a45 9af9 753f a025 24ba f2fa 6cbf
00000500: 740a a25a d90a a43f 7d5b 0709 cc87 b53f
00000510: 39d0 7376 ad42 d0bf 501b a2bb 8a55 803f
00000520: 8f4a e99d 19bd aebf 8f2a abb0 5c08 c1bf
00000530: e94c 0fd2 e546 bebf f559 b618 cbcd b63f
00000540: 2c64 5c41 8d63 babf 788a 441a 251f 90bf
00000550: 6aa9 e504 1526 b1bf e7b6 88a1 4e74 bdbf
00000560: b15d 7bc9 e703 d9bf 4b6d e373 36b9 b6bf
00000570: fde9 e994 1e7e a3bf fe56 49c8 edbf bfbf
00000580: fa15 ab4a da83 a23f 552b 92cf 2427 773f
00000590: a010 21cc ea77 97bf d9f3 6fdd dc5c b6bf
000005a0: a257 8acf f729 a3bf 55d6 31ad 1739 583f
000005b0: 980d ceea 2db9 c3bf 8329 8435 8650 b5bf
000005c0: 5d49 e5ef ee13 b8bf a034 e03b 7895 6a3f
000005d0: 1271 1937 e7c5 d7bf 06c9 f86e 73e3 b0bf
000005e0: 44fe c5b4 845a 91bf ff96 5883 923c c4bf
000005f0: 821a c9bc 3c78 c4bf 9dbf b6ff 14a2 c3bf
00000600: b5f1 1ce7 8581 b73f 0ce5 cfa2 504d 9dbf
00000610: 8060 78b8 b0ca a3bf 2273 90ef ef29 ab3f
00000620: 6dd1 8896 0893 c2bf b211 ddd9 de63 af3f
00000630: fdf0 5cac 8d2e c1bf d25a 722f 733d a8bf
00000640: ac1c 20ea b7d5 b8bf 6c0a 178c 6c59 c0bf
00000650: b906 bcf8 c42b bfbf 68db 89c3 7a8c 8c3f
00000660: 8412 61f5 f0d1 9dbf 61e1 64a3 ca7a c2bf
00000670: 1049 42d8 7ffc b7bf 8a06 6e0b 508d b3bf
00000680: 7195 dc60 a8dd b0bf 2c89 ef46 e4ae aebf
00000690: f3aa 1c1c 4fe8 a9bf 00cd 97e0 5f83 c3bf
000006a0: e8f8 a936 0ba8 84bf b1c2 7144 b78b b83f
000006b0: 7717 0cfe 591c b73f a30c 5376 62c7 b73f
000006c0: b33f 342a 0679 b03f 89a7 ab69 623b b9bf
000006d0: 563e 21ca c8c1 a23f 03ca 09bb dbff a5bf
000006e0: f6ea 34c0 49b0 a63f eba8 9516 69c3 3abf
000006f0: 2836 1c33 5bd7 8dbf cef4 545f 0d4c b5bf
00000700: a3d1 b68d c5c0 b03f 3098 df29 c432 75bf
00000710: ffc0 dd3d 6bd6 c1bf f36c 89bb e758 b7bf
00000720: 37f9 532e c58d 983f 596b 65ad db5b b23f
00000730: b7e4 beda 4c68 9d3f e50c 0dbe dad0 b43f
00000740: df91 b07b a021 a8bf 2387 00de bf23 c4bf
00000750: 4e24 4522 10a1 913f 2bc0 a5f4 dd89 c4bf
00000760: 0938 fc1c 1a2f aebf c3af 6ca3 33d5 b23f
00000770: 4f6c f0c3 2dc8 b03f c9a2 e326 28fd d1bf
00000780: df31 7c5d 9a68 aebf 2523 86a6 1cd4 c0bf
00000790: 4a36 f8ca 132b d7bf e552 a6b1 9b84 b3bf
000007a0: e534 1732 c1ff b23f 0043 e440 405c 41bf
000007b0: 15fb 1167 6ae5 b43f 38c6 25d8 1333 98bf
000007c0: 069f 0b0d 3a36 b9bf e477 ded0 a2a7 aa3f
000007d0: e3e6 9766 5e57 a5bf 4f5d 70f2 c124 d1bf
000007e0: e96d 4e35 bf72 acbf 3dbd 3551 8baf c5bf
000007f0: 64f6 158b 4c02 9b3f 76cc 0e4c 9b0e b1bf

bias f8 [100]
0.00633532044725936 -0.3665741717637322 -0.4310057649713569 -2.507927515711541 -0.041069564836089284 -0.05827108983949482 -0.19458155732119647 0.04656482676840633
-0.4923480022681924 -0.4355989268557126 -0.35018160554216127 -0.31174174723711606 0.887829444064954 -0.19567052478521688 -0.14737337734198874 -0.17734490105440562
0.015762902434869865 -0.463023464908624 -0.026605182808825716 -0.1988376646026629 -0.27892609655150585 -3.095361639301661 -0.4137830414273697 -0.09895494776468688
-0.5529761927960726 -0.3368336473718605 -1.5237604630846358 -0.2490208038486828 -0.03890364361443936 -0.10102992243685666 -0.3786892747404603 -0.5316388284029038
-0.13302358707317644 -0.3904307487438208 -0.3485276450102696 -0.3683922765594362 -0.0974852034700971 -0.4826851976560904 -0.5159920640654739 -0.13292663515128084
-0.5909545050762187 -0.49659598112577485 -0.5123794421715863 0.05625775246344529 -0.2128868515827465 -0.4755703298225778 -0.09731245300887238 -0.09899450486308864
0.08016180293950406 -0.25001486319283217 -0.7805759768983054 -0.024474012712729008 -0.4180020161588253 -0.18061056336472278 -0.7612179875902539 -0.03795662011968618
-0.07176161450624817 -0.09042133053509248 -0.36272282992054034 -0.06281489892265202 -0.49250227368686594 -0.12499822120849623 -0.24815757726451998 -0.15800565367079816
-0.3561580973153708 -0.3805601010049439 -0.12338945297607685 -0.04297130809576685 0.022804619755829324 -0.31506932516176506 -0.2881930203157055 -0.5722845141699155
-0.7285538264722426 -0.44201860870667997 -0.5133394435219205 -0.3850426160906052 -0.029862267474418804 -0.2856225061480871 -0.5234291460843721 -0.05873745602027461
-0.02575935073371559 -0.3696769250788365 -0.4591909688945773 0.021022294543343603 -0.3688284394678661 -0.10117179168571296 -0.2955059353269326 -0.369620427945036
-0.08140535742741146 -0.7808851183947467 -0.19278284712994603 -4.307493672783886 -0.43227394700418686 -0.1434168871749437 -0.0388076445151843 -0.31223976168198636
-0.287045799027187 -0.4398481973256643 -0.24055833506251106 -0.3867765122443999
00000000: f02d 17a2 10f3 793f 2225 d283 f375 d7bf
00000010: ca1f 3c34 9995 dbbf bbc1 254d 3c10 04c0
00000020: 04f6 a9eb 1107 a5bf b268 5352 b5d5 adbf
00000030: 7ab5 8c68 0ce8 c8bf ce79 3a50 58d7 a73f
00000040: 5e8a ff31 a182 dfbf 9d26 4152 dae0 dbbf
00000050: feb7 dd1b 6069 d6bf 9d9a 4ba8 93f3 d3bf
00000060: 33ea 554b 1969 ec3f 6130 5f54 bb0b c9bf
00000070: 8011 fe7d 21dd c2bf 350d 12db 3cb3 c6bf
00000080: 5a8d ca79 2624 903f 8c0a c42b 2da2 ddbf
00000090: dba3 4598 633e 9bbf e239 5739 8373 c9bf
000000a0: 5323 acd7 ecd9 d1bf a8bf 90f6 4cc3 08c0
000000b0: 537a a4dd 6b7b dabf 6c3d 6d88 1c55 b9bf
000000c0: b8d2 f020 fbb1 e1bf f0e3 e9b6 ae8e d5bf
000000d0: 642e bea6 5261 f8bf 6ae0 46e8 e9df cfbf
000000e0: f6db 09aa 2deb a3bf 9ca1 c8d4 18dd b9bf
000000f0: 92cc 96f0 713c d8bf 79c6 a86e 2f03 e1bf
00000100: 21b7 09ba ea06 c1bf bc47 4d40 d1fc d8bf
00000110: 5b8b 44e5 464e d6bf 36fe fa32 bd93 d7bf
00000120: 257b bf50 caf4 b8bf 9c8e 8c74 50e4 debf
00000130: 1304 05ca 0183 e0bf 52fc 5e6f bd03 c1bf
00000140: 3d3d 176c 19e9 e2bf b6a7 9082 3ac8 dfbf
00000150: 45a1 6892 6965 e0bf 3a34 f4ed d0cd ac3f
00000160: 3aed a558 e03f cbbf 454c 6289 be6f debf
00000170: 29a9 2a0b 78e9 b8bf cce4 de30 b457 b9bf
00000180: 1a79 03e2 7b85 b43f 1256 3b57 3e00 d0bf
00000190: 8249 9a78 7afa e8bf c9ee cf30 b70f 99bf
000001a0: 271c 4487 8bc0 dabf e757 7b37 3f1e c7bf
000001b0: 6577 3ad3 e55b e8bf c557 29d4 0c6f a3bf
000001c0: 4799 691b f85e b2bf af4f 8231 da25 b7bf
000001d0: d55c 01d1 d936 d7bf b007 9320 a314 b0bf
000001e0: ee34 ac41 2885 dfbf e70e 2628 e2ff bfbf
000001f0: ca87 4da3 a0c3 cfbf f2b1 8c7d 8739 c4bf
00000200: e334 0b55 4bcb d6bf dfa2 fec0 185b d8bf
00000210: d11d 3481 7396 bfbf cc14 e0d5 5500 a6bf
00000220: b32d 3220 185a 973f 7bb9 e287 182a d4bf
00000230: 3440 4c23 c171 d2bf c2be 0b9d 2750 e2bf
00000240: ba5d 421d 5050 e7bf 5497 276b 084a dcbf
00000250: 368d 35d7 466d e0bf 4a3a ebc8 89a4 d8bf
00000260: a785 bfd8 3694 9ebf 0116 ba9e a347 d2bf
00000270: 2694 067b eebf e0bf f48b 50f9 d512 aebf
00000280: dcb8 dec3 a860 9abf 1b2a d367 c9a8 d7bf
00000290: 2d54 8184 6263 ddbf c4c0 334e de86 953f
000002a0: 4d59 5699 e29a d7bf 655f 9100 65e6 b9bf
000002b0: 3e32 00ba 91e9 d2bf ee46 7d70 dca7 d7bf
000002c0: 45b3 de43 fbd6 b4bf 6608 aec9 02fd e8bf
000002d0: c291 d3bb 1bad c8bf ba55 119f df3a 11c0
000002e0: b6ee 5258 60aa dbbf 0725 0e0c 7c5b c2bf
000002f0: d615 0e78 98de a3bf 79d6 3b7b bcfb d3bf
00000300: 47a9 d157 f55e d2bf 59f8 ad0d 7926 dcbf
00000310: 3ed5 ef92 9dca cebf 4ed7 bc45 f2c0 d8bf

weight f8 [1, 100]
0.04914050256000328 -0.17571247792875253 -0.251750800043862 -0.8659821121846574 -0.06764676933113649 0.012738002163715258 0.09674824869307001 -0.02239692667796485
-0.21389891748473036 -0.10669925201247805 0.25310870147276876 -0.2992593229715361 0.14237583708171495 -0.22227519084855887 -0.04133462850180009 -0.028344573043773497
-0.009243894077565441 -0.27819836435408657 -0.014688854042027834 -0.20497224774376407 -0.29452928824007996 -0.21684016732825467 0.06407327347090291 -0.026475703305737484
0.0060320225324864965 -0.26154187335335194 -0.4086411270615036 -0.13246642454207064 -0.014049807511358833 0.027765591471117023 0.014483200814929287 -0.5066751448152053
-0.020449872510693867 -0.13152334769302443 0.009234524229130951 0.2640232746508505 -0.01118138394154082 -0.2803696162625534 -0.46260544508551443 -0.0069298604745938784
-0.028619613659833704 -0.25291916922880275 -0.17405614656838836 -0.04772239333172901 -0.03769866853702941 -0.3831123892043619 0.0186224810133084 -0.03367537230113626
0.0012025945058402594 -0.19337315149670792 -0.1625405891661573 0.026680279772368247 -0.0027747028591232664 -0.2458399038081696 -0.2518411354449807 0.003469818863633332
-0.15052953664809848 -0.05805330251232407 -0.25093934498246784 0.031495378161713786 -0.12044609467674768 -0.003786876516559116 -0.2215531750910473 -0.00014822072682350913
0.21469659247497205 -0.09247586688102889 -0.023550161120099018 -0.019866385765638907 0.0007881308749026121 0.25852876046093054 -0.2713321844536291 0.015136332838785812
-0.16216948308895493 0.17266838892426778 -0.005884870382041316 -0.07426631928595205 -0.004629317058144553 -0.22866177870914356 -0.08955540968091484 -0.08187407159314884
-0.0561047383775391 0.26618278143246404 0.054723450200889076 -0.02532103460545702 -0.24098160240981142 -0.018034145047153328 -0.02162123442878686 0.23725824226486497
0.14910139364579034 -0.08778542621568519 -0.1942305455703039 -0.056897415440629706 -0.19715295725136955 0.0063491389661070345 -0.015396608151253384 -0.2581857367510277
-0.2372046414425682 0.2715935580047958 -0.1536956475814513 -0.2728882214011316
00000000: b6f5 cea6 f128 a93f a3ff 1919 bf7d c6bf
00000010: c588 3b63 af1c d0bf a421 581e 20b6 ebbf
00000020: c310 f575 4c51 b1bf 4e20 adb5 6116 8a3f
00000030: a3fe 1444 7ec4 b83f b479 734e 38ef 96bf
00000040: 8194 9f2b 0a61 cbbf adb8 e665 a450 bbbf
00000050: fe25 cad6 ee32 d03f f4e4 4b93 1027 d3bf
00000060: efd7 0016 5f39 c23f 5d0f b471 8373 ccbf
00000070: 990f 37fb cf29 a5bf 88e6 f718 5c06 9dbf
00000080: 07b4 0176 76ee 82bf 47e5 2c83 00ce d1bf
00000090: 1450 cf9d 3015 8ebf 67d3 52d6 873c cabf
000000a0: a623 2d5f 91d9 d2bf 9e27 9129 6bc1 cbbf
000000b0: e4ed 1a26 1b67 b03f c9d2 585f 721c 9bbf
000000c0: 9f9c 17b8 08b5 783f 0595 2520 1abd d0bf
000000d0: 3ce7 211d 2d27 dabf 9af5 9ce8 a8f4 c0bf
000000e0: 6b07 363e 25c6 8cbf 0349 4a4d 956e 9c3f
000000f0: cd6f bb4e 5ea9 8d3f 05ad 15cb ae36 e0bf
00000100: c32d 90b6 cff0 94bf c840 80ce c1d5 c0bf
00000110: fc44 77dc 8ce9 823f d286 80e0 c1e5 d03f
00000120: d8d0 d2f2 43e6 86bf 72f1 2867 93f1 d1bf
00000130: f500 66de 539b ddbf 85e6 aa41 7c62 7cbf
00000140: a8c6 c5c2 754e 9dbf eea0 17e2 d32f d0bf
00000150: d2e9 96c8 7847 c6bf 6012 4bcd 116f a8bf
00000160: 3046 f068 3d4d a3bf 63cf 94d3 e984 d8bf
00000170: 76ae b08b c511 933f ff91 6dfd e53d a1bf
00000180: feef aa04 0cb4 533f 0229 cd90 73c0 c8bf
00000190: 37e0 5e49 21ce c4bf 8e24 4844 1352 9b3f
000001a0: c956 2741 f9ba 66bf 3a35 7495 ae77 cfbf
000001b0: 4784 2148 2a1e d0bf 62ec 5ad1 bc6c 6c3f
000001c0: ae28 7e46 8d44 c3bf 2c32 6e97 29b9 adbf
000001d0: daad fee5 630f d0bf 6203 5c86 2920 a03f
000001e0: 054b 9125 8ed5 bebf 6f13 5dd9 a705 6fbf
000001f0: 37a6 abbc da5b ccbf 135e 3d59 766d 23bf
00000200: fb0e 9f8d 2d7b cb3f 555b ec97 7fac b7bf
00000210: 4530 4e8f 881d 98bf 7ad0 9c94 da57 94bf
00000220: b214 952a 52d3 493f cc53 d036 bc8b d03f
00000230: 2b28 a5aa 815d d1bf cb0f 3134 ccff 8e3f
00000240: 5b5d 2339 f8c1 c4bf 62ca bd6d ff19 c63f
00000250: f024 50dd bb1a 78bf 7f07 8714 1e03 b3bf
00000260: b177 e1d5 30f6 72bf ae52 b306 ca44 cdbf
00000270: c368 c273 1aed b6bf 2708 e2fb b2f5 b4bf
00000280: 88de f6a0 c2b9 acbf 1db0 4081 2309 d13f
00000290: fecb df49 b604 ac3f eb12 20de c1ed 99bf
000002a0: 1ed7 a432 7cd8 cebf 4d60 c1fc 8a77 92bf
000002b0: a949 157b e023 96bf 06f5 9d63 7a5e ce3f
000002c0: 9893 bf24 c115 c33f 006b a90e 1b79 b6bf
000002d0: a6e9 8de8 8bdc c8bf 88bf 1675 a821 adbf
000002e0: 1a27 dadf 4e3c c9bf 239b 7903 8e01 7a3f
000002f0: 24e9 d4c3 4188 8fbf c5ea e877 1d86 d0bf
00000300: 3245 bac0 b85c cebf 06d5 5bf2 c961 d13f
00000310: 192f f389 4cac c3bf f769 9828 0077 d1bf

bias f8 [1]
-0.0031674867591135083
00000000: 2719 4f81 b3f2 69bf
