WeakLossVectorExample/Models/F8_model.pt (torch, 86879 bytes, 6 tensors)

weight f8 [100, 1]
0	0xbfc333b5242d2608	-0.15001549021171479
1	0x3fe4e2be48e00858	0.652678625425561
2	0xbfeec5efa22afc57	-0.9616621177045869
3	0xbfe61a6d71c1b822	-0.6907260152636392
4	0x3fe735efa1fa072b	0.7253339923483727
5	0xbfaf7253f532d080	-0.061419128114182264
6	0x3fc4fbafcbf7b27c	0.1639308687148463
7	0xbfd119adeadd3f11	-0.2671923440548066
8	0x3fd34ec77312d2fa	0.30168329465531907
9	0xbfea4269cafe234f	-0.8206070866300282
10	0xbfe412c1fb15c678	-0.6272897628789016
11	0xbfee51276ff9e4f1	-0.9474065005335018
12	0xbfaa2c9f58639440	-0.0511216922184663
13	0xbfe7c7652a28b2dc	-0.7430902312676966
14	0xbfe774e26bd7e202	-0.7330181223215393
15	0x3fead1448c96b4aa	0.8380453821061071
16	0xbfcaf08fbfda8e48	-0.2104663550172623
17	0x3fdfaae4a8bbf3c1	0.4948054931444937
18	0x3fcda5bd6038ceb2	0.23162047575316574
19	0xbfc047743f7736cc	-0.12718060587797309
20	0xbfe0fd39183d1422	-0.5309110139284068
21	0xbfcce456796dc390	-0.22571831635607653
22	0xbfe19b514e6cc78c	-0.550209668325111
23	0xbf92e0067dd5b446	-0.018432713919015485
24	0x3fd80b8bc818cce1	0.37570471325598304
25	0xbfeeb4d1db5f91a9	-0.959572723830708
26	0xbfdde2be920d02cc	-0.46696438086295866
27	0xbfe63c46cfdce21c	-0.6948579845257572
28	0xbff0841f428503d3	-1.0322563742085904
29	0xbfe2b3fd4731ed84	-0.5844713583496035
30	0x3fa209a2c22eae96	0.035229765132808996
31	0x3fd9120af2d0c1b2	0.39172624313780624
32	0xbfebaeb81991b897	-0.8650780200384983
33	0x3fbf4480dced921b	0.12213902848959217
34	0xbfe14c76af6c191a	-0.5405839372840859
35	0xbfedcf57706bab2c	-0.9315602489199128
36	0x3fd501df332e0cc4	0.3282392501643694
37	0x3fc877c7985f7144	0.19115538539962007
38	0xbfe79be093aef0c3	-0.7377779850426339
39	0xbfe2340a9fecd143	-0.5688527225052343
40	0xbfe8a53c90a23989	-0.7701704811932341
41	0xbfee4acf7ca1342b	-0.9466321405576584
42	0x3fc28db19cc33a3e	0.14494915155815308
43	0xbfe4ace58957784d	-0.6461055452780414
44	0x3fb2b88d23343503	0.07312852963896792
45	0x3fe36792045783cb	0.6063928684999323
46	0xbfef89aa02289545	-0.9855546991499656
47	0x3fb97e05a9dea14c	0.09957919499595852
48	0x3fa72ffa0302f8bf	0.045287907474162996
49	0x3fd85fdf122d8644	0.38085152411631307
50	0xbfe6a60fd7f10968	-0.7077712266548533
51	0xbfd51595a14ff8e8	-0.32944241288340814
52	0xbfde87f1b50390b0	-0.47704737355366955
53	0xbfd46a910f7e0a00	-0.3190043116848358
54	0xbfc2c269669edc78	-0.146557974918071
55	0x3fde0c5e359e37d4	0.469504883157126
56	0x3fe0830756e549cb	0.5159947106533819
57	0xbfeec002550c73a3	-0.9609386120897522
58	0xbfd99b68e5429d59	-0.4001104582661888
59	0x3fe40c038f17c6e6	0.626466540792731
60	0x3fe4fa007b9e3da4	0.6555178083817066
61	0xbfd14f0a9ff22974	-0.27044931049081034
62	0x3fe2ba03623a6a90	0.5852066916007335
63	0x3fdc8e85756564e3	0.4461988111921313
64	0x3f90b1bc217c97c2	0.016303004783502002
65	0x3feac83062c43a9c	0.8369371346505718
66	0xbfc5902afbc69327	-0.16846215528234973
67	0xbfec9523f2576de9	-0.8932056172592954
68	0x3fb8044aeb025672	0.09381550061729074
69	0x3fac4b7c9a4c4e9b	0.055263418040479816
70	0x3fbd250ab6d0cc1e	0.11384646380683747
71	0xbfaa58c14e80f35a	-0.05145839770600587
72	0xbfc294be9f4f2de0	-0.14516432551168545
73	0xbfe0b4bb43cec336	-0.5220619511002045
74	0xbfe2db2a379cffd6	-0.5892535291859484
75	0xbfec99d7ea583992	-0.8937797143023991
76	0x3fe4fee7c2c5be86	0.6561163715504825
77	0x3fdab85ea161b7cb	0.41750303039486586
78	0xbfe4d2624e74b2fb	-0.6506816418019236
79	0x3fe54e7405422f0d	0.6658268072801278
80	0xbfdd2fa67bea08bc	-0.4560333452319687
81	0xbfe1bde8c0f8de00	-0.5544322747218189
82	0xbfb155133b1351e0	-0.06770439331314249
83	0x3fc14fb2af1a99c1	0.13524468946452653
84	0x3fea769ae6eb4f35	0.8269781599178488
85	0xbfd58e513ff0b9ab	-0.33681136364148284
86	0xbfb0d79e624acec6	-0.0657900800677523
87	0xbfd49ad76534f97f	-0.3219507683133073
88	0xbfeb00f1e97fe910	-0.8438653526821174
89	0x3fe1a453d1109183	0.5513094981475181
90	0xbfb82fe5f92fbd7d	-0.09448087056784078
91	0xbf899dfbec35cd00	-0.012508361955701819
92	0xbfe5a220223ae69e	-0.6760407131725577
93	0x3fc498abc35d7964	0.16090914763749276
94	0xbfd0bf8f3535ef3d	-0.26169185825687064
95	0xbf9185d4933d1a7e	-0.0171120848529207
96	0xbfec6851c27a5585	-0.8877342985530708
97	0xbfdbe5b996f9f618	-0.4358962988261239
98	0xbfd19344dece52bc	-0.27461358793633983
99	0xbfd7a11dfc7bd560	-0.3692088094388364

bias f8 [100]
0	0xbfe265d11a8e362e	-0.5749288099920642
1	0x3fd8b6224cbb8619	0.3861165761319128
2	0xbfdfbf77e2d980b0	-0.4960612979248351
3	0xbfea5b6d89fd080c	-0.8236606307111756
4	0xbff3ff17eeef5ec5	-1.2497786839866631
5	0x3fc920f9bf9631f3	0.19631883482760734
6	0xbfef3f75152d7978	-0.9764962590814283
7	0x3f59b6811e46061e	0.0015693913383930734
8	0xbfe73db7f5b45762	-0.7262840079226687
9	0xbfd0c2e9e70c5c40	-0.2618965870219121
10	0xbfd836accb5011dc	-0.3783370957828802
11	0xbfd3e73e4b325544	-0.31098897307795803
12	0xbfe6f3b2e84915f8	-0.7172483956171041
13	0xbfea69c116e10840	-0.8254094549995514
14	0xbfe361aa4fd310dc	-0.6056720313140675
15	0x3fe5ad46bd915acc	0.6774018957611019
16	0xbfe944a1614f7402	-0.789627733287148
17	0x3fdca2e623a7fd4f	0.44744256479312566
18	0xbfe6a4c2a4f2cec2	-0.707612344899154
19	0x3fd3f114ce56daac	0.3115894331962561
20	0xbfd6b96aaa4b5f40	-0.35506693487467444
21	0xbfcf7c3e0afb64c8	-0.24597907577734746
22	0xbfe8ad838993e574	-0.7711808859886973
23	0x3feb19d3ae953db4	0.8469026956390082
24	0x3fd97d56e789c53c	0.39827511416577344
25	0xbf74c291fa7ea000	-0.0050683691296526945
26	0xbfe3ed1d00feab5c	-0.6226944941930515
27	0xbfc078d20c552de8	-0.1286871490686814
28	0x3fdf26c11ce9be62	0.48674037765065326
29	0xbfa674612dc9b2a0	-0.04385665592130761
30	0xbfb1c3d30314d85a	-0.06939429116468557
31	0x3fa24b5cbfbe0da6	0.03573121872525613
32	0x3fd810e20bcf29a5	0.3760304560970787
33	0xbfc08ea821a31110	-0.12935353891783352
34	0xbfce4007dcf3ac38	-0.23632906235374818
35	0x3fc5ebfaedc92d2c	0.17126404390942562
36	0x3fc10a9c8112ca03	0.13313633253490317
37	0xbfe705fe1073973a	-0.7194814988440392
38	0x3feb637b33195d08	0.8558937070874046
39	0x3fc3f2ad88eea4c6	0.15584344087736762
40	0xbfdb36c720371fcc	-0.4252183737376043
41	0xbfe43c3d8afdf0f4	-0.6323535647093466
42	0x3fd1ead51b9d45ff	0.2799580354377155
43	0x3fe2ceaa23aa40d0	0.5877276131232296
44	0x3fd730efd4ce4b9e	0.3623618677312893
45	0xbfe6afd37a25a294	-0.7089631448444202
46	0xbfeaeb0f74a00a18	-0.8411938932261505
47	0x3fe78a71149fb0a7	0.735649624138678
48	0x3fe0f0e0c6a75b2d	0.5294040565448533
49	0xbff0cd7bb0296a6e	-1.0501667863196888
50	0x3ff01619e73ac80d	1.0053957970053518
51	0xbfe0dc109948e056	-0.526863383659484
52	0x3feccb02e3fbde1e	0.8997816517648436
53	0x3fe0e5116937df9d	0.5279624037784633
54	0xbfbc0db5fd66a5d0	-0.10958421169802723
55	0xbfc0388097694aee	-0.12672431367044318
56	0xbff139415a36321b	-1.0764783405203449
57	0xbfdff70c037f3dd8	-0.4994535478735691
58	0x3fe30f2a6188bf84	0.5956012635196974
59	0xbff2d19c37935cb4	-1.176174370853727
60	0x3fa90fde7758cc30	0.04894919592734259
61	0xbfd623edde40310c	-0.3459429426591363
62	0xbfed47477541aa30	-0.9149510660329891
63	0xbfe7f8da982220f7	-0.7491276713708704
64	0x3f9241d8141e4c54	0.017829300144125718
65	0x3fec8935f5f670dc	0.8917493633230396
66	0x3fe0ef8bd8b6242c	0.5292414887090948
67	0xbfccb01a3455d3e0	-0.22412421756203482
68	0xbfca596dff1c5427	-0.20585417706084394
69	0x3fe773d0bf2e6843	0.7328876241692871
70	0xbfd5987d6d3ca244	-0.337432247807133
71	0x3fb28a67b57cbbcb	0.07242439442482788
72	0xbfe17b00a435c636	-0.5462649543025637
73	0x3fecd4a90e5b0d8e	0.9009595184692658
74	0xbfcdebdb6e212f20	-0.23376028897688972
75	0x3fe3a02ef39cdb40	0.6133036382733295
76	0xbfeefae50038aaa9	-0.9681267742465326
77	0xbfef801b5aced925	-0.9843880437463538
78	0x3f74870a53a306a1	0.0050115970026937415
79	0x3fe0a8168101f08b	0.5205185432128173
80	0xbfdb64a5e25d9228	-0.42801806550986266
81	0xbfe841462f9f1f6e	-0.7579680376156668
82	0xbfae72d759178240	-0.05946991884753006
83	0xbfd490b2548f148a	-0.3213315797586992
84	0xbff2a61b5973e6b1	-1.165553426193963
85	0x3ff0ee14e2c55c93	1.0581253870239251
86	0x3fd6fafc5b1ee7c3	0.3590689554072208
87	0x3fe055ed593c0a24	0.5104891531812581
88	0x3fd7a084e3c168f9	0.3691723083662875
89	0xbfec7b9514976e10	-0.890085735528773
90	0x3fe8d3dfa760c67c	0.7758634823896524
91	0x3fe84a20754c8935	0.7590486804004174
92	0xbfe1f5a3e3706658	-0.561235374657552
93	0xbfc634785d786c8d	-0.17347626270279584
94	0x3fea4ee37c73affe	0.8221299582196477
95	0x3fe4efeeb59f3cf0	0.6542886302285336
96	0x3fac0db1849d899c	0.05479197257843113
97	0xbfd72f14e3e924d4	-0.3622486329737289
98	0xbfe493f45a2b09d6	-0.6430608521553107
99	0xbfdc917aafd6f2ac	-0.446379348486327

weight f8 [100, 100]
0	0x3face340f9ee7086	0.05642130900307145
1	0xbfaa985cbcd3b8fb	-0.051943681764770454
2	0x3fb22fa3bc190305	0.07103942243794499
3	0x3fb6e5cb1c470a43	0.08944386902207051
4	0x3fa910954a1de807	0.04895464448686942
5	0x3f931c1442680009	0.01866180091201389
6	0xbf7ba658af7357d0	-0.006750437190211359
7	0x3fc567bdc8a4d938	0.16722843453471525
8	0x3fa8a0b108e7ac01	0.048100979172737375
9	0xbf3517a1dac92800	-0.0003218431618604578
10	0xbfb992cfce41da71	-0.09989641938759931
11	0x3fb872f2233b5d5f	0.09550393448022508
12	0xbfb1ea9739614730	-0.06998582030180667
13	0x3f948a5d82ff0d14	0.0200590716556351
14	0xbf99743b30ae4ba0	-0.02485744938492085
15	0x3f77103762642050	0.0056306994868081245
16	0x3fa5429e8b50aef2	0.04152389002442004
17	0xbfb91f6f8f395b37	-0.09813592192345487
18	0xbfa3ac169a758a50	-0.03842230449187822
19	0xbfb9159a283a374e	-0.09798587305178083
20	0xbfb552ae026d09be	-0.08329284247614674
21	0xbf862528257531c0	-0.01081305851280312
22	0x3fa4fd621d3db72e	0.04099566084810956
23	0xbfaf0e67c48ac431	-0.06065677904315015
24	0xbfb6e9b796a9942c	-0.08950374058038396
25	0x3fb63cc559ed9b63	0.08686479039680033
26	0xbfb94c85780bb011	-0.09882387333681232
27	0x3fb28a32447f41e1	0.07242120907108741
28	0xbfafd7dbf8dcb4ee	-0.06219375050418728
29	0x3fb5ae7806b1f0b7	0.08469343341306766
30	0xbfb826b6cd9eb52c	-0.09434072990434988
31	0xbf5a44957c54d9aa	-0.0016032657452576906
32	0xbfcd2fc787f2d50f	-0.2280206121264787
33	0x3fac99e5b199f0b5	0.05586164277062392
34	0xbfb9317b4a37ff97	-0.09841127931576775
35	0xbfc9be9a75556cc1	-0.20112925271209828
36	0xbfb6d3eaaafc362f	-0.08917109178965953
37	0xbfb36ed1668f0b18	-0.07590969804645586
38	0xbfc3be18f7ae52e6	-0.15423881620213037
39	0xbfb92054adbbb161	-0.09814957849056817
40	0x3fb8fb99ba708c4f	0.09758911897419974
41	0x3fb71f71b42469bb	0.09032354972843042
42	0x3faf9197cb4cafb2	0.06165766102489502
43	0xbfbf99b004187894	-0.1234388360976218
44	0xbfb2b97229764c97	-0.07314218055971576
45	0xbf777b3c62a88c67	-0.005732761269004439
46	0xbfb2e432bcf47f43	-0.07379452813301861
47	0x3fa26498a9c29f79	0.035923739168821585
48	0x3fb16355aafa732f	0.06792197632098572
49	0xbfb28401fe6dbf96	-0.07232677899969384
50	0xbfa8ee20356f3dcc	-0.04869175579335269
51	0x3f963c82e13c8c0c	0.021715207097383213
52	0xbfc13d9110913b36	-0.13469136532736464
53	0xbfce068074976a99	-0.23457341854994665
54	0xbfb9387801bf9761	-0.09851789515195498
55	0x3fb51a565de49d8c	0.08243312637625005
56	0x3fb522e69d56c4e0	0.08256379452975038
57	0xbf97fd5a76cfc74c	-0.02342740392845792
58	0xbfc782a60551241a	-0.18367457637421652
59	0x3fabd62200508dfd	0.05436807874528069
60	0xbfac7b056637d4a5	-0.05562607643870735
61	0x3fac3d971f84caa2	0.05515739688634837
62	0x3fa88018c6cb5da9	0.04785230089845111
63	0x3f61d20520017a2c	0.0021753406618210316
64	0x3f7c159a8f40993f	0.006856540439946378
65	0x3f8ba2330395a034	0.013492964312448043
66	0x3fa49c2e0e85b253	0.040254058144317505
67	0xbfa9daf6cb7ba6e6	-0.0504986880676606
68	0xbfb57dff366a8b17	-0.08395381048698557
69	0xbf6e7ef36eb81361	-0.0037226442852919405
70	0xbf9f8aa972dc817d	-0.03080239070470857
71	0xbf8944cb3517c5ac	-0.012338244970098021
72	0x3fa9600350516cae	0.0495606456322205
73	0xbfa7c5b1f2bc0c6d	-0.04643016899174133
74	0x3fa10aa1d3adf81a	0.03328424176196183
75	0xbfaf335dd0d64758	-0.06093877004890541
76	0x3fb1215b3dc0e522	0.06691522843984335
77	0x3fb36bf50a94d429	0.07586604603132287
78	0xbfab26c1c521480a	-0.053030066789361355
79	0x3faef9d7ae9414a8	0.0604998970611999
80	0xbfb095c3aa8313cc	-0.06478522217646726
81	0x3f53cd460374ca80	0.00120860898261968
82	0xbf9e5d4ab856fbf8	-0.029652755261619007
83	0x3f4049c1a4464437	0.0004970736995791929
84	0x3fae33ce4ebf94b3	0.058988997567021605
85	0xbfb817770a5a078d	-0.09410804751135356
86	0xbfb42cd1e766d510	-0.07880889796691215
87	0xbfc6a75e47fbdaa1	-0.17698267474016396
88	0xbfc1bc89a46ea1e7	-0.1385662129298588
89	0xbfa3ec69c387afb7	-0.03891306411591649
90	0x3f8eb495a0cb4336	0.01499287507013634
91	0xbf91bbd5d98ba694	-0.017318097498821475
92	0x3fb91526a748d8e1	0.09797898849578558
93	0x3f976157d4e1590a	0.022832271927051763
94	0x3f9d97e82b8fa481	0.02889979139209631
95	0xbfb9d6e56aea771d	-0.10093530521632173
96	0xbfa2bb275d792b21	-0.03658411994964284
97	0x3fb277dae51b2b4f	0.07214134305392615
98	0xbf9a741656371204	-0.025833462726739156
99	0x3fb2341db310bfe7	0.07110772725786739
100	0x3f8ada481d575430	0.013111651797695328
101	0xbfa01be86eb18fa3	-0.03146292067756853
102	0xbfb6b64eb34713a9	-0.08871929051299667
103	0xbf87eff9da501dc0	-0.01168818662155402
104	0xbfb65d0c6a486ecc	-0.08735730738447528
105	0xbfb1858e6493c12c	-0.06844415622231698
106	0xbface9cead0454c3	-0.05647130834601335
107	0x3f8d7d5e4d729dce	0.014399277437702997
108	0xbf9ae0e93d0642a0	-0.0262485927101489
109	0x3fa02dab6ff03d6a	0.031598431982383726
110	0xbfb04e6ef1638f59	-0.06369679826053466
111	0xbfb8a478b378440b	-0.09625963574968936
112	0xbf91fbe154fabf78	-0.017562409221397485
113	0xbfb3f8a5f33e31f3	-0.07801282108830047
114	0xbf93a9c8243b3aa0	-0.019202353679072304
115	0xbfc1b5ff7f9eb275	-0.13836663943711228
116	0x3f5f589432d3c2c0	0.001913208699360222
117	0xbfc361a501b269ec	-0.1514173754010949
118	0xbfb89c52451fe846	-0.09613527476895553
119	0xbfc42056ce577004	-0.15723691058417455
120	0x3f8c234c675e5e90	0.013739201454696898
121	0xbf442a5baee78d80	-0.0006154010459877152
122	0x3fb5c10924eaeb05	0.08497674132642537
123	0xbfbeb331012abe1a	-0.11992174414148629
124	0xbfb0554f19a01094	-0.0638017118035939
125	0x3f9297f26a25a958	0.018157756546693576
126	0x3f7386a98839fbb0	0.004767095789815309
127	0x3f9c1fc30cfc645c	0.02746491209754641
128	0x3f74f907875036a0	0.005120305450885404
129	0x3fa7cc2b1428b682	0.0464795553310582
130	0xbfb5bc4e7a6d4006	-0.08490458001074339
131	0xbfc1f69ac45f793b	-0.14033827389261852
132	0xbfc065ce5eb53e12	-0.12810687660611159
133	0x3fae59552b14c276	0.05927530432598342
134	0x3fb4d2606e9d9385	0.081335093503709
135	0x3f80ba548f2fc77e	0.008167896861752896
136	0xbfc294d9e1dc7e1d	-0.14516757515319592
137	0xbf9e1cbc1177ea74	-0.029406488958537882
138	0xbfb0674c0c7d8a1c	-0.06407618813458565
139	0xbfc4d297d974f278	-0.16267679327019713
140	0x3fad1772206a890e	0.05681950231270792
141	0x3f77774a5ceafc50	0.005728998642268016
142	0xbfb550dd5ff10e0c	-0.08326514808964464
143	0xbf91e7728e8e3fac	-0.017484464598566937
144	0xbfc6e0bb5798e477	-0.17873327042778772
145	0x3fb8cdd303dd9369	0.09689062923787407
146	0x3f8e6103e2fc7f90	0.014833479275296019
147	0xbfc1a1b38ad08fa1	-0.13774723318158258
148	0xbfac1aa54bb51d66	-0.0548907904545171
149	0x3f8bba319cc5d4e8	0.013538730236840782
150	0xbfa924b9b5e04c96	-0.049108317805939425
151	0xbfb5426eeda8ccf9	-0.08304494192343616
152	0xbfad20690874b60a	-0.05688789585324734
153	0xbf94644ced3197ae	-0.019913866021304898
154	0x3fb0f337e52596c9	0.06621121735005454
155	0x3f72326dd58fe620	0.004442624130200495
156	0x3f908b2f05efcb54	0.01615594362005919
157	0xbf9ffdadcf5463c4	-0.031241145877263468
158	0xbfbe938541ebee86	-0.11943848475851312
159	0xbfb8d41c32122fc9	-0.09698654386937657
160	0xbfb848e2832f7a3c	-0.09486213400621407
161	0x3fa0f5a48e60995a	0.033124105815931684
162	0x3fa3a60522e83ed2	0.03837600756753336
163	0x3fa76bf1bdb418ba	0.045745424658933456
164	0xbfbf57a533a10195	-0.12243111143562253
165	0xbfc1b4b4ed26b7be	-0.1383272321667714
166	0xbfad9d082a757102	-0.05783868330283505
167	0x3fa3c243ac4ee3fa	0.03859149435397309
168	0x3f8d2f2314d47dd8	0.014250063012297184
169	0xbfc1aac8cffa161e	-0.13802442698595113
170	0xbfb3f2256954de5b	-0.0779136068493868
171	0xbfc684e3b5b92800	-0.1759304654427183
172	0xbfb87e5eecd63b9b	-0.09567826540135942
173	0xbfc502beb5f56975	-0.16414626965235937
174	0xbf9d35fae121792c	-0.028526229849711246
175	0xbfb7da23fb5a820f	-0.09317231070100028
176	0x3fac704e49f0370e	0.055544325376201895
177	0x3fb242637ad6a1b1	0.0713255095385026
178	0xbfaf1496c12e3d0c	-0.060703955728167086
179	0xbfb2672f537a11d1	-0.07188697612770702
180	0xbf8c8a3297038b40	-0.01393546603543927
181	0xbf93123fbef38b98	-0.018624301938767823
182	0xbf983015ee93d1a4	-0.023620932280168497
183	0xbf80b9e91229bf90	-0.008167096010964575
184	0x3fb21e6acafeb255	0.07077662902765643
185	0xbfb097d5cc3e9c18	-0.06481682049216919
186	0x3f8c69238994f031	0.013872411380923296
187	0xbfb09f5019c06249	-0.06493092182825778
188	0xbfbefe075db57d12	-0.12106367147270117
189	0xbfb04c02c89b6054	-0.06365983388548219
190	0xbfb7869b02fdb965	-0.09189766715073729
191	0xbfa6a58ce044eba7	-0.04423179853116404
192	0x3f8dcb10cd8ace68	0.014547473213816178
193	0x3fa3bc8cc10c777a	0.03854789597083559
194	0xbfa45eb5474c480c	-0.0397850656064663
195	0xbf9ea9a8f3ac26d6	-0.02994407641657556
196	0x3fb2e29dc571d556	0.07377039022852236
197	0xbfb383b89d5be280	-0.07622865525980593
198	0xbfb13ce8139b80d4	-0.06733561018654949
199	0x3fb8f43bc54b89ad	0.09747670714162977
200	0xbfadc50329f09609	-0.05814371001205749
201	0xbfa86fe2dc416e69	-0.04772862375895388
202	0x3fa897178e5d39f2	0.0480277406010038
203	0xbfa64c1183b3cc66	-0.04354910595602561
204	0xbf88dadca41193e8	-0.012136195904711003
205	0xbfa123cf06aaa54c	-0.03347632366542061
206	0x3fb48faa9d68e88d	0.080317176275374
207	0xbfb8a81e053c12d3	-0.09631526592063304
208	0xbf6db9e375b85560	-0.0036286776137425675
209	0xbfb9016f14c3ed04	-0.09767812973943896
210	0x3f72061d8becc450	0.004400363365491947
211	0xbfb6e0f466e9985b	-0.08937003624450439
212	0x3faa0c0a4efe0cc2	0.05087310995352247
213	0xbfb17ca03ce3004b	-0.06830789076320902
214	0xbf922f0740404f24	-0.017757523819525237
215	0xbfb704c91ac4ebe6	-0.08991677192254563
216	0x3fa566bf6582ad92	0.04179952730313653
217	0xbfb21a2a8b0e633b	-0.0707117642872505
218	0x3fad317897c925ee	0.057018059280902963
219	0x3f778ea0d295d980	0.0057512552387976035
220	0xbf94833450efcfc0	-0.020031754913318656
221	0x3fb7a60248168167	0.0923768449779395
222	0xbfac64a92b1d02cc	-0.05545548106466
223	0x3fb158f4409bbe8d	0.06776358201363504
224	0xbfb94f7d2db542cc	-0.09886915555876924
225	0xbfb423a9ce7f38b6	-0.07866917888097444
226	0xbf80816865ede768	-0.008059325800548314
227	0x3fb157b8ea6a1b4d	0.06774478648195022
228	0x3fb122a78a1173b3	0.06693503495030377
229	0xbfb38c44a5065118	-0.076359072007396
230	0x3fb2b408185542bf	0.07305956453388783
231	0x3fb5e95235457399	0.08559144783562402
232	0x3fa710aecb281392	0.04504915456713045
233	0x3faf83884c6323aa	0.061550387692086275
234	0xbfb9793cbcf4dcb4	-0.09950618375011083
235	0xbfb44682197a766e	-0.07920086977034099
236	0xbf857ceb84ef64f0	-0.010492172235830627
237	0x3fad4ecf5bb40c7e	0.05724189752984275
238	0x3fb3a1ad7c1f28e9	0.07668575554194813
239	0xbfb65b84d8f8e2f4	-0.08733396813557787
240	0xbfb05db3ae3446c3	-0.06392977717430441
241	0x3f947755a7417b4c	0.019986475308879023
242	0xbf99f937d03f7158	-0.025364753804624968
243	0x3fb700dbfe51c4f5	0.0898568626305581
244	0xbf961c8df0af6758	-0.021593301596886633
245	0x3f842cc3e237a3b0	0.009851007786851301
246	0x3fb2ae3ba9b8a947	0.07297108548724394
247	0xbfa22b9d354a6b36	-0.035488999133312424
248	0x3fb5ecf0e943500d	0.08564668364425661
249	0x3f7d28068c268430	0.007118249488855574
250	0x3fb506c3b9bf3033	0.08213446888766
251	0x3fa21950b6c97b3a	0.03534939032828395
252	0x3f8e9b27bd15f340	0.014944372613848622
253	0xbf8feea2626608e8	-0.015591877582441474
254	0xbfa283142a4da322	-0.03615630165479035
255	0xbf8ad953fedc56b0	-0.013109832968932394

bias f8 [100]
0	0x3fa42b8919801679	0.03939464985164149
1	0xbfb4dc96ab0d16c7	-0.08149091411641073
2	0x3f99d5165d0c4c90	0.02522692625923334
3	0xbfa9b7e5b45ff726	-0.05023114992944348
4	0xbf8dd131085ab5d0	-0.014559157435850262
5	0xbf796718d9cea826	-0.006201836656069692
6	0x3fb30fc066a0fe6c	0.07445909982288307
7	0xbfb61dcb1e862eef	-0.08639211173266025
8	0x3f9246d9277e133f	0.017848389659337768
9	0xbfb7fdc7bbf4e8d5	-0.09371612871919706
10	0x3f7e2722135b1792	0.007361538989874366
11	0x3f7e5bbff5c7c4a0	0.007411718219814706
12	0xbfbaca5a66f889ff	-0.10465016378342538
13	0xbfb921ac24e7894d	-0.0981700506304481
14	0xbfb1807ae1663862	-0.06836669924652619
15	0x3fa93f11b985c77d	0.04930930509261964
16	0xbfa5a741f27143f0	-0.042291699261688964
17	0xbf9bf34047129317	-0.027295116746830574
18	0x3fa83712a4aef3e8	0.04729517231269381
19	0xbfa1982fe815f6d3	-0.03436422069624503
20	0x3f9e2275d8cf8310	0.029428330762928445
21	0xbfae75007297eb34	-0.05948640250058759
22	0xbfa5b06bb09ba6eb	-0.04236160784587447
23	0x3f87feea63ace20f	0.011716681639527797
24	0x3f5c7cd33910e8c0	0.0017387449954769235
25	0xbfa57c3df580195a	-0.04196351644354719
26	0x3fb584477a68b70d	0.08404967058660535
27	0x3fc1c8a6df2e21df	0.13893590829344668
28	0xbfc6185c3e368583	-0.17261841809981257
29	0x3fb9d393a1843279	0.10088465398093573
30	0xbfc096b87a5f9bda	-0.12959962821261578
31	0xbf934c3d9920c0a0	-0.018845522376239487
32	0xbf8f2db1becf05e8	-0.015223873744505803
33	0x3f9750c2529c8a7c	0.022769008915143094
34	0xbfbeef414f6bff78	-0.12083824337969229
35	0x3f82ccbc43d46d9b	0.009179564304352896
36	0xbfb4cb68e851741f	-0.08122878715353508
37	0x3f88d4e89e7a2299	0.012124841057145107
38	0xbfba6e6030d4a585	-0.10324670021204525
39	0xbf9acfe5644acfa6	-0.02618368553767394
40	0x3fc52baad441e70c	0.16539512027866754
41	0x3fb3accc22ef28b8	0.07685542920003996
42	0xbfb4674c9c5e6c48	-0.07970122163389803
43	0x3fb06c8820a6be19	0.06415606305267153
44	0x3fb23f593f97a6c2	0.0712791233305792
45	0xbfb33e709f9891b7	-0.07517150780092306
46	0xbf8336ac8906c9a1	-0.00938162606403098
47	0x3f936075b3bf8c8f	0.018922652336084197
48	0xbfb4f169529d350f	-0.08180864588685587
49	0xbfa62d17cd20d81a	-0.04331278208739793
50	0xbf874657fcd91d41	-0.011364638713657118
51	0xbfa99cc04fb4cbd7	-0.05002404187180048
52	0x3fa982e508fb3248	0.04982677206644276
53	0xbfb264982ca5551c	-0.07184744920717318
54	0xbf5bc4fb3eca4740	-0.0016949132506493686
55	0x3fae447680f7c978	0.05911608051600842
56	0xbf83ef2f62499077	-0.009733553111068922
57	0xbfbabf78712b246c	-0.10448410761741095
58	0xbfc038ec7b94997a	-0.12673717531397327
59	0x3fb17660282dc972	0.06821251851014212
60	0xbfbd4352ef0d32e2	-0.11430853210658712
61	0x3f938bf75eb9c6df	0.019088616520497644
62	0xbfab412bb4e6e964	-0.053231588204158325
63	0xbfad7ed3291681d8	-0.05760822178422459
64	0xbfbbc91049182e6b	-0.10853673729450868
65	0xbfa3569f2875f194	-0.037770246209194586
66	0xbf90e926b9f7ba58	-0.016514401531760065
67	0xbfc05ca149c99f58	-0.12782684424314072
68	0x3fbb9028e5d7512f	0.1076684533248382
69	0x3fac37635d4799b4	0.055110077988320155
70	0x3fa555281d1d4864	0.041665319017412356
71	0x3fb2adc5f7bc4e2f	0.072964070303265
72	0x3faf8040eb2687f5	0.06152537222375535
73	0xbf9e3150b63e0ae7	-0.02948499786681227
74	0x3fac2610f31adbf9	0.05497792213048309
75	0xbfb02856b6e52612	-0.06311552014553737
76	0xbf95ac78cc7e3286	-0.021165740472087545
77	0xbfb983cba939a0be	-0.09966729051086795
78	0xbfaf8b72acf543dc	-0.061610778439564945
79	0xbfc263af9d16e2f4	-0.14366717501049886
80	0xbfa18f1a0d39639e	-0.03429490481784757
81	0xbf9f80e6668f7442	-0.03076515198687369
82	0x3fb792c8d6cc5454	0.09208350414367433
83	0x3f58480688b43880	0.0014820159729569682
84	0xbfb0531efbe8f162	-0.06376832628388265
85	0xbfbe6e6b1de9a0d0	-0.11887235145843822
86	0x3fa8f51d4b4f4fe4	0.048745074694721585
87	0xbfb947b19c864067	-0.09875021048924425
88	0xbf9a3979e08f05a8	-0.025609878855680585
89	0x3fb7dfa0a1b375db	0.09325603435305345
90	0x3f513686ec0d9680	0.0010505979155025769
91	0xbfb9d670e5b8d2ed	-0.10092836006590362
92	0x3fc547442f6ce393	0.16623737636271282
93	0xbf99c395aeb76220	-0.025160158909644292
94	0xbf738dc4c4d81f46	-0.004773872974972287
95	0xbfbad3f604f1d75a	-0.10479676838607813
96	0xbfb4cee0d3df8c88	-0.08128171131788708
97	0xbfa132f654fd04a3	-0.03359193599181622
98	0xbfa0c471ae100927	-0.03274874925411302
99	0xbfc0b870ec3b338a	-0.13062869581918007

weight f8 [2, 100]
0	0xbf5d29266de8c992	-0.0017798304830987971
1	0xbf866ec690fd11df	-0.010953475284289858
2	0xbfaed6d2aff94a59	-0.060232719403434394
3	0x3f5d25286b9e9a9d	0.0017788786630973726
4	0x3f707487029e97e0	0.004017379173012231
5	0x3fa52bf2f762e04a	0.04135092992640972
6	0x3fad617b90458b0e	0.05738435875061586
7	0x3f71df1ac8dd5f02	0.004363159778072891
8	0x3f4191d1d4c4b9ee	0.0005361818853424885
9	0x3fb622a3f8db8ee5	0.08646607232691002
10	0x3fa9de6795d524f6	0.050524937667953226
11	0xbfafd2fbab7c6c7f	-0.06215654819808324
12	0xbf7e5fc0b702d7bc	-0.007415535728957975
13	0x3fa403ab3cac5cb6	0.03909049144402259
14	0x3fb29d17c407a7c7	0.07270954643141102
15	0xbf8cd2d4b9605d07	-0.014074003131141056
16	0x3fb08e83001adff3	0.06467455627978307
17	0x3fb17843d622aa5a	0.06824134805598572
18	0x3fb73be3e58c9021	0.09075760225511022
19	0xbf72863936d583c5	-0.004522536747885779
20	0x3faf373d49410182	0.06096831816876415
21	0xbfb5a2e7a48f1200	-0.08451698081541537
22	0xbf96405e4a419f7a	-0.021729920656440062
23	0xbfc21187b47e1932	-0.14115997613061776
24	0xbf9b781fc34d4e80	-0.026825424475943382
25	0xbfc1abf33c35f819	-0.13806000175458236
26	0xbf537ee32224dd19	-0.0011899202441563782
27	0x3f99d91104df4e77	0.025242105409985584
28	0x3f9d9d54dd6bc2b9	0.028920484556638402
29	0x3f93b91a4698b4aa	0.01926079803358919
30	0xbf7dc14e27e24b10	-0.00726442842109766
31	0x3f53744d48100abe	0.0011873964979264707
32	0xbf9897581bfbc824	-0.02401483221814983
33	0x3fbe75b7dd44e1b2	0.11898373748852611
34	0x3fbc2f2104146a18	0.11009413098910448
35	0xbfc2f0799befa212	-0.14796371568742522
36	0x3fbe01a7fcd9007b	0.11721277163542425
37	0xbfc4387f8677aa3b	-0.15797418657105475
38	0x3fae99ed19167dc3	0.05976811343429802
39	0x3fbcb95e9a8bde91	0.11220351479630099
40	0xbfbb4be841a5327c	-0.10662700274151321
41	0x3fb3caaad7d314e5	0.07731120843080282
42	0x3fa5bddfa8ba40de	0.04246424612677101
43	0xbf87dec079ab1be4	-0.011655334198975305
44	0xbfa855d560d26779	-0.04752985770137647
45	0xbfb6565a2c15cdba	-0.08725513054178338
46	0xbf9d5d712c61e866	-0.028676765760316768
47	0x3f82f9d1bd43155d	0.009265554989165531
48	0x3f713f693dd4e470	0.004210864162183289
49	0xbfb258b202a178f8	-0.07166588367678972
50	0xbfc066e902b30902	-0.12814056999020101
51	0x3fb7703b0cd1ec3f	0.09155625403393318
52	0xbfb1a2643a616d69	-0.06888414788538956
53	0x3f87b98ba30c4128	0.011584368623090827
54	0x3fb0d6c8212bff57	0.06577730951175674
55	0xbfaa906b077180c9	-0.051883072527517955
56	0x3fba83dc46b6ffac	0.1035745308536195
57	0xbfa25160f46c5222	-0.035777120434577606
58	0x3f9fc37a72d82fb5	0.031019128093290955
59	0xbfb89a1f02904627	-0.09610170185649079
60	0x3fb305d39e51faa5	0.07430765738716134
61	0xbf9b12d40b8d251f	-0.026439011769331274
62	0x3faafa37140c29de	0.0526902400943816
63	0x3fc0e5a4841baef8	0.1320081372317572
64	0x3fc1a1c4f5a854e2	0.1377493094920857
65	0x3fb52cb4daf56ff5	0.08271341653511384
66	0xbf9cf25aab81dcec	-0.028268257825826135
67	0x3fb19d2c032a5b7d	0.06880450322419836
68	0x3fa8ec4724ed65b3	0.04867765737317189
69	0x3fa3323646c3c5d6	0.037492462290071124
70	0xbfa36bfe4e9c9341	-0.03793329915632749
71	0xbfb4f6c7c9644b12	-0.08189057032386085
72	0x3f98bc5bcb631f0a	0.024156030930298868
73	0xbfb5ca7a5a4fc210	-0.08512081818458506
74	0xbf766f5bf88f4d2f	-0.0054772942175589775
75	0x3f997a04f83fa5df	0.024879529621022797
76	0x3fc2341afadfa430	0.1422151303261514
77	0xbf88b8f5b3a9bd55	-0.012071532769566554
78	0x3fa2d5cfea77666a	0.03678750741137267
79	0x3f5770b63b13c9c6	0.0014306811902399116
80	0x3faa5af48cd0b36a	0.051475183667526306
81	0xbfc0c751b82b377c	-0.13108273975961626
82	0x3fa5f94ba4685b6a	0.042917598552029215
83	0xbf9afbb5682a03a0	-0.02635081718699761
84	0xbfbc2b9deecad15b	-0.11004054145707214
85	0xbf8c7b43d9138a62	-0.013906984388488645
86	0x3fb144b5aa3aea6b	0.06745467573174728
87	0x3fa7891e71e3c39e	0.04596800937895938
88	0x3fa029c4b4166c62	0.031568667395924135
89	0xbf8570a465265619	-0.010468754135938107
90	0x3faa1184cdd0ab66	0.050914907573619314
91	0xbfc0a44ba0a7b659	-0.13001389832008917
92	0x3f551be056ea18ae	0.0012883845153353435
93	0xbfaadec47928c78c	-0.05248083094592379
94	0xbf28e0bb7d34375c	-0.00018980301556619894
95	0x3fa9a89ff506fa55	0.050114630375436654
96	0xbfb26a252056a12e	-0.07193214454185146
97	0xbfb9cc07acaf763c	-0.10076950040771576
98	0x3fa9df8b4739857f	0.050533630794926225
99	0x3fc1d5cfae3ce584	0.13933750159939617
100	0x3f80b6bf08b00e92	0.008161060764911885
101	0xbf7d219a2915a219	-0.0071121236700055985
102	0x3fb5753f2ed6d4ed	0.08382029431853129
103	0xbf9e28e0f79b81fc	-0.029452815163383037
104	0xbf9791d9a5f73220	-0.02301731181596456
105	0xbfb356516c8c2e78	-0.07553585910880567
106	0xbfb96e154d7425de	-0.09933598652801076
107	0x3fa568c8e5065d1e	0.04181506915773013
108	0xbf8080fc6958a354	-0.008058521237289597
109	0x3f70a3c828716903	0.004062444560157144
110	0x3f8e2be60d490e71	0.014732167511403578
111	0x3fb9787a8fc25083	0.09949460992567265
112	0xbfa03387dae99f63	-0.03164314791939551
113	0xbf73f33f1b027da0	-0.004870649820218814
114	0x3fab90763191cb7e	0.05383653025719236
115	0x3fa03e2acf3d1924	0.03172429828423365
116	0x3f648a0f2462bba0	0.002507237982249902
117	0x3f48dfcbd45c7e06	0.0007591004620940984
118	0x3fb5cbe1edbbd14d	0.0851422505764436
119	0x3fb34eb1587b907b	0.07541950617047803
120	0xbfb54d0b0ded56de	-0.08320683565156226
121	0x3f9f67029f09eabc	0.030666390377954697
122	0x3f88e473c17fcda2	0.012154487936618722
123	0x3fa0fb48f2966434	0.033167152035453645
124	0xbfa52602c857cf93	-0.041305624919828386
125	0x3f5ac21a8f612d6f	0.0016331920028445875
126	0xbfa3cf3ea758795d	-0.038690526893548884
127	0xbfb1eb219420b411	-0.0699940668716439
128	0xbfa965cba864e2e9	-0.04960476332275283
129	0xbf70f98c6a1bdf98	-0.004144237989514375
130	0xbf0092df691c6949	-3.161186499607783e-05
131	0x3f8ed0f3e65b9fc5	0.015046983211007512
132	0xbf947f3c14f6c0e0	-0.020016611842664456
133	0x3f89dbef648024f6	0.012626524214299977
134	0x3f9df14e18c84fc5	0.02924081827411819
135	0xbf9ee7f5a0da8dce	-0.030181730215771023
136	0x3fc17ab1db5deb9e	0.13655684672616258
137	0x3f6cd5c968f24c8f	0.0035199102199584063
138	0x3fa015fc88c9099f	0.031417743394303026
139	0xbfb84b7534e5846e	-0.09490139523906446
140	0xbfaa7e8617e90081	-0.05174655000564688
141	0x3fb65c6e68c71041	0.08734788950010942
142	0x3f80564b9a1bf0ab	0.007977095261132957
143	0x3fa2211bf40e4a6f	0.03540885309407293
144	0xbfb75ff73dd85280	-0.09130807170761024
145	0xbf7ce44ebff6093f	-0.007053668610185248
146	0xbfab6b6570e51df3	-0.053553743392111296
147	0xbfb14b2199a90263	-0.06755266190976665
148	0x3fbbd9174029d0b3	0.10878129307258426
149	0x3fa4e455055cb7ee	0.040804535774768044
150	0x3f9112a280b59ca5	0.016672648530769014
151	0xbf75fb0669c1cb00	-0.005366349269126713
152	0xbfa9bbeefb0f2b36	-0.05026194395721577
153	0xbfa2c8a0b30afea2	-0.03668691812117443
154	0x3fb7174f01cb6b33	0.09019941133321367
155	0x3fa37e0ebf8aeb5e	0.03807111824195063
156	0xbf954034531d227c	-0.0207527328232424
157	0xbf6fec4ac69331a3	-0.0038968525374000903
158	0x3fb008bf026162e6	0.06263345535388573
159	0x3fab3514d8d9d84a	0.0531393542013779
160	0xbf5cd55805112240	-0.0017598495071685788
161	0xbf9104de4aa15cc6	-0.016620133690904003
162	0xbf902be11f0ba0a0	-0.015792386550771753
163	0xbf948a0795f7a70f	-0.02005779126003576
164	0xbf9a506b8e93c5bd	-0.02569740350458515
165	0x3f9b13a61a7dcfe3	0.026442141882810587
166	0x3f761dab8d5503b0	0.005399389386469375
167	0x3f9494f3cec3daf2	0.020099458212793082
168	0xbfaba89d97216d53	-0.054020809839779325
169	0x3fae5bb8a4ded06e	0.05929352772310002
170	0xbfb3681fd5bdaf84	-0.07580756157193319
171	0xbfb23d270ff103f7	-0.0712456144256207
172	0x3f6582d0f23d9384	0.0026258545857892907
173	0x3f98154106933c56	0.02351857760077921
174	0xbfb7c7321b210761	-0.09288323557214319
175	0x3f912a27af80df56	0.016762371146085663
176	0x3f6e2d83f5b07a8d	0.003683812841259132
177	0x3f849566c1550975	0.010050585532216808
178	0xbfa2376bca4ea5cd	-0.03557907909937406
179	0xbfab22399b534fc4	-0.052995491228699204
180	0xbf9b2db8959d3d00	-0.026541599399306115
181	0xbf8c355771d9155a	-0.013773615991463362
182	0xbfb96708bfda31cc	-0.0992284267796954
183	0xbf7765f12897c530	-0.00571245386662271
184	0x3f9606be8f5ecd7e	0.02151010274947173
185	0xbfa3fecfef4a214e	-0.039053438148644135
186	0x3fb89b680c8dd18b	0.09612131411069506
187	0xbf99da7127ce5f24	-0.02524735265214341
188	0xbf5b9771dccbc480	-0.0016840564668963165
189	0xbfa5ca47a9f1cb86	-0.04255889844434706
190	0xbfb72780984ac2c3	-0.09044650762622113
191	0xbf9e62f023810d5f	-0.029674293677328985
192	0xbfb9732ee200b40a	-0.09941380517621226
193	0x3f8bee404af6c1ed	0.013638021743504114
194	0xbfa0db247f628cda	-0.03292192511551102
195	0x3fa09b9684bd3644	0.03243704195356803
196	0xbf95e66df1be2f3f	-0.02138683116895312
197	0xbf7176acdab2ced2	-0.004263568126748845
198	0x3fa3fba339e724cc	0.03902921754667829
199	0xbfa173784e1060a6	-0.034084090737623016

bias f8 [2]
0	0xbfc9aa2dd8cd9f36	-0.20050595365614193
1	0xbfbac1f0154fa07e	-0.10452175636567237
