Pinns/Models/F1_model_PINNS.pt (torch, 44623 bytes, 5 tensors)

weight f4 [100, 1]
-0.16755521 -1.7981757 1.244311 -0.38357678 -0.847055 0.31097138 0.028350981 0.86843204
-0.38813692 -0.5165652 -0.49788797 0.26601532 -0.61940277 1.409318 -1.1086425 -0.605435
0.07325102 -0.46836427 0.8483326 0.28494546 -1.04567 1.5673486 0.22346376 1.4705032
0.67578554 0.4797382 0.023672568 -0.6327707 0.53211623 -1.2455796 -0.6587473 0.9130471
-0.8503753 -0.77429515 -0.8433952 1.0537114 -0.43485153 -0.7152355 0.91007453 0.60551894
1.2286239 -0.23625976 1.3354264 1.9141254 0.6218039 0.67875683 -1.7927251 -1.0595179
0.61465836 0.12628777 -0.8594105 0.9031472 -0.16727667 0.92024213 -1.017758 0.4199734
0.31482852 -0.6102332 1.1817563 -1.1522293 -1.1158477 -0.32481447 0.14356966 -0.6792419
-0.048384313 0.08294552 1.3860437 -0.77446896 0.6396325 0.97751206 -1.0713359 1.1888146
0.1081595 -0.96733725 0.21067388 -0.93055725 0.2346127 -1.2117366 -0.46808952 -0.26348984
1.2778214 0.7035885 -0.72886735 0.24951921 0.123716034 0.7130193 -1.1283318 -0.42099607
-0.32266754 -1.1116016 0.29622585 -0.53304803 0.94917244 -1.5682918 0.53771996 0.43509692
-0.10186718 1.3242078 -0.9565371 -1.2744406
00000000: 9893 2bbe 9f2a e6bf 9545 9f3f 2d64 c4be
00000010: 99d8 58bf a437 9f3e 5140 e83c 9051 5e3f
00000020: e2b9 c6be 9e3d 04bf 2ceb febe 2933 883e
00000030: 2e91 1ebf 8864 b43f ffe7 8dbf cafd 1abf
00000040: a104 963d 71cd efbe 532c 593f 5fe4 913e
00000050: 84d8 85bf e19e c83f afd3 643e 7339 bc3f
00000060: 4800 2d3f 3fa0 f53e f9ec c13c 43fd 21bf
00000070: c538 083f 276f 9fbf aaa3 28bf 74bd 693f
00000080: 32b2 59bf 3538 46bf bfe8 57bf 04e0 863f
00000090: dca4 debe ac19 37bf a5fa 683f 4a03 1b3f
000000a0: 8c43 9d3f 14ee 71be 41ef aa3f 1002 f53f
000000b0: 8a2e 1f3f 02c3 2d3f 0478 e5bf 489e 87bf
000000c0: 405a 1d3f 9551 013e 5402 5cbf a834 673f
000000d0: 934a 2bbe fd94 6b3f e545 82bf c106 d73e
000000e0: 3431 a13e 3e38 1cbf ca43 973f 407c 93bf
000000f0: 19d4 8ebf 154e a6be ed03 133e cce2 2dbf
00000100: a12e 46bd 57df a93d e169 b13f 9943 46bf
00000110: f5be 233f 3b3e 7a3f 8921 89bf 142b 983f
00000120: ba82 dd3d 6aa3 77bf e5ba 573e 0039 6ebf
00000130: 503e 703e 2f1a 9bbf 6ea9 efbe 24e8 86be
00000140: a78f a33f 601e 343f 0d97 3abf f781 7f3e
00000150: d55e fd3d 6f88 363f 2d6d 90bf cc8c d7be
00000160: ae34 a5be f648 8ebf eaaa 973e d675 08bf
00000170: f7fc 723f c9bd c8bf 04a8 093f 06c5 de3e
00000180: bd9f d0bd a47f a93f 9edf 74bf df20 a3bf

bias f4 [100]
-0.5091975 0.0063869846 0.16441266 -0.002703962 0.44156274 0.35190135 -1.0191028 -0.7967173
-0.2526121 0.36458918 0.0002905984 0.73210615 0.36547524 0.37217864 0.1357159 0.22814883
-0.27333874 0.22076209 -0.80076694 0.7125713 -0.4056659 0.04329652 1.0766169 0.08221924
-0.5390999 -0.27013183 -0.92597526 -0.863259 0.86313635 -0.07111783 -0.53518426 -0.16062987
-0.25269127 0.51969737 0.6159979 0.13906609 0.5192448 0.31089944 0.46350634 0.3019034
0.01535932 1.02446 -0.12447801 -0.022213062 -0.28208807 0.7961992 -0.00026751656 -0.06217568
0.5129234 -0.315944 0.17375368 0.17311859 0.5077564 -0.46706152 0.04940221 1.0529433
0.27762252 -0.43141913 0.5743614 -0.011150352 -0.15597272 0.8399674 0.37104803 -0.6159027
0.9852452 1.000173 0.23715478 -0.19994079 0.31470215 0.60400134 -0.58992994 -0.09939356
0.7301698 0.55899805 0.44752058 0.119781375 -0.80993813 -0.06729123 -0.0547337 -0.004731495
0.4532776 0.023302872 0.6684139 -1.0665039 0.021849483 0.58148885 -0.92640823 -0.29692063
-0.07149383 0.3314214 -0.9770024 0.68848145 -0.080419786 0.066219166 -0.25613678 -0.3812771
-0.30555 0.2962441 -0.29526156 0.045536276
00000000: c45a 02bf e949 d13b cb5b 283e f434 31bb
00000010: 8314 e23e 6a2c b43e f671 82bf aaf5 4bbf
00000020: 6056 81be 6fab ba3e 755b 9839 4f6b 3b3f
00000030: 921f bb3e 338e be3e 1cf9 0a3e d99f 693e
00000040: 0ef3 8bbe 750f 623e 10ff 4cbf 136b 363f
00000050: 71b3 cfbe b157 313d 95ce 893f 9062 a83d
00000060: 7302 0abf b84e 8abe b70c 6dbf 8bfe 5cbf
00000070: 81f6 5c3f 3aa6 91bd d601 09bf 287c 24be
00000080: c060 81be e30a 053f 0ab2 1d3f 5767 0e3e
00000090: 3aed 043f 362e 9f3e b450 ed3e 1593 9a3e
000000a0: a8a5 7b3c 8121 833f 54ee febd 2bf8 b5bc
000000b0: d96d 90be b6d3 4b3f 7741 8cb9 edab 7ebd
000000c0: f34e 033f 69c3 a1be 7cec 313e 0046 313e
000000d0: 53fc 013f b022 efbe f959 4a3d d9c6 863f
000000e0: 8a24 8e3e f8e2 dcbe 5909 133f f7af 36bc
000000f0: 50b7 1fbe 1b08 573f 02fa bd3e cdab 1dbf
00000100: 0839 7c3f ab05 803f b4d8 723e 47bd 4cbe
00000110: a420 a13e d59f 1a3f a605 17bf da8e cbbd
00000120: 68ec 3a3f 7f1a 0f3f 6b21 e53e f04f f53d
00000130: 1b58 4fbf fccf 89bd 7230 60bd a80a 9bbb
00000140: 0014 e83e aae5 be3c 2c1d 2b3f 3383 88bf
00000150: b0fd b23c 74dc 143f 1729 6dbf fb05 98be
00000160: 5b6b 92bd 11b0 a93e d41c 7abf 5240 303f
00000170: 21b3 a4bd ea9d 873d 5c24 83be c136 c3be
00000180: 0d71 9cbe 4fad 973e 862c 97be 3f84 3a3d

weight f4 [100, 100]
0.029590756 0.13012935 -0.0016656673 0.09416701 0.25279456 -0.08179946 0.084778845 -0.24854343
0.111476794 0.581539 0.14604028 -0.11126876 0.5163769 -0.036061354 0.04943697 0.22459593
-0.067267746 0.064284824 -0.13587725 0.050183665 0.034820337 -0.18255001 -0.018537404 -0.057408936
-0.3939341 -0.29965547 -0.04501122 0.11767286 -0.04905919 0.19705915 0.111304335 -0.22970295
0.066997334 0.34466475 0.13352467 0.0023046855 0.092434 0.583335 -0.08063637 -0.12644388
-0.062447175 0.036116745 -0.2338182 -0.17437054 -0.44117644 -0.07526286 0.16003264 0.08561092
-0.067539155 -0.066719495 0.07177221 -0.1733881 0.053498626 -0.15194634 0.20280506 -0.10434322
-0.025931722 0.122170374 -0.09180836 0.06386685 0.019838592 0.060928263 -0.039816037 -0.043271534
0.0026103242 -0.016678441 -0.022536356 0.14179662 -0.16390665 -0.036558513 0.12941404 -0.19840483
-0.12443359 0.3554839 -0.1160007 0.20608981 -0.07588423 0.1528481 0.036931552 0.036853455
-0.063976064 -0.028447228 0.36495247 0.098421566 -0.013052179 -0.046850957 0.13239384 0.12799658
0.1489795 0.28572565 0.0053437725 0.051333588 -0.14479434 0.11973326 -0.54955125 -0.45224103
-0.053884752 -0.11930961 0.1366552 0.14881934 -0.1442552 -0.09250867 -0.029588213 -0.08100904
0.16831699 0.0018659779 -0.05301815 -0.20391007 -0.011422657 0.30113685 0.0070382995 -0.0030069733
0.065249115 -0.0052050385 -0.042930763 0.08228987 0.046019256 -0.01649443 -0.054145314 0.04243455
0.008705672 0.06290636 0.09020133 -0.015657881 -0.11627277 -0.021775156 -0.018273886 0.030409083
-0.039074108 -0.027961122 0.05138033 0.050542697 -0.03140013 0.09094927 0.03529647 0.053930502
0.09806995 0.09271432 0.07632326 0.0025458205 0.11168607 0.10478774 0.05756838 0.03276516
-0.14626159 -0.015697217 0.03924814 -0.06455379 -0.0045057796 -0.06659419 0.028134976 0.05617866
0.061016474 -0.07567277 -0.09207186 0.13780996 0.02545498 -0.07433267 0.0779072 -0.0599443
-0.10230336 0.013638443 0.06367331 -0.11682822 -0.01119659 0.0028741406 0.100161046 -0.049632907
0.12023627 0.1366904 0.016046176 0.047290474 0.025542922 0.18920049 0.034625128 -0.010547489
-0.038362443 -0.040137228 -0.02510791 -0.07946776 0.010354878 0.08628115 0.23970082 -0.096394524
-0.060601432 0.017797641 -0.1506426 -0.026163759 -0.06787435 0.039303567 -0.15074185 0.096169576
-0.0045172754 0.06038352 -0.20847821 -0.25047025 0.020694356 0.048086178 -0.07596391 -0.10773365
-0.16574305 -0.4379942 0.22226177 -0.37982708 -0.5812153 0.20735574 0.0031028022 0.44664955
-0.1480205 -0.76025754 -0.29651657 0.12493359 -0.81555015 0.13408436 -0.52963847 -0.48298964
0.041107833 -0.42128205 0.44351113 0.21105322 -0.2920207 0.3629275 0.075825 0.26924986
0.60716206 0.5792253 -0.08519445 -0.1850904 0.06683779 -0.2949966 -0.23371746 0.55995643
-0.19306944 -0.6266611 -0.53031003 0.41233203 -0.28511438 -0.9018096 0.28341997 0.18606643
0.32616436 -0.0052771177 0.57976913 0.34768108 0.8743308 0.13984597 -0.42448086 -0.3313444
0.28755486 0.035525326 -0.53912234 0.29525518 -0.03480744 0.697093 -0.521663 0.091439866
00000000: 5068 f23c a140 053e 8552 daba a2da c03d
00000010: 4a6e 813e 7a86 a7bd 88a0 ad3d 2b82 7ebe
00000020: f24d e43d bddf 143f 958b 153e e0e0 e3bd
00000030: 4731 043f 12b5 13bd 6c7e 4a3d 7afc 653e
00000040: acc3 89bd c3a7 833d 6823 0bbe 638d 4d3d
00000050: c59f 0e3d 64ee 3abe c1db 97bc a225 6bbd
00000060: bbb1 c9be 716c 99be af5d 38bd 78fe f03d
00000070: 4af2 48bd e0c9 493e 87f3 e33d 4037 6bbe
00000080: e635 893d e677 b03e b1ba 083e 350a 173b
00000090: 094e bd3d 7155 153f ae24 a5bd 817a 01be
000000a0: 9cc8 7fbd 27ef 133d 0a6e 6fbe 318e 32be
000000b0: e1e1 e1be 6a23 9abd 99df 233e c754 af3d
000000c0: f851 8abd 3ba4 88bd 4ffd 923d a68c 31be
000000d0: 6021 5b3d d297 1bbe 21ac 4f3e e6b1 d5bd
000000e0: c36e d4bc 7634 fa3d 0506 bcbd a0cc 823d
000000f0: 8b84 a23c ea8f 793d 2416 23bd 7e3d 31bd
00000100: f911 2b3b 3aa1 88bc 2a9e b8bc 2233 113e
00000110: 25d7 27be 61be 15bd 1d85 043e a32a 4bbe
00000120: 0ad7 febd fc01 b63e c691 edbd 3509 533e
00000130: 3169 9bbd 3684 1c3e 8a45 173d a6f3 163d
00000140: e205 83bd 290a e9bc 0ddb ba3e 3f91 c93d
00000150: ced8 55bc cae6 3fbd 4092 073e 8911 033e
00000160: 158e 183e a24a 923e d01a af3b 2b43 523d
00000170: f844 14be b636 f53d 64af 0cbf 238c e7be
00000180: 42b6 5cbd 9958 f4bd 57ef 0b3e 1964 183e
00000190: a3b7 13be 3075 bdbd fb62 f2bc 11e8 a5bd
000001a0: 4a5b 2c3e d493 f43a 8f29 59bd cdcd 50be
000001b0: 1926 3bbc 9c2e 9a3e 89a1 e63b a410 45bb
000001c0: 54a1 853d 078f aabb 2bd8 2fbd 9787 a83d
000001d0: b07e 3c3d 541f 87bc 7ac7 5dbd dacf 2d3d
000001e0: 3ca2 0e3c 0dd5 803d 7abb b83d f544 80bc
000001f0: 6b20 eebd d061 b2bc 1eb3 95bc 781c f93c
00000200: 2c0c 20bd b90e e5bc 2e74 523d dc05 4f3d
00000210: 6c9d 00bd 9c43 ba3d 0893 103d 3be6 5c3d
00000220: e6d8 c83d 01e1 bd3d 5f4f 9c3d c8d7 263b
00000230: abbb e43d f49a d63d d2cc 6b3d c334 063d
00000240: 99c5 15be 7397 80bc a8c2 203d c734 84bd
00000250: 38a5 93bb 8962 88bd 527b e63c 981b 663d
00000260: 69ec 793d 53fa 9abd 2c90 bcbd 0e1e 0d3e
00000270: f686 d03c ba3b 98bd cf8d 9f3d 2888 75bd
00000280: 6d84 d1bd c773 5f3c 2767 823d a243 efbd
00000290: e771 37bc 145c 3c3b 3c21 cd3d e04b 4bbd
000002a0: 6f3e f63d 91f8 0b3e 4573 833c a8b3 413d
000002b0: 643f d13c c6bd 413e 14d3 0d3d 60cf 2cbc
000002c0: f021 1dbd ef66 24bd 1baf cdbc febf a2bd
000002d0: 82a7 293c 2cb4 b03d 2274 753e 7e6a c5bd
000002e0: 3539 78bd 5ccc 913c 0e42 1abe 6155 d6bc
000002f0: b501 8bbd c7fc 203d 125c 1abe 8ef4 c43d
00000300: a705 94bb b654 773d 507b 55be a33d 80be
00000310: 3687 a93c 03f6 443d f792 9bbd 76a3 dcbd
00000320: 8cb8 29be c740 e0be 9798 633e b278 c2be
00000330: 87ca 14bf 1055 543e 6258 4b3b 40af e43e
00000340: b092 17be 3da0 42bf 05d1 97be 2fdd ff3d
00000350: e5c7 50bf 694d 093e 6396 07bf 6b4a f7be
00000360: b060 283d 48b2 d7be e413 e33e 561e 583e
00000370: bd83 95be a2d1 b93e 234a 9b3d 1edb 893e
00000380: f96e 1b3f 1c48 143f 6e7a aebd 5688 3dbe
00000390: 40e2 883d cb09 97be a153 6fbe 4e59 0f3f
000003a0: ffb3 45be dd6c 20bf 66c2 07bf 2f1d d33e
000003b0: 83fa 91be fedc 66bf 6c1c 913e 3388 3e3e
000003c0: 04ff a63e aceb acbb c06b 143f 4103 b23e
000003d0: 25d4 5f3f c833 0f3e 8e55 d9be f9a5 a9be
000003e0: 643a 933e 0183 113d ec03 0abf b02b 973e
000003f0: 3f92 0ebd b074 323f b58b 05bf d344 bb3d

bias f4 [100]
-0.054002505 0.15287805 0.084706105 -0.086520866 -0.11047886 -0.094518185 0.03321198 0.07565567
0.0052032964 -0.062379118 -0.12644593 0.100295134 -0.008983475 0.044117942 0.15705949 -0.037683483
0.048037544 -0.11988587 0.0013482155 0.03651123 -0.07817878 -0.06969846 -0.08204853 -0.1083706
-0.13498431 -0.159298 0.009180823 0.018275807 0.06489887 0.20773172 -0.106304176 -0.037950482
0.0015582007 -0.023192005 0.0346307 0.008547864 0.13339554 -0.14608061 -0.028226685 -0.021226386
-0.06628551 0.08583089 0.091899104 0.15923604 0.054831058 0.034626883 0.08085701 0.12521471
-0.027941147 -0.043300558 0.07832987 -0.03259031 -0.079767056 -0.014062081 0.0028723434 0.15787773
-0.016770165 -0.030679993 0.07982696 -0.10367893 0.006245362 -0.073399246 0.0633396 -0.005654002
0.08986972 0.069593996 -0.021246737 -0.14894149 0.03595553 -0.032741793 0.17923555 0.035918962
-0.02299377 -0.0909957 -0.07322897 0.07238895 0.10647123 -0.14774695 -0.066267386 0.11840698
0.11120172 0.02003343 0.0011006645 -0.10599192 0.009747373 0.07900853 -0.12092698 0.113230065
-0.058235116 -0.10214266 -0.06526059 -0.048859023 0.09374253 0.06565656 0.02945368 -0.057471197
-0.078081585 -0.05045246 0.020010756 0.0037090783
00000000: bb31 5dbd 108c 1c3e 657a ad3d da31 b1bd
00000010: be42 e2bd c092 c1bd 4909 083d 5cf1 9a3d
00000020: 6a80 aa3b 3f81 7fbd 0b7b 01be 8967 cd3d
00000030: 6d2f 13bc 04b5 343d 34d4 203e ff59 1abd
00000040: 04c3 443d b986 f5bd 9bb6 b03a cd8c 153d
00000050: 321c a0bd 11be 8ebd 0f09 a8bd 68f1 ddbd
00000060: 5439 0abe 041f 23be 2a6b 163c 25b7 953c
00000070: b3e9 843d a0b7 543e 01b6 d9bd f771 1bbd
00000080: 8a3c cc3a 29fd bdbc ecd8 0d3d 570c 0c3c
00000090: d798 083e 2896 15be a63b e7bc f5e2 adbc
000000a0: b3c0 87bd 1bc8 af3d 9935 bc3d c60e 233e
000000b0: 8896 603d ebd4 0d3d 5c98 a53d 4938 003e
000000c0: d5e4 e4bc ed5b 31bd 696b a03d 6b7d 05bd
000000d0: e95c a3bd a564 66bc ed3d 3c3b b3aa 213e
000000e0: 9661 89bc 9c54 fbbc 517c a33d 9e55 d4bd
000000f0: e5a5 cc3b 5852 96bd 31b8 813d 3545 b9bb
00000100: 9e0d b83d 4c87 8e3d a30d aebc 1e84 18be
00000110: 1b46 133d 421c 06bd 8689 373e c31f 133d
00000120: 6e5d bcbc f45b babd 12f9 95bd a840 943d
00000130: 970d da3d fa4a 17be 32b7 87bd 5c7f f23d
00000140: babd e33d 261d a43c 2c44 903a 4b12 d9bd
00000150: 72b3 1f3c 39cf a13d 91a8 f7bd 2ae5 e73d
00000160: f287 6ebd 2c30 d1bd 58a7 85bd 6620 48bd
00000170: 15fc bf3d f276 863d d848 f13c eb66 6bbd
00000180: 3de9 9fbd 3da7 4ebd 99ed a33c 0214 733b

weight f4 [1, 100]
-0.3493007 -0.20089002 0.3825581 0.1860265 -0.23628858 0.16340005 -0.18225591 0.43124393
-0.243919 0.18605585 0.19991799 -0.17411593 0.17352965 0.33606347 0.31968176 0.2786055
-0.2016875 -0.25971076 0.16843997 -0.18863754 0.30672494 -0.39014047 -0.3754179 0.20824465
0.16556701 0.294766 0.208441 0.17153867 -0.09947116 0.39980355 0.14337878 -0.11904469
0.20121735 -0.39989024 -0.19325513 0.19121125 -0.1671485 -0.3571249 -0.20228562 0.21753605
0.13089448 -0.18739396 0.29674593 0.2988115 -0.18329671 -0.3050485 -0.1731819 -0.11769193
0.2030534 0.13884339 0.19288193 -0.48673955 0.21770944 -0.092394024 -0.16893809 0.27984336
0.20369361 0.15402018 -0.20538728 0.2104533 0.22356944 0.19115172 -0.19360417 0.11228291
-0.11314695 0.29086867 0.21645562 -0.36499658 0.15582511 0.18388343 -0.27323318 0.19035672
0.20060405 0.18096054 0.23212203 -0.23828985 -0.17590411 -0.37267143 0.14619952 -0.22234029
-0.22591934 -0.1998178 0.20835887 0.16049473 0.20611441 0.48509902 0.17425337 -0.18540834
0.1769503 0.21888067 -0.38035113 -0.15363324 -0.30518708 -0.17407408 0.25928813 -0.24583216
-0.30087113 -0.2171421 -0.17927358 -0.20568228
00000000: 8bd7 b2be 1db6 4dbe a8de c33e bb7d 3e3e
00000010: a2f5 71be 5852 273e 4ba1 3abe 01cc dc3e
00000020: e7c5 79be 6d85 3e3e 4db7 4c3e 724b 32be
00000030: c2b1 313e 8310 ac3e 54ad a33e 61a5 8e3e
00000040: 2b87 4ebe cff8 84be 877b 2c3e 332a 41be
00000050: 0d0b 9d3e 7ec0 c7be c636 c0be 163e 553e
00000060: 668a 293e 92eb 963e 8f71 553e d5a7 2f3e
00000070: 89b7 cbbd 0db3 cc3e e3d1 123e b4cd f3bd
00000080: ec0b 4e3e 6abe ccbe ace4 45be e2cc 433e
00000090: fa28 2bbe 13d9 b6be f623 4fbe c5c1 5e3e
000000a0: 3409 063e 34e4 3fbe 15ef 973e d2fd 983e
000000b0: 22b2 3bbe 512f 9cbe 9956 31be 7708 f1bd
000000c0: 3bed 4f3e f62c 0e3e d782 453e ed35 f9be
000000d0: 39ef 5e3e 1439 bdbd 1bfe 2cbe a147 8f3e
000000e0: 0f95 503e 77b7 1d3e 0b51 52be 1281 573e
000000f0: 63ef 643e 47bd 433e 2c40 46be 95f4 e53d
00000100: 97b9 e7bd bdec 943e 8ba6 5d3e d5e0 babe
00000110: 9e90 1f3e f04b 3c3e 38e5 8bbe dfec 423e
00000120: 266b 4d3e b84d 393e 66b1 6d3e 4102 74be
00000130: 3520 34be cace bebe 54b5 153e 2cad 63be
00000140: 6657 67be 0a9d 4cbe 075c 553e bb58 243e
00000150: a80f 533e e65e f83e 7a6f 323e afdb 3dbe
00000160: 7632 353e 4122 603e 62bd c2be 0852 1dbe
00000170: 7b41 9cbe 7a40 32be 6ac1 843e 6dbb 7bbe
00000180: c80b 9abe 805a 5ebe 7e93 37be 609e 52be
