Pinns/Models/F26_model_PINNS.pt (torch, 5519 bytes, 4 tensors)

weight f8 [100, 1]
-1.242351353951632 -559.4373131863092 -1.438688381019628 -1.4043286248002758 -12.169131156954196 -1.482450231256525 -1.3023041933974397 -31.6987606102611
-1.4853105288577704 -2.9246571045862977 -3.1946451099935755 -1.382940848722259 -160.44574353366212 -3.1299350176386187 -1.5604280192540854 -3.492827339040971
-2.9218965075899734 -3.223260095381913 -1.6490588364141197 -1.5815173167304954 -1.2827059028150707 -1.858100972080376 -1.9281411638003378 -1.2010913386829045
-1.397736833931418 -3.0802576414916576 -16.480496995540086 -3.1082446150406287 -1.2052926752493296 -3.3741467354011765 -1.5488944379352518 -1.4394761968127796
-1.2299401106588546 -7.384029004018961 -1.4985597099348817 -3.334207763880837 -1.3127062133133027 -2.679672191831411 -3.4122057148904106 -1.2221921890606375
-1.8736531195410173 -2.39878569468309 -1.304189947616449 -1.3734855622033821 -1.5230273729105483 -1.3901039553597319 -15.005370319708275 -1.3877119002287561
-1.3811587937426728 -7.929368507777665 -3.1090678523932684 -1.474277319575349 -1.5520263933879814 -1.2754784250205415 -1.326553747342502 -1.8467404519926442
-1.3817295323982377 -1.4390477446432848 -1.5186126151300248 -1.3807262451292435 -1.175543561840096 -3.1251184368330773 -2.140641573125721 -3.4311692995534084
-3.349582248255545 -2.2444201034135465 -3.333434630337392 -3.0259832861042195 -2.0159027655578994 -323.54026275900816 -1.4121794654424105 -1.3730214273276384
-5.2275256657859 -1.2651291956120763 -3.146180308966649 -1.7891889796603089 -1.3966183726070975 -1.3489986093289301 -3.2874119644621214 -2.230267886167956
-8.222128981815947 -3.339641110781536 -3.486649500052597 -2.662677328899206 -3.5044412804906306 -2.593174662973397 -3.18166525742831 -1.3156256591171158
-1.5080879514609664 -1.4892434515465334 -1.604444898703166 -2.1054103531819264 -68.49836975982784 -1.2468095075636842 -3.4230196480138195 -1.4564235694435999
-3.113599884258246 -1.3275782422457294 -1.9504430229626986 -2.9523958974661966
00000000: 39d1 35d0 abe0 f3bf 764a 0e9e 7f7b 81c0
00000010: f3d4 991b de04 f7bf 53a9 c54a 2178 f6bf
00000020: b1b4 e75b 9856 28c0 501c d3bb 1db8 f7bf
00000030: e05e 01ec 3cd6 f4bf efcd b0f9 e1b2 3fc0
00000040: d193 1df9 d4c3 f7bf 96b2 c19f b265 07c0
00000050: 66fd 6d18 a28e 09c0 8b08 5995 8620 f6bf
00000060: 6f6f f187 430e 64c0 87e7 da5e 1b0a 09c0
00000070: 6c55 e75e 83f7 f8bf 9f0b be75 4ff1 0bc0
00000080: 172a b346 0b60 07c0 5656 c196 3cc9 09c0
00000090: 5d41 b984 8b62 fabf 76a4 161a e54d f9bf
000000a0: 50a1 ef9f f685 f4bf 3204 bc15 c8ba fdbf
000000b0: 5480 898c aad9 febf 536e 328d ab37 f3bf
000000c0: 7f66 624c 215d f6bf a4af 4b1e 5ea4 08c0
000000d0: c2ab e1d9 017b 30c0 778a 4c5a afdd 08c0
000000e0: 15de e4f8 e048 f3bf 31a0 c3a4 40fe 0ac0
000000f0: 1a36 be88 45c8 f8bf cde6 4a31 1808 f7bf
00000100: 2c18 75ae d5ad f3bf 56e8 33e6 3e89 1dc0
00000110: 8460 14bf 19fa f7bf f87f bf1e 75ac 0ac0
00000120: 75fc f63a d800 f5bf 1755 5ff9 f76f 05c0
00000130: cd6d 8582 324c 0bc0 ca12 9765 198e f3bf
00000140: fda1 87b1 7bfa fdbf 4c36 e68d b630 03c0
00000150: ba8d 4c47 f6dd f4bf 3411 33ff cbf9 f5bf
00000160: 8304 59f3 515e f8bf f5f6 24a5 dd3d f6bf
00000170: 3f08 07e6 bf02 2ec0 550a bc64 1134 f6bf
00000180: 4952 9bf6 3919 f6bf 7e59 cb60 acb7 1fc0
00000190: a497 58f7 5edf 08c0 7bf8 8cd0 a396 f7bf
000001a0: 5815 a2a0 19d5 f8bf 1278 a310 5c68 f4bf
000001b0: 838e 136c 9039 f5bf 7e23 58b7 3f8c fdbf
000001c0: b915 196d 901b f6bf ea01 8aed 5606 f7bf
000001d0: 826c d4bd 3c4c f8bf 95f1 3867 7417 f6bf
000001e0: 6a06 12c4 06cf f2bf 0199 5218 3e00 09c0
000001f0: 8343 68b0 0820 01c0 0cf8 c4e3 0873 0bc0
00000200: 6228 1cc7 f1cb 0ac0 412b f586 92f4 01c0
00000210: 3d39 85c6 dfaa 0ac0 5c7b a0b9 3635 08c0
00000220: a6e5 0fa1 9120 00c0 fd12 90ea a438 74c0
00000230: d286 c27e 4998 f6bf 6b45 f150 e5f7 f5bf
00000240: 4b34 f67c fce8 14c0 02e6 851c f83d f4bf
00000250: c0a5 f294 602b 09c0 fd12 a09f 84a0 fcbf
00000260: 9171 b581 8c58 f6bf ffac d690 7f95 f5bf
00000270: 5cc0 dea4 9e4c 0ac0 8b48 83b0 96d7 01c0
00000280: 5bc9 d0e3 ba71 20c0 7178 39c2 95b7 0ac0
00000290: a9b9 3a7e a8e4 0bc0 be61 7bc5 294d 05c0
000002a0: 4ead 9382 1809 0cc0 e14a 925b d2be 04c0
000002b0: c7ca 1bea 0c74 09c0 bafb ba7d cd0c f5bf
000002c0: 8743 f0d4 2021 f8bf d7ca 02f1 f0d3 f7bf
000002d0: 48a0 026a ceab f9bf 069c 1c62 e1d7 00c0
000002e0: a9f1 464a e51f 51c0 083f b586 eef2 f3bf
000002f0: 3e47 0e20 5862 0bc0 3c24 fecc 824d f7bf
00000300: 98bf 5d0e a7e8 08c0 a539 d5ae c23d f5bf
00000310: f160 45be 0335 ffbf f0b1 83bd 819e 07c0

bias f8 [100]
-3.08568777786982 0.34038850992979197 -2.5358380962684666 -2.768617717093384 -1.1925774225299313 -2.6257844025704995 -2.861407643601252 0.529192369492818
-2.9850312066818443 -3.3392840069747955 -1.4128310857234359 -2.176135336074342 0.008575350605770662 -1.566533456961891 -2.7853870092953894 -2.360444700567002
-3.4905862002226944 -1.8010864799220936 -2.564851503249323 -3.0318798374781064 -3.109723960792151 -2.8038963446336744 -3.447549329393222 -2.2080396723404845
-2.619254059822274 -1.4186276684154793 0.9247075067062934 -1.0887255211990203 -2.4020153742317834 -3.0148063385484205 -2.9919575330563357 -2.410588675146311
-2.101007922167233 -0.13966236220177336 -2.440329394668278 -1.8936797168134847 -2.959041488339511 -3.245271199604532 -1.580461903996537 -0.960552291701115
-2.570189627851486 -2.863451717821604 -2.953206518948974 -3.029626539514506 -2.503117001774705 -2.9964063258520923 -0.4807763333774954 -1.0716356043913164
-3.0923141146823707 -0.607075683309855 -1.7317043813804447 -3.0136348949253438 -2.5767663272327495 -2.4342232260280317 -2.781139737245754 -3.0591025373498764
-3.301000703372392 -2.7581044562177253 -2.1023640068604696 -2.1278702386157446 -2.238438942620445 -3.476845316777623 -3.021186931017924 -2.024317004184227
-2.953316628058733 -2.787815250992667 -1.628641762566853 -3.4949904044678783 -2.6308495369146203 -0.6301865329443098 -3.2866803688242725 -1.9679076407057252
1.3452719209719877 -1.691699550275919 -1.485446993950203 -2.835052371891921 -2.950540133581726 -3.1285555052892855 -1.9477253569267217 -3.597806225513337
0.4357061766769139 -2.8499716337410392 -1.7731850196209655 -3.1320146626414123 -2.5493894348287593 -2.8504249383356544 -1.5505094747294543 -2.0782658565001886
-2.4283600795200417 -2.1652744224228204 -2.8391636774306224 -3.018693459846241 0.24552967892251296 -2.4668727166911744 -2.4372827314516314 -2.643217609652702
-1.5796459570410684 -2.9945533092431686 -2.8089195426947327 -3.434862547676273
00000000: 3cf1 dc12 7daf 08c0 c649 85e3 ecc8 d53f
00000010: 4764 db7b 6549 04c0 8f56 b00b 2126 06c0
00000020: a96c 3b10 cc14 f3bf f918 bb40 9b01 05c0
00000030: 9c55 ceb0 29e4 06c0 fa75 08d6 24ef e03f
00000040: 4ce7 910a 58e1 07c0 c519 9088 dab6 0ac0
00000050: ef44 bfc4 f49a f6bf c8df a0a4 b968 01c0
00000060: 0e68 3a13 f48f 813f bbdb db62 8510 f9bf
00000070: fc03 fdfb 7848 06c0 429d c7d4 30e2 02c0
00000080: 619a 2e75 b8ec 0bc0 cb87 880e 40d1 fcbf
00000090: 126b 6cdd d084 04c0 4cf6 5a37 4a41 08c0
000000a0: dd84 b9f4 b6e0 08c0 c89a ec34 616e 06c0
000000b0: 97b9 28be 9494 0bc0 93c8 27b4 10aa 01c0
000000c0: aed0 f678 3bf4 04c0 34b9 10ed b2b2 f6bf
000000d0: 576a 7532 3497 ed3f f1ec bd73 6b6b f1bf
000000e0: 8784 26d6 5337 03c0 36b6 1ec9 521e 08c0
000000f0: 7ffb 5b6e 87ef 07c0 18e4 1eb7 e248 03c0
00000100: edc2 d23d ddce 00c0 aec1 11cf 74e0 c1bf
00000110: b68a ec6a cb85 03c0 d4ff 4c1a 834c febf
00000120: 2667 9ff1 1dac 07c0 029e 27bf 50f6 09c0
00000130: 05d3 e36b 9249 f9bf 5388 de28 d8bc eebf
00000140: d51f 6194 bf8f 04c0 1fc0 cd5f 59e8 06c0
00000150: 3fc2 49bd 2aa0 07c0 b777 d2d6 ac3c 08c0
00000160: b178 e534 6206 04c0 807f 38e1 a3f8 07c0
00000170: 4704 2319 0ac5 debf 3970 2160 6b25 f1bf
00000180: e928 bc2e 0fbd 08c0 e067 c0fb 296d e3bf
00000190: 1ae7 45a7 0fb5 fbbf 5b4f 9e9c ec1b 08c0
000001a0: 8630 07aa 379d 04c0 d1a1 d706 4a79 03c0
000001b0: c49c c830 c63f 06c0 093a 48c0 0a79 08c0
000001c0: 9975 880e 7368 0ac0 8641 b311 9910 06c0
000001d0: a106 6e38 a4d1 00c0 06e4 e7d4 e005 01c0
000001e0: 5a2e 25ad 52e8 01c0 377c 0647 94d0 0bc0
000001f0: c398 be0d 642b 08c0 e2a9 0d1d cd31 00c0
00000200: 48f6 e177 64a0 07c0 a46d 1215 724d 06c0
00000210: abfd 31aa ea0e fabf d22f 7887 bdf5 0bc0
00000220: d7f5 8dd7 fa0b 05c0 9503 acf2 7c2a e4bf
00000230: 330b c413 1f4b 0ac0 e012 e6b8 8c7c ffbf
00000240: 1bd4 8cd9 3b86 f53f d87c 318c 3311 fbbf
00000250: 7652 2f11 64c4 f7bf c4c8 1df0 2fae 06c0
00000260: e126 1ac9 b49a 07c0 8281 d71b 4807 09c0
00000270: 7271 5910 e229 ffbf 5e66 5fa1 4ec8 0cc0
00000280: d485 df28 9ce2 db3f 4a90 8bed bdcc 06c0
00000290: 7677 5041 f75e fcbf 4519 15b4 5d0e 09c0
000002a0: 0cdc ba49 2665 04c0 ebd5 0e97 abcd 06c0
000002b0: 4a9e e105 e3ce f8bf 717e 70d9 49a0 00c0
000002c0: b49a a30c 486d 03c0 d45e 7965 7b52 01c0
000002d0: e771 3472 9bb6 06c0 7282 b5c1 4826 08c0
000002e0: 97b4 953a 846d cf3f 88aa 4cc3 27bc 03c0
000002f0: c085 b516 8e7f 03c0 715b 2d46 4f25 05c0
00000300: 0a00 ccd6 3a46 f9bf b69f 8a5d d8f4 07c0
00000310: d3c0 27cf aa78 06c0 dc32 2437 997a 0bc0

weight f8 [2, 100]
0.3656294215302652 381.4117929236793 0.5748431489027399 0.4144656818732039 3.6668594598446886 0.4024949936706632 0.40924473692730534 21.512740212653622
0.3931411715696712 0.30721245429226285 0.33327261603862746 0.453949563997751 179.76602655751472 0.43815668382345346 0.4443466555455647 0.1599378169056923
0.42743675359785566 0.3647680497656686 0.4518197815334097 0.45844048650740116 0.3588568359415482 0.30985577773490386 0.4843611647874167 0.48058721218030065
0.40854436847917186 0.5024082897678247 4.661764202716015 0.38644090529769554 0.44961537206397645 0.31012593947006406 0.4979727535342501 0.3270726081104122
0.46328514770224805 2.725771733117053 0.3536824178293528 0.2647743084367582 0.41564831800424823 0.34773400767233326 0.11692568591863496 0.5315687115728328
0.39918753439177007 0.5285484860079881 0.35032452292808136 0.44500090138932125 0.5922973836894445 0.3982871510690177 3.68124490219124 0.5394822838494507
0.42568198377411676 2.7452483001731762 0.4993504747847845 0.4242370121305356 0.3050021607884449 0.49331398813152777 0.49764535269475657 0.5346865760085605
0.4052001024395318 0.39415885118179195 0.38371688597188025 0.44104522930144896 0.4477133105831159 0.33344465784379734 0.4598642663960887 0.18762743065573348
0.30899057089630144 0.4481988724266622 0.20454634521469678 0.3261769976966591 0.40984879886519493 265.0466005557819 0.4496785397419231 0.4414143016416146
0.4933214895277542 0.5360157405531976 0.43434919426359053 0.3621139118554756 0.45659094334158756 0.43597954462197946 0.31010914902001485 0.4444249506928424
2.14424462193417 0.28950126880387544 0.08701831272315352 0.3080499876923018 0.16330774155735112 0.3532660457476993 0.3776516201387369 0.4576426424024038
0.4097334010472963 0.4534749736141655 0.39241760606173237 0.4947922725863954 64.30908669572156 0.46821903494803 0.2272918967447787 0.43779216186372244
0.474292287319664 0.3593621884803503 0.36068269195249286 0.355750452802201 -0.4543840539993701 -1.122614055827331 -0.3613645284943999 -0.41507823087370266
0.15682663807783295 -0.33020664174971065 -0.4454114900541691 0.21646021763098772 -0.33036850400176204 0.3419594495143938 0.9189887034013577 -0.3902495780508479
-0.3253750639305884 0.9261594997044026 -0.2446648683208918 0.5278577760528318 0.46102341165465455 0.8620879223515547 -0.20208440035845543 -0.228765401715578
-0.4581547510755394 -0.09743375790418897 0.012719742186098606 -0.6292364629354017 -0.3882437248248698 1.1267426602887702 0.3312933902105496 1.0093412116675045
-0.5574249370987803 0.3611262916428738 -0.276709341242137 -0.3830499154737097 -0.5741851493530935 3.4949031743530488 -0.33227396289280076 0.7194055609706278
-0.5011098890702912 0.3572810495240324 0.6995080881431457 -0.6542552947027624 -0.06393110262008111 0.30647831982391505 -0.4526898062123752 -0.44674261727394815
-0.3031112979005944 -0.36162427625886057 -2.419733397166271 -0.4731539264021355 -0.43378963988539043 0.48032446559466874 1.0226085166230818 -0.3210549925636784
-0.2988938764055257 -0.5442327648422541 -0.4523883868131045 -0.05239397187389135 -0.3732547770798266 -0.3420052941137954 -0.31124360475106716 -0.41341576411475295
-0.648723954462239 0.37887823120109787 0.12659968516200212 0.6368177240924385 0.4225155162450541 0.16423352736688296 0.7829337706550425 0.36645092069179935
0.01870064825243163 0.2789321459037691 -0.2941316044631216 -0.42152607288647304 -1.0235224616575946 -0.5767713041437893 1.0983480726906247 -0.11167091961130426
-0.3495310799342222 -0.42369056468787203 0.8110088114278572 0.1769154759186412 -3.480413669930934 0.4678197189126206 0.6198557128003014 0.3081454962139908
0.46768862005511497 0.2925953671852091 0.8609111449786775 -0.4883965724880995 -0.33202904524775106 -0.3207427418089271 -0.21269747882573423 0.12277820926848394
-0.12432829251966733 -0.4988393562502776 0.5121115853625162 -0.3101778575234648 1.0338223246983265 -0.4353117272628718 -0.02184210267706484 0.3926170863896432
00000000: 8162 fbf1 7866 d73f d43e 2db4 96d6 7740
00000010: dcbd 9b75 1d65 e23f 8e6c 3d11 9b86 da3f
00000020: 437d 9869 ba55 0d40 64a1 a75c 7ac2 d93f
00000030: f46c 4ad6 1031 da3f ffb0 4cf1 4283 3540
00000040: 4e95 a696 3929 d93f 8afc 066d 5ea9 d33f
00000050: 0473 a2aa 5654 d53f dad7 d978 820d dd3f
00000060: 958c 204a 8378 6640 35ea e254 c20a dc3f
00000070: 6dee 69f4 2c70 dc3f 7475 80a6 d778 c43f
00000080: b5ea 73af 1f5b db3f bfa1 1717 5c58 d73f
00000090: 8bcc 5784 9dea dc3f 238b 2dc4 1657 dd3f
000000a0: bf28 94a9 82f7 d63f 9146 f653 add4 d33f
000000b0: 15b9 8df8 c5ff de3f 4e2c ccdd f0c1 de3f
000000c0: 2450 6547 9725 da3f df58 b98c ba13 e03f
000000d0: b150 e183 a5a5 1240 6bc6 85a2 72bb d83f
000000e0: 2dcb b28d 7fc6 dc3f a692 ea77 1ad9 d33f
000000f0: 92a2 ae1c c9de df3f f31a d0f2 c1ee d43f
00000100: c6a2 86bf 76a6 dd3f b7ca 1069 61ce 0540
00000110: 65d3 6f94 bba2 d63f 24a4 e3f0 0ff2 d03f
00000120: 47cd 1d67 fb99 da3f 4538 aa23 4641 d63f
00000130: 4139 157d d7ee bd3f 9107 f962 9c02 e13f
00000140: ebbe 4bdf 498c d93f de25 b883 dee9 e03f
00000150: 58a0 3d8c b76b d63f 0817 8a0f e57a dc3f
00000160: 1c7b 8ea4 19f4 e23f 528a 1064 897d d93f
00000170: 23d3 fb86 3073 0d40 f5f3 bc59 7043 e13f
00000180: 5799 b3a5 5f3e db3f a625 a5bd 44f6 0540
00000190: 8f55 9cb1 5bf5 df3f 339e 36ff b226 db3f
000001a0: d2ec 72c8 2785 d33f a7ca 6bd5 7492 df3f
000001b0: b324 b5e4 6bd9 df3f bf24 b205 271c e13f
000001c0: a912 1469 ccee d93f 744d d00b e639 d93f
000001d0: 1c05 0b45 d18e d83f d204 fac4 153a dc3f
000001e0: 500e bcba 55a7 dc3f e1c2 1d43 2857 d53f
000001f0: 7e4b 3188 6a6e dd3f 67db 3ff7 2c04 c83f
00000200: 3068 3163 80c6 d33f 414d cb52 4aaf dc3f
00000210: 4a52 9b1b 932e ca3f b422 747c 15e0 d43f
00000220: c593 db74 f63a da3f f070 39e0 be90 7040
00000230: e7e4 797f 88c7 dc3f fd64 62c5 2140 dc3f
00000240: afe2 fb4b 9492 df3f 8a26 7a7b 0a27 e13f
00000250: 16fd 1990 60cc db3f 2223 36d4 df2c d73f
00000260: 7452 5338 c938 dd3f 8516 78bf 16e7 db3f
00000270: 82ce 4e0b d4d8 d33f 9023 3059 7571 dc3f
00000280: 2fa6 6eb9 6927 0140 0d71 6a54 3087 d23f
00000290: 388e 4c07 d546 b63f 21fc aa4b 17b7 d33f
000002a0: 9e12 96a0 44e7 c43f cd82 5130 e99b d63f
000002b0: 1ebf 71b3 712b d83f ece4 975d 044a dd3f
000002c0: 66ed 6471 1239 da3f 258c 4ee5 bb05 dd3f
000002d0: 6039 1abc 5e1d d93f 0d9d 4435 adaa df3f
000002e0: 2e70 9013 c813 5040 a5da 9df8 4cf7 dd3f
000002f0: b512 959f e617 cd3f c196 696a c904 dc3f
00000300: 8c1c b209 ce5a de3f 3e4b bc43 caff d63f
00000310: 29d4 8adb 6c15 d73f 37a6 148c 9dc4 d63f
00000320: 8a13 f0da a014 ddbf d1ee fc27 3af6 f1bf
00000330: 9958 f4af 9820 d7bf f094 b848 a490 dabf
00000340: 41cc d730 e512 c43f ef2a cf09 1b22 d5bf
00000350: f5e5 c231 9f81 dcbf e618 cee9 f7b4 cb3f
00000360: 8f39 14f0 c124 d5bf 2f3d 0ee3 a9e2 d53f
00000370: a412 50ff 5a68 ed3f 7065 c05d d9f9 d8bf
00000380: a502 a1ee f1d2 d4bf 3186 433f 19a3 ed3f
00000390: 5e8d f5ab 2d51 cfbf 30c2 a2fd 35e4 e03f
000003a0: 44d0 ef56 6881 dd3f 36d9 1869 3996 eb3f
000003b0: 9021 49d1 e6dd c9bf 1790 6947 2f48 cdbf
000003c0: f617 184e 6852 ddbf 4991 b933 6bf1 b8bf
000003d0: 3b6d 9fe5 ce0c 8a3f b843 b881 b422 e4bf
000003e0: a400 4035 fcd8 d8bf 432c cf4f 2307 f23f
000003f0: 2e75 1531 e933 d53f 02df 69f8 4226 f03f
00000400: 420d 5ad2 6cd6 e1bf de3d 1573 b11c d73f
00000410: de7d c818 9bb5 d1bf 4c7d ecca e383 d8bf
00000420: d140 ca88 b95f e2bf 7143 a4cb 8ff5 0b40
00000430: 1ef6 fb02 fa43 d5bf 7cbd 9dcf 5e05 e73f
00000440: 744a 289b 1709 e0bf f0eb cb55 b1dd d63f
00000450: ee97 3bc9 5e62 e63f 6e76 bfcc a8ef e4bf
00000460: e451 f3ea c95d b0bf 5ee9 243e 579d d33f
00000470: ec8a 3aaa def8 dcbf 84f2 ba58 6e97 dcbf
00000480: a1fe e1ed 2c66 d3bf a72c fe25 da24 d7bf
00000490: e5f1 ee2e 9d5b 03c0 22c1 f767 2748 debf
000004a0: 08b0 299f 35c3 dbbf 6ba8 ccd3 a2bd de3f
000004b0: 871d 78bf 9a5c f03f 4ed3 513d 2a8c d4bf
000004c0: c3ba 08c8 1321 d3bf ad17 cdd4 5a6a e1bf
000004d0: 75f5 9c6b eef3 dcbf ab6c 69f7 61d3 aabf
000004e0: 538d 2801 68e3 d7bf 67c4 512c 6ae3 d5bf
000004f0: d0ad df4b 6aeb d3bf 8984 a164 6775 dabf
00000500: ec81 11bd 58c2 e4bf e433 0b7b 8a3f d83f
00000510: 7733 ba21 6b34 c03f 83af 4f90 cf60 e43f
00000520: dacd 1485 7e0a db3f 2247 79ae 9a05 c53f
00000530: 46b7 7c1f cb0d e93f ab76 fd8f ee73 d73f
00000540: 74fd a142 4326 933f 2d6d 1d37 06da d13f
00000550: 42e7 785d 0dd3 d2bf 925b 5d7e 48fa dabf
00000560: 0ca7 b816 5960 f0bf f933 1218 e974 e2bf
00000570: 384b bd6d d592 f13f 6811 a523 7796 bcbf
00000580: e931 509b b75e d6bf de52 bd07 bf1d dbbf
00000590: 1d37 3bc0 c8f3 e93f 1409 9d93 2aa5 c63f
000005a0: d33c 471f e3d7 0bc0 e1d4 491e c2f0 dd3f
000005b0: fde9 d6a5 dbd5 e33f a685 29e3 a7b8 d33f
000005c0: 1547 f63f 9cee dd3f a561 41eb e1b9 d23f
000005d0: 2e40 8e87 958c eb3f 0127 94b2 e341 dfbf
000005e0: 0551 aac0 f63f d5bf edea 9f90 0c87 d4bf
000005f0: 65c4 bfc5 ab39 cbbf 9136 7889 646e bf3f
00000600: fde8 569e fad3 bfbf 615e 43e8 fbec dfbf
00000610: 6c1c e1d5 3763 e03f 9b6c 803a f4d9 d3bf
00000620: 9b43 2747 898a f03f 1232 0ab8 25dc dbbf
00000630: 550a b2b2 c65d 96bf 9c3c 796a a320 d93f

bias f8 [2]
0.35201890470423275 0.20702302178648618
00000000: a3d1 d14c 7a87 d63f 6ac8 0bfa ba7f ca3f
