Pinns/Models/F2_model_PINNS.pt (torch, 4681 bytes, 4 tensors)

weight f8 [100, 1]
00000000: 5acb 93d6 a2a8 efbf 1a4e d79b 0ebb c83f
00000010: 74a0 609e df58 9ebf fa21 bc23 208f c33f
00000020: d486 a491 8ca9 e0bf c4e1 6906 72f4 db3f
00000030: 8076 c2bd 5e1a d3bf b6a1 c7b1 52e8 df3f
00000040: 3d7d ce8a 8f9f d4bf 76a7 9da7 df2a e33f
00000050: 40f3 8ad1 a995 d6bf 007b 1b00 d98b c5bf
00000060: f295 da43 ef70 d8bf 2b8c b09b 2213 c9bf
00000070: 213d d09b 0842 e73f 950a b6f7 77fc e3bf
00000080: e7ab c160 b50b b73f 743f 721c 81f0 e73f
00000090: e9b5 bd52 a470 b4bf 51ea fdff cb95 e73f
000000a0: 2cd8 d316 409b dcbf 70b7 bfb3 178e e2bf
000000b0: 6c29 cc97 2a68 d53f edc2 1263 597f e13f
000000c0: 1cfd b5a1 85ad e43f 5efe af02 1edf e73f
000000d0: 19b5 e10d 7625 e0bf 120f f6ad 7321 e03f
000000e0: aa36 7b95 5fd8 eb3f 9241 3c69 9db1 ce3f
000000f0: 4d7c 08c9 d6e4 ea3f 5a46 591c fd90 8fbf
00000100: 6f6f 75ee db3b d1bf 2e86 18c7 c810 e83f
00000110: d487 e616 c685 e03f a304 fcff 6935 f0bf
00000120: 98cb 0f50 4118 e73f c177 8aee 3a64 c4bf
00000130: 6766 0999 6349 e13f e57a bbcd 98b3 de3f
00000140: 3130 e81c ede8 eb3f bf3c 4a8f 765b e23f
00000150: 0660 f202 dde0 c0bf 06c7 43c4 64ae d43f
00000160: 034d 6ccb 9f80 b43f 34ee a0a7 33ac e5bf
00000170: 45ab 657a e101 e6bf 588b 93ed 4f32 e1bf
00000180: c43d 30de fd11 e6bf ae50 b4a9 4fa0 c2bf
00000190: 5038 61e6 adc4 d9bf c30b ba0e cba3 cd3f
000001a0: 6b69 5f6b cd7c eabf 5db4 eb07 d1de e1bf
000001b0: ce9f 2891 7001 f5bf 4c18 bb8f fd9f e6bf
000001c0: 727e 82e1 d97d db3f c033 0eee cec7 e2bf
000001d0: 56ee 2fcb 0842 b2bf 0f8f 42ec 2056 e1bf
000001e0: faad 94f3 cdac e9bf 33b4 3f3c cb07 d4bf
000001f0: 4db3 8fd4 e1a1 e43f fe07 c40a 2730 e5bf
00000200: a7e5 6f26 3862 d5bf 0440 fce7 86ab 8dbf
00000210: 13f3 a4f5 9c89 e43f e50c 85fc 8448 ecbf
00000220: 18af 8573 c252 f3bf 239d 3e7c 0205 d0bf
00000230: af0d e39a fc68 db3f c8cd ccc6 a670 dc3f
00000240: 6a84 b755 8b1f f3bf c795 ff79 2eee e2bf
00000250: 5063 0810 3e9a e33f 4d38 7b2b 4937 d63f
00000260: 5ab1 f852 a410 e43f 1bfc a0b7 edf7 ce3f
00000270: fecf 0674 d7e9 c4bf 7503 3cfc 513b c43f
00000280: e1e1 07c3 6357 b93f 5e85 5e30 9201 f3bf
00000290: cbdc 8b05 5729 953f b264 12e7 5bee d93f
000002a0: c444 5436 27e1 c03f 8be6 a1bd 4f5b a03f
000002b0: 3aa5 8d03 e9af ee3f dd81 49ed a046 8ebf
000002c0: 4aa3 c642 bd34 cd3f b382 da1d e80e c1bf
000002d0: 9eff 3d00 80d3 ee3f 0574 490e 25e3 ebbf
000002e0: fda3 fa63 72bc dabf 2a34 2b41 52a8 e73f
000002f0: a4c4 ec46 de88 c43f 8670 a31b 3d47 d4bf
00000300: 7605 1acf 8b5a abbf ea5a 9883 5383 db3f
00000310: 4d4d 2c81 e359 eebf 4864 dc4b f176 e3bf
-0.9893354598010362 0.1932085286085659 -0.029635900537102036 0.1528053450094971 -0.5206969112952842 0.4367947638161491 -0.298484502136354 0.49855487214383787
-0.3222388129742802 0.5989836000201041 -0.3528847261730341 -0.1683303118251942 -0.381892982734228 -0.19589645959885735 0.7268107455474003 -0.6245689237697031
0.09002240764827683 0.748108439978735 -0.07984377880139672 0.7370357513276052 -0.44697572926759466 -0.5798452864380419 0.33448281120276735 0.5467955527329572
0.6461818846145522 0.7459859898080585 -0.5045728942037925 0.5040834806136181 0.870162765460653 0.2397953761906249 0.840434448855271 -0.015413262775072645
-0.2692785099695731 0.7520488632764619 0.5163298079753482 -1.013040542544595 0.721710831041821 -0.15930878303055176 0.540208624744264 0.4797117241959497
0.8721833767499502 0.5736649321205717 -0.13186228412519102 0.32314414183120765 0.08008764950163898 -0.6772707246777316 -0.6877295866555434 -0.5373916282809246
-0.68969624897175 -0.14551730905862342 -0.4026293515970609 0.23156107157782743 -0.8277346703646747 -0.5584492830945568 -1.3128514929066912 -0.7070300872080764
0.42955634138522847 -0.5868906640549696 -0.07132010422349686 -0.5417637457325969 -0.8023442990719893 -0.31297570117641554 0.6447610045994253 -0.6621279917019363
-0.3341198325502667 -0.014487317995673273 0.6417984769574069 -0.8838524753595293 -1.2077049744211248 -0.2503057683301952 0.42828288198162573 0.44437570013107264
-1.1952012394251832 -0.5915748961239665 0.6125784218921613 0.3471243786451666 0.6270314808403257 0.24194117990734373 -0.16338627972947956 0.15806031051763694
0.09898971091741472 -1.1878835572645907 0.02066551181175384 0.40517327848062756 0.13187112953941071 0.03194665136193205 0.9589734143639028 -0.014783150903157011
0.2281719757131902 -0.13326741655057148 0.9633178715448485 -0.871477630523828 -0.4177518822057776 0.7392970345332561 0.1604268881142491 -0.3168480653673743
-0.05342518714042914 0.42989051676833745 -0.9484727404509755 -0.608269355932074

bias f8 [100]
00000000: b61b 705d f238 d63f f452 6aec 260c be3f
00000010: 72a1 4d9b 15d1 aebf cbc1 2657 7e1a e9bf
00000020: 2b0c e915 0326 ddbf 4b5a ca83 a1c4 e13f
00000030: ed31 b2a8 c52c cabf b286 419d ec5b e83f
00000040: 6082 2752 33b0 dc3f f5ca 8e75 fbd3 c43f
00000050: 411e b826 6a8c eb3f c04b d53d 6e5c d6bf
00000060: 4a1e 7f58 498e f1bf 80e2 f997 e74d c1bf
00000070: b589 6489 215b edbf e019 a09e 05ca e13f
00000080: 1b81 50bf f2d8 debf 51ef ab1b 8d8f ae3f
00000090: 2932 f860 2574 cfbf 49c6 f71b e988 ebbf
000000a0: 6e81 f09e e63f cf3f 1525 6215 660e e4bf
000000b0: 931d b6bf b296 debf 591d 0a08 b708 e2bf
000000c0: 45ea 32aa ba9e e6bf 565c 974c 50c1 cdbf
000000d0: 41a2 8d9e 7837 e3bf 204d 34c7 c68f dd3f
000000e0: 4e78 b092 ba48 85bf 7d62 d281 2feb ed3f
000000f0: 6bdd 956f 383d e7bf 043a 994e 92c3 e2bf
00000100: 2694 f193 3e54 d43f ed78 9441 92dc eebf
00000110: e472 92fe 6a39 f03f 6af2 0a3a 4136 d83f
00000120: b72f e135 5b5b cf3f 6ef5 154e f694 e5bf
00000130: 8c07 e290 a99e dd3f 3f11 3226 79ef e43f
00000140: 68a5 77bb b8b4 d5bf 9961 7bc3 6ed4 eabf
00000150: b731 931d 12df c2bf ea4e cfa1 2b96 d4bf
00000160: 95f0 e95d c76c d9bf da1d ecf5 9874 e73f
00000170: eca5 6cf3 b3a4 e83f f48f 9938 5b2e d7bf
00000180: 63db 32ba f9d6 e2bf 5697 dd31 0d12 eabf
00000190: c43b ddc5 57bb e2bf 020a 2390 b403 98bf
000001a0: d74c 7758 3777 ed3f c418 3c9d c215 e6bf
000001b0: da57 fd8d 73d0 d2bf 8cfb 0905 02cb ca3f
000001c0: f6fe 620e e4d2 ec3f d315 54a9 0355 e63f
000001d0: 3e8c b0dc 38f8 e8bf 74bf 0862 691a d5bf
000001e0: 4d0b f309 d6ca d03f b483 cacd 04c0 ecbf
000001f0: 5db5 3501 b2a5 da3f fbcb 2c21 efae debf
00000200: 2381 1893 afac d23f db81 14a0 5980 edbf
00000210: 1e43 3f1f 4598 c3bf 4797 0c68 6e96 bcbf
00000220: 65af 3894 c798 e3bf 20aa a5c8 4e08 c5bf
00000230: e95a d0ad 2b43 d63f ce6e a0f5 aa0d eebf
00000240: d6de 2727 d636 d3bf 94fc 207f b304 dd3f
00000250: 0c40 0a59 310f d13f fa0f eb01 9a1c adbf
00000260: b3a5 0b5f 1e6a 9dbf aa67 9e7e 86fa ddbf
00000270: d3df 891e 14d2 dbbf 2640 ea0f 0ca5 eabf
00000280: 036d 398a 9262 e13f 90e3 2b15 921d d4bf
00000290: 3314 2ed2 39c3 70bf 20f5 b185 9224 e3bf
000002a0: 6be8 1a6f 967b b43f faca 60e7 a37c 963f
000002b0: d1b0 1f6f 1c10 e63f 3b2b 8a7d dda8 cd3f
000002c0: ad52 d0fc cdbb debf e8a0 ee81 5616 c8bf
000002d0: 49d2 5731 1b6b f23f a53e 1777 a852 db3f
000002e0: 4da9 382f 45ff e53f 1c62 f1aa a47b ddbf
000002f0: 6f16 0486 832c e9bf 9a95 5863 dd67 e83f
00000300: deaa 00ea e73b eabf 1142 5435 27ff cabf
00000310: ad7a 5f82 1b7e e33f 323b bfe4 ca49 dcbf
0.34722575306698944 0.11737292548998451 -0.060188937385478605 -0.7844840719390559 -0.45544507159883335 0.555252797511295 -0.20449133622277263 0.7612212249188899
0.4482544233597192 0.16271918525816145 0.8608904606089213 -0.3493915180053442 -1.0972379166504589 -0.13518996163090335 -0.9173743899776158 0.5559108827736132
-0.48199146922162733 0.05968895876682601 -0.24573199496116274 -0.8604627176520775 0.24413759957043218 -0.6267576615947826 -0.47794789048972425 -0.563563838674706
-0.7068761181065574 -0.23246196498687038 -0.6005213829749395 0.46190041974587537 -0.010392625428775084 0.9349591765959101 -0.7262231997873817 -0.5863734755637897
0.317641872860181 -0.964425209127311 1.0140180534573853 0.37831144970167563 0.244975472744384 -0.6744338536370102 0.46280898236010937 0.6542325731284463
-0.3391553717361462 -0.8384317224509231 -0.14743257946100893 -0.32166567613351893 -0.3972643296363086 0.7329830935640829 0.7701053385146088 -0.3622043659909189
-0.5887421261494236 -0.8147035573899568 -0.5853690018210433 -0.023451634690681906 0.9208027580119972 -0.6901562758437412 -0.2939728628747368 0.2093203091244188
0.9007435112943927 0.6978777224728056 -0.7803005514473467 -0.3297370393147425 0.26238013240452035 -0.8984397906643751 0.41636324041504286 -0.47942713012452004
0.2917899071199079 -0.9219177366795138 -0.15308441186655214 -0.11167039909613861 -0.6123998541784031 -0.16431603238318448 0.3478497693444483 -0.9391684338947586
-0.300221956480056 0.45341193594863083 0.26655229277912507 -0.056858837827832034 -0.028725122977368133 -0.4684158550750178 -0.4346971796253431 -0.832647353252473
0.5432827663129561 -0.31430484836123984 -0.004092431891767711 -0.5982143985017139 0.08001079762007783 0.02195983981818992 0.6894666834246214 0.23171585683697934
-0.4802126854786291 -0.18818169922202022 1.1511489798987375 0.4269200480457392 0.6874109194080035 -0.46067158406870745 -0.786683809041916 0.7626788082458689
-0.8198127336848662 -0.21091165641748025 0.6091439768168435 -0.4420039399964707

weight f8 [1, 100]
00000000: 724e a9a1 37da b13f f016 7396 50aa aa3f
00000010: 2896 88b0 648e 863f 9280 2828 1abb 753f
00000020: f554 3d65 a19b c33f 38fd 5b20 cbf1 b93f
00000030: a83f 20e0 c57a a23f c639 acd8 57b6 b0bf
00000040: 3f70 9e43 31fa 77bf 6d6a 0e0a 96e0 acbf
00000050: b0e2 b9da bb8b c13f be9b 54df 97d2 8ebf
00000060: 53cd 57a6 ab56 9e3f 5194 2a79 8b30 683f
00000070: 9800 b773 1674 ad3f c80d 7ed0 8af8 ba3f
00000080: 6428 a981 6970 b0bf 3d77 b7f2 6d5c 94bf
00000090: c77e 29a7 4604 a9bf a9ff 90c9 9fc9 63bf
000000a0: 2f80 ef47 97af b93f 1e1a 1746 0cf9 863f
000000b0: c889 ce5d 79a9 873f cafb 6c0e b8f2 9dbf
000000c0: 889e 3b83 941b 903f 84f4 f842 f371 bc3f
000000d0: 4661 ede2 1516 b23f 5487 ae16 e393 7ebf
000000e0: 2397 d31c e673 b93f 23da 03a4 bd8c b63f
000000f0: d366 8db9 5925 903f 2997 3907 b8af a4bf
00000100: acae 2e4d 5b5f 62bf a261 ed80 3d6c 47bf
00000110: 25d8 1c66 c9f1 a93f 97c3 5713 31e0 af3f
00000120: 5f45 f486 4d68 abbf 03a9 7151 e0bc b23f
00000130: 43e0 dcab dbad 653f fff4 1527 c902 a5bf
00000140: 7cbc e61d 1f02 aebf 1a5b 8231 731a 99bf
00000150: cee1 d3b8 aef0 6abf 4a37 2e08 4e15 acbf
00000160: 5287 0542 626e 453f f640 6b37 d8e5 973f
00000170: ed06 2aa7 85a8 c23f adb7 9092 f572 ba3f
00000180: 4f5b 6a77 f3a0 b53f a783 ed65 74d7 ab3f
00000190: 0691 25f1 99b5 8ebf 482c a6e2 7be3 4ebf
000001a0: ae31 552c a7b3 bd3f 6fd8 4eca cba5 ba3f
000001b0: a1fd cbd6 efb8 c63f 5e64 d462 e8e8 bf3f
000001c0: 95f2 6a51 8605 9d3f 6194 98c7 bfba 80bf
000001d0: 19fa 9951 e511 b93f 18a0 db7b d920 b03f
000001e0: 2c4f 8199 be18 c13f 0934 c2fc 9c4a bd3f
000001f0: fe53 7189 5d39 b93f 73c9 3518 4cb4 c63f
00000200: 4e14 9f3c ea10 bf3f 677a 62fc 5a94 883f
00000210: 139e cd5d 5903 9a3f d183 6c70 1673 ad3f
00000220: 266b a763 dc50 c53f ab15 9dc7 0036 77bf
00000230: 7147 8989 93ce 91bf 9844 fa9a 985a b03f
00000240: 9351 1543 b6f6 c23f 4464 107f 06df c03f
00000250: 7ab0 c9b1 7ee2 48bf 5b92 26b6 95ef a4bf
00000260: 1ce8 b18a 599f 983f aa05 4937 3a2d b0bf
00000270: c707 ccd3 0814 9fbf 7f59 d02c 5796 a0bf
00000280: bf04 e069 76b8 b13f d28d cef9 0f3c c23f
00000290: 8b95 67e5 918a adbf bcfb b487 0c4f 6dbf
000002a0: f59c 5c2d ea69 a0bf 4805 8a31 3737 663f
000002b0: 9f64 8cf0 7a02 b93f 5066 60c7 369d 9e3f
000002c0: 4c89 eefe c9e9 a6bf d6ba 4f41 3bab ba3f
000002d0: 0097 27f0 e982 a63f 8ef9 cb41 4ba5 aa3f
000002e0: 6fda 4e84 62bf c13f 328f e39c f681 be3f
000002f0: 23a5 fa65 ad65 aabf 2eb1 2f8a a530 323f
00000300: 940d 1611 0660 b53f 1d63 a66c 49dd abbf
00000310: 48be 84cd daf2 a13f 2e1a 6b4e 9144 b63f
0.06973598191080457 0.05208064877073848 0.01101378120172132 0.005305387664094623 0.1531869644483447 0.10134572544119613 0.03609293328201996 -0.06528233566152783
-0.005853836477310691 -0.056400955894066886 0.13707683734880538 -0.01505011225033381 0.029627496745843484 0.0029528354728705426 0.05752630388769936 0.10535495367189818
-0.06421527305170255 -0.019883840502976858 -0.04886074820092073 -0.0024154778334661464 0.10033555513609892 0.011217208756432003 0.011553714919334448 -0.02924621189162816
0.015730209836787995 0.11111374268598878 0.07064949789253658 -0.007465254845472408 0.09942472652218419 0.08808503393434157 0.01576748080274266 -0.04040312851138445
-0.0022427352173134043 -0.0007148075400023499 0.05067281123631088 0.06225732194059857 -0.05353014252080856 0.07319452274683518 0.0026463785606232484 -0.04103687860604487
-0.05860993614202756 -0.02451496114425842 -0.0032885944880229672 -0.054850042818641656 0.0006540279173743258 0.023337725050454027 0.145767885802392 0.10331663921598873
0.08448716798225785 0.05437816375957221 -0.014994814559664348 -0.0009426455410887014 0.11602253753989686 0.10409234704170144 0.1775188254177751 0.12464764035066042
0.0283413874810657 -0.008168695715605691 0.09792931787703942 0.06300124429583354 0.1335676431214038 0.114419757565159 0.0985315762093961 0.17737723524221458
0.12135185222639785 0.012001715495270916 0.025403400755207594 0.05751867411004919 0.16653017869870118 -0.005666735692846296 -0.017389588613077437 0.06388238700516735
0.1481540515475329 0.13180619434641205 -0.0007594221711548909 -0.04089038704413347 0.02404537114168913 -0.06319011544930811 -0.03034986298280964 -0.032397007198755816
0.06922092518654475 0.1424579591522233 -0.05769782948827203 -0.0035777325371379714 -0.03205806545002502 0.002711875724629085 0.09769409535182881 0.02989659873865086
-0.04475241887054668 0.10417528481023494 0.04396754318785945 0.052042342931588256 0.13865310154297414 0.11917058306022169 -0.051556986521357005 0.0002775577688101269
0.08349645535604672 -0.05442265940945943 0.03505595930834865 0.08698375858794158

bias f8 [1]
00000000: c97c 6609 e3dd 96bf
-0.022330806206466023
