Pinns/Models/F3_model_PINNS.pt (torch, 14281 bytes, 3 tensors)

weight f4 [1000, 1]
00000000: b883 3f3e 6272 d43e 1318 c3bf b5db 283f
00000010: e6f8 6ebf 3398 c33e 3bf1 113f 5a28 ca3b
00000020: 3960 88be baf4 5ebf be32 94bf 3ddf c7be
00000030: 5a1b 09be 0463 48bd 4127 05bf 6770 473f
00000040: 5a7d 6dbf 838a 05bf b91d 0a3f c6a4 d13e
00000050: 96f3 e53e 5149 44bf 27f8 343e 1798 9abe
00000060: b769 65bf 2928 80be 50fb 60bf 24b3 1c3f
00000070: edb3 2f3f 141f 1e3e eb84 4bbf 8b85 ec3e
00000080: b678 023f 019b 93bd d137 f8be bb13 d13e
00000090: af26 a8bd 4154 89bf e490 98bf 42f7 313f
000000a0: 2604 5e3e 95f1 003f 3b01 363c db4e e03e
000000b0: b1ca 8abe 4f36 913e b1e4 443f 14cd 2d3e
000000c0: cbdc af3e 93d2 78be 89cc a63e 5cee 1c3f
000000d0: a9ae 5bbf 53a1 18bf c9e4 eb3e d029 28bf
000000e0: 95ca 383f 21ec 2a3e 42a5 473f 7012 5ebf
000000f0: 1378 413f b2f7 1c3f 665a 31bf 62fa afbe
00000100: 4a99 e4be 13f1 8fbe 5ed5 42bf 4782 44bf
00000110: 8f0e 53bf 934a afbd 3b5a bcbe befe f4be
00000120: d472 713e c9ba 24bf b9d8 6ebf cd0b ff3e
00000130: b410 0f3e d8ef eebe a0b7 ad3e 1403 79bf
00000140: 6c4b acbd 868f 38bf 6c17 d7be 599e 2c3f
00000150: 4bc9 b53e d8da 283f d8a5 a33e e31f cc3e
00000160: 31a6 3bbe 8942 973b d4f2 15bf 0910 e43e
00000170: 4d9e 6a3d 20b6 15bf 6ad5 bf3e 2d7a 873d
00000180: 806c ebbe f00e 28be fa5d e03e 4b3b 923e
00000190: 4e06 8dbe 5ecb a33d 320c aa3d 9b43 ed3d
000001a0: e960 2cbf 8446 99be a80b 64be e5d8 ac3e
000001b0: a682 e53d 44b7 88be 255b 0abd bfd0 cd3e
000001c0: 0b5e 553e 3466 ca3d 40a9 83bd e3f1 293e
000001d0: d2ce e53e 0c08 143f 5e62 80bf 978a 54bf
000001e0: e0fd c13e cb7d 8bbe fb24 13bf 214a 32bf
000001f0: 940a f03e ae7d 263f 2847 0abd 59b4 0abf
00000200: aa50 7ebe d889 3b3e f425 c0bd 74f2 fcbd
00000210: 46f8 0a3f 43cb 103f d600 2c3f 405b 66bf
00000220: 2c38 6cbf 09d0 dc3e 8435 d33b 5c01 08bf
00000230: 4073 f93e 64e0 033e fab3 2d3f 2351 39bf
00000240: 6530 123e 427f 883e 56a7 01bd 2086 8b3e
00000250: 2236 09bf b554 d0be 6737 ee3b f175 e0be
00000260: 3e11 f3be c2fa 6abf 2bb2 7ebe 7487 63be
00000270: 9a7b 48bf e6f2 5ebf 7513 de3e a0c5 34bf
00000280: 83df 76bf 22bd 913e 20d8 51bf e0a3 c83e
00000290: d27b cfbe 8a55 473f 76db 21bf 1160 103f
000002a0: ed30 1f3f b966 68bc c8a3 9fbe 9987 d4be
000002b0: 155b 6fbd e25a 09bf b419 813d 2c71 a83e
000002c0: ffdc b8be 6f80 e13e 1610 02bf 1945 4dbf
000002d0: 61c9 783e ed17 aabe e36f 06bf 0a33 c6be
000002e0: 792e 1f3f f856 ecbe 216f de3e 63fd a43e
000002f0: 6921 893e b8ec ce3e 491c b43e 0f40 24be
00000300: d719 983d e774 803e b914 94be 0f21 16be
00000310: 2ba2 0ebf 0a89 04bf 72be d13d fce8 e13e
00000320: 8ec3 b1bd e202 bcbf 9fc5 8e3e 3422 28bf
00000330: dad7 59bf 9b1a 3e3f 2e57 01bf 7b8e acbe
00000340: 176c 2ebf 6c90 33bf e1e5 f83e 5c8c 27bf
00000350: 206d 083d 3fae 5dbf b4e5 3e3f 0f98 44bf
00000360: a473 b43e 404a bcbe b1af 4cbe 4a2e f53e
00000370: 6bd6 aabf f894 69be b438 013f 27b8 5e3e
00000380: ad69 033f e84b 643e e4f7 2fbf b169 033e
00000390: 37a4 febe 70c5 d33e 31e5 02be 8660 29bf
000003a0: 799b d7be 2da7 b33d 6b41 be3e 8880 02bd
000003b0: f417 4abe dec3 92bf 9b18 d33d 211d 4a3e
000003c0: e7cf 1dbd cd07 963e 59c0 9fbd f6ed c83e
000003d0: b73e 55be 11a9 1f3e 03c9 523f d510 0a3f
000003e0: 2163 a2be c25c 823e 3f90 5bbe b337 2bbf
000003f0: c975 12bf d25f dcbe 24c2 3ebf 943b 63bf
0.1870259 0.41493517 -1.5241722 0.65960246 -0.9334854 0.38202056 0.57008713 0.006169361
-0.26635912 -0.87092173 -1.1577985 -0.39037505 -0.1338934 -0.048922554 -0.5201302 0.7790589
-0.92769396 -0.5216448 0.53951603 0.40946025 0.44912404 -0.7667437 0.17672788 -0.3019416
-0.89614433 -0.2503064 -0.8788347 0.61210847 0.6863392 0.15441543 -0.7949969 0.46195635
0.5096544 -0.07207299 -0.48480085 0.40835366 -0.08210503 -1.0728837 -1.1919217 0.6951791
0.2168127 0.50368625 0.011108692 0.43810162 -0.27107766 0.28361747 0.76911455 0.16972762
0.3434814 -0.24299078 0.32577923 0.6130121 -0.85813385 -0.5962116 0.46072987 -0.656888
0.72184116 0.16691639 0.7798654 -0.86746883 0.75573844 0.61315453 -0.6927856 -0.34370714
-0.446482 -0.28113613 -0.7610682 -0.7676129 -0.8244409 -0.08559146 -0.3678759 -0.47850603
0.2357896 -0.6434751 -0.9329944 0.4981369 0.13971215 -0.4666736 0.33929157 -0.9727032
-0.08412823 -0.72094 -0.42010057 0.6742912 0.35505137 0.6595893 0.31962466 0.39868078
-0.18325116 0.004616086 -0.5857365 0.44543484 0.057279874 -0.58481026 0.3746751 0.066151
-0.45981216 -0.16411948 0.43821698 0.28560862 -0.27543873 0.079977736 0.08303107 0.1158516
-0.67335373 -0.29936612 -0.22270072 0.33759227 0.1120656 -0.2670232 -0.03377833 0.40198323
0.20836656 0.09882775 -0.06428766 0.16596179 0.44884354 0.5782478 -1.0030019 -0.8302397
0.37889004 -0.2724441 -0.574783 -0.6964436 0.4688307 0.6503552 -0.033759266 -0.5418144
-0.24835458 0.18314302 -0.09382239 -0.12350932 0.54285085 0.5656015 0.67188776 -0.89982986
-0.9227321 0.43127468 0.0064455885 -0.53127074 0.4872074 0.12878567 0.6785275 -0.7238943
0.14276274 0.2665959 -0.031653725 0.27250767 -0.53598225 -0.40689626 0.007269788 -0.43839982
-0.47474092 -0.91788876 -0.24872653 -0.2221964 -0.783136 -0.87089384 0.4337422 -0.7061405
-0.964348 0.2846461 -0.81970406 0.39187527 -0.40524155 0.778649 -0.63225496 0.56396586
0.6218403 -0.014184647 -0.31179643 -0.41509703 -0.058436472 -0.536543 0.063037306 0.32898843
-0.36106107 0.440433 -0.50805795 -0.8018356 0.2429557 -0.3322138 -0.52514476 -0.38710815
0.62180287 -0.46160102 0.4344416 0.3222457 0.26783302 0.40414977 0.3517783 -0.16040061
0.074268036 0.2508919 -0.2892206 -0.14661048 -0.557162 -0.51771605 0.10241403 0.44123065
-0.08679877 -1.468838 0.27885148 -0.6567719 -0.8509499 0.74259347 -0.5052365 -0.33702454
-0.6813368 -0.70142245 0.48612884 -0.65448546 0.033307195 -0.86594003 0.7456925 -0.76794523
0.35244477 -0.36775398 -0.19988896 0.47886878 -1.3346685 -0.22810733 0.5047715 0.21749936
0.51333123 0.22294581 -0.68737626 0.12833287 -0.4973466 0.4136157 -0.12782742 -0.6616291
-0.42110804 0.087721206 0.37159285 -0.03186086 -0.197357 -1.1466024 0.103074275 0.19737674
-0.03852835 0.29302827 -0.07800359 0.3924405 -0.20824705 0.15591837 0.8233797 0.53931934
-0.31716254 0.25461394 -0.21441744 -0.66881865 -0.57210976 -0.43041855 -0.74514985 -0.88762784

bias f4 [1000]
00000000: 7350 df3e 8c79 1c3f e589 85be b120 833e
00000010: 9c18 b53e e020 4d3e ece1 2b3f 9513 91bd
00000020: d5f8 473f 21ff 4b3f b26a ecbe d85b bb3d
00000030: e077 00bf 0f7b f8bc 08ee 9fbe 69d2 29bf
00000040: f604 df3e 9ae5 3cbe 8fbd 0c3f 49b7 3ebe
00000050: 8b64 c33d c5c9 1cbe 2d31 35bf abf1 853e
00000060: a88d bcbe 7986 993d abb0 34be 23b3 eebe
00000070: 939d d93d ae5a c43e e82f 1f3f 47a2 adbe
00000080: 264d e2bd 7186 91be 7e6d 77be 0c1d 893e
00000090: 011b 463f 864d 4dbe 991e afbe 513b 6ebe
000000a0: 8980 2bbf 39e8 58be 04a4 0ebf fad3 a6be
000000b0: b9d3 ee3d 1db4 65bf 3c93 e1be 031e 0dbd
000000c0: 79ac c63d f363 30bf ae30 7cbe fedc a6be
000000d0: 47d4 4a3f 395c 9e3e afd7 58bd 6163 88be
000000e0: 3c95 00bf 2066 84be 9401 ecbe d6c5 4f3f
000000f0: 543f 03bd 9470 573e 291b d9be 9d73 5b3c
00000100: 0b5a bdbe 7bd8 163f 401d 303e 4cbb 9ebd
00000110: dbef e0bd 0866 05bf 807d 0a3f 7d84 77be
00000120: 6da8 b93e 1c6c d63e 0c75 a53b 29c1 fcbe
00000130: edda afbe d006 9cbe 645e afbe 7cec 173f
00000140: 16d2 27be 8344 133e 6a74 cabe 0851 c53e
00000150: 705e 953d 617c b33e 0732 913d ab57 a5be
00000160: a839 b43e b9ef 4bbe 70e1 ccbd f3ab 3cbf
00000170: b0b7 72be 17b6 b5be aa7b f33e 9f28 0c3f
00000180: 7b0f a8be 6f96 6abf a861 cb3e e8c8 3dbe
00000190: 7ea1 2fbf 2ab3 233f eff1 fb3d 32a3 4a3f
000001a0: d066 32bd 51da 46bf e618 e13e 07ff 52bf
000001b0: ce39 833d 465b c4b9 93b2 ba3e fce1 1dbf
000001c0: a22a d93e e16c 3bbf c366 533f 944f 1e3f
000001d0: 92b8 bbbd 2494 3ebe b252 45be c7bb febd
000001e0: d9b5 3f3d 05e5 29bf eaec f7be 434e 133e
000001f0: f6ad 19bf a233 b9be 4cd3 7abe dd7d 8abe
00000200: 68cc 173f e2fd c83e 3087 9e3e de24 15bf
00000210: ccd3 74be 576d dcbe d0fa 48bf 9c8c a0be
00000220: c3cd b1be d400 fa3e 3716 4b3f 3e1b a9bd
00000230: 629d a3bd 2a9b bc3e 25ca a73d fb2b 0f3d
00000240: 84f6 9c3e d255 3bbf 6d32 4d3f 7ab7 473e
00000250: db25 e83e 4d84 2fbf e844 39bf 97d7 df3e
00000260: c5c9 00be 7ad2 e33e 5b86 0abf bfd1 193f
00000270: e71b 2cbe b6db 79bd 0ec4 8ebc 6a04 fa3d
00000280: b05a 0f3f 3a4b 50bf 577d fa3e c511 f03e
00000290: 1214 093f c4aa 21bf 68ac b8be 6caa cd3e
000002a0: bcdf 153f 3c5d 54bf 0dcb 413f 71d2 43bf
000002b0: 5a8a f93e b02d 00bf 9592 a3bd 9236 b5be
000002c0: b1a7 3d3f caa7 94be e4f3 42be f5b5 013f
000002d0: 71a3 97be 9559 01bf 8afb 0dbf 5cbf 493f
000002e0: 4f9d 31bf e48d c83e ae5f 61bf 141e 143f
000002f0: 0f7e f4be dad9 edbd eefe 08bf 2a55 343f
00000300: 9b10 93be 250c fd3c 5a27 573e 5c4e 26bf
00000310: e978 ae3e fe79 c4be d605 9ebe 3163 05bf
00000320: 3284 ebbd 19af 6cbe 356e bdbe 51b8 0ebf
00000330: 964c ae3d 2048 8c3d 9004 193f 8085 8abe
00000340: f252 d03e 311b b23e 7633 2a3f 1c2e 063d
00000350: f516 4c3f 7117 ea3e a1b4 2ebf eb0b 1ebf
00000360: 9d77 37bf 6ec1 433f ef71 16bf 32bb 1b3e
00000370: 3698 77be 55c3 a3be c8fc 2ebf e0a6 293f
00000380: cc58 bb3e 1ff7 f5bd 501d 763e fc8a bebe
00000390: 1cee c3bd 52d1 82be d1f6 bf3e 4001 fd3e
000003a0: 5fa6 febc 2808 02bf 2db1 a2be 68ec 55bf
000003b0: 8974 fb3e 2766 edbe 4a6a 35be 5691 1fbf
000003c0: 4ea0 96be ca97 453d 29cb 53be b7c6 063e
000003d0: 4def df3d 4ed8 97be 9715 e73e 9434 d6bd
000003e0: d464 8d3e 9237 a8be 233a 4dbf d3e2 59be
000003f0: 45c6 023f 9a02 84be 30d8 f93e 6c0b 34be
0.43616065 0.61122966 -0.26081768 0.2561088 0.35370338 0.20032072 0.67141604 -0.07083813
0.7811406 0.7968617 -0.46175152 0.09148377 -0.50182915 -0.030332116 -0.3123629 -0.66336685
0.43558472 -0.18446961 0.54976743 -0.18624605 0.095406614 -0.15311344 -0.7077816 0.2616094
-0.36826825 0.07496352 -0.17645518 -0.46621045 0.10625758 0.38350433 0.62182474 -0.3391287
-0.11049871 -0.28422883 -0.24162862 0.26779974 0.77384955 -0.20049104 -0.34203032 -0.23264815
-0.66993004 -0.21182336 -0.5571902 -0.325836 0.11661477 -0.89727956 -0.44057643 -0.03445245
0.09700865 -0.6890251 -0.24627945 -0.3259048 0.7923016 0.30929735 -0.052940067 -0.2663832
-0.50227714 -0.25859165 -0.46094954 0.8116125 -0.032042816 0.21039039 -0.42403534 0.013394264
-0.3698276 0.58924073 0.17198658 -0.07750568 -0.10983249 -0.5210881 0.5409775 -0.24171634
0.3626131 0.41879356 0.0050493535 -0.4936612 -0.34346715 -0.30473948 -0.34251702 0.5934522
-0.16388735 0.14381604 -0.39541942 0.38538384 0.07293403 0.3505583 0.0708962 -0.32293448
0.35200238 -0.19915666 -0.10003936 -0.73699874 -0.23702884 -0.35490486 0.47555286 0.5474948
-0.3282431 -0.91635793 0.39722943 -0.18533671 -0.6860579 0.6394526 0.123020045 0.79155266
-0.04355508 -0.77676874 0.43964309 -0.8242039 0.0640751 -0.00037452037 0.36464366 -0.6167295
0.4241534 -0.7321301 0.82578677 0.61840177 -0.09166063 -0.18611199 -0.19269827 -0.124381594
0.046804283 -0.6636508 -0.4842294 0.14385323 -0.6003107 -0.36172205 -0.24494666 -0.2704915
0.59296274 0.39256197 0.30962515 -0.5825938 -0.23908919 -0.4305217 -0.7850771 -0.31357276
-0.34727296 0.48828757 0.7933077 -0.08257149 -0.07989003 0.3683713 0.08192853 0.034954052
0.30656826 -0.73177826 0.8015507 0.19503585 0.4534138 -0.6856125 -0.7237077 0.4371917
-0.12576969 0.44496518 -0.5411126 0.6008567 -0.16807519 -0.06100055 -0.01742747 0.12207873
0.55997753 -0.81364787 0.48923752 0.46888557 0.5354625 -0.6315119 -0.36069036 0.40169084
0.58544517 -0.82954764 0.75700456 -0.76492983 0.48738366 -0.50069714 -0.07986943 -0.35393196
0.74084 -0.29034263 -0.1903835 0.5066827 -0.29616883 -0.50527316 -0.55461943 0.78807616
-0.6938066 0.39170754 -0.8803662 0.57858396 -0.47752425 -0.116138175 -0.5351399 0.7044245
-0.28723606 0.03088958 0.21011105 -0.64963317 0.34076622 -0.38374323 -0.30863827 -0.5210448
-0.11499824 -0.2311367 -0.36998144 -0.55749995 0.08510701 0.06849694 0.59772587 -0.27054977
0.40688282 0.3478637 0.66484773 0.032758817 0.7972253 0.4572101 -0.6824437 -0.61736935
-0.7166689 0.76467025 -0.587676 0.15208128 -0.24179158 -0.31984964 -0.68354464 0.66270256
0.36591184 -0.12010025 0.2403462 -0.37215412 -0.095669 -0.25550324 0.37492993 0.49415016
-0.031085191 -0.50793695 -0.317758 -0.8356385 0.49112347 -0.46367 -0.17716327 -0.6233114
-0.29419178 0.04824046 -0.20682968 0.13161741 0.10934315 -0.29657215 0.4513366 -0.10459247
0.27615988 -0.32854897 -0.80166835 -0.21277933 0.51083785 -0.25783235 0.4879775 -0.17582482

weight f4 [1, 1000]
00000000: f394 033c 76f1 8ebc 5d0c 0abe ae92 b23c
00000010: 0e5f e13c 3f15 a13b a345 d93c 2de6 25bb
00000020: 4ce4 7cbc d68c 453d 505d 04be 5775 02bc
00000030: 8ce5 c0bc 9048 8abc 385c b3bc c222 dc3c
00000040: 886b 723c 9164 2cbc b7d2 f13c 2041 163c
00000050: 74c5 b03b 1979 89bc 2a9e e83c e681 263a
00000060: ab8c 15bd cf47 a6bb d13a 08bd fc74 bdbc
00000070: 636d 5c3c ee6e afbc 93f1 2fbb ddb0 66bb
00000080: ef1d e0bc 7980 9b3b c9f4 f53b d32d 8cbc
00000090: 2386 a93c e82f 70bd 026b c9bd 5990 1d3c
000000a0: 5446 813c c695 a3bc dc98 87bb a9bc c9bc
000000b0: 3910 433c 0828 a8bb 8840 a5bc 8d99 163b
000000c0: 7207 05bb 97dd 4fbc 9ad1 b63c 6645 6dbc
000000d0: 9ed5 2b3c 909d d0bb 2a0b dfbc 019a d9bc
000000e0: 40d7 77bc 95b7 8b3c 6db3 8f3c 6963 4e3d
000000f0: 4243 603c 789b 403c 5d5c 31bd 260c 8e3a
00000100: e9fb 173b 5756 8b3c 0caa ce3c 2097 38bc
00000110: 05a3 ccbc 2d3b 223c e070 97bc bffa a93c
00000120: 99f5 393b 777f 0f3d f5be 05bc 5e75 cabb
00000130: 1320 743b 26cd 64bc ba0e bdbc c584 7d3d
00000140: 1990 07bc 0dec 65bc 1d90 f03a b222 cdbc
00000150: fb81 293b f52e c1bc 82b1 08bb 171d b73c
00000160: 10ae 1fbb 56cd 39bc ea1b 083d a63c e13c
00000170: 6458 5bbb 3b96 40bc 8e3b 45bc 1fa3 c7bc
00000180: c1a4 08bc 20d2 933c 6bd6 633c 5915 86bb
00000190: e8b7 3a3b 99d7 003c 844f 8abb f3d1 dabc
000001a0: 2627 2bbb 3ecd 58bc 44f9 ca3c e353 4ebc
000001b0: 8556 e53b 2203 90bc 5f7a 4abb 96d1 b9ba
000001c0: dc6f b9bc 71d4 4b3c a75c aabc b035 c43c
000001d0: 3a17 f83b 54f2 813c e190 32bd 1b19 90bc
000001e0: 9900 deb9 0b55 f4bb 652d b9bc 3667 083d
000001f0: 7cc5 89ba 985b cc3c 1422 173c 7701 a8bb
00000200: f05c a7bc 229d 123b ddc8 30bc dd41 c6bb
00000210: a2df ce3c dc43 bebc 2470 a9bc bb65 4fbd
00000220: b786 89bd 54f1 58bc e3be a5bc e66a e43c
00000230: f5c7 323a 9a7c 14bb 8eda 463c 0431 bdb7
00000240: ad3c e2b9 7e83 fd3c fa54 98bc e69d a23a
00000250: 6546 fc3c 649f 58bc f4f3 083c fc54 1b3c
00000260: ca02 c13b d7e1 423d 0113 433b 54ea 053c
00000270: 2f72 bebc 6611 243c 20b6 dbbc 6fbf e83a
00000280: b6b3 1d3d e152 86bc 67b5 fe3c 5bd2 e93c
00000290: a781 2f3c 0afe c03c 3b0b b2bc 7b8b adbc
000002a0: fdfc dd3c 9039 51bc 3ec2 acbc 597a c5bc
000002b0: 2450 5f3c 941f 51bc 7126 8dbb bf66 cd3c
000002c0: a819 843c e078 fe3c 841e 87bb 7c44 c33c
000002d0: 55b1 4fbc a099 983a 52df f63b f024 cd3c
000002e0: 3b9c 723c a5b9 af3c 65b4 e6bc bc2a 1d3c
000002f0: 6edd d5bc 4244 5ebb 13df be3c f7a3 a63b
00000300: 154c d73c 7c60 5e3a e5ee 7dbb 5a71 86bc
00000310: 3053 dd3b 0076 55bc 9bc8 83bc 0f0f 813c
00000320: b82f eb3c da01 d9bd 9398 3739 e6b5 3abc
00000330: dba4 763b 515e b1bc 92dc 9dbc 84b9 e33c
00000340: 3497 273d 0082 d83c 2817 a63c b816 dc3c
00000350: 52de 8bbc be9c ea3c 76b7 f7bc 8e1b 60bd
00000360: 56b1 af3c 0038 d33c 5dca ad3c 44d7 06bc
00000370: d5df b2bd 9f29 453c 16d8 303c 425d d4bc
00000380: 1a3a a93c 850f 883c 3356 fdbb e770 9b3b
00000390: b533 8b3c 6a9e a7bb 4634 90bc 94b6 f9bb
000003a0: e9b4 503c 7ed9 8a3c a778 ce3c 05bd 7d3c
000003b0: c766 26bc 2e2b 08be 647a 0ebc 3ccf 983b
000003c0: b582 d2bc 45da a439 1b6d bebc 9e7f 5c3b
000003d0: 7714 003c 608a c73b d979 f73c d4aa 5e3b
000003e0: 6cec 893b c5fa 3a3c c887 d13c 714b 4ebc
000003f0: fb76 a43c c1e0 da3c 37f6 16bc 375b 07bd
0.008031118 -0.017449122 -0.13481279 0.021798458 0.027511146 0.004915863 0.026522463 -0.0025314197
-0.01543529 0.048230015 -0.12926221 -0.007962546 -0.023546956 -0.016880304 -0.02189456 0.026872043
0.014796145 -0.010522024 0.029519422 0.0091708 0.005394632 -0.016781377 0.028395731 0.0006351754
-0.036511105 -0.005074478 -0.033259217 -0.023127072 0.013453814 -0.0214152 -0.002684687 -0.0035200634
-0.027358023 0.0047455397 0.0075059873 -0.017111694 0.020693844 -0.058639437 -0.09834863 0.009616935
0.015780605 -0.019968878 -0.0041380953 -0.024626093 0.011905723 -0.005131725 -0.020172372 0.0022979707
-0.0020298627 -0.0126871085 0.022316743 -0.014481878 0.010487942 -0.006366439 -0.027227003 -0.026562693
-0.015127003 0.017055312 0.017541612 0.050387774 0.0136879105 0.011755817 -0.043300975 0.0010837361
0.0023190922 0.017008943 0.025227569 -0.0112665 -0.024980078 0.009901804 -0.01848644 0.020749448
0.0028375147 0.03503367 -0.0081632035 -0.006178542 0.0037250563 -0.013964927 -0.023078311 0.061894197
-0.008274102 -0.01403333 0.0018353496 -0.025040958 0.0025864828 -0.023581961 -0.0020857756 0.022352738
-0.0024365224 -0.01134046 0.033229746 0.02749474 -0.0033469433 -0.011754568 -0.012038125 -0.024369774
-0.008340062 0.018044531 0.013906102 -0.0040919003 0.0028490964 0.0078639025 -0.004220905 -0.02671144
-0.0026115864 -0.013232527 0.024777062 -0.012593242 0.0069988393 -0.017579619 -0.0030895693 -0.0014176841
-0.022636347 0.012440787 -0.020796133 0.023951381 0.007571128 0.015862621 -0.0435952 -0.017590096
-0.00042343585 -0.007456427 -0.022604654 0.033301555 -0.0010511125 0.024946019 0.009224433 -0.0051271277
-0.020430058 0.002237149 -0.010790077 -0.006050332 0.02525312 -0.023225717 -0.020683356 -0.050634127
-0.06715148 -0.013241131 -0.020232623 0.027883004 0.0006819957 -0.0022657276 0.012137068 -2.255338e-05
-0.00043151286 0.03094649 -0.018595207 0.0012406677 0.030795285 -0.013221595 0.008358944 0.009480711
0.005890225 0.04757866 0.0029765966 0.008173544 -0.023247806 0.010013914 -0.026820242 0.0017757247
0.038501464 -0.016396942 0.031092359 0.028542688 0.010712064 0.023558635 -0.02173387 -0.021184674
0.027098173 -0.012770072 -0.021088716 -0.024106191 0.013629947 -0.0127638765 -0.004307561 0.025073407
0.016125515 0.031063497 -0.004123511 0.023836367 -0.012676557 0.0011642464 0.007533946 0.025042027
0.014807756 0.021450827 -0.02816219 0.009592708 -0.026106562 -0.0033915197 0.02329973 0.005085464
0.026281396 0.0008483005 -0.0038747129 -0.016411472 0.0067543015 -0.013028622 -0.016086867 0.01575425
0.028709278 -0.10596056 0.00017509078 -0.011395907 0.0037634883 -0.021651419 -0.019270215 0.027798422
0.040915683 0.026429176 0.020274714 0.026866302 -0.017073784 0.028639194 -0.030238848 -0.05471378
0.021446865 0.025783539 0.021214658 -0.008230034 -0.08734099 0.012033849 0.010793706 -0.025923375
0.020657588 0.016608963 -0.007731223 0.0047436836 0.01699243 -0.00511532 -0.01760305 -0.007620642
0.012738445 0.016949411 0.025204016 0.01548696 -0.01015634 -0.13297722 -0.008696172 0.004663376
-0.025697092 0.0003144314 -0.023245385 0.0033645402 0.007817379 0.0060894936 0.030209469 0.0033976333
0.004209092 0.011412327 0.02557744 -0.012591229 0.020076266 0.0267185 -0.009213976 -0.033045974
