Pinns/Models/F9_model_PINNS_1.pt (torch, 86057 bytes, 8 tensors)

weight f4 [100, 1]
-0.8004434 -0.8279492 0.4905158 -0.07760843 0.20346986 -0.43220457 -0.16754955 0.2051724
0.23986378 0.70943564 -0.09249647 0.21892153 -0.012776302 0.3014699 0.37305817 -0.34627277
0.20554525 -0.58972096 0.29035103 0.5411263 0.4860227 -0.69244707 0.46879944 -0.6272552
-0.056349732 0.74095136 -0.29806995 -0.050841242 0.5392102 -0.7017143 -0.508858 0.82516223
0.51639134 0.14068767 -0.03896062 -0.4136577 0.23982576 -0.33004677 0.071834825 -0.10512045
0.27248088 0.10108532 0.5241207 0.07058335 0.4783244 0.34354737 -0.38424492 -0.20034586
-0.22527012 0.56547475 -0.14296801 0.36874327 0.79974616 -0.74632144 0.08424434 0.41116545
-0.49729127 0.51858974 -0.8468166 -0.19158307 -0.24297716 0.6138612 -0.61985445 0.22311282
-0.7315594 -0.12920423 -0.8045582 0.38747814 0.3675557 0.08308207 -0.41354898 -0.62350065
0.5424955 -0.26139116 -0.47463417 -0.31885335 0.5529151 0.53156674 0.53083324 0.3689384
-0.2500705 0.35745054 -0.41790125 -0.18043096 -0.2449832 0.52209496 -0.35341296 -0.32302475
-0.49888417 0.7414534 0.64694834 0.119382426 0.1356227 0.5296548 0.5897529 0.5745291
-0.49654377 0.83948267 -0.2144585 -0.18207344
00000000: dce9 4cbf 7bf4 53bf e324 fb3e 2bf1 9ebd
00000010: 675a 503e eb49 ddbe 1c92 2bbe b718 523e
00000020: da9e 753e 939d 353f ca6e bdbd f72c 603e
00000030: b253 51bc 435a 9a3e 7b01 bf3e aa4a b1be
00000040: 747a 523e f4f7 16bf e4a8 943e 4187 0a3f
00000050: f8d7 f83e 3644 31bf 7b06 f03e cc93 20bf
00000060: face 66bd fdae 3d3f a09c 98be e83e 50bd
00000070: ae09 0a3f 8ca3 33bf 8544 02bf d53d 533f
00000080: 3932 043f 6e10 103e 2c95 1fbd f1ca d3be
00000090: e294 753e e4fb a8be 231e 933d 6449 d7bd
000000a0: 9d82 8b3e d205 cf3d c62c 063f 018e 903d
000000b0: f0e6 f43e 71e5 af3e c0bb c4be 7727 4dbe
000000c0: 36ad 66be f4c2 103f 3566 12be ebcb bc3e
000000d0: 2abc 4c3f ec0e 3fbf 4c88 ac3d 4784 d23e
000000e0: f69c febe 4cc2 043f f9c8 58bf 5a2e 44be
000000f0: 01cf 78be 0226 1d3f c8ae 1ebf b077 643e
00000100: 7a47 3bbf 1d4e 04be 87f7 4dbf 8963 c63e
00000110: 4330 bc3e ef26 aa3d b1bc d3be bd9d 1fbf
00000120: fce0 0a3f 10d5 85be 4003 f3be bf40 a3be
00000130: d88b 0d3f c214 083f b0e4 073f 7ee5 bc3e
00000140: 3e09 80be c203 b73e 27f7 d5be e5c2 38be
00000150: e0dc 7abe 04a8 053f 8bf2 b4be 8063 a5be
00000160: bf6d ffbe e4cf 3d3f 689e 253f c67e f43d
00000170: ade0 0a3e 7597 073f 0cfa 163f 5714 133f
00000180: fc3a febe 56e8 563f 029b 5bbe 7671 3abe

bias f4 [100]
0.15637797 0.18118493 -0.29705596 0.4622396 -0.02513197 0.55838424 -0.23893648 0.24113202
-0.6341481 -0.3483127 -0.3014083 0.15983447 -0.39001715 0.22595361 -0.030080466 -0.11030853
0.20774959 0.36797488 0.41624603 0.008265283 0.0980942 0.32716763 0.0033524293 0.021074422
-0.11145332 -0.1625002 -0.18631463 0.39103335 -0.051569827 0.16661867 -0.08686949 -0.43307889
0.1161179 0.38089058 0.38106662 -0.10875169 0.17420259 -0.14899051 -0.46486056 -0.3466445
0.14619668 0.49553868 0.046211872 0.35088554 0.015923284 0.0058841784 -0.098777495 -0.25671303
-0.33604276 -0.095969334 -0.3464994 0.21371868 -0.38528246 0.2898129 0.3162224 0.0125344945
0.30513436 -0.14640363 0.36547998 -0.13333908 -0.315782 -0.040409613 0.44084266 0.19317469
0.08090754 0.06769892 0.058628995 0.11427151 0.09861159 -0.37780946 0.25719413 0.12274293
0.10585926 -0.05403732 -0.041578736 -0.18785898 -0.05177975 0.028873004 -0.24010748 0.08413023
-0.16892591 -0.2059491 -0.112590045 -0.2725858 -0.18625611 0.09319276 0.12862937 -0.119277984
-0.029478583 -0.06661727 -0.07040072 -0.039896823 0.3052428 0.051006105 -0.20632513 -0.29794648
-0.12569864 -0.55896586 0.3373951 0.25023508
00000000: 8c21 203e 8b88 393e b817 98be abaa ec3e
00000010: 90e1 cdbc 45f2 0e3f c4ab 74be 50eb 763e
00000020: 8857 22bf 0b56 b2be 3052 9abe a6ab 233e
00000030: 54b0 c7be 6260 673e 4f6b f6bc 70e9 e1bd
00000040: 4fbc 543e 3467 bc3e 331e d53e 1c6b 073c
00000050: 9de5 c83d 8482 a73e 6eb4 5b3b 44a4 ac3c
00000060: a341 e4bd 7466 26be 43c9 3ebe 8635 c83e
00000070: e23a 53bd 169e 2a3e a2e8 b1bd 84bc ddbe
00000080: 39cf ed3d 1704 c33e 2a1b c33e 35b9 debd
00000090: 2a62 323e f890 18be 3402 eebe 637b b1be
000000a0: 95b4 153e 3fb7 fd3e a948 3d3d 45a7 b33e
000000b0: 8c71 823c 11d0 c03b db4b cabd e46f 83be
000000c0: cc0d acbe 928b c4bd 5f68 b1be 12d9 5a3e
000000d0: be43 c5be 5b62 943e e7e7 a13e 7b5d 4d3c
000000e0: 923a 9c3e d5ea 15be 3120 bb3e 0a8a 08be
000000f0: 2eae a1be 8d84 25bd 21b6 e13e 96cf 453e
00000100: dab2 a53d bba5 8a3d f524 703d 2e07 ea3d
00000110: e0f4 c93d 3e70 c1be f3ae 833e a560 fb3d
00000120: bdcc d83d 3d56 5dbd 774e 2abd 1b5e 40be
00000130: 0117 54bd 1487 ec3c bcde 75be 784c ac3d
00000140: eafa 2cbe 52e4 52be 9c95 e6bd 5e90 8bbe
00000150: ecb9 3ebe d9db be3d 6bb7 033e 0448 f4bd
00000160: 127d f1bc a36e 88bd 412e 90bd da6a 23bd
00000170: c948 9c3e c7eb 503d e546 53be 718c 98be
00000180: 25b7 00be 6318 0fbf 0dbf ac3e d01e 803e

weight f4 [100, 100]
-0.019796932 -0.015334096 0.031843264 -0.06226732 -0.00036292485 -0.06320554 0.027208157 -0.044738073
0.076388106 0.037842587 0.034514267 -0.031631935 0.055009797 -0.021277223 -0.0058355303 0.012049367
-0.048685472 -0.039811082 -0.07286801 -0.0070515433 -0.04123924 -0.035126653 -0.011311444 -0.0021405756
0.016395774 0.019182516 0.05169669 -0.042476363 0.0026969975 -0.014822784 0.040959682 0.04763175
-0.040961687 -0.071692474 -0.042060353 0.0528364 -0.02612337 0.053322967 0.061232556 0.05255012
-0.02919499 -0.07584883 -0.043037467 -0.046913203 -0.030763522 -0.011588763 0.025499575 0.020228365
0.06574109 0.0019074208 0.061633024 -0.052872322 0.03971357 -0.034755565 -0.032727238 -0.0075417846
-0.03284572 0.0117893005 -0.03219408 0.022719344 0.055274624 0.0024086938 -0.047920506 -0.043102656
-0.006820745 -0.0067618606 0.010420119 -0.015455514 -0.012116165 0.04376816 -0.02752956 -0.009798238
-0.0191029 0.0140670575 -0.0002991218 0.032232016 -0.0071066427 -0.007602852 0.024300642 -0.027411865
0.03252336 0.02156101 0.01747869 0.060630877 0.036307573 -0.044289332 -0.0113339815 0.0131641915
0.033609588 -0.031365577 -0.009446883 0.0031100463 -0.029027835 -0.009783091 0.018905396 0.031494368
0.044881623 0.06002627 -0.04130298 -0.03074893 -0.008639053 -0.008596564 0.027013393 -0.05535438
-0.0013472993 -0.05761073 0.027025254 -0.03109397 0.06547088 0.030063089 0.03665606 -0.03327451
0.043194834 -0.04700516 -0.0050394125 0.018572379 -0.03974119 -0.033821117 -0.053472113 -0.014686004
-0.03704115 -0.027999913 -0.010747512 0.01091462 0.015785445 0.011289096 0.019404538 -0.049122423
-0.0038488586 -0.009216884 0.045363486 0.038893495 -0.043159805 -0.05912546 -0.04600321 0.03033726
-0.024163345 0.042430848 0.04806995 0.0532784 -0.03566864 -0.04714641 -0.020705426 -0.048571113
-0.008105232 -0.010003664 0.019274034 0.02685222 0.031602982 3.2477947e-05 0.047614895 -0.045632478
0.034309823 -0.02405891 -0.042665444 -0.012022344 -0.02788786 0.008289574 -0.03291788 0.023490194
0.057974327 -0.015983786 -0.041610863 -0.039603822 -0.0036857994 -0.0057783127 0.018207064 -0.023579549
-0.028218752 0.044655178 -0.023568694 -0.004460891 -0.023079652 0.013691152 0.02269829 0.04036302
-0.005070995 -0.010599141 0.019749116 -0.016941207 0.026943902 0.018283574 0.03445818 0.04569925
0.023097113 -0.02444777 -0.008483589 0.016622705 0.02745419 -0.0035072023 -0.006272235 0.00237209
-0.033552077 -0.027429378 0.014785553 0.025894303 0.02602144 0.05128485 -0.037569508 -0.028157806
-0.1402693 -0.14446813 0.085662834 -0.019696701 0.035229355 -0.06897084 -0.02408294 0.027479127
0.040239718 0.12129669 -0.008168562 0.03386287 0.0061309435 0.045153156 0.064193286 -0.057726894
0.031891875 -0.10052597 0.035346724 0.08733799 0.08085873 -0.11908258 0.079932116 -0.103729695
-0.007311478 0.12976035 -0.042831596 -0.01449016 0.09296485 -0.12313119 -0.08323301 0.13669032
0.08695568 0.017474268 -0.012675803 -0.061600015 0.038402665 -0.0580493 0.019069215 -0.0097376
0.043502804 0.0062085986 0.09270519 0.004234837 0.082191 0.05853147 -0.06389834 -0.026783474
-0.025432054 0.09873352 -0.016907955 0.051641442 0.13512388 -0.12983109 0.007772689 0.06997056
00000000: 2d2d a2bc dc3b 7bbc 156e 023d 040c 7fbd
00000010: f346 beb9 e871 81bd a4e3 de3c 453f 37bd
00000020: 5e71 9c3d d400 1b3d d55e 0d3d 7d90 01bd
00000030: f451 613d 924d aebc fa37 bfbb b56a 453c
00000040: 6b6a 47bd f210 23bd d33b 95bd a210 e7bb
00000050: 7aea 28bd f7e0 0fbd a353 39bc e648 0cbb
00000060: 6e50 863c a724 9d3c e9bf 533d b2fb 2dbd
00000070: 1cc0 303b 43db 72bc 57c5 273d 8319 433d
00000080: 71c7 27bd 81d3 92bd 7a47 2cbd fb6a 583d
00000090: ad00 d6bc 2f69 5a3d fdce 7a3d cb3e 573d
000000a0: 552a efbc a256 9bbd 0e48 30bd 0f28 40bd
000000b0: c803 fcbc ccde 3dbc 7ce4 d03c f5b5 a53c
000000c0: 44a3 863d 6c02 fa3a e972 7c3d a690 58bd
000000d0: b2aa 223d da5b 0ebd ff0c 06bd 1321 f7bb
000000e0: 3c89 06bd e927 413c f1dd 03bd eb1d ba3c
000000f0: a567 623d 2ddb 1d3b 4b48 44bd 698c 30bd
00000100: 8e80 dfbb 9992 ddbb 26b9 2a3c 2039 7dbc
00000110: e182 46bc 3e46 333d ac85 e1bc ca88 20bc
00000120: af7d 9cbc 8479 663c 73d3 9cb9 b805 043d
00000130: d7de e8bb 5821 f9bb 2412 c73c d98e e0bc
00000140: 3737 053d b7a0 b03c 782f 8f3c 1558 783d
00000150: 40b7 143d bb68 35bd 2ab2 39bc 9fae 573c
00000160: 35aa 093d 3179 00bd 19c7 1abc ebd1 4b3b
00000170: c8cb edbc 4249 20bc 7ddf 9a3c 3d00 013d
00000180: cbd5 373d 1bde 753d 502d 29bd 2ee5 fbbc
00000190: d18a 0dbc 9ad8 0cbc 314b dd3c 46bb 62bd
000001a0: dd97 b0ba 3bf9 6bbd 1164 dd3c c8b8 febc
000001b0: 9915 863d de46 f63c aa24 163d da4a 08bd
000001c0: 11ed 303d 7c88 40bd a821 a5bb 1a25 983c
000001d0: a8c7 22bd 0388 0abd 9305 5bbd 919d 70bc
000001e0: 76b8 17bd 1360 e5bc 5516 30bc 3cd3 323c
000001f0: 7a50 813c e7f5 383c 44f6 9e3c 9834 49bd
00000200: 223d 7cbb 6a02 17bc 10cf 393d c94e 1f3d
00000210: 56c8 30bd 8a2d 72bd dd6d 3cbd d885 f83c
00000220: 35f2 c5bc f8cb 2d3d ffe4 443d 743a 5a3d
00000230: 4819 12bd 981c 41bd 6d9e a9bc 81f2 46bd
00000240: cfcb 04bc 68e6 23bc 94e4 9d3c 30f9 db3c
00000250: 2172 013d ee38 0838 d607 433d 1fe9 3abd
00000260: 7588 0c3d 3117 c5bc f6c1 2ebd 5ef9 44bc
00000270: 1575 e4bc fed0 073c e6d4 06bd 826e c03c
00000280: 7d76 6d3d 6ef0 82bc 2770 2abd 9e37 22bd
00000290: 748d 71bb 0058 bdbb fb26 953c e629 c1bc
000002a0: 032b e7bc 59e8 363d 2213 c1bc aa2c 92bb
000002b0: 8a11 bdbc db50 603c c4f1 b93c b253 253d
000002c0: 972a a6bb 05a8 2dbc e6c8 a13c 49c8 8abc
000002d0: 75b9 dc3c 6fc7 953c 0524 0d3d 232f 3b3d
000002e0: 2836 bd3c b146 c8bc c0fe 0abc 572c 883c
000002f0: 9ce7 e03c 17d9 65bb 5287 cdbb 1175 1b3b
00000300: e76d 09bd 93b3 e0bc 1b3f 723c 4a20 d43c
00000310: ea2a d53c 1010 523d 7ce2 19bd 33ab e6bc
00000320: c1a2 0fbe 74ef 13be ff6f af3d fa5a a1bc
00000330: a84c 103d 9540 8dbd 9649 c5bc e81b e13c
00000340: 67d2 243d 666a f83d 6fd5 05bc cbb3 0a3d
00000350: 15e6 c83b 84f2 383d c577 833d 0973 6cbd
00000360: 0ea1 023d 8fe0 cdbd bac7 103d 43de b23d
00000370: 4399 a53d 91e1 f3bd 73b3 a33d 3c70 d4bd
00000380: 1f95 efbb e6df 043e 2f70 2fbd 2368 6dbc
00000390: 5b64 be3d 352c fcbd 1176 aabd 8cf8 0b3e
000003a0: d215 b23d 3226 8f3c 2cae 4fbc 4c50 7cbd
000003b0: 1d4c 1d3d 1ac5 6dbd 0b37 9c3c 748a 1fbc
000003c0: ff2f 323d 8071 cb3b 38dc bd3d 63c4 8a3b
000003d0: c153 a83d b2be 6f3d 22dd 82bd 0469 dbbc
000003e0: e256 d0bc cd34 ca3d 8d82 8abc fa85 533d
000003f0: ea5d 0a3e 71f2 04be 0bb2 fe3b ba4c 8f3d

bias f4 [100]
-0.08155537 -0.108672984 -0.019164868 0.02085176 0.008496491 0.01653376 0.019941779 0.0074722976
0.10220044 -0.00983629 0.10788117 0.10828596 -0.04234333 -0.11243734 0.008002238 -0.016541366
-0.10604514 0.018147543 -0.009346136 0.123753354 -0.010275075 -0.12832157 -0.12483343 -0.062481668
-0.08083701 0.08648693 0.08548276 0.013214112 -0.026885651 0.0260878 -0.121799104 0.064695574
0.0027642124 0.019976193 -0.014870217 -0.01676952 -0.11201736 -0.008617556 -0.0026080182 0.09404611
-0.09277068 -0.008838645 0.014114642 0.017797664 0.030975826 -0.007613725 0.0021246488 0.02468088
-0.10141086 -8.301843e-07 -0.07861891 -0.08059711 0.0031767122 -0.10169294 0.10543174 -0.00861131
0.024185272 -0.10722266 -0.0091995355 -0.059688807 -0.013434949 0.11354049 0.014484711 0.017329533
-0.12717131 -0.06111286 0.11031201 -0.08027379 0.12690203 0.003056028 0.013387198 0.081579894
-0.10553003 -0.12163155 -0.0425468 0.12264931 -0.09860149 0.07362889 -0.07559601 -0.095627174
-0.01949781 0.07540174 -0.11272396 0.09146527 0.09113458 0.07104132 0.005483682 0.003757432
0.08780652 0.06702738 -0.027004076 -0.011631793 0.12964872 -0.008566533 0.098649375 -0.07752381
-0.011277786 -0.0056576706 -0.005151496 0.013860929
00000000: 8006 a7bd f18f debd a4ff 9cbc 4fd1 aa3c
00000010: de34 0b3c cf71 873c f15c a33c 2dda f43b
00000020: 774e d13d 6428 21bc cef0 dc3d 08c5 dd3d
00000030: 3370 2dbd 8c45 e6bd d21b 033c c281 87bc
00000040: 322e d9bd 28aa 943c 8920 19bc 6672 fd3d
00000050: ca58 28bc bb66 03be aba8 ffbd c7ec 7fbd
00000060: e08d a5bd 0f20 b13d 9611 af3d 0180 583c
00000070: 4c3f dcbc 15b6 d53c cf71 f9bd 1d7f 843d
00000080: ca27 353b 1da5 a33c 36a2 73bc 3b60 89bc
00000090: 5c69 e5bd a630 0dbc 49eb 2abb 3f9b c03d
000000a0: 8efe bdbd f7cf 10bc 1941 673c 68cc 913c
000000b0: 04c1 fd3c 8e7c f9bb b13d 0b3b 8f2f ca3c
000000c0: 7fb0 cfbd d5d9 5eb5 f302 a1bd 1910 a5bd
000000d0: 6330 503b 6344 d0bd 99ec d73d 7416 0dbc
000000e0: 3120 c63c 8e97 dbbd a6b9 16bc 407c 74bd
000000f0: 431e 5cbc eb87 e83d 4851 6d3c aaf6 8d3c
00000100: 3239 02be 7a51 7abd 43eb e13d 9666 a4bd
00000110: 9bf2 013e a447 483b fa55 5b3c 5c13 a73d
00000120: 2120 d8bd f619 f9bd 8e45 2ebd 902f fb3d
00000130: 94ef c9bd beca 963d 15d2 9abd 2ed8 c3bd
00000140: dfb9 9fbc 3a6c 9a3d d2db e6bd 2552 bb3d
00000150: c4a4 ba3d 1d7e 913d 75b0 b33b 403f 763b
00000160: e8d3 b33d a745 893d a737 ddbc 4793 3ebc
00000170: a2c2 043e a55a 0cbc af08 ca3d cec4 9ebd
00000180: 77c6 38bc fb63 b9bb e1cd a8bb f318 633c

weight f4 [100, 100]
0.046267215 0.052783843 0.033394314 0.009466541 0.01633533 -0.023464022 -0.024674641 0.013339841
-0.04927281 -0.0006553688 -0.0345129 -0.0722758 -0.011868911 0.05549162 0.0048969593 0.009242914
0.07042029 -0.032573313 0.019346623 -0.04707936 0.007865188 0.025313599 0.0355102 0.0679225
0.056874897 -0.042006906 -0.047356218 0.0016846233 -0.005533904 -0.009593515 0.052980453 -0.073833294
-0.014186372 -0.012580044 0.023435647 -0.0010435035 0.04659994 0.013560708 0.01091984 -0.053426422
0.059205063 -0.031348415 -0.029256053 -0.012281645 -0.022035588 -0.005473575 0.014238353 -0.03237272
0.031309348 0.030199913 0.029236857 0.03280724 -0.042421304 0.058336977 -0.047381304 0.0013204487
0.0029542157 0.036321376 0.03996748 0.033952486 0.0058010826 -0.060849685 -0.027039513 -0.036375184
0.028400231 0.060271304 -0.07942048 0.06780488 -0.045090992 -0.0043135346 -0.015963437 -0.06825815
0.04889013 0.049170382 0.028236365 -0.07982826 0.062132847 -0.050540116 0.029249057 0.053393237
0.032862023 -0.059224952 0.0409504 -0.04178169 -0.05497443 -0.02973993 -0.007419456 -0.036646534
-0.042237595 -0.04851716 -0.011044658 0.015748126 -0.030980933 -0.008773138 -0.05641809 0.054687604
0.043564394 -0.042894386 -0.012072242 -0.026623156 -0.044223577 -0.028983349 -0.075304665 0.07220882
0.052827053 0.062268674 0.045921087 0.03938224 0.05682114 -0.042614806 0.017646538 0.046743214
-0.0031206755 -0.038970344 0.051898573 -0.07257551 -0.042527888 0.07052751 -0.039397813 0.037308443
-0.04540297 -0.047360178 -0.019546539 -0.042094596 -0.041101966 0.049363516 0.043008447 0.07266273
-0.052888095 0.074594274 -0.025533829 0.012882336 -0.007884526 0.0736062 -0.06520598 -0.04921398
-0.027223662 -0.04917455 0.055499226 0.035267185 -0.017958827 0.014319582 0.06350328 0.08178372
0.07102347 -0.039192837 0.04566234 0.066982046 -0.018765718 -0.054032445 -0.07167039 -0.034457646
0.055136405 -0.040898394 0.030918488 0.026761405 0.07790829 -0.027154267 -0.030914834 -0.01809515
-0.071801566 0.028404647 0.053593528 0.053960454 -0.041182324 -0.02633337 0.032902867 -0.027944583
0.044356465 0.055467475 0.044671796 0.02211879 -0.049182177 -0.042069796 -0.03667071 0.04090035
-0.04519389 0.024570916 -0.041402206 -0.02919292 -0.07208096 0.05299724 -0.041008007 0.03161268
0.050361983 0.03179533 0.055394657 -0.024921425 0.03102403 0.013117697 -0.06577115 -0.07941047
0.04995587 0.027468525 0.02057315 -0.02253082 -0.056729082 0.031220037 -0.05262593 0.065880336
0.04090077 0.011519387 0.12603475 -0.095599465 -0.07680691 -0.123310775 -0.08539145 -0.079505965
0.013015559 0.086640015 -0.017435454 0.0067883497 -0.01584254 0.028646342 -0.10385906 0.09389872
-0.0029583587 -0.0636879 0.093941346 -0.022627054 0.114652835 0.037265327 0.026568651 0.020056512
-0.010823166 -0.031776648 0.007101563 -0.10198596 0.09604283 -0.10547793 0.050151523 -0.02139445
0.028407792 -0.11385839 0.11932889 0.1298992 -0.019561343 0.08109647 -0.09616803 0.011926025
0.028088134 -0.06315163 -0.07136123 -0.119591534 -0.111802645 0.07487072 -0.07660895 -0.071461536
-0.02482554 0.104376666 0.042719822 0.056788515 -0.1223479 0.04839706 -0.014557792 -0.056122705
00000000: b182 3d3d df33 583d 7ac8 083d 8d19 1b3c
00000010: acd1 853c 9f37 c0bc 7922 cabc 598f 5a3c
00000020: 49d2 49bd 0ecd 2bba 665d 0dbd 5605 94bd
00000030: d275 42bc 2e4b 633d ac76 a03b 976f 173c
00000040: 8338 903d 986b 05bd cf7c 9e3c 49d6 40bd
00000050: fddc 003c 775e cf3c 2573 113d f41a 8b3d
00000060: a7f5 683d 6f0f 2cbd 98f8 41bd 94ce dc3a
00000070: c055 b5bb 1e2e 1dbc 0802 593d e935 97bd
00000080: f56d 68bc 871c 4ebc 1dfc bf3c 2bc6 88ba
00000090: 94df 3e3d bb2d 5e3c 21e9 323c aad5 5abd
000000a0: 0281 723d 3267 00bd 64aa efbc f438 49bc
000000b0: fa83 b4bc ad5b b3bb fb47 693c 4299 04bd
000000c0: 3b3e 003d cf65 f73c 2282 ef3c e260 063d
000000d0: f6c1 2dbd c1f2 6e3d e612 42bd e812 ad3a
000000e0: 849b 413b b9c5 143d f1b4 233d c311 0b3d
000000f0: 0217 be3b 853d 79bd f881 ddbc 25fe 14bd
00000100: 9aa7 e83c 0bdf 763d 34a7 a2bd 49dd 8a3d
00000110: 55b1 38bd 8d58 8dbb c1c5 82bc eeca 8bbd
00000120: 0441 483d e266 493d f34f e73c 007d a3bd
00000130: 037f 7e3d 2703 4fbd b89b ef3c deb2 5a3d
00000140: 549a 063d dd95 72bd 9bbb 273d 4723 2bbd
00000150: de2c 61bd 27a1 f3bc e81e f3bb ad1a 16bd
00000160: 5401 2dbd eeb9 46bd a7f4 34bc 3702 813c
00000170: bacb fdbc 35bd 0fbc a816 67bd 1c00 603d
00000180: 9470 323d 06b2 2fbd a7ca 45bc ce18 dabc
00000190: c823 35bd 7d6e edbc 5539 9abd 38e2 933d
000001a0: 2e61 583d 700d 7f3d c017 3c3d 464f 213d
000001b0: 49bd 683d dd8c 2ebd 798f 903c d075 3f3d
000001c0: 3f84 4cbb 5e9f 1fbd 9993 543d 78a2 94bd
000001d0: b931 2ebd ba70 903d 9a5f 21bd bdd0 183d
000001e0: 77f8 39bd bffc 41bd 1020 a0bc 626b 2cbd
000001f0: 895a 28bd 6631 4a3d a029 303d 33d0 943d
00000200: 30a1 58bd e2c4 983d 522c d1bc 6f10 533c
00000210: 192e 01bc d9be 963d b68a 85bd 9994 49bd
00000220: 2804 dfbc 416b 49bd 2853 633d 5374 103d
00000230: 641e 93bc ae9c 6a3c 020e 823d 397e a73d
00000240: c174 913d ab88 20bd 6f08 3b3d e22d 893d
00000250: 90ba 99bc 2051 5dbd edc7 92bd 7623 0dbd
00000260: b6d6 613d 1385 27bd c548 fd3c bc3a db3c
00000270: 628e 9f3d a072 debc 1b41 fdbc 483c 94bc
00000280: b30c 93bd ddb0 e83c e384 5b3d a305 5d3d
00000290: ccae 28bd 14b9 d7bc 28c5 063d 0aec e4bc
000002a0: 20af 353d dd31 633d c6f9 363d 7732 b53c
000002b0: 4073 49bd 6151 2cbd 0734 16bd 2087 273d
000002c0: 3a1d 39bd f248 c93c 5c95 29bd fe25 efbc
000002d0: 2f9f 93bd a213 593d 03f8 27bd 4c7c 013d
000002e0: 5e48 4e3d d23b 023d 82e5 623d 0428 ccbc
000002f0: 1b26 fe3c 9ceb 563c 06b3 86bd f5a1 a2bd
00000300: 879e 4c3d ac05 e13c 0689 a83c 8e92 b8bc
00000310: c15c 68bd 2ac1 ff3c 4a8e 57bd 45ec 863d
00000320: 9187 273d d0bb 3c3c 410f 013e a7c9 c3bd
00000330: f14c 9dbd 5c8a fcbd b6e1 aebd 06d4 a2bd
00000340: 363f 553c 5270 b13d ccd4 8ebc ce70 de3b
00000350: 37c8 81bc bcab ea3c 0fb4 d4bd f94d c03d
00000360: 06e1 41bb cd6e 82bd 5264 c03d 5f5c b9bc
00000370: 1bcf ea3d 87a3 183d 80a6 d93c 8e4d a43c
00000380: a653 31bc 3b28 02bd 3ab4 e83b 04de d0bd
00000390: 1ab2 c43d d004 d8bd af6b 4d3d 6a43 afbc
000003a0: 75b7 e83c 962e e9bd b562 f43d 4c04 053e
000003b0: 1c3f a0bc e815 a63d bef3 c4bd 6065 433c
000003c0: 1619 e63c a455 81bd d625 92bd 68ec f4bd
000003d0: c9f8 e4bd d255 993d 27e5 9cbd 6d5a 92bd
000003e0: ee5e cbbc 6fc3 d53d fbfa 2e3d 139b 683d
000003f0: 8991 fabd ff3b 463d ce83 6ebc ece0 65bd

bias f4 [100]
-0.10182659 0.027547447 -0.004052848 -0.017195957 0.053463195 0.0060548214 -0.03381812 -0.10353814
-0.037478052 0.077814914 -0.02514957 -0.06241055 0.03489838 -0.041787345 0.106706135 0.08349325
0.023741478 -0.066872865 0.036365926 0.020617332 0.030695308 -0.06928253 -0.061314166 0.05527272
-0.109948404 -0.043580215 0.06554194 0.0065414873 -0.047737803 -0.04734443 0.05516472 -0.06399176
0.07059669 0.05391825 0.06521012 -0.010305124 -0.016519208 0.0884488 -0.118904665 0.005505053
-0.040527057 -0.114724874 -0.06340644 -0.0656327 -0.031292398 0.04243075 -0.0768628 0.0069487756
-0.109577194 -0.04429633 0.005016609 0.07724794 -0.020180404 0.087388486 0.03755178 0.022030367
-0.048104998 -0.05188148 -0.048202027 0.07045167 0.092116594 0.059243213 0.11410988 0.0427045
-0.052365866 0.10352615 0.05631576 0.05642993 -0.10419766 0.061506778 -0.06160738 0.07529126
-0.041558895 -0.088494 -0.019443862 0.06039267 0.034901075 0.06831208 -0.03848032 -0.035943914
-0.041853275 -0.046613395 0.07535892 -0.024136756 0.07364917 -0.03246432 -0.07741194 -0.034022324
-0.08019419 0.019807473 -0.11066384 -0.0337475 0.032892164 -0.04483792 0.09826652 0.061347295
-0.03482052 -0.09730212 0.05911229 -0.042457096
00000000: 768a d0bd 2fab e13c c1cd 84bb 89de 8cbc
00000010: 39fc 5a3d 8667 c63b de84 0abd ce0b d4bd
00000020: 9682 19bd 6d5d 9f3d 7906 cebc 34a2 7fbd
00000030: 9bf1 0e3d 3529 2bbd bf88 da3d 82fe aa3d
00000040: 7d7d c23c a4f4 88bd 70f4 143d aee5 a83c
00000050: ba74 fb3c 00e4 8dbd 9024 7bbd a665 623d
00000060: a12c e1bd 2b81 32bd da3a 863d f959 d63b
00000070: b788 43bd 3cec 41bd 67f4 613d 1d0e 83bd
00000080: ff94 903d 62d9 5c3d e28c 853d d3d6 28bc
00000090: 4a53 87bc a524 b53d 4a84 f3bd bb63 b43b
000000a0: b3ff 25bd e0f4 eabd 3cdb 81bd 706a 86bd
000000b0: 752c 00bd decb 2d3d 3e6a 9dbd 8eb2 e33b
000000c0: 026a e0bd 1270 35bd 5e62 a43b 2b34 9e3d
000000d0: 6051 a5bc bcf8 b23d e5cf 193d 0779 b43c
000000e0: bf09 45bd ad81 54bd 7d6f 45bd f748 903d
000000f0: a0a7 bc3d 03a9 723d 71b2 e93d eaea 2e3d
00000100: 977d 56bd 8505 d43d 5bab 663d 1223 673d
00000110: 9565 d5bd 88ee 7b3d 0558 7cbd 4e32 9a3d
00000120: a939 2abd 583c b5bd bc48 9fbc 4e5e 773d
00000130: 6ef4 0e3d 34e7 8b3d 8a9d 1dbd ed39 13bd
00000140: 576e 2bbd b0ed 3ebd c755 9a3d 72ba c5bc
00000150: 60d5 963d 4ff9 04bd 278a 9ebd fe5a 0bbd
00000160: da3c a4bd 4843 a23c b9a3 e2bd d23a 0abd
00000170: efb9 063d f8a7 37bd f53f c93d 4d47 7b3d
00000180: f69f 0ebd 5546 c7bd bb1f 723d 7ee7 2dbd

weight f4 [2, 100]
0.15177979 -0.31112927 0.27752006 0.29093197 -0.16499534 -0.44022116 0.2979635 0.058772217
0.36195305 -0.47929147 0.35083193 0.21785347 -0.3435914 0.4476239 -0.3523765 -0.12877007
-0.18157269 0.20151402 -0.41265994 -0.2294532 -0.4415362 0.20393707 0.196089 -0.1766228
0.37689903 0.30178615 -0.3579349 -0.4084676 0.22611032 0.016083237 -0.4380431 0.14136264
-0.1743339 -0.16321176 -0.122509584 0.43703955 0.44347435 -0.49808615 0.22152656 -0.17807978
0.17933479 0.08507644 0.13607806 0.1606191 0.36788607 -0.29318008 0.20472677 -0.1057869
0.08294688 0.3936508 0.107111156 -0.2893237 0.2306608 -0.25586805 -0.5688534 -0.28587228
0.34673908 0.18857403 0.2034983 -0.23621139 -0.25643566 -0.1378889 -0.17721516 -0.15857662
0.12194222 -0.1925911 -0.25590572 -0.49843204 0.105192736 -0.13240805 0.13060623 -0.17822893
0.21746023 0.38109097 0.38566718 -0.067151405 -0.49612978 -0.2737993 0.4390988 0.44013402
0.44845855 0.25284025 -0.19461985 0.2951157 -0.2065888 0.28996 0.39623752 0.39203784
0.18469378 -0.41295257 0.19920388 0.3806555 -0.38230446 0.4181861 -0.18816686 -0.37974337
0.2761427 0.14443558 -0.22108443 0.056794614 -0.3347015 0.35579604 -0.53607744 -0.3072989
0.29907522 0.5071289 -0.3251424 -0.38466078 -0.31876963 -0.23868762 -0.45834124 -0.27201608
0.29622552 0.15025313 0.4880587 0.35434255 -0.16768819 -0.36644727 0.41153842 0.46083698
0.46403393 -0.37646577 -0.34411737 0.34922507 -0.6115258 -0.29636982 0.44005668 0.5509289
-0.3721198 -0.5600488 0.57874215 -0.32228637 0.34359422 0.33411434 0.30993387 -0.55046195
-0.44546002 -0.4323563 -0.4076704 0.33555576 -0.31205067 -0.35046306 -0.36324492 -0.31686363
-0.36573842 0.30082273 -0.38073134 0.3166205 -0.3560366 -0.33103693 0.42554015 0.39163777
-0.3275116 0.4117047 0.5273403 0.33930016 -0.5224197 -0.29911545 -0.40811548 0.33551934
0.41053945 0.2638709 0.3421961 0.3754377 -0.38087252 0.37841067 0.39865902 -0.33597523
-0.3144019 0.34596452 -0.3082022 0.3417521 -0.34824276 -0.4637969 -0.51540375 0.34585488
-0.17261274 0.33758023 -0.42854995 -0.4670587 -0.44225684 -0.2857504 0.3944568 -0.34175092
0.3541424 -0.26598668 -0.422792 -0.3606445 -0.32600582 0.43029493 -0.4183366 -0.41420168
0.4412826 -0.50597966 0.39025262 0.4210827 -0.29688612 -0.39142933 0.36578527 -0.32919383
00000000: 296c 1b3e 564c 9fbe 1c17 8e3e 09f5 943e
00000010: 8af4 28be ab64 e1be ac8e 983e 23bb 703d
00000020: e951 b93e b165 f5be 3ea0 b33e fb14 5f3e
00000030: 36eb afbe f62e e53e b16a b4be 4ddc 03be
00000040: 31ee 39be b159 4e3e 2a48 d3be c8f5 6abe
00000050: 0811 e2be e1d4 503e 8ecb 483e 9bdc 34be
00000060: e9f8 c03e b783 9a3e 3e43 b7be aa22 d1be
00000070: 7789 673e fec0 833c 2f47 e0be 5ec1 103e
00000080: 9684 32be fc20 27be 4ee6 fabd a6c3 df3e
00000090: 120f e33e 2605 ffbe dcd7 623e 8c5a 36be
000000a0: 8aa3 373e 8e3c ae3d 0c58 0b3e 5579 243e
000000b0: 905b bc3e b31b 96be e5a3 513e cda6 d8bd
000000c0: 0ee0 a93d 998c c93e 185d db3d 3c22 94be
000000d0: 5832 6c3e 2301 83be 60a0 11bf da5d 92be
000000e0: c987 b13e 8d19 413e dc61 503e 66e1 71be
000000f0: 894b 83be bf32 0dbe e477 35be e961 22be
00000100: d8bc f93d 9a36 45be 1306 83be 7c32 ffbe
00000110: 4a6f d73d fa95 07be a4bd 053e a581 36be
00000120: e5ad 5e3e 5b1e c33e 2b76 c53e ad86 89bd
00000130: b904 febe 6c2f 8cbe 8fd1 e03e 3f59 e13e
00000140: 5c9c e53e 4774 813e 6d4a 47be 6819 973e
00000150: 048c 53be a375 943e a5df ca3e 2fb9 c83e
00000160: 5e20 3d3e 856e d3be 1afc 4b3e 47e5 c23e
00000170: 69bd c3be 7d1c d63e d0ae 40be b96d c2be
00000180: 9362 8d3e ece6 133e f563 62be 78a1 683d
00000190: ff5d abbe e62a b63e 5f3c 09bf 4856 9dbe
000001a0: 6320 993e 33d3 013f 1179 a6be 42f2 c4be
000001b0: c635 a3be 876a 74be b4ab eabe b145 8bbe
000001c0: dfaa 973e f5db 193e d4e2 f93e 636c b53e
000001d0: 74b6 2bbe fa9e bbbe 2ab5 d23e d3f2 eb3e
000001e0: db95 ed3e 1fc0 c0be 2730 b0be a1cd b23e
000001f0: f48c 1cbf c9bd 97be 1c4f e13e ad09 0d3f
00000200: 7d86 bebe 5c5f 0fbf 7228 143f b802 a5be
00000210: 95eb af3e 0911 ab3e a7af 9e3e 13eb 0cbf
00000220: 5613 e4be ce5d ddbe 2dba d0be f7cd ab3e
00000230: 1bc5 9fbe e56f b3be 3dfb b9be f33b a2be
00000240: 1142 bbbe 7005 9a3e 38ef c2be 151c a23e
00000250: 6e4a b6be ac7d a9be 66e0 d93e bf84 c83e
00000260: 9aaf a7be f5ca d23e c6ff 063f c0b8 ad3e
00000270: 4cbd 05bf a925 99be 83f4 d0be 31c9 ab3e
00000280: 3a32 d23e 161a 873e 5434 af3e 5f39 c03e
00000290: b901 c3be 0bbf c13e 091d cc3e f204 acbe
000002a0: 49f9 a0be 4322 b13e aecc 9dbe 22fa ae3e
000002b0: e04c b2be ca76 edbe 80f1 03bf e413 b13e
000002c0: 65c1 30be 51d7 ac3e e66a dbbe 5122 efbe
000002d0: 7d6f e2be e04d 92be 3ef6 c93e faf9 aebe
000002e0: 2752 b53e 682f 88be 3178 d8be 65a6 b8be
000002f0: 3cea a6be 9e4f dc3e 3730 d6be 3e12 d4be
00000300: cbef e13e e287 01bf 31cf c73e 2798 d73e
00000310: 7501 98be 6d69 c8be 3548 bb3e 188c a8be

bias f4 [2]
-0.10279584 0.23934628
00000000: a086 d2bd 3117 753e
