Pinns/Models/F9_model_PINNS.pt (torch, 5513 bytes, 4 tensors)

weight f8 [100, 1]
000000 eb bc 7d d6 f2 43 e7 3f 48 91 19 9e 03 42 e3 bf
       0.7270445050507112 -0.6018083656204363
000010 3e f2 1e ab e5 14 e0 bf 15 73 bc 24 6a 65 e9 bf
       -0.5025509206967127 -0.7936297147276458
000020 22 c7 97 50 9b 73 e5 3f 8c 78 70 7e 8d f7 d3 bf
       0.6703621458129627 -0.3119844183692144
000030 25 6c 1c f5 95 91 f8 bf 19 6d 62 08 c2 93 f1 3f
       -1.5355434012078686 1.0985737159269944
000040 05 41 96 2f 70 fb da bf b1 78 b6 8f b4 be d0 bf
       -0.4215965714183912 -0.2616397288746937
000050 6b da a9 be 05 5c e3 3f b2 1b de ef 90 82 f5 3f
       0.604983208074214 1.3443765039280433
000060 46 40 3f 37 9e 6c ec bf d3 86 ec 0d 06 80 d9 bf
       -0.8882590369266914 -0.39843894347914705
000070 14 04 eb da 9d 06 e5 bf 6e a5 cd f1 c6 23 e0 bf
       -0.6570576930754464 -0.5043673250885783
000080 b0 56 5d f5 fe 5f db bf 05 73 94 7d 90 7e f3 bf
       -0.4277341266764365 -1.2183995156730714
000090 d3 5e 1d 5f 33 cf ee 3f ea 53 d1 cb 51 4c f3 3f
       0.9627930505475554 1.2061326943996797
0000a0 1e d4 4b 55 f0 5d e5 3f fc 92 af 22 75 5d ec 3f
       0.667717138857032 0.886408393617415
0000b0 77 9d f2 68 25 b9 d3 bf 98 12 bc d2 61 68 f9 bf
       -0.3081754231338531 -1.587983916456471
0000c0 01 38 3f 84 f0 cd e4 bf b6 b6 1c 72 8f 5a f5 3f
       -0.6501391013096055 1.3346094567781797
0000d0 96 1d cf 31 d6 f4 d8 3f 23 65 54 39 a4 72 e1 3f
       0.38994364608921595 0.5452443237037737
0000e0 20 33 20 ca 46 a0 f2 3f 48 cb e3 45 1f ef d8 3f
       1.1641300101793561 0.3895948584096698
0000f0 fe de 6b e4 0c ad f4 bf 20 5f cb 41 3d f4 dd 3f
       -1.2922486231527155 0.46803218293415405
000100 21 22 98 71 b3 3b f4 bf e0 b9 2e c0 80 9c f6 3f
       -1.2645754277492716 1.4132087237481912
000110 30 94 a2 ea 5d 8d f9 bf 5f 1f 03 45 cb d4 db bf
       -1.5970133939201894 -0.434862916369175
000120 90 b3 ce 44 84 1a d4 bf 2f c1 14 46 32 2d f4 3f
       -0.31411844939685185 1.2610342729131607
000130 b1 19 84 d6 3f 84 de 3f 2a 86 7d d3 75 78 d3 bf
       0.47682186077909267 -0.30422731068947206
000140 59 3c ef a4 14 ae da bf 06 3e e3 f4 2c ec d3 3f
       -0.4168750391663188 0.31129001536189127
000150 f6 80 69 c3 3e c6 f4 bf 22 b3 01 f0 4f 5c ce bf
       -1.298399699524507 -0.23719214648317527
000160 12 53 72 b5 c6 2f f7 3f 18 c1 d8 d8 e7 58 d4 3f
       1.4491641128308328 0.317926370395996
000170 7d 27 41 6f 21 51 e9 bf 66 9b c5 67 ae 1f f7 3f
       -0.7911536381663918 1.445234685286516
000180 1f 1e 31 10 26 50 f9 3f 82 b0 99 d7 7c 2e f6 3f
       1.5820675499434242 1.3863495275391249
000190 b0 97 29 04 77 e0 da 3f 2f f3 50 49 3b 52 dc bf
       0.4199502506875161 -0.4425190177897091
0001a0 e4 6c 4f c6 ef 47 d9 3f 87 fb 0f 04 8d 31 d2 bf
       0.3950156628249728 -0.2842743434593377
0001b0 f6 d7 19 0f 72 09 fa 3f 05 1f a0 29 3e 07 dd bf
       1.6273060407524986 -0.4535670668123973
0001c0 06 9d d7 a7 79 fd e4 bf 92 c6 41 be 72 19 f1 bf
       -0.6559417989891763 -1.068712943259389
0001d0 b0 c1 df e6 94 27 f8 3f 8a cd bc 8d ea 27 eb 3f
       1.5096634882466837 0.8486225860892074
0001e0 62 eb 13 57 15 e5 d3 3f c5 7a 54 fb f7 31 e4 bf
       0.3108571386689417 -0.6310996922291784
0001f0 4b b9 a9 de 40 05 0a c0 11 8f e4 05 85 f9 f6 bf
       -3.2525651355310052 -1.4359178762615026
000200 39 fd 3f 41 5a 32 00 c0 56 f4 a2 6f 5a 58 db 3f
       -2.0245862100270213 0.4272676553917497
000210 46 d4 77 af a2 ae d9 bf 8d a7 0a 29 ae 06 e1 3f
       -0.4012839044147011 0.5320654679865001
000220 53 95 65 1a 9f 52 d6 bf 61 fe 36 ca 76 0d de 3f
       -0.348792815950522 0.46957177875080985
000230 07 73 c1 d4 59 67 ba bf e2 aa c1 0f 70 fe f4 bf
       -0.1031395096228601 -1.3121185889710252
000240 87 bf e7 b0 39 62 f7 bf 5d a5 e5 43 1e 36 e0 bf
       -1.4614807997095072 -0.5066062284578653
000250 3e d8 25 84 cd 17 ee 3f c1 d4 3a fa e3 f9 d7 bf
       0.9404056149494477 -0.3746271079683759
000260 3e b0 6e 76 f4 ad d2 3f 42 53 d6 42 64 99 d5 3f
       0.2918673664632968 0.3374872830111607
000270 e7 f1 d1 e6 56 0c d3 bf 34 dc 89 ff a4 25 d2 bf
       -0.2976281408407701 -0.28354763941701155
000280 a0 51 66 51 23 e2 d4 bf 6c d0 5f 84 ae d5 db bf
       -0.3263023657721309 -0.43491709639716336
000290 ce 24 b6 1a 66 1d d1 bf 38 a8 e7 c6 7e 60 d0 3f
       -0.26741936310334047 0.2558896009856002
0002a0 f9 49 6d e3 8b 1f d2 bf d9 31 0d ea 66 23 e3 bf
       -0.28317544183406046 -0.5980715342826058
0002b0 fe fe b9 5a cd d1 f5 3f 35 b6 6f 4e 4f 25 d4 bf
       1.363721231842589 -0.3147772088985648
0002c0 43 d4 83 dd 52 8b e0 bf 08 e1 a4 2d e3 87 d7 3f
       -0.5170072866882339 0.3676689096205483
0002d0 36 37 bf 28 a5 29 e5 bf 86 00 be 8f 74 a8 fa bf
       -0.6613336368406866 -1.6661267867021095
0002e0 23 b3 75 42 de 76 d2 bf a1 83 73 c8 26 a1 d6 bf
       -0.2885051392575397 -0.3535859067470089
0002f0 eb 01 0a 25 a4 9d f6 bf 16 a7 e5 d0 ba e7 eb 3f
       -1.4134866186942598 0.87203732300006
000300 26 f2 b9 3e 55 9c d6 bf b7 a0 a8 b2 b4 9d fb 3f
       -0.3532918083726905 1.7260024050574836
000310 c9 6f 34 27 43 ec d1 3f 42 8d 81 2e c9 ba d1 bf
       0.2800453074321437 -0.2770255045090445

bias f8 [100]
000000 e4 af 28 85 b8 0c 00 c0 56 3a 6b 1d 80 77 f6 3f
       -2.0062113192598066 1.4041749142812896
000010 5d ff 3f 4a c8 e6 ed 3f a9 5f 6d 2b 97 43 e7 bf
       0.9344216776080249 -0.7270007942379283
000020 94 15 6b 25 f6 c8 e6 bf 14 71 b2 eb 81 7b 9a bf
       -0.7120314341379292 -0.025861768732839144
000030 50 d8 c8 38 f0 64 06 40 02 71 76 7f ff c9 f0 bf
       2.7992863117497464 -1.0493159274111012
000040 79 75 18 11 39 72 e0 3f 36 96 1c 11 8c d5 ec bf
       0.5139432271859469 -0.901067765637612
000050 2f 7a 01 7d 9b 3d e4 bf 41 5f 0b 7a 13 f7 e2 bf
       -0.6325204316634138 -0.5926606544189569
000060 04 b4 9d 41 82 38 e0 3f 5d 00 5d 1a 33 c0 e9 3f
       0.5068980485499428 0.8047118678005166
000070 66 20 00 4f 3e e9 f5 3f 67 b4 30 fe dd 14 e7 3f
       1.3694441877323924 0.7212972607282041
000080 51 37 85 48 b2 7f d0 3f c8 1a f5 28 f3 0f f5 3f
       0.2577939708906927 1.3163940048122402
000090 67 6d 04 2b 20 68 db 3f 1b 11 63 7c 81 8e f8 bf
       0.4282303257075086 -1.5347914561144254
0000a0 94 cf 67 ed 9f 6a f1 bf 4a f7 1a 38 59 da f9 bf
       -1.088531424870756 -1.6158077422728234
0000b0 3b a6 96 64 a3 fa 7e 3f 93 a0 3b 7e 2e 42 06 40
       0.007563246015175158 2.7823152410456458
0000c0 6d 99 2a 5a 57 e7 e7 3f 77 10 c9 33 9f 7a c5 bf
       0.746989894968278 -0.1678046229227481
0000d0 e1 b6 57 e4 e7 6c e7 3f 6c 4d a2 f1 d1 4a df bf
       0.732044168454845 -0.4889416560847255
0000e0 55 13 d1 61 e2 2d ed bf 81 2b ad 27 ee e4 d3 bf
       -0.911851111458058 -0.31084779619839514
0000f0 5c 45 72 50 89 3f fa 3f 76 34 f4 cc cb 7b d7 3f
       1.6405118124424325 0.3669309140685252
000100 d2 97 e9 96 98 2c e2 bf eb 39 c9 26 34 9f d1 3f
       -0.5679438540944324 0.2753420237321779
000110 40 c7 f0 15 39 ca eb 3f 3b 85 c4 e8 2b d2 ef 3f
       0.8684354237104586 0.9944057031863517
000120 52 cc 77 f2 47 9f d6 bf d7 61 4a 90 8a dd f5 bf
       -0.3534717433787523 -1.3665872227048703
000130 96 7e 66 3e 48 7a f1 bf 2e b1 57 c0 26 6d c0 bf
       -1.0923540532602707 -0.1283310355351061
000140 a4 0e fa ad a8 c5 e7 3f d6 ab 63 e0 b0 a1 b4 3f
       0.7428782842620945 0.0805922077012576
000150 e2 59 c6 86 2e b9 d5 bf b6 b0 25 09 63 f2 ec bf
       -0.3394275966797108 -0.9045882395417013
000160 9c ff 5a 20 f2 f3 e4 3f b5 05 65 28 16 f4 d0 3f
       0.654778540796531 0.2648978609541602
000170 cc 0a 47 dd 7e bf e0 bf b6 00 4b 47 f2 63 e9 3f
       -0.5233759233309114 0.7934504883233078
000180 7e c7 cc c8 c4 b5 e7 bf 65 d3 8b 9b 93 fc 97 3f
       -0.7409385606645029 0.023424440735613134
000190 8a 12 f0 3e 8e 52 dc bf a2 84 43 15 6b 26 d9 3f
       -0.4425387968661104 0.39296986652886734
0001a0 e5 4c 7f 71 1a 71 d0 bf a2 60 91 76 b0 35 e1 bf
       -0.2569032772418736 -0.5378038707522317
0001b0 74 40 9f fa 74 22 09 c0 2f 29 8b a6 74 5e d6 bf
       -3.141824682221392 -0.3495151163484875
0001c0 32 40 1c 2b 44 28 ec bf df 18 60 4c e1 00 e0 bf
       -0.8799153177260506 -0.5001074306208259
0001d0 83 9f 29 3c 68 65 a8 3f 10 8a c6 f7 8c c0 04 c0
       0.04764867529303187 -2.5940188748802555
0001e0 8d 6a 7b 74 da 20 d9 3f 72 33 65 5a 80 d3 e7 3f
       0.39263020873264837 0.7445680394681473
0001f0 d9 5b b4 cd 36 9e f1 bf 20 23 eb b9 38 34 d7 3f
       -1.1011264834721628 0.36256235271553017
000200 4d d5 f3 70 75 5a e9 bf d2 99 a0 81 82 f9 c8 bf
       -0.7922923284628866 -0.19511443452320393
000210 24 3d c8 e8 12 ce df 3f ee 57 3f f6 ca ee ee bf
       0.49695275051722576 -0.9666495141525482
000220 f3 92 be 95 a0 35 c8 3f 91 44 3a c8 07 c3 ef bf
       0.18913657485713706 -0.9925574217505916
000230 82 7b a1 47 b8 19 d7 bf 38 af b9 78 26 68 c1 bf
       -0.3609448146361772 -0.13599091429511545
000240 cc c6 58 73 16 14 c6 3f 85 6b 96 35 b8 00 f3 3f
       0.17248802787940176 1.1876756757035036
000250 f4 3e 67 eb 5b eb c0 3f 44 15 04 c3 77 af ce 3f
       0.13218258852292986 0.23972985288870963
000260 53 63 b3 58 55 5a e1 3f 8b b0 6b 84 51 03 b8 bf
       0.5422770245014398 -0.09380063517500241
000270 07 f0 ea d5 7a 97 d2 bf 7d ce 73 e5 38 82 e5 bf
       -0.2904955948868068 -0.6721462708942024
000280 d2 b2 5d b2 e9 87 d8 bf 78 0f 53 be 2a 74 e6 3f
       -0.38329546373897216 0.701680537917567
000290 cc e8 67 87 4d a0 de bf 90 6a 48 84 97 29 d8 bf
       -0.47853410933715845 -0.377538565809723
0002a0 29 04 66 c3 f3 c8 d1 bf 41 74 44 44 e6 72 e8 3f
       -0.2778901489437567 0.7640258153293261
0002b0 ae 1e ae 86 19 65 d7 3f af 16 95 5b bd 62 a2 bf
       0.36554563667639683 -0.03590957396458571
0002c0 13 80 e1 23 79 50 e3 3f 91 e9 b1 25 e7 b0 bb bf
       0.6035733891294534 -0.10816807432448729
0002d0 b8 3f 79 ef a8 7e e0 3f 01 d6 56 cd ed d6 f1 3f
       0.5154614140719707 1.114972879511129
0002e0 05 6a e1 8d 97 0d d3 bf 33 34 7c b5 7b 07 b5 3f
       -0.2977045903732292 0.08214543515005417
0002f0 83 16 10 c0 4d 21 e6 3f 4a 0d 38 af d2 4a 04 c0
       0.6915653945186054 -2.5365346611958204
000300 2a 06 42 40 0c 1b d7 bf b6 8e ea 52 11 7a f4 bf
       -0.3610258700865382 -1.2798016776004437
000310 b3 bb 04 cc 23 e6 dd bf bd 2b c9 5b fa bb d6 bf
       -0.46717162059479306 -0.355223264345735

weight f8 [2, 100]
000000 d8 2b 37 60 af a3 c3 bf 79 a1 bb 45 f6 e5 c0 3f
       -0.15343277166388591 0.13201788334778167
000010 a7 27 fa b6 0f ca ba 3f 20 f7 18 66 e0 05 aa 3f
       0.10464571206298832 0.05082608457858684
000020 78 d8 9b 5b e0 96 c2 bf 0c 4a a2 f9 9d bc 96 3f
       -0.14522938225826798 0.022203892098852804
000030 d4 ee 32 64 b7 a7 c8 3f 7f c1 ff f4 11 04 c1 bf
       0.19261829750563797 -0.13293671095699364
000040 74 e7 f1 b7 ca a0 bf 3f e0 ac 16 85 dd ea ae 3f
       0.12354723921626293 0.06038563012710951
000050 b5 88 d8 6d da fc c4 bf 9c 5a f7 38 c5 85 a3 3f
       -0.16396646846357546 0.0381299621619082
000060 00 55 ed 03 c5 16 c1 3f bc 0b 00 28 66 7c ac bf
       0.13350737277747982 -0.05563658941539226
000070 10 2a c7 dd 2f 3f bf 3f ce 33 f1 bd 52 ea c0 3f
       0.12205790676595307 0.132150976891721
000080 44 6b a6 b1 d7 1a 97 3f 25 8d 3d 33 31 dc bc 3f
       0.02256333371915821 0.11273486615168744
000090 74 11 f9 45 49 41 95 bf 40 b1 98 2d 65 78 c5 bf
       -0.020756859679992926 -0.16773667074574838
0000a0 92 0b 41 64 d5 f9 c6 bf b5 13 80 71 bd 99 cd bf
       -0.17949931521624457 -0.23125427286154623
0000b0 7f c1 62 f8 9f 76 6e 3f cc 6f 72 21 86 23 92 3f
       0.0037186741274909947 0.017713638106769555
0000c0 3e 6c 5a 22 a1 ed c5 3f dd 36 2b 63 5f 03 b3 3f
       0.1713143747082046 0.07427021189797807
0000d0 e4 01 b2 8d e4 73 a5 bf c2 0f 34 0f 05 7c b8 bf
       -0.04189981679610691 -0.09564239140678324
0000e0 3e a2 7f 72 e6 3b b5 bf f5 cc 5e 18 09 ba b8 bf
       -0.08294525428176144 -0.09658867688158408
0000f0 de bb 71 d8 fa fb a9 3f 7c 8c a0 50 6d 56 81 3f
       0.05075057880537036 0.008465627692265658
000100 86 71 0e 45 4b da b3 bf e0 ff 63 c3 45 44 bd 3f
       -0.07754965244243381 0.11432300586966404
000110 48 41 c9 7b cb e3 bf bf c4 a1 7f ea 4b 00 a7 bf
       -0.12456962368128643 -0.04492413747340465
000120 12 d3 21 8b 27 77 c1 3f b7 cf 14 b6 01 69 b0 bf
       0.1364488057476128 -0.06410227485031227
000130 86 d2 30 ef cb 85 94 bf 1b 7a 15 ba c8 8b a4 3f
       -0.020041643594782353 0.040128967967337746
000140 47 c4 97 07 23 9d 96 3f 79 3c 9d 7f 1c ef ad bf
       0.02208380445330629 -0.05846489961424423
000150 e3 79 ec e8 72 db ba bf 86 b3 f5 d5 75 bf 83 3f
       -0.104911023965975 0.009642525283845915
000160 6c 49 4a a4 97 7d b4 3f f8 3b 83 a3 82 67 8e bf
       0.0800413871859626 -0.01484586774350126
000170 42 da 86 36 ff 2f 95 3f ac 9a 6c fd 1a 99 b5 3f
       0.02069090624146442 0.08436745345225444
000180 2d 8e 55 aa 2d e8 c6 3f a7 ba b7 9a 45 7a ad 3f
       0.17896052186107295 0.05757348550456714
000190 d8 2b 1e 5c 31 dd b7 bf 0b 6d 1a f5 1b ad c0 3f
       -0.09321888445826632 0.13028287380152678
0001a0 ff 3e d9 00 89 cb b0 bf 92 c6 98 46 19 f6 af 3f
       -0.06560570021360589 0.06242445933129405
0001b0 c8 0f f4 a6 79 21 cf bf 8d 98 9e be 93 00 ac 3f
       -0.24320908214587988 0.054691903132423204
0001c0 e5 44 fc eb 10 38 b1 3f 6d 0b 7a c1 49 fb b9 bf
       0.06726175080645509 -0.10149060224106927
0001d0 ec 55 55 23 7a 87 c6 3f 14 3c f9 ba d1 24 c4 bf
       0.17600943303356986 -0.1573736346203708
0001e0 ab ca 64 3c a9 95 a6 bf 6d 53 71 40 9d 82 b2 3f
       -0.044110573408393826 0.07230551551158522
0001f0 b6 87 16 64 a3 73 b8 3f 57 73 aa ad cc 90 c7 bf
       0.09551449960284128 -0.1841064308145188
000200 cb 26 70 75 c6 b0 b5 bf 5e 73 29 62 2e 82 b7 bf
       -0.08472862593785206 -0.0918301572468869
000210 65 74 f9 03 e1 98 9a 3f 83 9e 18 3b 62 03 c4 bf
       0.025973811976986023 -0.15635326276354897
000220 e8 42 52 0b f8 dc b2 3f 0e 4a d3 6f 1d a6 a4 bf
       0.07368421818160764 -0.040329856777720705
000230 34 25 34 ea 6d 02 b0 bf d5 34 cf 7e fc 0a b3 bf
       -0.06253706901420203 -0.0743863877862226
000240 fd 49 b0 c7 38 bf c7 bf 84 cf 28 ca 21 f6 a6 3f
       -0.18552312612935387 0.04484658806577982
000250 d5 93 1b 3f cb 53 aa bf 8c 2f 75 4c e5 ae bc 3f
       -0.05142054696424451 0.11204369656223728
000260 ba 65 68 8d 07 18 b8 bf f9 ee 07 ab 26 d8 ad bf
       -0.09411666109408304 -0.0582897266176285
000270 d9 12 89 56 83 09 a7 3f 83 36 7c 1a 64 dd ba 3f
       0.04499445372906558 0.10494065901385778
000280 93 ac 75 cf 9e 67 c0 3f 98 a4 89 b5 97 7d af 3f
       0.12816224222055847 0.06150507060085281
000290 b3 9f 2b c9 07 e2 76 3f d0 d0 f4 1b 42 1a b0 3f
       0.00558665314995459 0.06290066893126611
0002a0 d9 08 fc 26 0f 78 70 bf 0d 65 e8 91 c3 37 b0 3f
       -0.004020747364622512 0.0633508902759738
0002b0 df df b2 e4 86 af c1 3f 4b 33 62 c0 9f 29 b0 3f
       0.13816915671281912 0.06313513228287808
0002c0 df de 42 41 c1 68 ba 3f e7 7b 0f 9b 08 8f bd bf
       0.10316093295375194 -0.11546376977592808
0002d0 5a 8f ec 74 fb d6 c5 3f 32 14 b8 4a 32 05 cb bf
       0.17062323769743665 -0.21109608314887535
0002e0 5a 47 75 eb 32 2a b9 3f 41 6c 40 eb 1d 6a b3 3f
       0.0983001541947294 0.075837964949117
0002f0 05 36 ac ac a3 f6 b5 bf 83 e0 75 06 0d 2d be bf
       -0.0857946678699691 -0.11787492187238695
000300 48 42 36 9b 7f 87 c2 3f 31 bd 33 e9 be 5e be 3f
       0.14476008490284387 0.11863320535097867
000310 28 f4 34 f5 b4 f6 87 3f 46 ff 8f c4 d0 fb a5 3f
       0.011701024754637926 0.0429368247932858
000320 c7 3a 04 f3 23 cc d5 3f b7 80 5b 23 00 08 cc bf
       0.3405847428520414 -0.21899415708958767
000330 70 76 e0 25 52 6e c6 bf 31 28 1a c9 01 2b b3 3f
       -0.17524172639325597 0.0748749843570813
000340 e1 dc 31 ec 23 6b b7 3f 5c 38 ad 91 47 fe c5 bf
       0.0914785815856365 -0.1718224965392804
000350 bf 39 57 83 cc f1 e0 3f a3 81 9e 75 dc df bf bf
       0.5295164647339375 -0.12450960036813412
000360 9a 6d 81 6b d9 85 c8 bf b0 86 75 35 78 fc ba bf
       -0.19158475636764366 -0.10541487984803655
000370 7a b4 fd 57 1e 2f b9 3f 5a 67 53 98 a1 6c c6 bf
       0.0983752217122901 -0.17519016206534382
000380 b2 17 40 e4 37 9d aa 3f 86 55 26 31 73 20 c1 bf
       0.05198073064097687 -0.1338027944554307
000390 7c f2 6b 35 eb 70 c5 bf d6 7b a7 18 ff 09 c2 bf
       -0.16750850780944748 -0.14093006805248248
0003a0 05 b4 7e ed f6 55 a2 bf 09 b7 ad d0 5d 60 d3 3f
       -0.03581210755451284 0.3027567422749234
0003b0 2d 7a b1 24 d2 99 b5 bf 57 35 fe 9b 6d c4 d1 bf
       -0.08437837024528312 -0.27761402352992576
0003c0 39 08 bc aa 85 68 c6 3f 86 3a aa b0 73 1f cc 3f
       0.17506476246495753 0.21970983625620394
0003d0 e1 27 db 6e 7c cc ba bf de 8d 2b 66 e7 79 df 3f
       -0.10468270975539397 0.4918154237513742
0003e0 36 5b d8 40 bd eb b3 bf f1 33 d3 51 70 37 af bf
       -0.07781584580548614 -0.0609698390850112
0003f0 5f e6 61 6b 85 82 82 3f fc 5d 92 de d7 d5 b3 3f
       0.009038011874724803 0.07748173889046223
000400 ef d7 3b 09 ad 93 c9 bf 38 77 1f a6 4f 7d c1 3f
       -0.19981921149127355 0.13663669215650898
000410 fe 7a da da cf c5 cd 3f df c0 f0 de 74 9e 86 3f
       0.23259924112513625 0.011044419339754473
000420 ba 39 7a 5f 27 a1 bf 3f 28 2a 98 c7 cb 03 84 bf
       0.12355276185028333 -0.009772865322720994
000430 d4 54 86 7d 99 eb d0 3f d8 f0 73 85 93 05 bf bf
       0.264379856665369 -0.12117883690001763
000440 a0 7b ff 73 b9 ae c3 bf 43 3b b2 99 d4 a9 d1 bf
       -0.15376966632808564 -0.27599062928577583
000450 87 81 24 14 ec 49 ce 3f cd 3f d6 b7 ec ce c2 bf
       0.2366309259750887 -0.14693984009181663
000460 5b 10 df c0 57 99 c7 bf 65 0b 22 b2 fe e6 c2 3f
       -0.18436715047403393 0.14767440507793164
000470 da 7d 82 f8 05 c5 c4 3f 5f f2 f2 62 70 42 c0 bf
       0.16226267465843486 -0.12702755767340343
000480 4b 61 24 7e 26 2d af 3f 41 39 ce 7a 62 8c a3 3f
       0.060891344927031264 0.038180425158417915
000490 8c f9 da 24 42 38 b0 3f cd cb 16 f4 71 0e b3 3f
       0.06335843467511476 0.0744391652031446
0004a0 e8 c0 65 2b 50 08 c6 bf 63 4f a5 45 7d ab a2 bf
       -0.17212869757668803 -0.03646460986297375
0004b0 04 f7 04 09 9d 16 c0 3f 33 63 dd c4 fb c5 b0 bf
       0.12569010677719217 -0.06552098804730803
0004c0 71 f7 96 78 4a a8 b6 3f f9 e3 a9 21 d5 9f b9 bf
       0.08850541538319391 -0.10009510108820042
0004d0 e4 32 d9 9a 01 95 d3 bf 17 22 0d c0 6f 2a a7 bf
       -0.3059696209136702 -0.045245639985811596
0004e0 fc 4d 44 09 22 9d ac 3f 86 ce af cb 82 2d 9a 3f
       0.055886329299166676 0.025564235384037313
0004f0 21 0f f3 ea 17 74 97 3f 58 ec 1d 07 7e 55 df 3f
       0.022903798785377853 0.48959303565033485
000500 85 3b bc 6c 47 36 ab 3f ec c5 0c 8b 33 b3 a0 bf
       0.053148490928030014 -0.032617197727073804
000510 d4 59 34 f2 56 6f d2 bf 80 d6 d6 57 f5 21 c3 3f
       -0.2880456319120672 0.14947382725738478
000520 26 72 0e 5b f8 06 d7 bf 87 70 01 c5 a5 38 9f 3f
       -0.3598004235480253 0.030489530705708503
000530 ca e2 59 15 8b e2 b2 bf e1 5f 84 5a a8 e6 ca 3f
       -0.07376927634494304 0.21016411227969825
000540 3c 87 6a 4c 14 77 c5 bf 9d 91 fd 4d 9b 85 c7 3f
       -0.16769651156669763 0.18376485164766346
000550 ba b2 1f 3c fc 43 a1 bf 35 d8 dc 5f 44 2f c8 3f
       -0.03372181161816941 0.18894247704310066
000560 90 30 90 e4 fe eb 9b bf 40 92 f6 43 b3 75 c4 bf
       -0.027267439556496742 -0.1598419267512714
000570 67 6b d1 5c 56 c0 ae bf 38 6e e5 c5 31 35 c5 bf
       -0.06006116755516793 -0.1656858650484183
000580 6c 73 35 f9 04 bc b9 3f 72 20 7d 6e d6 bd bf 3f
       0.10052519878577265 0.12399044225196734
000590 f8 d3 07 22 80 42 b8 bf 20 7b 01 1d 77 ac b2 bf
       -0.09476471739601766 -0.07294411142491386
0005a0 02 f3 69 92 a9 12 c2 bf f5 cc 5b a6 dc 6e c0 bf
       -0.1411945309554526 -0.1283832371042092
0005b0 a6 a3 b5 29 5e f8 bf bf 9c 2a 06 6a 4e 67 b4 3f
       -0.12488354223536521 0.07970132912138655
0005c0 8c 88 f1 ef d7 83 bf bf 84 54 de 55 50 bf 6a bf
       -0.12310552223201138 -0.003265053658604135
0005d0 2e a8 4a b0 f7 00 a3 bf f7 bf ff c2 37 29 c6 bf
       -0.03711675669667645 -0.17313286801754632
0005e0 b6 da f4 5a c3 c7 bb bf 53 81 fe 8d f6 c2 c1 3f
       -0.10851689310662035 0.13876230176266321
0005f0 9f 29 df 6a 85 80 b2 bf 5c 9e bc bc 5e 47 cd 3f
       -0.07227357730076854 0.22874054160751
000600 4d 42 b9 12 a9 6f cd bf c9 92 ab de 08 8e be bf
       -0.2299701062606964 -0.11935477672848117
000610 5f b7 4c cc 1a 7c cf 3f ac 58 98 82 55 f6 d2 3f
       0.24597487426347706 0.2962850356428912
000620 34 2e 77 bc b9 85 be bf f3 8c 6f f3 fb 74 c8 bf
       -0.11922798968515097 -0.1910700739527794
000630 6a 20 61 22 21 62 bf 3f 51 f2 34 72 23 19 cb bf
       0.12259108628598062 -0.21170466495995524

bias f8 [2]
000000 17 75 99 51 60 61 a1 3f 17 7e 08 f5 f7 42 a6 bf
       0.033946046791905875 -0.04347967973830807
