WeakLossExample/Models/F1_model.pt (torch, 86047 bytes, 6 tensors)

weight f8 [100, 1]
0	0xbfe7881465e50727	-0.7353612890367217
1	0xbfdcebdb5a5becda	-0.4518955595410269
2	0x3fbce33d62f19aa8	0.11284240403765955
3	0x3fd05777a29bb02f	0.2553385818453106
4	0xbfe6b56e42de7c14	-0.7096473032032713
5	0xbfdfe2858efc5e11	-0.4982007881494335
6	0xbfe79370f2aa7ef7	-0.7367481936998662
7	0x3fd499fd1202d47f	0.32189871558086475
8	0xbfe2279982495e08	-0.5673339409503919
9	0xbfe08df93885e678	-0.5173307517972736
10	0xbfeb56288984f87b	-0.8542673765112022
11	0x3fe45510d1a01aaf	0.635383996414779
12	0x3fdeef54dd799e2c	0.4833576357691267
13	0xbfb89839c313ca70	-0.09607277882222731
14	0xbfe9c1ef70ff35eb	-0.8049237448664689
15	0xbfcfa9d00b6e512a	-0.24736977155829126
16	0xbfeae7a12c873e51	-0.8407750959103827
17	0xbfdf9e7087ddc620	-0.4940453841037158
18	0xbfc22a43b469bdd0	-0.1419148093150242
19	0x3fa6f5a053a0cb1d	0.04484272976733037
20	0xbfee710fa7b06643	-0.951301410215088
21	0x3fe0adbafc700b50	0.5212073259757322
22	0xbfd6e74a49e37477	-0.3578668328826277
23	0x3fe2e106b855de1e	0.589969024686926
24	0xbfe4fe5a2836959e	-0.6560488496221983
25	0x3feb21d0a663f0c9	0.8478778123676644
26	0x3fae13b1dd66a36c	0.05874400928161702
27	0xbfefe2dcc9400117	-0.996443169657172
28	0xbfe8346246b945e5	-0.756394518024703
29	0xbfd5b8a1f8dd16e9	-0.33939408591355275
30	0xbfc4f910578904c4	-0.16385082506352522
31	0xbfb3cc678a9635c0	-0.07733771451440585
32	0xbfeb4482915a64a5	-0.8521130408218097
33	0xbfee52745cf8097c	-0.9475652519034123
34	0xbfe254b4e85237bd	-0.5728401696703639
35	0x3fe2074b141a8248	0.5633902924201459
36	0xbfca2ebf5c436070	-0.20455162053145015
37	0xbfa1400d2cfb9f09	-0.03369179891688929
38	0x3fe3c29b77a96818	0.6175057732718896
39	0xbfd2916fb591795a	-0.2901267312171477
40	0x3fe9c5ebf6b7693c	0.8054103678398756
41	0x3fa949bff497cf7c	0.04939079151873124
42	0x3fdaeb275d027025	0.420602646665204
43	0x3fe7dbb08ae7862d	0.7455675805069341
44	0xbfc0305d5f1f8240	-0.12647597450906467
45	0xbfe69bff250f6327	-0.7065425609426698
46	0x3fe76f0619af0cfb	0.7323027135502395
47	0xbfe8f92655c9ef60	-0.7804137874186203
48	0xbfece58a24689b91	-0.9030199729066785
49	0xbfd938ddb0106ce7	-0.39409582322850983
50	0x3fd3972a66196e02	0.30610141726148765
51	0x3fd7044d6a2e5030	0.3596375977442703
52	0x3fb6d67ab33c873b	0.08921019435777293
53	0xbfd479b0bc048b1c	-0.3199273906813447
54	0x3f90d37b3b781507	0.01643173742742923
55	0xbfd0b858cd196119	-0.26125164059841804
56	0xbfe4c83d0a5bd242	-0.6494431688611899
57	0x3fda3892d6aafe50	0.4097029777876502
58	0xbfe9648102595c8d	-0.7935185476188892
59	0xbfe55ec6caba7dc7	-0.6678194007435473
60	0x3fb561816a4ca28d	0.08351906628798585
61	0xbfda1f2de9b92798	-0.4081530363515582
62	0x3fe5854d8ed867b4	0.6725223340938471
63	0xbfdcbba3766c99b4	-0.4489525467382933
64	0x3fdd050bc2cdb798	0.45343297981059427
65	0xbfe17b0907c2b15a	-0.5462689544270163
66	0x3fe040734d71b20b	0.5078674805241133
67	0xbfe60fc6a8494c85	-0.689425781902529
68	0x3fc0fc5d475148db	0.13270154936123543
69	0xbfe9c16b62caeaaa	-0.8048607759040654
70	0xbfe7914cb7b46326	-0.7364867771130761
71	0xbfba97ce7424f601	-0.10387888274723169
72	0x3fe34ecd162dd9b0	0.6033692773042301
73	0xbfda9aa4c0d1ee78	-0.4156886942871334
74	0x3fcf802768f761ff	0.24609844804105305
75	0x3fdf20a1bcf36740	0.4863666863653755
76	0xbfcd1756d0775a88	-0.22727475337042713
77	0xbfe6f2c61b56567d	-0.7171354803019337
78	0xbfdef71011efca04	-0.48382951499584714
79	0x3fcbb970c3630b3a	0.21659669437766543
80	0xbfd6ebdfc67c7524	-0.35814661391653346
81	0x3fe21e6850161d9f	0.566211849611978
82	0xbfe750136cb16b90	-0.7285248873625836
83	0x3fb3a4d93a993979	0.07673413925770046
84	0x3fbd0429222c8898	0.11334473690343072
85	0xbfe306639c981466	-0.5945299204328307
86	0x3fe305b022e82e42	0.5944443399216157
87	0xbfc09b929f2832f0	-0.1297477032789156
88	0xbfd1f8fe1591ac00	-0.28082229715681706
89	0x3fdb1f07b0ac6c8f	0.4237689233138519
90	0xbfe518f789ea17b6	-0.6592977231637096
91	0x3fc9e31a65adebf8	0.20224313702405516
92	0x3fe2edec883cd5aa	0.5915434513942064
93	0x3fd535ab5107d32a	0.3314007083238716
94	0x3fd13007694f7c23	0.26855645450808846
95	0xbfcbe31b59986ee8	-0.21786825060632187
96	0x3fdad61dc6383f18	0.41931862218278715
97	0xbfe54953d7af2af4	-0.6652011120398513
98	0xbfc538b976ead9e8	-0.16579359346879063
99	0xbfe4cf82c7ef846c	-0.6503309159271686

bias f8 [100]
0	0x3fe0c6a92b8a60cf	0.5242505884553114
1	0x3fe7ba2b81cba849	0.7414758238858293
2	0xbfec5704ce045856	-0.885622408272648
3	0x3fdf0044f361ddb1	0.4843914391307989
4	0xbf9b6f2b00d35c80	-0.026791259694473712
5	0xbfa2822c32af2b64	-0.036149388491671514
6	0x3ff0feed3cee1ac0	1.0622379665452826
7	0x3f9a3fb03e9610b8	0.02563357717510037
8	0x3fe33a18475fe57c	0.6008416551623408
9	0xbfdea58e2a295b88	-0.4788546954854884
10	0x3fe4c4c3816e0101	0.6490190055774577
11	0xbfd50b8f6a0d6974	-0.32883057934454674
12	0x3fe1091b77722b83	0.5323617299012401
13	0xbfec06af2e63a166	-0.8758159547842694
14	0x3fde082f7bdac7fd	0.46924960227181584
15	0x3fd2cac991f09c1c	0.2936271596140061
16	0xbfe59bd5827a981c	-0.6752727077880567
17	0x3fd1b169cdc50102	0.2764534482448796
18	0xbfc5d785f98f7310	-0.17063975034297885
19	0xbfbb73c143e44c32	-0.10723503024591777
20	0xbfe7aa17444a6d68	-0.7395130475810392
21	0xbfee93d1d012fa38	-0.9555443824718344
22	0x3fe133bfda14032f	0.537567068036969
23	0xbff0ad296576c9be	-1.0422758067548865
24	0xbfb78b61410ca660	-0.09197051847572757
25	0x3fcaec4e297f6f46	0.21033646608600004
26	0xbfa457d9cd6fe4c6	-0.039732748344201194
27	0xbfe15ab3f71b3776	-0.5423221422476974
28	0xbfd885fbec808d0c	-0.3831777391043978
29	0x3fe29e80f7e71ca3	0.581848606286162
30	0xbf77a493e28d4cad	-0.005772187877329288
31	0xbfc8433adb050158	-0.18955169386209536
32	0x3fde6e48cdd283fc	0.47548122501217427
33	0x3fc4eee2630e77e4	0.16354017101997365
34	0x3fdc73f136fa0859	0.44457655304734583
35	0xbfe8e0dd8ba9794d	-0.777449391152723
36	0xbfe1d5fbf513ffd0	-0.5573711191827844
37	0x3fcbcf4dd7e72e52	0.21726391832486286
38	0x3fe502f65b3f46ae	0.6566116125270207
39	0x3fcc393643a5d761	0.2204959707557306
40	0xbfe67775464df580	-0.7020822880873965
41	0xbfd2c92a3240b5da	-0.2935281267881159
42	0xbfd77789227ab7a4	-0.36667087905049756
43	0x3fea754506b44251	0.8268151408138441
44	0xbfecc38814d0b3dc	-0.8988685995624297
45	0x3fe1240eadfb065c	0.5356515310342718
46	0x3fdcd85003b6e2d4	0.4507026706956314
47	0x3fdbf7d8ddfe6fe1	0.43700238875476144
48	0xbfb9b6e68c077800	-0.10044709128075624
49	0x3fd8eb189a8a0293	0.3893491276904026
50	0xbfe539cd7999d910	-0.6633059859293855
51	0x3fe0ef9d32643e1f	0.5292497619829567
52	0xbfc65e791e2daf53	-0.17475809072072454
53	0xbfeae39072314084	-0.8402788381881838
54	0xbfa0d621548701fa	-0.03288368374660773
55	0x3fc9590b7f0c3644	0.198029934916507
56	0x3fca5c8122ebc7ad	0.2059480114472171
57	0xbfe06fbfc43b26e6	-0.5136412460935531
58	0x3fe63f8413688cc6	0.6952534083433413
59	0x3fe03c63039f2ea4	0.5073714323748004
60	0x3f9322d7378ae1fd	0.018687594189687563
61	0xbfeb2420bafb2934	-0.8481601383184967
62	0x3fbcfd4fdf6f7cc8	0.11324023442238051
63	0x3fe641d6d8935063	0.6955370168675582
64	0xbfe2d0a15758dba3	-0.5879675584791254
65	0xbfe5f5a068234c34	-0.6862337144797324
66	0xbfe3e6dcc533b407	-0.6219314433670896
67	0xbfaa2085c1ae3103	-0.05102937688124778
68	0xbfdde96556ba9966	-0.46737035245532466
69	0x3fede5e0b1755ddf	0.9343112436280839
70	0xbfe02cdfad17d30c	-0.5054777508472355
71	0x3fdf290466b90ae1	0.4868784907486497
72	0x3fd9826f8c80f40d	0.3985861656290702
73	0xbf94cc9db510e880	-0.02031179826392604
74	0x3fdce41654c06f57	0.45142133976491067
75	0xbfc58e43f005f54e	-0.1684040948856968
76	0xbfda8ee841c8ada8	-0.4149723665638825
77	0x3fe16f7f30c967b4	0.5448604538789739
78	0xbfe0c84a614eca66	-0.5244495296995637
79	0x3fd922ccdc8aa20a	0.3927490380979469
80	0x3fd9256a2737d362	0.39290860967530794
81	0x3fd8ef395d51c10c	0.3896010791131779
82	0x3fed0229e63260e1	0.906514119723422
83	0xbfbc5374aec1ac25	-0.1106484343196575
84	0xbfe37c4b319faa06	-0.6089225739681872
85	0x3fe9c4315f18244d	0.8051993233976958
86	0xbfeb57a0c8aa362a	-0.8544467849002946
87	0xbfbcd3b8a2208a20	-0.11260560949498499
88	0xbfe650ab682f0192	-0.6973473582111629
89	0xbfdf3346889c6b96	-0.48750460949821084
90	0xbfe973e7b3c12480	-0.7953985701398238
91	0xbfd5af86cd050daf	-0.33883829137286176
92	0xbfe68d9cc2f43b58	-0.704786663789359
93	0xbfe8f2bcbc059d78	-0.7796310112288856
94	0xbfe0a5ff1ca6b530	-0.5202632484048646
95	0xbfed8ec5d67cd076	-0.9236783208093715
96	0xbfe969336bf2f754	-0.7940919025784106
97	0xbfc027bfb9462050	-0.1262130407960762
98	0xbfe8d8e020ae5246	-0.7764740598964373
99	0x3fd8393ae0b9ec61	0.37849304147647983

weight f8 [100, 100]
0	0xbfbe1894617f2147	-0.11756255512512324
1	0x3f6ef78f039a7297	0.00378015453755005
2	0xbf8f153c5fa735e8	-0.015177222889998412
3	0xbfc2212b7dcde65d	-0.14163726465976625
4	0xbfb29c1e352adb8c	-0.07269467161209614
5	0xbfb4b7cd7e6dddc0	-0.08092960678720029
6	0x3f8e2a40e6ef9d52	0.014729029700858352
7	0xbf92c89a26921c9a	-0.018343361477061927
8	0xbfbf28e137049118	-0.12171752541741332
9	0x3fab94a5048fd9f2	0.05386844330489628
10	0x3f970253c7c2b365	0.02246981531850469
11	0x3f809881d897b97f	0.008103384420760971
12	0xbfba9e0855e48264	-0.10397388550746595
13	0xbfadc793370f37b3	-0.058163261862872594
14	0xbfb6d1a183364180	-0.08913621381203107
15	0xbfb8934a6cf00cf6	-0.09599747809993517
16	0xbf76b4bfa56b6680	-0.005543469064571149
17	0xbfc0bf6934aed00e	-0.13084139892964725
18	0xbf82f4de7f8e1330	-0.009256113307637287
19	0xbfa768b1aef68ae0	-0.04572062741069316
20	0xbfb955b297494237	-0.09896389192113807
21	0xbf99cb9cb945243c	-0.02519078141020635
22	0xbfc0609533a44826	-0.12794747373169563
23	0x3f9fb09199bb28a7	0.03094699383545021
24	0x3fb3793b47b81c0f	0.07606859684902666
25	0xbfb3d3d1c76fbb6d	-0.07745085829786343
26	0xbfb120b5200c59ce	-0.06690532715251793
27	0xbfb12878d769bdd6	-0.06702380427463281
28	0x3f91b029686ffd94	0.017273566245419383
29	0xbf74bbebd1efc820	-0.005062028095368404
30	0xbf07da61a267fd47	-4.549608665981946e-05
31	0xbfa2b2b90a82ea10	-0.036519796879890376
32	0xbfae3ecd8eba842b	-0.05907289855282046
33	0xbfabc02e805a8c00	-0.05420060459916698
34	0x3fa5f05fbe5b5df5	0.04284953306858689
35	0xbfbe8e347a585545	-0.11935737597408032
36	0x3fb2328a6c9bfaab	0.07108369018167575
37	0x3f8f7a06d342bfe9	0.01536946613518349
38	0x3f93635e30cfe55c	0.018933746079686883
39	0xbf9c777f080d8a09	-0.02779959189082074
40	0x3f8409a7b4952420	0.009784040640299863
41	0x3f975da40b6577f2	0.02281814879949446
42	0xbfbfcb591fa629fb	-0.12419659636194773
43	0xbf7c5f6c5e20e3b6	-0.0069269402611604105
44	0x3facab9c9050d63e	0.05599679242770293
45	0xbfafbc20b5272bc3	-0.06198217593517754
46	0xbfb38cc9af0e9d67	-0.07636700176100462
47	0xbfaa3c033577703e	-0.05123910930316854
48	0xbfb7d20e3516c566	-0.09304894252888615
49	0x3f95ae2a8d204850	0.021172203887609264
50	0xbfadcb5b0606f0a3	-0.0581921048028289
51	0xbfa3faff529622f6	-0.03902433283935196
52	0xbfbdc80106f4567b	-0.11633306903635258
53	0x3fb5853445b68121	0.08406378461814203
54	0xbfa8fac8fc088ca5	-0.04878833843783895
55	0xbfb5ee6bdb832681	-0.08566927060305753
56	0x3fae718e28031919	0.059460108169832
57	0xbfbf41fdd11700d5	-0.12210069994671653
58	0xbfbfc6e537f1c58f	-0.12412865272360406
59	0xbfb88d0b4a1c4503	-0.09590216216408369
60	0xbfa1278ab6464cfd	-0.0335048053267659
61	0xbfb10c7689856391	-0.0665964208359482
62	0xbf8905421ae17615	-0.012217060513815029
63	0x3f90625528c50834	0.016000109303839063
64	0xbfbec217e5d372fd	-0.12014912949548413
65	0x3f96489dbd661660	0.021761383709892335
66	0xbf8e20f9d8b25f73	-0.014711334157524658
67	0x3faa7e84e8b7c48e	0.051746514709415256
68	0x3fa507ef9e86a990	0.041076171971627606
69	0xbfaae1c9921773d6	-0.05250387104363312
70	0xbf9083c02ab30fb8	-0.0161275888501817
71	0x3fa66e0176edbdcd	0.04380802704588014
72	0xbf93616cd10db38a	-0.018926334628691012
73	0x3fb4105e4ece1a09	0.0783747618098475
74	0xbfbf3c297b46c56b	-0.12201174983672096
75	0xbfbd7a66bb2fc252	-0.11514894552215907
76	0x3fb15770d3eaee55	0.06774048970958664
77	0x3fb3f5459192019d	0.07796129993403729
78	0x3fa7ba25d8e4660e	0.04634207031831404
79	0xbfc14bae3869451a	-0.1351220870442738
80	0x3f96c8cf2edebbf9	0.022250401721688438
81	0xbfc29698ff574f3e	-0.1452208754332051
82	0xbfb3550779653c87	-0.07551619256740781
83	0x3fa0e4ef78486183	0.0329966387109293
84	0x3fb93cdc6b7c3be9	0.09858491539146964
85	0xbfbba057c0337401	-0.1079153866043754
86	0xbfc35cec8d632118	-0.1512733164183906
87	0xbf9a813079a41b40	-0.025883443283443386
88	0xbfb3d330606e84b9	-0.07744123796739445
89	0xbfba8ebc75c5ec81	-0.10374048114128877
90	0x3f9b55dc9623341c	0.02669472376219427
91	0xbfb03afcd8ba6a98	-0.06340008059707214
92	0xbfb4f4b1a0c61ee8	-0.08185873198646798
93	0x3faf73e63dfab37a	0.061431117120583204
94	0xbfa63e853326d91a	-0.043445742124662526
95	0x3f7840fae4b9f920	0.005921344807232637
96	0xbfb6b49e6f1be8e2	-0.08869352543470968
97	0xbf821383920a4480	-0.00882628240040817
98	0x3fb6a13ac9d5da55	0.08839766910191689
99	0xbfa9854bae192226	-0.04984508991453067
100	0xbfb303ca64c463f6	-0.07427658996711259
101	0xbf9e00230be7f204	-0.029297397233664327
102	0xbfa596cb53139c2c	-0.04216609372252153
103	0xbf9458591d8d7f9c	-0.019868271282916447
104	0x3faef127a0de9c06	0.06043361510028693
105	0x3fb6c85b9cff6881	0.08899471838904739
106	0xbfb60889fded8efb	-0.08606779527104529
107	0xbf8e10b844b1693c	-0.014680327984184609
108	0xbfb6fceafe8112f8	-0.08979672158700314
109	0x3fa368afa63aa37e	0.03790806678927704
110	0xbf9dceb01ef20f0c	-0.02910876454235649
111	0xbfacb23e70c6cb2c	-0.05604739309946746
112	0xbfc39ea9fb9bf62f	-0.1532795408783598
113	0x3fb100086a1e4bed	0.06640675154476101
114	0xbf84afdc8088f3a8	-0.010101053879333424
115	0xbfc3363241b2be16	-0.15009144027634197
116	0x3f90645d59cce218	0.01600786076162039
117	0xbfb53c0d75b3f4db	-0.08294757960898684
118	0xbf949d0d48d01998	-0.020130355424066687
119	0xbfa1d25b622d5ba5	-0.034808021292227743
120	0xbfb2be7aff9793b8	-0.07321900119821023
121	0x3f951df545b0a328	0.0206220935616869
122	0xbfb4e01dc759cb27	-0.08154474369966334
123	0xbf89de18ff60d759	-0.012630648892905038
124	0xbfac7ee34beff026	-0.05565557767837985
125	0xbfac9aeca4302da4	-0.05586947921991772
126	0xbf918e5c424ceb69	-0.01714462427774369
127	0xbf9fd47d869917b8	-0.031084023800097532
128	0x3fa4d4f828cf8b4e	0.04068732736757018
129	0xbfc0829633bcaf53	-0.12898519064162403
130	0xbf819b00842a1218	-0.00859642413457444
131	0xbfb90f6b3367eb94	-0.09789152150180619
132	0xbfae6a18bfcd7cbf	-0.059403203404821074
133	0xbfb48d1a20e1877e	-0.08027804663427493
134	0xbfb24d3e793d1c68	-0.07149115047387655
135	0xbfc2c7727392b043	-0.1467116417237567
136	0xbf93c58ed1cf59ec	-0.019308311038765
137	0xbf9c008f4d114359	-0.02734588535196578
138	0xbf986d939b9fe7f6	-0.0238555015311945
139	0xbf6877f048736985	-0.002986878683811147
140	0xbf5255dee9052d3a	-0.0011191059930578244
141	0xbfa2759ece5cd96d	-0.036053621950872784
142	0xbfb5904171e6a3bb	-0.0842324164465386
143	0x3f5889e603e4dd4a	0.001497721313695371
144	0x3fa8c09aee88dbd2	0.04834446107673042
145	0x3f96378cac882444	0.02169627955484922
146	0xbfb5a6f8c5b58e43	-0.08457903696904005
147	0xbf9cf1b5c6fdfad8	-0.028265800734056906
148	0xbf998fda86c852e0	-0.02496282050749954
149	0xbfa35ba5ef84b636	-0.03780859516914996
150	0xbfa5b773593bea76	-0.04241524185450356
151	0xbfc2d6228abd8ec3	-0.14715987944065576
152	0x3f78c5585b46e826	0.006047577994133168
153	0x3fb1160b0a365eff	0.06674260138822417
154	0xbfc058ba5a405163	-0.1277077618293659
155	0x3fb1baa6fb16dd03	0.06925433759794335
156	0xbfb0d50699998fdc	-0.06575051546093341
157	0xbf9c7b204de06073	-0.027813439133837336
158	0xbf99c59b715b9614	-0.025167874139603155
159	0xbfb7e00229945536	-0.09326184764025389
160	0xbfba0af0ba09184e	-0.10172943632014261
161	0x3f9dd8b93e290504	0.029147047442397614
162	0xbf78943c2d3b1f2f	-0.006000742974442904
163	0xbfa1617f4ac1d7c5	-0.033946969867357825
164	0xbf9e27f5c807d42e	-0.02944931062116412
165	0x3fabe0181c49eb4e	0.05444407792398086
166	0xbf8fa5253c3b7f26	-0.015451708698889965
167	0xbfaff084d70508ec	-0.062381888625638954
168	0xbfa1304efa9de98b	-0.03357168969428689
169	0xbfc35ce954cab102	-0.15127293243620704
170	0xbf9a52475d281d04	-0.025704493580659196
171	0xbfbd73cb52258e5a	-0.11504812961134672
172	0xbfc346f81998227e	-0.15060330629082225
173	0x3fb1c621ae3549d3	0.06942949774865008
174	0xbfbf4fbf1f87210a	-0.12231058616373872
175	0xbfab2ad727bce173	-0.053061221695716386
176	0x3f7037c1516d3820	0.003959422253343475
177	0xbf8b654659a185c0	-0.013376760111159736
178	0xbfb4f30fa24da291	-0.08183381760103205
179	0xbfb1077bf700fa27	-0.06652045040480258
180	0xbfb156f97e210b11	-0.06773337678263781
181	0xbf9ab1d1e79e1257	-0.02606895424061614
182	0xbfb21e8d43bd6831	-0.07077868369870612
183	0x3fa10d73ee2b8d49	0.03330576212263254
184	0x3fb6ddbe5b3da489	0.08932103850897212
185	0x3f74204fe54498a0	0.004913627712346408
186	0xbfc3605b3f58342b	-0.15137806504245196
187	0xbf869936af8204e8	-0.011034419280124344
188	0x3fafbc241f9f625e	0.0619822777368355
189	0xbf90409f445de7e1	-0.015871513889102466
190	0x3fb06b916cc5211f	0.06414135842817757
191	0x3f6c22fafac3ceb3	0.003434648699220799
192	0xbfb48f9b385230d7	-0.08031625866914581
193	0xbf86d7228bbbc468	-0.011152524842574077
194	0xbfaa9587c915fe5e	-0.05192207650815982
195	0xbfb8f4dce98572af	-0.09748631192401079
196	0x3f9353f22f00f72a	0.018874916190035375
197	0xbfb67358bf4247d3	-0.0876975504818625
198	0x3f9b9222fd2678b4	0.026924654675547458
199	0xbfb854babb5e6081	-0.09504286837034394
200	0x3f9d153acff0f9cc	0.028401297513704724
201	0xbfb8c5f44d12ff2f	-0.09677054292387476
202	0x3f94f1b910a9e798	0.02045334972579091
203	0xbfc16fac96816a28	-0.13622052525427475
204	0xbf738e523a897be0	-0.004774399953560299
205	0x3fb2a7dc8d105f73	0.07287386363929986
206	0xbfb12945a6212124	-0.06703601175206991
207	0x3f8ba7636806abc0	0.013502861606715544
208	0xbfaf739643223a8f	-0.0614287335348439
209	0x3f478ee8de035f00	0.000718940453249467
210	0x3fb070fb977eec95	0.06422398041370266
211	0xbfae307976c17d1d	-0.05896358084350537
212	0x3f8b212eb08c0e31	0.013246884119786891
213	0xbfa4208e5424e020	-0.03931088235043512
214	0x3fb313fa62b47165	0.07452359113489633
215	0xbfb91b37071648ca	-0.09807151721023213
216	0xbf9b3357e9252d40	-0.02656304703240875
217	0xbf9d6df6035b0494	-0.028739780382924865
218	0x3fa7d4b7a920639e	0.04654478015454021
219	0xbfb405eece06e60d	-0.07821552782015591
220	0xbfb002dc9649704c	-0.0625436655913642
221	0xbfa09245c3e53787	-0.03236597076703079
222	0xbfc3f78e9f4ec7c5	-0.15599234369943651
223	0xbf98eb4c6d7c49fa	-0.024335092718567687
224	0x3f9c65ad2bbf6554	0.02773161487116245
225	0xbf9475c82ea2064f	-0.019980552526709435
226	0xbfb0e4e1d11f6b4e	-0.06599246364150455
227	0x3fa9bd9626f2bb42	0.05027455544892813
228	0x3fa39b162e36b972	0.03829259218342686
229	0x3fa2f1b7627e0171	0.037000399373030464
230	0x3faed0649d703206	0.06018366262296486
231	0xbfb40a72ce62c62b	-0.0782844308730765
232	0xbfb32b0707799e29	-0.07487529690262619
233	0x3f9be3f662a5e354	0.027236795207019895
234	0xbfb433d59b4c5300	-0.0789159301896909
235	0xbfb54821ec5e4f34	-0.08313190479958338
236	0xbfb6dae185665efe	-0.08927735812028101
237	0x3f91ad257e111eca	0.01726206380797527
238	0xbfbb95ffcd618d6b	-0.10775755657373558
239	0x3f9c84c84b0f3ccc	0.02785027464034044
240	0x3f9ca0743a49fbf2	0.02795583349006487
241	0xbf803d904395b6f7	-0.007929923117184752
242	0x3f9c4966bef1cebe	0.02762375393326865
243	0xbfc37bac405b1c8e	-0.15221169607523105
244	0xbfb5761e79b40e69	-0.08383360358498639
245	0xbfb5934b74cc6279	-0.08427878953478708
246	0xbf92fd3452b713ed	-0.01854402308324048
247	0xbfb5eb7b4e8e8099	-0.0856244150913902
248	0x3f973a32c438ac98	0.0226829464210537
249	0x3fb2d96b279ebb35	0.07363004414831383
250	0xbfaae3f6375256ff	-0.05252046037018764
251	0x3f965025706a6aca	0.021790108667668652
252	0xbfb1935d17776a75	-0.0686548406878645
253	0x3fb432d28a72eed5	0.07890048866368755
254	0x3f7b64a767821859	0.006687787936362787
255	0xbfb046d008b17d93	-0.06358051502456012

bias f8 [100]
0	0xbfb5a01be0197dec	-0.08447431775265785
1	0xbfb53ace31cdeab1	-0.08292854991843047
2	0x3f995b26b70ac379	0.02476177684974654
3	0xbfb47d796a257c33	-0.0800395855089711
4	0xbfb9b0764ebaac94	-0.10034884855365284
5	0x3fa70e24db97953b	0.045029784970930874
6	0xbfa71c107e75920a	-0.04513598960582861
7	0x3f9e98d6699b7c18	0.029879903980028016
8	0x3f88db25c5ba9577	0.012136740776734751
9	0xbfa4e3fe34fe5df4	-0.04080194851774968
10	0xbf9912dd53cf2efa	-0.02448602508574902
11	0xbf88976430fee500	-0.012007506127576395
12	0xbfb6689a9c9475d9	-0.08753362963439972
13	0x3fa0722fd22980c5	0.03212117615180569
14	0xbf91f04bd7ee952c	-0.01751821999973406
15	0x3fa00540307c5318	0.031290059965760786
16	0xbfab6e3c741e8ad5	-0.05357541005584713
17	0xbfa13dcacff9a578	-0.033674562347026205
18	0xbfc267bd7a066316	-0.14379089792489513
19	0xbfb7b322e5d57112	-0.09257715331245134
20	0xbfbaf913415d4ee4	-0.10536308618366835
21	0xbf8f63def95cc57f	-0.015327207550941633
22	0x3f8481f04f303d49	0.010013463417662865
23	0x3f9c20125b9ac086	0.027466093865485174
24	0x3f9ab164c971205d	0.026067328257596823
25	0x3f88274d1457604e	0.011793710883395783
26	0xbfc1a3cc2a2da130	-0.13781120357021726
27	0xbfae4a79f10e4722	-0.05916195933890679
28	0xbfac9ce8256c5752	-0.05588460404230368
29	0x3fb4a866002f865e	0.08069455627949071
30	0xbfaf890fb2dcdc13	-0.0615925699079797
31	0xbf80b4ee32547ed8	-0.008157597456885865
32	0xbfab98b10153dbd0	-0.05389931813436244
33	0xbfb9a82b38a146a8	-0.10022230274742105
34	0xbfa4248c63d0a22d	-0.03934134214825167
35	0x3f9ec16e86697f54	0.030034758523810837
36	0x3f66912824e8ceff	0.0027547630372967142
37	0xbfb3708a3436180e	-0.07593597197237065
38	0xbfb9907efbab69be	-0.09986108440663252
39	0xbfa8d9c26e42db29	-0.048536373099912496
40	0xbfc0be328b7d54ed	-0.13080436526312358
41	0xbfb5897551d34446	-0.0841286968964293
42	0xbfc39761ee633bae	-0.1530573286058518
43	0xbfc29bc95cb79d0e	-0.14537922885140414
44	0x3fa7ca422ef4bda9	0.04646498511499015
45	0xbfb9696398d3871a	-0.09926435929403646
46	0xbf936d334375a38b	-0.018971253387835268
47	0xbfad0401d412f077	-0.05667119706910822
48	0xbf94679be591177b	-0.01992648686088881
49	0x3f75d83345f99d53	0.005333137785420067
50	0xbfc0f554535c3dc7	-0.1324868590386201
51	0x3f94fe449d7912b6	0.02050120555056153
52	0xbfb97a75dc85c7e6	-0.0995248473534783
53	0x3faeeeda3dc0c0bd	0.06041604999370651
54	0xbfba99debee78fc3	-0.10391037140612895
55	0x3f93ea91cc20a985	0.019449499210318705
56	0xbfa66fe12538e130	-0.043822322648738754
57	0x3f9fa390c070b8b8	0.0308973901230096
58	0xbfa08c78702e19f0	-0.03232170457254202
59	0xbf8f76c81a8d44c6	-0.015363276777551237
60	0x3fa4588404f9eb2b	0.039737821204616296
61	0xbf89ec010c531f7b	-0.0126571733366203
62	0xbfb4a46756ddab32	-0.08063360090970376
63	0xbfa8c7c35b94b09c	-0.048399071625994966
64	0xbf98dd8a4e877798	-0.024282609026947094
65	0xbfa3b17fb66e21dd	-0.03846358396464542
66	0x3f91d928475478a8	0.017429952005038857
67	0xbfa41f7a069c7393	-0.03930264788343787
68	0xbfc0ea1be1ccc2cd	-0.1321444370783155
69	0x3fa75e5832708d36	0.04564166656225625
70	0x3fb910c9c033028e	0.09791241590847674
71	0x3f8201e63a746a22	0.008792685183427077
72	0xbfa53a79165cde0a	-0.04146173856718967
73	0xbfc1d504b7a78ad4	-0.13931330649855644
74	0xbfbcd5e367cb8acf	-0.11263867649135338
75	0xbfc470f6de57f4a8	-0.15969739777202574
76	0xbfab5bc46bf7460d	-0.053434503726418205
77	0xbfb9e9d1510fafec	-0.10122402409587011
78	0xbfb1a8a0342c3347	-0.06897927545305747
79	0xbf900cbf4a4b6a78	-0.01567362681349002
80	0x3f8e720e7a0abbf6	0.014865983104156637
81	0xbfc09d78345a82ae	-0.12980558925939562
82	0xbfb861da0a3e33f4	-0.09524309873650322
83	0x3fc08b58041eb787	0.12925243569537434
84	0x3f957c0791e2ec18	0.020980947760772833
85	0xbfc2c55927c5e146	-0.1466475910381268
86	0xbf9dd7d16d07eee8	-0.029143593101237736
87	0x3fa3ee88e0676b4a	0.03892925013834388
88	0xbfbe550e337d4b3f	-0.11848534352365635
89	0xbf8641ea6c0e7e2f	-0.010867911741853835
90	0xbfaff313445f1328	-0.06240139207469603
91	0xbf97ec89ee5c1999	-0.023363261388135468
92	0xbfc1231fbc2a7868	-0.13388439834392618
93	0xbf9e81062ca4b7e1	-0.02978906295282247
94	0x3fb51ff684afab78	0.08251896609696796
95	0xbf7132e3e9eda973	-0.004198923385823827
96	0xbfb27710ebbccd1b	-0.07212930445966885
97	0xbfb96a50c6ba740f	-0.09927849628225281
98	0xbfc36e411a7fcf64	-0.15180219453724952
99	0xbfb467850913c19f	-0.0797045848046367

weight f8 [1, 100]
0	0xbfa68e2d393a9df5	-0.044053471790274225
1	0x3f97248aedd643ed	0.022600336805741184
2	0xbfa6477ecf2e0fd7	-0.04351421622325773
3	0x3fab74a5d5bb73f7	0.05362432703052627
4	0xbfa78d022587ce33	-0.04599768360267511
5	0x3f56d081eddbf3fe	0.0013924855078919491
6	0xbf9b21e13476b843	-0.02649642832482636
7	0xbf9fb05952a2e924	-0.030946155232166053
8	0xbf951d6d042a0b99	-0.020620063189663893
9	0xbf737c750b5ccf2f	-0.004757363514545961
10	0x3f9db7c7a63860dc	0.029021377105977617
11	0xbf9f64ef657379a7	-0.030658474509317604
12	0x3f6815db42f4b45a	0.00294010948677807
13	0x3f42890faab9abdb	0.0005656553743852393
14	0xbfa51f422444ce93	-0.04125410740598769
15	0xbf43b9db17c5d757	-0.0006019897260063173
16	0x3fa4510ba82dd78e	0.039680828361198114
17	0xbfa10dd2a8d08ca5	-0.03330858526921902
18	0xbfa3e4741453be88	-0.03885233638891089
19	0x3fade9bf02a88b3e	0.05842396647883284
20	0xbf8e95474822cf22	-0.014933163536944575
21	0x3f9b72a9fdb6cc41	0.026804596052624644
22	0xbfa4ffaad6192c74	-0.04101308692460118
23	0x3fa447085bf66b57	0.03960443613615066
24	0xbf9bb1637492abbc	-0.02704387091641157
25	0xbfa8e7f65db1195b	-0.048644732415186374
26	0x3f9a595015574cba	0.02573132639174667
27	0xbfae3672c879e779	-0.05900915810793967
28	0xbee58a6f2736f922	-1.0271434098704588e-05
29	0x3f93c95d85c1f900	0.01932283524410483
30	0x3f51ac9291373b22	0.0010787421532431692
31	0x3f849d55ecfba2c0	0.01006571893181396
32	0xbfaa41a2ffdb6c33	-0.05128201840644699
33	0xbf369905b0013d30	-0.0003448141942543224
34	0x3f676ca838144300	0.0028594289330005074
35	0xbfa41562b268e497	-0.03922565868237731
36	0x3f7e84caaa45ac4d	0.0074508587461919575
37	0x3f914a762e38a6bf	0.016885611125110552
38	0xbfa1068ad024502d	-0.03325303831857727
39	0xbf96bb0f9b269c96	-0.0221979559370565
40	0xbf8aa8e8de631a50	-0.01301748207732803
41	0x3f861c8f1138f1f1	0.010796659195983134
42	0xbf889aac2914f82a	-0.012013764384956788
43	0x3fa5fd31ae4b0618	0.04294734242058612
44	0x3f9fc8b7f70bfbf0	0.031039118245640596
45	0xbf959acaee17e484	-0.021098299772323262
46	0x3fa5452d1ea2ff66	0.0415433978937461
47	0xbfb379195fda2d03	-0.07606657591002279
48	0x3f7d5929be3276b6	0.007165110643794817
49	0x3fa09339105890e5	0.03237322163139015
50	0x3f99c245c207e028	0.02515515324373055
51	0xbf50e2429ce2d82f	-0.0010305071369152254
52	0x3fab9b8cf63b833e	0.05392113214271042
53	0xbf972afd840d37fd	-0.02262493246535512
54	0xbf9d64eede55e5e1	-0.028705341644558294
55	0xbf89d8070bae8e18	-0.012619071048738426
56	0xbfa5b9a0490e0379	-0.042431839864554406
57	0x3fa771fb01c8cb56	0.04579147717267655
58	0xbfb37166b46d9c9b	-0.07594911484703674
59	0x3f9a07f3cff05cab	0.025420960966667277
60	0x3f9142fd98e94dab	0.0168571114139248
61	0x3f8b8f1fd74f1dfc	0.013456581838808816
62	0x3faf18091beb3a4a	0.06073025193983435
63	0xbfa211b40091ae86	-0.03529131419130942
64	0x3f845dd78065cdd4	0.009944614034543976
65	0xbf99bb81cbb854c4	-0.02512934499653309
66	0xbfb0433ca7a6dfe3	-0.06352595418036304
67	0xbfb3eecb8958d6d7	-0.07786247351836138
68	0x3f7832d452e2810b	0.005907849683495901
69	0xbf66e363f84a0abe	-0.0027939751183237707
70	0xbf980cdde31d7658	-0.023486582743649315
71	0x3f97e5721e619807	0.023336203674624325
72	0x3f8b8e757c211d90	0.013455312586428986
73	0x3fa8088ef5bee68e	0.046940295694594444
74	0xbf711bc5f7b0c7ab	-0.004176877318103604
75	0x3fa2e443300a94e5	0.03689775430147239
76	0xbfa22fe3f94fb430	-0.03552162569381101
77	0xbf71aef3dd88c3cf	-0.004317238425344662
78	0x3f757c0faa63bf14	0.005245267099084367
79	0xbfa7f8f1a87a137f	-0.04682116681673331
80	0xbf9451d6449d4839	-0.019843433320893864
81	0x3fa5cf078321edb9	0.042595133550061566
82	0x3f9f5020c95cafdc	0.03057910183922262
83	0xbfbaf4d2f00c101a	-0.10529821739697845
84	0xbf9aaf18108772fc	-0.026058555611473175
85	0xbfa0006180fdf9de	-0.03125290584192773
86	0xbfa96076cec9e882	-0.04956408762241528
87	0xbf9b7d85df3b0470	-0.02684601950636928
88	0xbf93e0159395a343	-0.019409501202434908
89	0x3fa6f32b49870576	0.04482398293067551
90	0x3fa49ca2839e4019	0.04025752884547291
91	0x3fa974126770560b	0.04971368324929067
92	0xbf8ff023a1067fd0	-0.015594747878651477
93	0x3f889c3823d29c5d	0.012016714661809919
94	0x3fb12c52f35ab6b1	0.06708258095997156
95	0x3fa0336348bd7b54	0.03164205801907963
96	0xbfadab63110ca93c	-0.05794820387957819
97	0x3f74538f5686fa6d	0.004962501443911732
98	0xbf78c83547ff7dfe	-0.006050308351376097
99	0xbf45fb0403801fb9	-0.0006707925413147387

bias f8 [1]
0	0xbfbe34f33e04aa24	-0.11799545539967277
