WeakLossExample/Models/F3_model.pt (torch, 86047 bytes, 6 tensors)

weight f8 [100, 1]
0	0xbfe4a7ff5dcc7fa8	-0.6455075103767642
1	0x3fd7a2800bfde771	0.36929322405887094
2	0x3fc6bf5142543eee	0.17771354426121583
3	0x3fd4ad7a4727fe90	0.3230882353673019
4	0x3fe7700d9363b721	0.7324283484174182
5	0x3fda73b1774f305e	0.413311354172725
6	0xbfb557204f4ca4be	-0.08336069046039804
7	0x3fe67e8eeaf39a22	0.7029490078828682
8	0xbfddb5069ba55fb9	-0.4641739387493505
9	0xbfe50a79cd60d603	-0.6575287829679727
10	0xbfe50ca6ee55aac2	-0.6577944426511169
11	0xbfdb0ebd3e1b61a7	-0.422774611140563
12	0xbfe0a7cd056df615	-0.5204835039182308
13	0x3fc8c022319a37ba	0.19336345121376813
14	0x3fd45492deaec29e	0.3176619696269344
15	0xbfd7d7de453d0aab	-0.3725505520016365
16	0x3fdce5ba75300b24	0.4515215057764854
17	0xbfa652225502b71f	-0.04359538352706082
18	0xbfd91359322416d3	-0.39180593391971036
19	0x3fcc4475e914d16c	0.2208392513363252
20	0x3fcb0289b5d05e87	0.2110149514926329
21	0xbfe5b3418d96521a	-0.6781318440794764
22	0xbfe1686b9cd9f116	-0.5439966262343059
23	0xbfdd28325914ffc3	-0.4555784101430584
24	0xbfd9195fc55b4eff	-0.3921737124739905
25	0xbfe15ef69ef5897c	-0.5428422074003687
26	0xbfea501ae2731689	-0.8222784445612926
27	0x3fe71e9fcf7b7756	0.7224883129490347
28	0x3fb73cd1e264875b	0.09077178742566387
29	0xbfa2afa3e96da396	-0.03649627899614598
30	0xbfe74eecf7813bb3	-0.7283844789579831
31	0x3fd5aadbaf3786eb	0.33855335341477993
32	0xbfd9f5bfb119ec37	-0.4056243161682604
33	0xbfebb0b9ff3f1473	-0.8653230653077472
34	0xbfe0de8f030dd99a	-0.5271678027773306
35	0xbfe7fd3ed4d3297e	-0.7496637493834866
36	0x3fe22d12ab704f0f	0.5680020664608224
37	0x3fe136627987ec11	0.5378887532855307
38	0xbfd6d760264f70ff	-0.3568954824566077
39	0x3fcdf06df38ede53	0.23389982597813005
40	0xbfe321ad5d22ca7c	-0.5978609866200055
41	0xbfef0e587ba35f63	-0.9705011763389674
42	0xbfecbb60c2e9a27f	-0.897873287857763
43	0xbfb44969054e917f	-0.07924515132487463
44	0xbfeede39345ec8cf	-0.9646268866402127
45	0x3fd5544a5688908a	0.3332696766904141
46	0xbfbdcd07d9b8d529	-0.11640976968267992
47	0x3fb1c6eecb09971f	0.06944172341317455
48	0x3fea33476d9c2c87	0.8187596455403686
49	0x3fe7182c07710711	0.721700682195861
50	0xbfdd98850d4b6693	-0.46243406580252006
51	0xbf71d9188ee5e8ff	-0.00435742943806816
52	0x3fe4c6dc66c10d71	0.6492750174442518
53	0x3fdb17488b01030a	0.42329610418896435
54	0xbfe9be80e3944fa4	-0.8045048184308041
55	0x3fe1ea5a458b7776	0.559857498006507
56	0x3fb6430971676fef	0.08696040171292883
57	0xbfe0145f5ddf1c01	-0.5024868806293626
58	0xbfebd27242e781c5	-0.8694392496800495
59	0xbfd86a6d2ad70f5d	-0.381495754085554
60	0x3f9c18f82f8883c9	0.027439000989151006
61	0xbfe77998e90c51c0	-0.7335934211465016
62	0x3fdcf6d4f9dc10b3	0.45256542587618326
63	0xbfb6332ffe8b002f	-0.08671855892589585
64	0xbfdd3c33ca3d6671	-0.45679945707306674
65	0xbfe2d1a7ced23281	-0.5880927123522072
66	0x3fe02cc5a5c01fc2	0.5054653394045021
67	0x3f7fd34693108780	0.007769847566153731
68	0xbfc3f08e6a228647	-0.1557786958920124
69	0xbfeb36ce2eddd7ef	-0.8504401126253905
70	0xbfca35651c2c17cf	-0.20475448489759038
71	0xbfb79fafcd7207af	-0.09228037610776484
72	0xbfc9abe9382f2ef0	-0.20055880778669843
73	0x3fb9d98fde2772af	0.100975982415046
74	0xbfe815b39f377da1	-0.7526491269781453
75	0x3fb40d8b3027d908	0.07833166051554852
76	0x3fddaa54d499eef9	0.4635212017235371
77	0xbfaa40ebedcafd7e	-0.05127656247850164
78	0x3fd65b34a8966d0f	0.34931675399430245
79	0xbfe7e1bbe2a6c541	-0.746305411032303
80	0xbfe33d66eec65b2b	-0.601245371205413
81	0xbfd8624d55086cbf	-0.38099988273615887
82	0xbfdc97866705d37b	-0.44674835263077
83	0xbfe4953a044de590	-0.6432161411350297
84	0x3fd395a0b0024e43	0.3060075491750675
85	0xbfe167f9ffa95a20	-0.543942450846604
86	0x3fe3d8288751264c	0.6201365130338643
87	0xbfeea53ba8baf10b	-0.957670049239398
88	0x3fcdffdefeb491c7	0.23437106549057615
89	0x3fbfd32011f0b2dc	0.12431526601785542
90	0xbfc63ef4069cb62a	-0.17379617998942481
91	0x3fe4cfb699aa9529	0.650355625276153
92	0xbfe2578a571aeb3b	-0.5731860829613206
93	0x3fc78d6b4bfc7848	0.18400326929344346
94	0x3fe807f936f888bb	0.7509733270310542
95	0xbfe747e1bf811ea0	-0.7275246372527882
96	0x3fd0bf4fb983f94b	0.2616767226862932
97	0x3fe4685a41c90480	0.6377383503787684
98	0x3fb892789f19e82f	0.09598497280413264
99	0xbfed6ce918c80fff	-0.9195447429669911

bias f8 [100]
0	0x3fe61e9ac0a7257e	0.6912359011413824
1	0xbfe0f1f827d3ea59	-0.5295372751127828
2	0x3fe9c90d5db7d66a	0.8057925062591498
3	0xbfd870de0f81f0d4	-0.3818888808671208
4	0x3fcc31e64c44bba9	0.2202728149800042
5	0xbfdec4c883985fde	-0.4807606968984127
6	0x3fd8049374990891	0.3752792967462791
7	0xbfe03b788e2bd6ed	-0.5072596337110703
8	0xbfa09700edf9e8da	-0.03240206627829574
9	0xbfef4478dfe16492	-0.9771084187188015
10	0x3fc041ea5af683ff	0.12701157990980502
11	0xbfdec7e599a25a70	-0.48095073703135593
12	0xbfe5ba91b693e3ec	-0.6790245595904003
13	0x3fc49c004a43fc48	0.16101077677010012
14	0xbfe67e43a681ef4c	-0.7029131176090941
15	0xbfc1270ed0285f48	-0.13400445140791306
16	0xbfc77e33ffab28f3	-0.1835389135724835
17	0xbfd227a964560980	-0.2836707572788768
18	0xbfe707106c31db82	-0.7196123231104681
19	0xbfc74f484b8416a3	-0.18210700690558665
20	0xbfcfcf55facc1aa7	-0.24851488824807186
21	0x3fdf62791b5b8f4d	0.4903853194393733
22	0x3ff03bedf10474c6	1.0146312155477957
23	0x3fe9b66a03eed8c9	0.8035173489395443
24	0xbf97846936545e80	-0.022966045323384865
25	0x3fd08f6285217e53	0.25875151635225285
26	0xbfd8cf7b6d27de4c	-0.3876637044881803
27	0x3f93ff80cd4b76b1	0.01952935460109612
28	0x3fa04e33973465b3	0.031846630294420385
29	0x3fb869a83ab1fb39	0.09536220009793518
30	0xbfe6f3b29ddc0dcc	-0.7172482569880514
31	0xbfec4e26f2ff18a2	-0.8845400568032071
32	0x3fe2ca9a077cb783	0.5872316499933138
33	0x3fe6ffd0f37c9298	0.7187275653455627
34	0x3ff0c637b8948b43	1.0483929834524168
35	0x3fe66b014e208667	0.7005621457976304
36	0x3fdc611b3eedd821	0.4434269060651577
37	0xbfe7108c6a08cef7	-0.7207700797066242
38	0xbfd3c68fab7c8148	-0.30899421450341835
39	0xbfc112922e3d7c2a	-0.13337924249478422
40	0x3fe83b6cd235f996	0.7572540383987867
41	0xbfdf1aa8e8b67580	-0.4860021851144083
42	0xbfd91803dfe981c0	-0.39209076754016436
43	0xbfe1c6239b481c2a	-0.5554369004102047
44	0x3fe1a50db948f3c8	0.5513981455657069
45	0x3fc1b6af4cdc01bc	0.13838759663486921
46	0x3fc944fe75462c8f	0.19741802908206238
47	0xbfeadde0d398e45a	-0.8395847447164997
48	0xbfd2b900ea2fa3a0	-0.2925417220090427
49	0xbfdb8705b2ac8c3c	-0.430116104589789
50	0x3fe46b9f8bdad818	0.6381376010456306
51	0xbfe657967fc498c2	-0.6981918807475938
52	0xbfe510df37733548	-0.658309562970012
53	0xbfde81e1025dd153	-0.4766771815404997
54	0x3fe0f83d31ee97a2	0.5303026175722503
55	0xbfe6ad9384430114	-0.7086885054814354
56	0xbfeb4585bfeb6afe	-0.8522366283826555
57	0xbfeada9785ecdbec	-0.8391835799910701
58	0xbfcfe748d8698298	-0.24924574439048253
59	0x3feb114cd1c83651	0.8458618256860949
60	0xbfc13650b900b79b	-0.1344700721105568
61	0x3fd1c50c5e3c6d2b	0.27765187456835133
62	0x3fd598ab8e083e1e	0.33744324560481853
63	0xbfee43498e23b352	-0.9457137848054151
64	0x3fed3d7359cc54ee	0.9137512925978208
65	0x3fc51482dc992cad	0.16468845149424763
66	0x3fe54801a9a47ea1	0.6650398553210445
67	0xbfb4ac2bdad8de91	-0.08075212567279723
68	0x3fd0e87fe26e15ac	0.2641906462889334
69	0xbfecb51fcbb360ba	-0.8971098879365151
70	0xbfe60d20959e55fc	-0.6891024515377349
71	0xbfeaff7097586726	-0.8436816173518522
72	0x3fd5c4ccd9af2ae4	0.3401367307493912
73	0xbfe2b48e8687b750	-0.5845406177083792
74	0x3facbb6b99f43e51	0.05611740354845252
75	0x3fc509c7ed3f4fa2	0.16436099132863285
76	0xbfd0dbb2655e0c26	-0.26340923213155276
77	0x3fd6b054c5cff459	0.35451239888772573
78	0xbf9d8f343779ca49	-0.028866592298479685
79	0xbfa11914d749a380	-0.03339448097251019
80	0xbfedd9ecebfadf90	-0.9328522309287894
81	0x3fe97e7028b25585	0.7966843409400758
82	0x3febb1322aedc70b	0.8653803671315655
83	0x3fedfd1248c381bb	0.9371425076642973
84	0xbfed7332c321e5d8	-0.9203122912578534
85	0x3fe8df10e41ed476	0.7772297339894425
86	0xbfeaaf76cf4c9e64	-0.8339189575971884
87	0xbfc430d0113dcd28	-0.15773964731088452
88	0xbfe574523cda8090	-0.6704493702454943
89	0xbfdb3d097c47fde1	-0.4256004060443655
90	0x3fbaf63fffc893ba	0.10531997675623375
91	0xbfebec6c37fa55a1	-0.8726101964299923
92	0x3fec299e79aa88b8	0.8800804497043577
93	0x3fe0f0887b2d0a2b	0.5293619542865761
94	0xbfdb882f85434699	-0.43018711103386803
95	0x3f50ae6a948b245e	0.0010181465933547722
96	0xbfe24713a4c0e8be	-0.5711763589709091
97	0xbfeb489c956db20b	-0.8526137274289466
98	0x3fdf5d0f4e9ac95f	0.49005491901620774
99	0xbfe49a71ded3de34	-0.6438531257726425

weight f8 [100, 100]
0	0x3f8b220bab7c8f59	0.013248530550818026
1	0x3f844958c624b533	0.009905522868019467
2	0xbfb23a2b8c5553e8	-0.0712001054392456
3	0x3fa9850f63be8e4f	0.049843293119263714
4	0x3fb6a2f272303869	0.08842387473871018
5	0xbfb6c160f7e1f4e3	-0.08888822604963624
6	0xbf97363a3b1ec646	-0.0226677988609423
7	0x3f9f20abfb60d366	0.03039807054320267
8	0x3fb829df495f51a3	0.09438891927067643
9	0x3fb5a11418e39739	0.084489112926886
10	0xbfab98d107c4ec63	-0.05390027255858667
11	0xbfb074e18545af08	-0.06428346160617704
12	0x3fa73d5ab6628a33	0.04538997150782045
13	0xbfb878884bef13a4	-0.09558917859892674
14	0xbfb40ab22f9e74bc	-0.07828820860455016
15	0xbfb02f4aa6c77748	-0.06322161266095094
16	0xbfb0ab7c16a4c8b3	-0.06511664917778397
17	0xbf812cb7b76050a6	-0.008386073383043712
18	0xbf93f8b786739d60	-0.019503467160487786
19	0x3f9db3e7b74116f9	0.029006596145584294
20	0xbf88839dcd80f6a6	-0.011969788392998847
21	0x3fa60901b54e4b7f	0.04303746545988129
22	0x3fa7d9c9ed69e226	0.04658347151866264
23	0x3fad0c5252437059	0.05673463110153482
24	0xbfa413f79107a323	-0.039214836553418196
25	0x3fb36ddfa14d9721	0.07589528739989905
26	0xbfa0c56582abddbc	-0.03275601596936492
27	0xbfb0a2b582c999e4	-0.06498274272016819
28	0xbfb380fde59979f4	-0.07618700843293152
29	0x3f80a45c374591cc	0.00812599223781598
30	0xbfb242d87af30331	-0.07133248330775356
31	0xbfb6eed596406409	-0.08958182256937176
32	0x3fa9910ffebc11af	0.049934863896882724
33	0xbf905c96057be1ac	-0.01597818764182228
34	0xbfa87eb16c6b9c03	-0.04784159134378998
35	0x3fb665b13bcfec33	0.08748920164355027
36	0xbf9a59a7b4bad606	-0.025732632070420557
37	0x3f8e47bd4f2a9cf2	0.014785269716709657
38	0x3f8e1a977828b7e6	0.014699157099212056
39	0xbfb747d899bfd211	-0.09094003442425726
40	0xbfb0521a47c34873	-0.06375278713247372
41	0x3fb60109cc3046ae	0.08595334277222363
42	0xbfb2fab377ec15ab	-0.07413789441860412
43	0xbfadb6d8ef2e2353	-0.058035639950566285
44	0xbfb1c83d6273a1b8	-0.06946166661840081
45	0x3f85c341686c97ff	0.010626326560281283
46	0x3fa6b98fc3108b26	0.04438447242889358
47	0x3f9ce24f686c6e66	0.02820705485201671
48	0x3fb732c7c14b4b4c	0.09061859578222914
49	0xbfb7ba84d23b0df4	-0.09268980152688028
50	0xbfacd8f05e6cfeaf	-0.05634261276872842
51	0xbf9d9fca8bc61aac	-0.028929867535704076
52	0x3f935ca57882ee86	0.018908105354724224
53	0x3fb6f139c02bc411	0.08961831037210312
54	0xbfb95e604f2aa829	-0.09909631665019049
55	0x3f64ea4f893f3700	0.0025531342925891876
56	0xbfb678b50999db53	-0.08777934536361202
57	0xbfaab11569c8969f	-0.05213229099562721
58	0x3fb178dd48bca7e9	0.06825049424938325
59	0xbfb34b6750c6c754	-0.07536931726533896
60	0x3fb33e21dd879246	0.07516681345402629
61	0xbfb36b1323f584e8	-0.07585258129030914
62	0xbfb5cc6e44d8782c	-0.08515061550903685
63	0x3fad17cd8a5971ec	0.05682222665629752
64	0xbfb52fc36cdb9243	-0.08276006133707718
65	0xbf71da971cf2954c	-0.004358854566054515
66	0xbfafddd0caa8540f	-0.06223919366690477
67	0x3fb3f6ca0cdcebf6	0.07798445524251449
68	0xbf3569010e808199	-0.0003266933040340314
69	0x3f84107ebf114ac0	0.009797086912077702
70	0xbf9663f48c3efeb9	-0.02186567407602411
71	0xbfb7c56305caca2b	-0.09285563365373466
72	0x3fa4403649ebdd16	0.039552399180985784
73	0xbf86c4dca60c557f	-0.011117671792400639
74	0xbfa64b5843cffa23	-0.04354358508861746
75	0xbf8d594363232719	-0.014330412352495924
76	0xbf8fb20e29c35c59	-0.015476332330235975
77	0x3f8d1a44899f19f3	0.01421025795924622
78	0xbfa22c22df0f76fc	-0.03549298260598552
79	0xbf6538cf91215833	-0.0025905660668668284
80	0x3fab40e32cd83ea9	0.0532294265977929
81	0xbfab4b5654a55419	-0.053309152443638826
82	0xbfa6402ce7f68b19	-0.043458369556239336
83	0xbfb607170d382e81	-0.08604568550816262
84	0xbf84172ca0d4f9e6	-0.009809826524926412
85	0x3f8763146b38c573	0.011419448396824383
86	0x3f8185a99a6683d9	0.008555722259929443
87	0x3fa1977201c8b436	0.03435856124665586
88	0xbfaf05c702db621c	-0.06059095296740599
89	0x3fb466bb52c49371	0.07969256182384556
90	0x3f6e3c9297647f66	0.00369099265220989
91	0x3fa40362ad177cbc	0.03908832896171918
92	0x3fb27a71caf3af41	0.07218085484390448
93	0x3fa3fbfaf2b569c3	0.0390318318629457
94	0xbfa048df67623140	-0.03180597435957333
95	0xbfa011b32357c6d0	-0.03138503843719109
96	0xbf73030c555065cc	-0.004641578842915672
97	0xbfb24aa5c1c55656	-0.07145153027280435
98	0xbfb2bafdcfb78953	-0.07316576310362181
99	0xbf9bbd0a6bc6ff26	-0.027088320568281386
100	0xbf97aec1abbcd3e3	-0.023127580744773623
101	0xbfb0be3a357918e7	-0.06540263944143342
102	0xbfba51c75035b0d6	-0.10281034191365576
103	0x3f96d8df6a9ddc78	0.022311678774226767
104	0xbfa24407cea2ea23	-0.03567528150002299
105	0x3f70554d4c3a40f9	0.003987600273504415
106	0x3fa18b794c5b3726	0.03426722580989709
107	0x3f81295b069f993f	0.008379660739546877
108	0x3fa7bc38dc1ef2b0	0.04635789572737303
109	0xbf62476536764b66	-0.002231309586656338
110	0xbf895ac3b4aeb14b	-0.012380150748719251
111	0xbfad57d46d8b40c9	-0.057310713169159984
112	0xbfb21268bdd6a73e	-0.07059340128639932
113	0xbfbfb5b1198ae12d	-0.12386614678951409
114	0xbfbbc4a6d6f603ce	-0.10846941707678967
115	0x3fa3e243e1df0216	0.03883564121452225
116	0xbfc2289db9ebcfcf	-0.1418645055597367
117	0xbfae9fa7fd702972	-0.05981183022238924
118	0x3fb96bd657253abe	0.09930171611379543
119	0xbf8df8e3c94600c9	-0.01463487585056135
120	0x3fa861732a8db689	0.047618483490492976
121	0x3fa87391ed1fa995	0.047756729312669645
122	0xbfb48dfb9f6a15a2	-0.08029148714020676
123	0x3f9a2c119613a0a0	0.025558733735039696
124	0x3fb5bb9c4f6b42e1	0.08489396037044684
125	0xbfbee9284f640c38	-0.12074520052196724
126	0x3fa36abc72ba74c0	0.03792370701305847
127	0xbf6287c431068757	-0.0022620040765141502
128	0xbf8b96127e6849c5	-0.013469833834311449
129	0xbfb24312a9032a0f	-0.07133595110205014
130	0xbfab9f2358f97d66	-0.05394850216975548
131	0xbfb1fe179367daf8	-0.07028338764926534
132	0xbf9f7c45dc822ef6	-0.030747500976345564
133	0x3f9801da2f14c262	0.023444565890886067
134	0xbfb0ce4ba387bbcd	-0.06564781897007706
135	0x3fa87acc8098a4f5	0.047811880777155404
136	0x3fac00494f7d87ff	0.05468968482342972
137	0xbfb503625417a4f4	-0.08208288720165396
138	0xbfa5ee6619ba4cc9	-0.042834463730423496
139	0xbf9589c670df6326	-0.02103338302535742
140	0x3fab07540baee17a	0.05279028551689442
141	0x3f8d519649c9bf0c	0.01431577122386287
142	0xbfb96c3c6ec9e916	-0.09930780129244385
143	0xbf8a26d613a62fa6	-0.01276938674416057
144	0xbf9cebb1f3613f6a	-0.028242855529526358
145	0xbfb0bdb22954ef9c	-0.06539453038288773
146	0xbf8e48ab76d58ef2	-0.014787044109375345
147	0x3f7074fe41b971e6	0.004017823400854747
148	0x3f9443a897ccd00b	0.01978934694780325
149	0x3f6490cad4676f1a	0.0025104486005441797
150	0x3fa354ada3ba6095	0.0377554190028501
151	0x3f7caa708bcea2cc	0.006998481400764599
152	0x3fab526995c49703	0.05336313203069489
153	0xbfbb4000131d6727	-0.10644531695052405
154	0x3fa2dbf78d55b0f3	0.03683446502950174
155	0x3fa6c5d0aec5a334	0.044477959951854024
156	0xbfa19cefcbbdbeac	-0.03440045702052194
157	0xbfb4f3447956181e	-0.08183696710884233
158	0x3fac8639bdf78956	0.05571155971462598
159	0xbf8cb59f6e7c5f8c	-0.014018292960414923
160	0x3f605d47104c1ed9	0.0019976032220972825
161	0xbf9f0eeb5ca71805	-0.030330350427696846
162	0xbfaeb91d3a11ac20	-0.06000605901575562
163	0x3f9a3b01a8f253b3	0.02561571687381887
164	0x3fa2855e17caa2ca	0.03617376366066123
165	0x3fb8f1dabcd74917	0.09744040594458557
166	0xbfbbebbc254ee90c	-0.10906577978940762
167	0xbf833fe6a03c00b3	-0.009399225010838874
168	0xbfa0bfdfa0987bf8	-0.03271387896915451
169	0x3fb0b8b8df394d4e	0.06531863641548805
170	0xbf7b13431b9503b3	-0.006610166682833918
171	0x3fa9925945a4bcfc	0.04994467711582648
172	0xbfa4aa332c18583a	-0.04036102212209909
173	0xbfb6001c07679b67	-0.08593917065409827
174	0xbfb173aa9f921284	-0.06817118068472366
175	0xbfbf526fe49a61c3	-0.12235164004449132
176	0x3f7406d3e1b45755	0.004889323866583546
177	0x3f9158ef2d54df5d	0.016940819875542846
178	0xbf43913a7c1506ce	-0.000597146565418616
179	0xbfa21025f70e0b33	-0.03527945175939919
180	0x3fb03cfe4e6136c4	0.0634306851727287
181	0x3fa95e1b8b995e00	0.049546109000115024
182	0xbf678a52a3c5f5c1	-0.0028735746438417202
183	0xbf372cf3c06e07a2	-0.00035363150566791225
184	0x3fa0b52101837cf0	0.0326319040630042
185	0xbfbdfc889a989085	-0.11713460707011521
186	0xbfb7d9c219bdce14	-0.09316647652104165
187	0xbfb5c289990b528e	-0.08499965654784544
188	0x3fb7da99987b3767	0.09317932102859815
189	0xbfc307930d26014f	-0.1486686529351666
190	0x3fa0be42df6fd4db	0.03270157792568692
191	0xbfc08701e4637fe6	-0.12912009860792678
192	0x3fab8c57531b44a7	0.05380509271129457
193	0xbfba38b943c62411	-0.10242803482664466
194	0x3fa3b44209e2f080	0.0384846341198406
195	0xbfab345e06842b8c	-0.05313390569252538
196	0x3fb20ab1e9954676	0.07047569229805525
197	0xbf9c1e3c6f370363	-0.027459091461199302
198	0x3f965f008363e374	0.021846778888149967
199	0xbf6bab597072e6ff	-0.0033776041851439893
200	0xbfbe729cdfcdea9d	-0.11893635238622342
201	0xbfbc2ab88b43cdef	-0.11002686882039091
202	0xbfc341b8dfe30a14	-0.15044318134285162
203	0xbfc1446f4c457dc9	-0.134900963060302
204	0xbfb78f927b89834e	-0.09203448787731114
205	0xbf3e3ec01473916b	-0.00046150388193512995
206	0xbfc439f536620f37	-0.15801873355314353
207	0xbfaf01025684ab06	-0.06055457407122415
208	0xbfb186e068f7080c	-0.06846430361386541
209	0xbf61365169e4e4cc	-0.0021010961637811573
210	0x3fafa59f345a630a	0.06181046976161582
211	0x3fb8d5567f80282f	0.09700527775581301
212	0xbfb52c097c4faa20	-0.08270320210400728
213	0x3f8454100c9a4b80	0.009925961861233068
214	0xbfac161753c41d6c	-0.05485604188475687
215	0xbfb57d05acc4be8c	-0.083938936881845
216	0xbf9750da9f737518	-0.022769371015660317
217	0xbfa6cc606ea8a9c3	-0.04452802038970873
218	0xbf9ea71053580066	-0.02993417271318357
219	0xbfb7290e3a00e23e	-0.09047020832157046
220	0x3f90b25d8b535e79	0.01630541003109307
221	0xbfc07464077a8d21	-0.12855196347400358
222	0xbf7343f4c868cb6e	-0.004703479941371975
223	0xbfa54e25779043fc	-0.041611834378393525
224	0xbfb5b4a71ed758e3	-0.08478779318770395
225	0xbfb14d8897bc4e41	-0.06758931831819216
226	0x3fa2ac688e427970	0.03647162186210806
227	0xbfc55b6f8cc25d4e	-0.16685289738664227
228	0xbfa04c7254dbaf66	-0.03183324132791547
229	0xbfb7de2c9a9a073f	-0.09323385977225217
230	0x3fac30f58971b2d9	0.055061028507088224
231	0xbfb135216e78f0e8	-0.06721695849495612
232	0xbfbd1e72166b8215	-0.11374581382143163
233	0x3f852ad4ab2862e5	0.010335599397011072
234	0x3fa5c94467a1fdb6	0.042551171923146766
235	0xbf8c1751a6c6accb	-0.013716352369405624
236	0x3f87c6847a90a10c	0.011609110823045408
237	0xbfb6cacf9ebbfeb8	-0.08903215051031566
238	0x3f67b85afec98a99	0.002895524716494191
239	0xbfb6a7c0cb648c7e	-0.08849720922130364
240	0x3fafb7b241968d9f	0.06194836664806335
241	0xbfaed869e907b679	-0.06024485559087806
242	0xbfab86e14c110b43	-0.0537634282450399
243	0x3fb944cc2f0ad2af	0.09870601795666788
244	0xbfb44e31ef5ba018	-0.07931816190432561
245	0x3f902cac319767d2	0.015795412566013863
246	0xbfb67deb780c7294	-0.08785888367533295
247	0xbfb63c5fb628f02b	-0.08685873219741384
248	0xbfa74fcc3b7bd92c	-0.04553068376655953
249	0xbfc55ce51c067164	-0.1668974291650428
250	0xbfb7052cd7f654b3	-0.08992271683230761
251	0x3fb654adeca843eb	0.08722960498586445
252	0xbfbc1961f0973158	-0.1097623073939692
253	0xbfc72814d733fa1f	-0.18091068752251346
254	0xbfb5a27a516a9351	-0.08451046455099955
255	0xbf9613c4d7e27387	-0.021559787441777025

bias f8 [100]
0	0x3f9834796a7a61fa	0.02363767349615562
1	0x3f95fa8ccdc86c86	0.021463584957115
2	0x3f9b84c2f91da2e9	0.026873632864780204
3	0x3fb81fd415e75df1	0.09423566374550042
4	0xbf8f86a432fc9077	-0.015393526845919532
5	0xbfa2b18236f72623	-0.03651053353275937
6	0xbfbf8b904fe8466c	-0.12322332335340896
7	0x3faf9fda07250ed7	0.06176644646850853
8	0xbec42a59309a02fe	-2.403905800474662e-06
9	0x3fb0bc6b9c35b33a	0.06537506641116134
10	0xbfb753223019a3c2	-0.09111226724929991
11	0xbfbb9c24bae8cbb3	-0.10785131037918809
12	0xbfa04b0b68eee3da	-0.0318225446312181
13	0x3fb03e8fe9936f0b	0.06345462276970808
14	0x3f99eef55a092421	0.025325616474479177
15	0xbfc14ccd800c8058	-0.1351563334692425
16	0x3f76d0219394e47a	0.005569583089987446
17	0xbfaf401fefcdfc74	-0.06103610803892759
18	0x3f9b0ed1b7b0d6c7	0.02642371829661874
19	0xbf9d5c305496778d	-0.028671984827830555
20	0xbfb12d1d9a211a18	-0.06709465992853614
21	0xbfb07a062cb2fac3	-0.06436194030082291
22	0xbf88872781ef82f8	-0.011976536419696412
23	0xbfb9882941ff4ab5	-0.09973390446911419
24	0x3f7d6c0e42643b0e	0.007183128071359913
25	0x3f8333a582176c40	0.00937585166223276
26	0x3f96758dec345c17	0.021932809392719656
27	0xbfa8bb54dde309b9	-0.04830422600345536
28	0x3f628fa61df50752	0.0022657627556847216
29	0x3fa354526469f9e3	0.037752699620785334
30	0xbfb5d2279a8b9e64	-0.08523795626717284
31	0x3fa07270b5cc7380	0.0321231100008168
32	0xbfa86993fa8d75bf	-0.047680496535331233
33	0x3fa2858eb22c9167	0.03617521214462976
34	0xbfb5dc3521bc963c	-0.08539135049485308
35	0xbfa238d94249c62a	-0.03558997091466794
36	0x3fb0b4daeb255539	0.06525963059296637
37	0xbf81903816cd27f7	-0.008575857349246247
38	0x3f878f9eb6cfaee9	0.011504402116734496
39	0x3f7ea635bd255715	0.007482728879343777
40	0x3f3d99a6caa24800	0.0004516632276444499
41	0xbf7537addfc3bd70	-0.005180052943827604
42	0xbfc00ed96dfe7955	-0.12545316572954826
43	0xbf9930fb5f9ee461	-0.024600913726065324
44	0x3f7f7102a3320f29	0.007676134398142223
45	0xbf91b921d6bf6f07	-0.01730778573242644
46	0x3fae176692f111db	0.05877228301736511
47	0x3f984d77d3b580a7	0.023733017250720547
48	0x3facb0e108375c94	0.05603697991653536
49	0xbf920a42bd2ff3ef	-0.017617266461446176
50	0x3fa73bf1a4746a09	0.04537921078209101
51	0xbfbb70351557423f	-0.107180898389978
52	0x3f9cea93a5c2c354	0.028238589279399776
53	0xbf67b34da8a2bcc1	-0.002893115689481002
54	0xbfb29dca66dea8e0	-0.07272019397229057
55	0x3f596af42ccb1400	0.001551378681299953
56	0xbfa20caa663a3437	-0.03525288103001183
57	0x3fa2a7448873ccfc	0.03643240132978495
58	0xbfae7fe89cfa811d	-0.05956961551896909
59	0xbfb070d017c640f0	-0.06422138767652874
60	0xbfafe78a0c3b749a	-0.062313379281229334
61	0x3fa431c4c0e603d5	0.03944220404355973
62	0xbfba54532cefe868	-0.10284919592950958
63	0x3fa1a1381726f8f3	0.034433129144859985
64	0xbfc213127cfc7f8c	-0.14120703795287814
65	0xbfb05f9d585a160e	-0.06395896346119676
66	0xbfb430c323167c80	-0.07886905295025493
67	0xbf84e79457772c40	-0.010207327765689667
68	0xbfc4021503bd1b91	-0.1563135402922993
69	0xbfc238e709965625	-0.14236152618529832
70	0xbfa9a5eac590b3eb	-0.05009397184071659
71	0xbfbcd996f97bc102	-0.11269515601066263
72	0x3f9f0a514342c3d0	0.030312795381806812
73	0xbf1b8b4de0cb56b1	-0.00010507262068001445
74	0xbfc136e9c00a7a05	-0.1344883144092394
75	0xbfa29c1530a6e7b3	-0.03634706705948023
76	0x3fb39da4f0e3eecd	0.07662421113121383
77	0xbfb9f300e83e6626	-0.1013641898156484
78	0xbf94608bf7228043	-0.019899546584042815
79	0x3fb3628d311fed76	0.07572252702077784
80	0xbfb8f28b31bec79c	-0.09745092358096347
81	0x3f9276ff8dc01662	0.018032067324403996
82	0xbfabb765546f60ab	-0.05413357406331561
83	0x3f8e4681131a66dc	0.014782913585168193
84	0x3f913d32465ef413	0.01683500818738899
85	0xbf89ca5fca7af665	-0.0125930293719378
86	0xbfb7bab9e6ed9b1f	-0.09269296539205783
87	0x3fb1ad6478d91713	0.0690520091094096
88	0xbf3cb57d915f9e5b	-0.0004380637705012396
89	0xbfc177e3f0974dca	-0.1364712643395321
90	0xbfb3c10bf629c7a0	-0.07716440925449186
91	0xbf719b6ded1c6eb6	-0.004298619651105609
92	0x3f91095f13667e49	0.016637311514953877
93	0xbf7adfb14f3451cd	-0.006560986151516746
94	0xbfab50d48937722d	-0.0533510606289592
95	0xbfb425638ac7d7a6	-0.07869550836752967
96	0x3f91b524766addf4	0.017292566039683835
97	0xbf967787373b351d	-0.021940338846254116
98	0x3fb4958531448f02	0.08040649845912287
99	0xbfa7ff8070adf6c4	-0.046871198420360055

weight f8 [1, 100]
0	0x3fb817951267c444	0.09410983752583585
1	0x3fabccc2ae3779b5	0.05429657341641151
2	0xbfac0d7cbf688f73	-0.054790399899757335
3	0xbf9c6f16acbb4bad	-0.027767519276334408
4	0xbf9295fc523ab506	-0.018150274771575624
5	0x3f937f815f7a682c	0.01904108186008828
6	0x3fa1c310cb660b24	0.034691357449466304
7	0xbf7011884d35535d	-0.003922970226388181
8	0x3f7cd860b3cd6f35	0.007042291396682822
9	0x3f98e8f7f1bb5a46	0.024326204423085217
10	0x3fa8585855c2f86f	0.047549019307084765
11	0xbf8280cdb9eaadb2	-0.00903473590491086
12	0x3fb093107a047eec	0.06474402407593133
13	0x3fb2b5383d8d5f30	0.07307769301166611
14	0xbf20be48bc9dd7a1	-0.00012774122142971987
15	0x3f9e5662317168ff	0.029626402156602612
16	0x3f50eea2e574603c	0.0010334578308342076
17	0x3f80fa6487b84019	0.008290086166226772
18	0xbf928eaa717c02f8	-0.01812235181478436
19	0x3f9fe0fda94ae42c	0.031131709535405047
20	0x3fb12bc160943250	0.0670739041126549
21	0x3fa8661080546a80	0.047653690018894856
22	0xbfa901e203d7395d	-0.04884249016650941
23	0x3f7ce1b3ed8dbe8a	0.00705118450501597
24	0xbf8f89266dc70d19	-0.015398311829705013
25	0x3f90102fa3216526	0.01568674500626801
26	0xbfa5bfc9b6702220	-0.04247885086084957
27	0xbf797338b7e1ade5	-0.006213399463472301
28	0xbfa3b6c1fe4a3c85	-0.03850370625615888
29	0x3f9aaa745855de89	0.02604085721165331
30	0xbf81d40d1becab86	-0.008705236830413698
31	0x3f91cf88e40e1214	0.017393244666452715
32	0x3f91dab95bb1da2a	0.017435928556063164
33	0xbf841bda7c0c4f1e	-0.00981875124993042
34	0x3fa4edaec9cfd90e	0.040875875601999664
35	0x3f9f615ad0133586	0.03064481635083418
36	0xbf7b8a27800655fe	-0.006723551079991006
37	0xbf71d5965a519a5c	-0.004354083362250263
38	0xbf7346987a480c28	-0.004705997100702887
39	0xbf79a6d6d8e2cbef	-0.006262625929752893
40	0xbfb0aa79bc6ffbe1	-0.0651012501766526
41	0x3f68a11ba18c9266	0.003006509749314201
42	0xbf9f99ca679d66d6	-0.03086010224737986
43	0x3fa897caa64b587f	0.04803307800254774
44	0x3f8783f678177436	0.01148216775885134
45	0x3fb64099ed1b169e	0.08692323721614989
46	0xbf53fe83b6389871	-0.0012203489540154845
47	0x3fa86fbca37c79ff	0.047727484661880475
48	0xbf664b9bc50d8b96	-0.0027215998056119945
49	0x3fa4a18d96dafb70	0.040295052208867754
50	0x3fa0c35aa711476c	0.03274043359182496
51	0xbf9a6f8c24879b0d	-0.025816144685360465
52	0xbf5593c1a0a51c2f	-0.0013169661420577951
53	0x3f609a84a91da78b	0.002026805022002647
54	0xbf9224ba1fb15c70	-0.017718227562309286
55	0x3fb2a723c0ec4589	0.07286284885437601
56	0x3fb71206107ec43e	0.09011876967157748
57	0xbf80d2ea09896a63	-0.008214786926307121
58	0x3fabfdf979e69903	0.05467204678579842
59	0x3f9226c0a79c1acc	0.017725954275216435
60	0x3fabc6002a7e0518	0.05424500006393823
61	0x3f97620747b1e85a	0.022834886313355042
62	0x3f9a78d636d97681	0.025851580713029513
63	0xbfb3ce8247b66bf3	-0.07736982584758305
64	0xbfa974ced80e4aef	-0.04971929919624595
65	0x3f8fcead28db7332	0.015530922707904436
66	0x3fa95a1781932264	0.04951547104571288
67	0xbfb426989c77fc93	-0.07871393032108846
68	0xbfa5e12b3b4719d0	-0.04273352717023082
69	0xbfbd9a4e5082f90a	-0.11563577142348805
70	0xbf92f45d43caeeda	-0.018510300886858434
71	0xbf929785f263c479	-0.018156140250486594
72	0x3fa9e74bc3e2b567	0.05059277311498072
73	0x3f9dabb742ef02ed	0.028975356540970876
74	0xbfb1884385938dd7	-0.0684854699243752
75	0x3f7366c923f99b0d	0.004736695962128901
76	0xbf9505bd9032f116	-0.020529710699279745
77	0xbf76adde47bdccc8	-0.005536907465159398
78	0x3f6acb242433fa94	0.0032706933867524077
79	0x3fb40d988c055838	0.07833245676496936
80	0xbf9392ef408b114c	-0.01911519843521718
81	0x3f70c4f817a1e273	0.004094094381905766
82	0xbf9522019aa5d1be	-0.02063753610987517
83	0xbfa66a86a7d3272e	-0.043781478868892484
84	0xbfa9a9a73268c5d6	-0.05012247553203124
85	0xbf7e0763dfc2b286	-0.007331266530098751
86	0xbfa174f02cb9856f	-0.03409529252963749
87	0x3fb6f3ae7c77c0c4	0.08965578593029294
88	0x3f735c7ea90d5278	0.004726881758717931
89	0x3fa43d00a3d40b4b	0.039527912138530207
90	0x3f536827cec76072	0.0011845005748139206
91	0xbfa38ee47f66bdd1	-0.03819955878440918
92	0xbfa18083a6c8e0ee	-0.03418361102052524
93	0x3f8ee78701dac699	0.015090040916536028
94	0x3f840fb63c698a7c	0.009795592993389272
95	0x3fa4129dda449f33	0.03920453347592314
96	0xbf7247850bd722ed	-0.004462737762374697
97	0xbf75d14dca9bca4f	-0.005326560852824415
98	0xbf3684fad4030023	-0.00034361957296980184
99	0x3fb680d0f736432e	0.08790308032463365

bias f8 [1]
0	0xbfb25b7c23d96fd4	-0.07170844912746982
