WeakLossExample/Models/F4_model.pt (torch, 86047 bytes, 6 tensors)

weight f8 [100, 1]
000000 49 25 f6 f5 cc 14 e0 bf 6b de 2a ab 1d 12 d6 3f
       -0.5025391391692803 0.34485570636341006
000010 e0 2b 56 30 ff 69 d3 bf 37 32 69 e5 b6 11 cc bf
       -0.30334453316089416 -0.21929060174660872
000020 00 33 52 83 9e 4c 8e bf cc c0 f4 e1 0b 71 c7 3f
       -0.014794577009774823 0.18313740284930302
000030 8b a2 69 85 56 4f e0 3f 40 11 6d 6d fc ea e6 bf
       0.5096848111835056 -0.7161848199107581
000040 3c 40 3b 5b cc c5 a1 bf 74 6a 63 71 c8 fe dc bf
       -0.03471220601716182 -0.45305071900444394
000050 13 72 ac 89 c0 d0 e8 bf 30 cb 74 43 67 83 d6 3f
       -0.7754824341714673 0.35177022540590297
000060 11 8b c7 7f 87 c6 ed bf 5c b2 09 e4 90 81 c9 3f
       -0.9304845328991594 0.19926653990423204
000070 b5 c1 62 25 45 23 e6 3f ca b7 d3 24 bf 2d 98 bf
       0.6918054323378359 -0.023612009642356026
000080 45 1b 0b 73 7d 33 e2 bf 0a ae e3 63 1b ca e7 bf
       -0.5687854048672781 -0.7434212637867301
000090 ea 0a 28 86 9e 25 cc bf d5 d6 39 13 cb 41 e4 bf
       -0.21989804792982365 -0.6330314040667085
0000a0 2d b6 48 ec de 3c d3 bf 89 56 f5 91 58 2d eb bf
       -0.3005902583562115 -0.8492853976010376
0000b0 53 5b 00 83 d0 a7 e6 3f ca 69 f4 09 68 8c d6 3f
       0.7079851683255164 0.3523197266782999
0000c0 04 9e 7c 34 e8 33 db bf 1b b6 d3 f4 48 ca df 3f
       -0.42504315496123035 0.4967214957131049
0000d0 9a 1d b3 73 ca 26 e2 bf 72 5a 53 f1 73 11 e5 3f
       -0.5672352084883869 0.6583804810896494
0000e0 82 82 82 51 54 2f e8 3f 50 69 dd 6f 28 d0 d8 3f
       0.7557775108326299 0.38770495342545974
0000f0 f0 11 6f 94 44 89 b9 bf 7c ca 6f 85 ac 79 ea 3f
       -0.09975079177736013 0.827352772348902
000100 ed b7 95 99 4b 32 e6 bf 70 a2 6c 32 1b 2b f0 3f
       -0.6936395644859182 1.0105239839268982
000110 49 05 2f b5 8d 42 df 3f ff 80 df c8 0e cc 9b 3f
       0.48843710607259944 0.027145606050795298
000120 c2 75 0d 5e 9c d7 e1 3f 2a cb a7 fb 31 a7 b9 3f
       0.557569678970758 0.10020744699413045
000130 a6 8e 7c 26 66 90 b9 3f 38 2d 54 9c fd df c5 bf
       0.09985960425961568 -0.17089815266840858
000140 00 d3 f1 bd 8a c3 c8 bf 68 ed 37 96 73 0b e3 3f
       -0.193467467066192 0.5951478895143909
000150 7c 5b 39 d4 d5 82 c3 3f 40 04 83 fc 42 a5 d9 bf
       0.15243027555944966 -0.4007117715773951
000160 a8 83 8c 59 3f 24 e6 bf fb 48 e5 fc 49 03 d9 3f
       -0.691924738788761 0.3908257455524475
000170 c3 f8 77 88 9b 9c e1 bf 71 3b 5e 2a 89 ef e0 3f
       -0.550367132702171 0.5292402102948995
000180 13 aa 33 e2 d3 cf ef 3f d2 a3 03 1e 87 25 cc 3f
       0.9941195886615922 0.21989525762117396
000190 61 39 7e e1 99 bd bb bf 4e d8 4f aa 71 98 e4 3f
       -0.10836183314515814 0.6436088873295007
0001a0 91 f4 9b e6 49 e4 d0 bf a8 b4 a2 35 d9 97 e4 bf
       -0.2639336349528288 -0.6435361907548627
0001b0 b6 c9 de b3 b0 14 e6 3f 00 ed dd d2 a7 ac d3 bf
       0.690025664624321 -0.3074130591628119
0001c0 39 a5 6e 65 d6 1b e7 3f 1a a0 77 1e c8 c9 d5 3f
       0.7221481305215668 0.3404407784969422
0001d0 14 81 e6 89 40 5b c7 3f a5 2c 41 56 93 2c dd 3f
       0.18247229321878733 0.4558456747369724
0001e0 fa 19 9d 02 b7 5e e7 bf f5 8d 6b f0 b7 b6 ec bf
       -0.7303118754433051 -0.8973045058923491
0001f0 bf 1f 33 e7 64 87 e6 bf 8c 06 b1 f7 f5 0d c4 3f
       -0.7040276065463259 0.15667605013191055
000200 4c fd bb 1e c4 c5 e3 bf d0 ae 8f 50 f4 67 e3 bf
       -0.6178913688926655 -0.6064397405111439
000210 70 c5 b3 6b 44 b7 ec 3f f4 fd 77 18 58 8c d2 bf
       0.8973714927252967 -0.2898159254982311
000220 c6 9e d5 9d 64 50 cd 3f 3a 1c 3c 57 19 60 d8 bf
       0.22901590067635008 -0.3808654167082214
000230 2f 55 cf 2f a9 40 e9 bf 3d d9 23 a4 eb 9c ba 3f
       -0.7891431745326026 0.10395691640210188
000240 20 d4 85 4a 24 ab ab bf 9f 34 95 65 30 70 db 3f
       -0.05404008302404173 0.42872247619818354
000250 b0 a1 7c 4a 74 b7 b6 bf 89 de 95 85 84 cf b7 3f
       -0.08873678988005085 0.09301021825182877
000260 8e ce 1e e1 ea b7 e3 bf 05 82 a6 93 9d 1f e0 3f
       -0.6162008664018275 0.5038593181416792
000270 fc 61 fa 93 12 2f df bf 3c 23 2b 27 c2 47 d4 bf
       -0.48724808169347944 -0.3168797857766099
000280 fc 50 9a db 7e 4d e0 bf 78 dc d2 e6 bc a9 e0 bf
       -0.5094599045865205 -0.5207199581408437
000290 15 5d b3 91 80 94 e1 3f 2b 6c fb a9 01 4d c8 3f
       0.5493777127948386 0.18985005187900703
0002a0 84 3b 9d fe 9d 2d e4 bf 2d 7d 07 6d 6d 65 e6 3f
       -0.6305685017522227 0.6998812798955548
0002b0 eb 89 ad eb 1a 0e e8 bf 64 1e b1 d1 cd d2 e1 bf
       -0.7517218211253839 -0.5569829078239761
0002c0 33 76 d1 73 d3 83 cd 3f 24 ac a7 5a 84 37 c9 3f
       0.2305855098265269 0.19700674463760592
0002d0 09 ea 05 4f 24 c2 e9 3f eb 5e 52 f3 63 f6 e1 bf
       0.8049489539546936 -0.5613269569757596
0002e0 65 d5 81 cd d0 9e e1 bf 98 0f fe 46 5c 35 e8 3f
       -0.5506366742908254 0.7565137278147516
0002f0 8d 2a 9a 83 46 6e e7 bf f0 91 51 a6 4f 7e d1 3f
       -0.7322113581042956 0.2733344196515466
000300 4a 9f 68 f4 c7 b4 d1 3f 3c fa a7 9a 0f b3 eb 3f
       0.27665900104556285 0.865608026564423
000310 45 a7 65 e5 cb 8c da bf 2b da db 59 67 da ed 3f
       -0.4148435344892401 0.9329106097273486

bias f8 [100]
000000 25 1f cf c1 ef 18 eb 3f 68 d3 4d f2 33 4e e0 3f
       0.8467940125783328 0.5095462543964517
000010 98 fb 3a 82 b4 25 e6 bf 6e f4 e1 1f 63 3d ea 3f
       -0.6921026748240022 0.8199935553271993
000020 8c db 45 8d 7f 8c ee bf ef be 00 02 fc 28 ca bf
       -0.9546506652103388 -0.20437574479864604
000030 41 05 e5 c2 2d 3c e7 3f 00 f5 32 8a dc 74 e7 bf
       0.7260960394416217 -0.7330153178405965
000040 23 ea aa 54 f9 8f d0 3f 9f b5 1d 6f 7d 90 d4 3f
       0.25878747242282624 0.32131896830727585
000050 86 9b 8b c8 d8 e2 e4 bf 7c 5a 33 e2 35 3a e5 bf
       -0.6526912609959801 -0.663355771825834
000060 72 4c bb 80 c0 b2 e8 bf b4 9b 28 78 93 27 e2 bf
       -0.7718203081407309 -0.5673310610626374
000070 db b7 d5 35 ec 4e e5 bf 5b eb 26 a9 4a cc 9c 3f
       -0.6658841182195333 0.028123060774059776
000080 db 44 de c0 cb e5 d9 3f 57 00 fa cb 89 6e e6 3f
       0.40465062937535173 0.7009934410016382
000090 db 0d 41 7b 5b d0 d1 3f ce 82 5b 09 44 30 f0 3f
       0.27834212338004044 1.011783634712788
0000a0 ff 26 42 9b 09 ad cf 3f ce f3 8b a7 0c 1a eb bf
       0.24746818619706087 -0.8469298622509258
0000b0 a6 ec a0 55 9c bd ea bf 09 8a 33 e6 4f 11 ea bf
       -0.8356458351548965 -0.8146132942313794
0000c0 80 e8 f6 89 b5 a3 ef bf f0 92 7e 88 d0 f9 eb bf
       -0.9887340254420138 -0.8742449441820934
0000d0 f6 bf 19 00 44 32 e6 bf f2 37 ff 84 0f 7f ed bf
       -0.6936359407391126 -0.921760329970992
0000e0 46 5f ff f5 87 0b e0 3f 09 a7 b5 ff 77 e9 e2 3f
       0.501407604659996 0.590999602730535
0000f0 c2 0e e9 29 4f ce e7 bf 32 64 08 2e ac 4c ea 3f
       -0.7439342325746667 0.8218594454839432
000100 d2 f7 d2 fc d9 4e ef 3f 95 d8 68 c9 a2 79 ed bf
       0.9783754289599023 -0.9210981305866591
000110 1c a2 29 f2 c1 9d d3 bf c5 28 07 03 81 14 ba bf
       -0.3065037598485405 -0.10187536548542926
000120 51 9d c8 70 7c 0e c2 3f 48 5c 1c 4c 13 1c d3 3f
       0.14106708056463416 0.2985885852116934
000130 8d 0f 7f b8 6d bb de 3f b2 67 c5 86 4e 5d e7 3f
       0.4801897336694701 0.7301399833916007
000140 14 9d 6c 76 88 b2 eb bf 8c 9d 53 13 4f 3f e3 bf
       -0.8655435860609111 -0.6014781358216381
000150 f8 4f 24 30 fc c0 d6 bf b8 aa 26 5a 37 a0 cb bf
       -0.35552887631752084 -0.21582691099077578
000160 08 8e 25 93 02 7f de bf 38 bf 8c 97 ca b5 98 3f
       -0.4765020787219503 0.02413097906099823
000170 26 c1 33 c5 80 f4 ea 3f 78 f4 6e 49 5d 43 e7 3f
       0.8423465587239078 0.7269731935736123
000180 a5 fa 88 6c 71 d0 e7 bf 34 e1 d2 03 a2 93 d9 3f
       -0.744194709761207 0.39963579533970806
000190 1b 81 7f 60 c2 59 ea 3f bb 4c 9d 7b d7 aa e3 bf
       0.8234569439628417 -0.6146047033638732
0001a0 95 6c 4a 08 46 16 dd 3f c4 52 f8 3f 54 88 e3 bf
       0.4544844704593712 -0.6103917359747233
0001b0 88 d9 aa ce 4c 7b c5 3f 3e cf ab 49 a6 ca e4 bf
       0.1678253182523799 -0.6497374953164365
0001c0 34 3d e5 d7 91 44 e2 bf 0c 60 39 ba f7 a2 e9 bf
       -0.5708703247745803 -0.8011435162725333
0001d0 f5 6c e8 4f 5b 92 af 3f 4f 36 86 ea 03 d1 d8 3f
       0.06166348791540514 0.3877572813297307
0001e0 56 91 74 af f8 98 e7 bf 90 6b e8 8e 20 e9 e4 3f
       -0.7374232699262773 0.653457907788253
0001f0 23 cb 50 bf a7 7a e1 3f 9e 3b 58 c7 0c 6f e4 bf
       0.5462225662834935 -0.6385558980417618
000200 ad 6b eb 80 51 77 e7 3f b0 14 b8 5e 1a 55 d3 bf
       0.7333152311288039 -0.30206927537831074
000210 ab 67 1e fb c2 be ce 3f 95 90 5e 4d ff 54 ca 3f
       0.24019658338221225 0.2057189109592669
000220 60 31 29 94 96 ee d1 bf 6a 6d 32 1b 9e 78 d7 3f
       -0.28018726795996507 0.36673691421466137
000230 97 ef d9 1a 1c 8f ea 3f 9b 0f 6b 62 b9 da c1 bf
       0.8299694561423959 -0.1394874315793658
000240 f8 46 52 26 16 3f ce bf 45 9f 5f 56 6d 83 e4 bf
       -0.23630024787103543 -0.6410433470709697
000250 a0 13 da f5 99 cc d3 bf 5f 88 7c 31 26 e9 c2 3f
       -0.3093628788849916 0.14774014870005467
000260 f4 8a ee f4 d4 4e e0 bf 04 62 0d de 3f c7 f0 bf
       -0.5096230300735827 -1.0486448930661263
000270 f0 69 ef 46 71 b5 d0 bf 3c ca d4 c6 91 9a d0 bf
       -0.2610743706442511 -0.25943416993246493
000280 5b 2f 5c 9e 5e 20 e0 3f 52 25 51 04 71 d9 e8 3f
       0.5039513676615387 0.7765431484523708
000290 49 d0 e1 43 e1 f9 ef bf 0a 59 79 a8 3c 06 c3 3f
       -0.999252922613331 0.1486278364779497
0002a0 24 16 49 ab 85 95 ef bf cd c6 1c c7 2a 85 d5 3f
       -0.9870022149486357 0.33625287479945315
0002b0 30 6b a1 ec 9a 1c e1 3f f3 04 c1 bf cd d4 df 3f
       0.5347418424310941 0.4973635075185278
0002c0 a5 d3 8e fd 8d 57 dc bf 72 c4 76 63 bb eb e5 bf
       -0.44284391175761534 -0.6850258772521001
0002d0 11 94 ce 97 0e a9 e1 3f 5a bf 2b 50 82 71 e7 3f
       0.551886841295188 0.7326060834729831
0002e0 63 58 aa e8 aa 54 e3 3f ec 1e bc a5 a9 4d e9 bf
       0.604085401939994 -0.7907303082474448
0002f0 0f c6 ae 8d 00 0a df 3f e5 32 dd d3 00 d9 e2 3f
       0.4849854835148059 0.5889896524400596
000300 df f1 d2 d1 2c 92 da bf 6e bc 15 eb 60 4e e3 bf
       -0.4151718186438113 -0.6033176986219482
000310 90 a6 a9 08 c1 d8 e6 3f 1e 34 b9 d9 73 d9 cb bf
       0.7139592332070652 -0.21757362490680604

weight f8 [100, 100]
000000 8a 48 f1 44 1a 38 bb bf be 83 4c b8 51 7b b1 bf
       -0.10632480796019386 -0.06828795194134238
000010 a8 4c 14 8f 42 86 8f 3f dd 89 40 03 83 50 68 3f
       0.015392799369271806 0.0029680785028329674
000020 00 e6 c7 78 d1 6b 7b bf 65 98 31 d3 a5 07 a8 bf
       -0.006694620370120585 -0.04693334773109895
000030 32 6e cd 03 af 94 a7 bf 56 a6 26 69 1d 3c a7 bf
       -0.046056241239707765 -0.045380515180408906
000040 47 10 f4 27 3e 7b a6 bf 87 8f d0 bd 38 6e c7 bf
       -0.043909017922516606 -0.18305119770331776
000050 b4 fd 5a 88 92 df 91 bf f9 14 89 ad 93 6c c3 bf
       -0.017454423496699525 -0.15175100301181724
000060 d0 3f d5 89 6d 36 75 bf 80 a0 12 c7 93 31 76 bf
       -0.005178859600462674 -0.00541837430606773
000070 5d 2f e1 71 55 27 ab bf 5b fd 8b cf e5 fc b2 bf
       -0.05303446784145536 -0.07417141263066666
000080 0a 89 95 5c 97 99 93 3f 9d 23 69 b3 d8 27 a4 bf
       0.019140591646086093 -0.03936650457450883
000090 3b cf be 0b b8 fb a1 bf 6a a1 c7 94 87 6d 89 bf
       -0.03512358802200174 -0.012415942409419418
0000a0 9c e4 09 61 09 5c b7 bf 0c 98 50 e8 55 14 9e bf
       -0.09124811762912305 -0.029374449066516248
0000b0 77 34 84 2f bd 89 b8 bf de c5 49 52 79 ec 9c 3f
       -0.095851730442705 0.02824582638499417
0000c0 55 b4 e5 22 be bb b3 3f 3a 5c 0b b3 a7 de c3 bf
       0.07708347656235166 -0.1552323936691396
0000d0 f9 ac 57 b7 9f 96 b1 3f 2c 26 ab 88 50 15 be bf
       0.06870458818564264 -0.11751273476252128
0000e0 03 60 14 31 f8 82 c0 bf 26 63 d7 1a df 2c 93 bf
       -0.12899687191452366 -0.018725858701006314
0000f0 2e 51 c4 8a 53 f1 ae 3f 31 83 bb f2 12 e3 41 3f
       0.060434923829378526 0.0005458681602839908
000100 75 db 43 3f aa 95 c3 bf 04 d8 eb 2b 4f 97 c3 bf
       -0.15300491417994136 -0.15305509228318226
000110 da 55 c4 f9 9f 62 ac bf 23 00 7e d4 ee 57 b0 bf
       -0.05543994831002026 -0.06384175002858732
000120 a3 4c 2c 0c 0e e5 90 bf 55 a4 2e 75 e6 42 c5 bf
       -0.01649877499864928 -0.16610413286005846
000130 f6 45 4a 14 22 9d b0 bf a8 0d 74 0d f8 77 55 3f
       -0.0648976611648989 0.0013103411091045323
000140 40 d9 4a dc ef 80 96 bf 73 45 60 9d 79 d2 68 3f
       -0.02197623045022934 0.003030049828347253
000150 d9 be 5b 2b f4 32 b5 3f a8 40 62 de 90 f8 85 3f
       0.08280874308160992 0.010728008066763842
000160 0c 09 6b 79 b6 3b 96 bf 0c ca e0 17 f3 6d 84 3f
       -0.021712161217473144 0.009975337187005294
000170 8f 7a 59 ab 96 64 b8 bf 39 28 4f b0 93 f4 51 3f
       -0.09528485949838682 0.00109590933537841
000180 71 2d 89 4c 3c f2 a7 bf d3 48 6a d9 12 fa bd bf
       -0.04676998552585133 -0.11709707077014579
000190 39 0c 2d 6f 83 59 90 bf 97 37 65 1e 5a 01 c2 bf
       -0.01596646658005005 -0.1406662605681361
0001a0 50 d8 e8 0f d0 b6 bc bf e9 e2 8a 47 85 18 a7 bf
       -0.1121645010797192 -0.04510895250627362
0001b0 07 b2 92 b8 b5 63 9a bf 30 fa a6 72 3f 3a a3 bf
       -0.025770987883037246 -0.037553770776402096
0001c0 92 98 92 b8 fe 25 c5 bf cc 2c ad f4 ff da aa bf
       -0.1652220154985043 -0.052452086084110755
0001d0 34 ee 8c 30 a5 81 73 3f 49 bf df fc bd f6 94 3f
       0.004762311241218554 0.020472496566014162
0001e0 d4 33 da cf 11 79 9a bf 73 ff 3f 85 76 5e c4 bf
       -0.025852468787480223 -0.1591327810892796
0001f0 09 19 1d 7b fd 29 a4 bf fb 59 46 ae 01 85 b2 3f
       -0.039382859495662066 0.07234201912647358
000200 da 4f 27 e7 cf b4 ad bf 99 33 e0 14 0f b2 b3 3f
       -0.058020112006175587 0.07693571338331963
000210 13 00 0b ee 2c 71 91 bf dd 2b ef 1e f7 82 b3 bf
       -0.017033292798032628 -0.0762171221278289
000220 be f5 f7 c6 42 6b ba bf cc f4 50 b8 0f 52 c6 bf
       -0.10319917066222836 -0.17437931537452867
000230 79 ce 20 b7 91 b6 a1 bf df ad aa 02 f0 67 b2 bf
       -0.034596017460356294 -0.0718984610090767
000240 fe 92 46 b0 46 c4 af 3f 80 b4 e7 ca 95 81 c2 bf
       0.062044343011882205 -0.14457962424731718
000250 91 c3 0a 4b 77 30 b2 bf e6 96 f2 be bf c2 bd bf
       -0.07105203229981628 -0.11625288402373321
000260 b4 67 72 b1 6f 10 94 bf 03 f0 45 12 f8 ad c4 bf
       -0.019593949513911205 -0.16155911342855242
000270 be f4 36 aa bf e3 b6 bf 80 6e 4f dc dc bb 4e 3f
       -0.08941266923553123 0.0009379223271212683
000280 7b 37 a8 93 c1 0e c3 bf 22 f2 92 15 75 e9 7d bf
       -0.14888782224482697 -0.0073027204136306995
000290 2b 1b 9c f1 b1 d8 88 bf ed 8e f8 34 73 f3 97 bf
       -0.012132063089223507 -0.02338962565239815
0002a0 4b dd 51 08 af 65 b5 bf e8 7b f5 75 3c 6f b2 bf
       -0.0835828204452486 -0.07200982932907574
0002b0 96 53 65 80 47 11 b3 bf e2 7c 7e 43 e0 aa c0 bf
       -0.07448241123831986 -0.13021472259149564
0002c0 b8 0c 5a 6f 42 fd bf bf 30 61 5f cc 71 bf b5 bf
       -0.12495818346546883 -0.0849524616199957
0002d0 3a 00 6f e2 08 3d a7 bf 70 8c d5 79 58 1c b3 bf
       -0.04538753284532544 -0.07465126966921942
0002e0 68 8d b5 a2 3d 68 be bf 0c b9 7b 96 bd cf 8b 3f
       -0.11877808782951649 0.013579827456365233
0002f0 0c 4a a8 2f e6 5c c5 bf cc 38 af 63 5c 9b 9a bf
       -0.16689755751629354 -0.02598327978540098
000300 1d ce b0 ff 48 11 c0 bf 73 c3 22 4e 4b 9d bc bf
       -0.12552750096220758 -0.11177511842357805
000310 a5 79 0f 96 82 4b b0 bf b3 8a ed 4d 17 46 ad bf
       -0.06365219272217944 -0.0571753771426037
000320 89 eb 82 02 a5 b1 b9 bf e4 68 4f e1 1c a0 a7 bf
       -0.10036689101518283 -0.04614343881958563
000330 bd 7a 01 04 2a c2 b6 3f 43 62 29 cb 49 f1 b7 bf
       0.08890020940587369 -0.09352551660539014
000340 c0 c3 aa ce 22 7e a4 bf 17 00 9b 88 3c fe 93 3f
       -0.04002484104910975 0.019524522626625265
000350 00 54 d0 aa de 98 ab bf 30 2f f5 08 e4 67 85 bf
       -0.05390067896966144 -0.01045206215226066
000360 b3 2c c7 a4 07 f4 a3 bf 7b bb 48 36 dc 12 a7 3f
       -0.03897117506456862 0.04506576693199001
000370 60 c5 a2 90 64 6e b6 bf ff 48 66 69 92 2e bf bf
       -0.08762196093700458 -0.12180438111525758
000380 6b 6a 1c d8 ec b7 b4 3f e3 d9 d8 d3 00 e4 b6 3f
       0.08093147541186745 0.08941655323074076
000390 31 74 30 40 cf 3c 9b bf f3 84 c6 9f e1 5a a7 bf
       -0.02659915761261206 -0.04561524463066204
0003a0 7e 2d da 7a 2e ce b0 bf f3 b7 7e 36 45 b0 9b bf
       -0.06564608096430466 -0.027039605570898528
0003b0 5a f2 2e 0c b1 6c 91 bf 82 36 a8 76 03 0a b0 bf
       -0.017016188019385182 -0.06265279433156404
0003c0 88 67 4e b7 de 4b 98 3f 80 21 3f 01 42 d7 7f bf
       0.023726921022535957 -0.007773645240327531
0003d0 20 91 a6 87 e5 b8 92 3f 11 d9 b6 a2 8f 5a 89 3f
       0.01828344955869554 0.01237976279558642
0003e0 16 e8 86 c7 e3 5f af bf 30 b1 ea 84 bc 0f a2 3f
       -0.06127845583564821 0.035276309228125746
0003f0 e6 ae d3 73 2b ee af bf 7f e3 19 9a 9d c2 b2 bf
       -0.062363965882324554 -0.07328209888681946
000400 72 54 d8 07 04 53 9b bf a7 dc 47 06 14 e9 ba bf
       -0.026683867434332993 -0.10511899140679991
000410 5c 51 4f 94 28 0a b6 bf 02 b5 f5 0d 25 1b a7 3f
       -0.0860925066074904 0.045128972963405914
000420 d6 a8 dc 79 9c 27 a7 3f a8 32 bf a5 97 c0 b1 bf
       0.0452240847356095 -0.06934497639231074
000430 03 35 f8 82 7d 71 89 bf 37 54 3f ca 39 ba 94 bf
       -0.012423496779798265 -0.020241644829941143
000440 b4 18 fb 58 65 6d 9f 3f 68 e5 2d 64 86 fc a1 3f
       0.030690749698600597 0.03512973759547827
000450 9b 1a b4 c2 c4 8b a1 bf 91 b3 4f ef bf fb 83 3f
       -0.03426947476150596 0.009757518282606433
000460 4d de 8e f6 d5 ab b8 3f 48 b8 b7 3b 95 38 99 bf
       0.09637200612530102 -0.024629909295917934
000470 72 a5 0f 6b 4a fa aa 3f e8 49 69 f1 55 16 89 3f
       0.052690816468223725 0.012249633245265693
000480 e4 29 06 7d 72 f5 92 3f b3 70 0b f0 a8 eb a5 3f
       0.018514431839813286 0.042813567449884536
000490 6d f4 6e 33 a4 46 b3 bf 11 6f 8f 6d 49 23 a2 3f
       -0.07529665237139378 0.035425467132624296
0004a0 2c 5b f5 78 97 60 a4 bf c4 26 2b 33 be 7a b7 bf
       -0.039799436107094216 -0.09171665906174115
0004b0 55 5b e0 60 19 5e 76 bf ee d5 29 28 1c 27 a2 bf
       -0.005460833677736717 -0.035454635527383135
0004c0 3b 1f a4 07 de 0a 88 3f 92 f6 d3 73 34 b5 ac 3f
       0.011739477737605966 0.05606998361507211
0004d0 ca 5d 8e 92 7e 82 a5 3f 9e e3 56 bc 12 44 a2 3f
       0.04201121844306106 0.035675607195521084
0004e0 05 d4 f4 c3 1c a6 92 3f 73 31 33 a5 cc 26 b8 3f
       0.018211793384768544 0.09434203179552529
0004f0 df 49 06 c9 7c fd aa 3f b2 c9 56 03 07 52 91 3f
       0.05271520570672172 0.016914472178265867
000500 6c c9 90 9a 93 27 b1 bf 89 dd 33 ed c3 45 ae bf
       -0.06701014064382144 -0.059126017289538764
000510 b1 ae 9e 6c 75 96 70 bf 93 c1 99 0b 6a 7b b4 3f
       -0.004049738587052752 0.08000815184801117
000520 95 86 e2 ea 44 c8 b0 bf 28 bd 47 9a a3 ba 89 3f
       -0.06555586561673928 0.012563017030486082
000530 06 61 23 57 3b bf 90 bf 0f af cb 2b d6 11 bc 3f
       -0.016354491418355564 0.10964716500501147
000540 19 72 a6 29 46 da b1 bf 2a 3e 6a 70 c4 3b 95 3f
       -0.06973684803819714 0.020735806809680714
000550 e2 5a 28 af 1f 51 bf bf 27 ab 30 a8 6b 0f 9d 3f
       -0.12233160044011585 0.0283791371731851
000560 c6 03 5a 40 2b 2b b4 bf 7a 10 55 2b 87 c1 b4 bf
       -0.07878370591244196 -0.08107800300519044
000570 62 02 7b ed 2b fe ae bf 84 cf 3a d0 fc f8 a8 3f
       -0.0605329253571696 0.04877462427012261
000580 aa 63 13 80 d6 cd a7 3f 0d 7a 15 1a 5f a4 b5 bf
       0.04649229348587565 -0.0845393599206334
000590 b9 be ce 93 ef 93 b0 bf dc 5a ea 0b d0 93 aa bf
       -0.06475732191642693 -0.05190897126629121
0005a0 84 86 12 0d 1c c9 b1 bf 3a 9d 38 41 7c 74 ad 3f
       -0.06947493857526338 0.057529337846342135
0005b0 70 83 ea f0 0b 3d ae 3f 9a 38 c1 87 fb 06 b9 bf
       0.05905949893827411 -0.09776279510808408
0005c0 7e b3 7d 1d 32 f3 a6 3f 66 1c 9c 25 52 e5 b4 bf
       0.04482418642041973 -0.08162415903289996
0005d0 a7 d4 e9 67 68 88 8f 3f 93 ba ad 59 dc 12 b7 3f
       0.015396896048722587 0.0901315421049083
0005e0 ca f1 11 f4 04 31 a7 bf e6 32 29 87 ce 3c aa bf
       -0.045295862954819535 -0.05124516868509037
0005f0 34 db ae 26 7a c1 97 bf 22 71 24 1b 88 d2 81 bf
       -0.0231989942655801 -0.008702338531798196
000600 f4 c7 f9 b9 2f 72 89 3f 73 1d 54 2e d0 33 a4 3f
       0.012424824584034135 0.039457803397506284
000610 a1 bb 21 70 3a ba 98 3f 95 8f f0 e6 03 04 17 3f
       0.024147904485683495 8.779786888673945e-05
000620 af 51 c1 60 06 d6 bf bf b6 59 0b b3 c5 c4 be bf
       -0.12435951101480812 -0.12019000645827912
000630 92 b4 08 29 72 7a 90 3f 48 cb 81 ff 06 eb b6 bf
       0.016092094187275814 -0.0895237325474173
000640 00 97 cc b5 19 18 61 bf cc 93 e8 4d 90 75 ab bf
       -0.002086687293188727 -0.053631314764323784
000650 02 59 df 38 80 e7 a7 3f 70 a4 6a 7c 3c be 8f 3f
       0.046688086454809166 0.015499565646068997
000660 2c 2e bf 9b 8d bc 9c 3f 1b 9d b8 2e 58 b8 b7 3f
       0.028063023215322655 0.09265662327435502
000670 59 4b 5b 00 e8 c2 b0 bf 93 54 3a c3 50 db b3 bf
       -0.0654740334387446 -0.0775652386312962
000680 cf 37 63 60 93 8d ac bf 28 10 d7 66 ae f4 8e 3f
       -0.05576763679128726 0.015115129960470666
000690 09 6d c6 b0 3b 24 b7 3f bc c1 19 37 53 f1 b5 bf
       0.09039662423895235 -0.08571357817868991
0006a0 fa 89 34 c8 37 56 a0 3f ac 0b 8d d1 6d dc 92 3f
       0.031907790364375146 0.018418994822478815
0006b0 06 2b 23 fd bc 53 ad 3f 03 9f 53 55 1d 37 b9 bf
       0.05727949705177164 -0.09849723179979368
0006c0 d4 ce 91 50 31 65 b5 bf 98 a1 e1 c1 c6 00 9b bf
       -0.08357532708196952 -0.02637014921529754
0006d0 3b f8 c6 0c 8d 04 b9 3f 1e d8 19 a2 df c3 a1 3f
       0.0977256923860929 0.03469752172252093
0006e0 18 09 49 99 f6 e2 83 3f 91 d0 94 53 39 8c b1 bf
       0.009710241845031706 -0.06854589739379181
0006f0 30 49 6a ec c6 a3 7b 3f 16 2d f5 92 89 4a b7 bf
       0.006747986836346961 -0.09098110044321958
000700 15 b6 ed 2c 5f fb b5 3f 39 0b d0 39 f9 dc ab bf
       0.08586687895668661 -0.054420269305430265
000710 94 48 92 2e 0f d2 9e 3f e6 37 63 d1 cf 42 b2 bf
       0.03009818765401258 -0.0713319669914366
000720 09 55 f7 86 d1 b3 b0 bf 76 b1 19 c5 a7 c3 a6 3f
       -0.0652438120371991 0.04446148186693481
000730 8f e9 8b 0a 55 d2 a5 bf 78 43 16 40 71 3d 96 3f
       -0.04262033227674344 0.021718759094770473
000740 13 5c e8 a7 df 28 b9 3f 59 83 c3 32 aa 41 b5 3f
       0.09827993249233229 0.0830332158980246
000750 b4 75 3a ba ca 74 98 bf 82 62 0d 69 27 f3 af bf
       -0.0238830257572908 -0.06240199239136236
000760 39 97 30 65 1f b3 b5 3f 72 cc c4 f5 65 ce a1 3f
       0.08476444454626354 0.03477781891924615
000770 af 8d b8 47 1e 34 b0 3f 58 e4 e2 46 35 2b 84 bf
       0.06329526186941935 -0.009848037935045337
000780 b3 65 36 23 fc aa b2 3f 7f bf 1d 9a 54 eb ae bf
       0.07292152270965495 -0.060389179051411716
000790 c8 2f ec 29 cf 69 b4 bf 74 79 c3 fa 7a c8 9f bf
       -0.0797395207738979 -0.031038209491151617
0007a0 19 00 e8 eb 2f 6e ae bf d4 0c 5a 3f 37 eb 96 3f
       -0.05943441157069191 0.0223816521088452
0007b0 3f 4d 8f 22 42 33 a8 bf 2c a6 40 52 0c af b5 bf
       -0.04726607009765837 -0.0847022724925856
0007c0 8a 18 e1 c3 02 03 a3 bf 63 ac 3d 3f 90 ed a6 bf
       -0.037132345591588026 -0.04478121540054116
0007d0 35 09 89 3a a1 a1 b2 3f 00 92 d5 bf 90 8a 55 bf
       0.07277877501568215 -0.001314774853505729
0007e0 b3 4d 37 8f 66 e3 b6 3f d6 2d 79 22 c6 37 a1 3f
       0.08940735813603488 0.033628646572278306
0007f0 6c 70 97 2e dc a1 a6 bf 16 2c 16 bc b2 f0 a0 3f
       -0.0442036444544279 0.03308638139704827

bias f8 [100]
000000 42 4d f3 b3 c7 03 c1 bf b8 32 c1 f3 8d 4e a1 3f
       -0.1329278591789294 0.0338024482776737
000010 e8 bb 8c 43 5a 4a 98 3f f2 bd 71 07 36 48 82 bf
       0.023721132634076186 -0.008926794149572512
000020 b7 33 69 dd 92 89 b5 3f af 3f b1 a9 f1 0a b0 bf
       0.08413045793095263 -0.06266699211960146
000030 10 35 c3 e3 de 1c a0 bf aa 23 ab f9 0d 3b 9a bf
       -0.031470265677493114 -0.025615900386387537
000040 b3 93 e1 02 5b b7 99 bf e0 a6 0b 62 b8 48 a5 3f
       -0.025113508272983597 0.041570436447569525
000050 cb 02 7d 2d 86 4b a2 bf b8 63 50 f5 b6 8e a6 bf
       -0.035732453396581564 -0.04405757660442283
000060 e0 2a bf 2b 91 6e 7b bf 12 78 71 d0 95 54 85 bf
       -0.0066972418534969325 -0.010415239738161861
000070 78 da a3 13 d9 fa b0 bf 7b af 7a 6b c3 65 8f bf
       -0.06632763604634728 -0.015330816953188045
000080 2c 66 e2 11 13 6a a1 3f c3 f5 75 67 57 cd c0 bf
       0.03401240914645273 -0.1312665229014965
000090 2f ea 28 d4 b3 c6 c0 bf 52 50 35 8e f8 26 b6 bf
       -0.13106391772619605 -0.08653214904671927
0000a0 b9 8d c7 8e 8a de 96 3f 14 8a f5 3b 09 d8 b5 bf
       0.022333302464074587 -0.08532769883962771
0000b0 c2 81 01 bb c8 56 c3 bf 0e 60 5d 72 7c a9 82 3f
       -0.15108594065806186 0.009112331619391536
0000c0 1a 78 06 3a 2d f1 79 bf e4 77 1a 07 1d 29 a2 bf
       -0.006333519617696149 -0.035469920270074146
0000d0 8a 87 d2 c3 92 3c c2 bf 48 d7 0f fa 78 9a b2 bf
       -0.14247355043067628 -0.07266956429506621
0000e0 22 72 90 1f 77 e6 91 3f 2c ab bc a6 23 81 b5 bf
       0.017480717946556486 -0.08400175877310961
0000f0 d1 9c b9 85 c9 04 b2 3f 91 98 c9 7d 46 a6 a6 bf
       0.0703855468251391 -0.0442373302983451
000100 43 cf 87 13 e0 b9 9d 3f 32 7d 10 8d f1 0c b6 3f
       0.029029370491073136 0.08613500303225832
000110 83 de ec 44 29 c6 95 3f e5 76 cc 9f f9 90 c1 bf
       0.021263737518181457 -0.13723678877516146
000120 28 12 17 14 f7 d4 c0 bf 94 b5 28 de d0 f2 b4 bf
       -0.13149918061221055 -0.08183007644466606
000130 7e 23 f8 fa 2f 9f b1 bf 87 da 5b 7a ab ff a3 3f
       -0.06883525731258364 0.0390599810470365
000140 fa 11 8e cb 8e 2d b3 bf 44 2b 5c 4c 72 e9 a6 bf
       -0.07491390676120338 -0.04474980528001152
000150 48 ed 2d 5c 07 41 c0 bf a8 0a dc 76 86 00 b0 bf
       -0.1269845199675308 -0.06250801469654255
000160 d0 c6 c4 58 39 5c 8f bf 07 b6 f6 3d ae 5b c3 bf
       -0.015312622090820766 -0.15123537087986014
000170 bf 5f 0a cd 81 26 76 bf 3a 28 60 cc bc 04 b1 bf
       -0.005407816920204255 -0.06647853841437348
000180 9c 75 32 98 3b 33 a2 bf 02 00 9f 73 9d ee b9 bf
       -0.035547125176189825 -0.10129722664623844
000190 20 84 f3 01 59 16 84 3f 36 bc c1 60 9f 5e b9 3f
       0.009808249828383409 0.09910007583833721
0001a0 6a a7 45 d9 0a e2 ab bf 9a 9a 0f 2d 54 f6 b0 3f
       -0.05445894148108617 0.06625867939110677
0001b0 77 62 3d a9 1e 4a 6f bf 53 0e 16 ce 7e d1 76 3f
       -0.003819522747943001 0.005570884067654785
0001c0 8e 7f 85 a1 a7 33 b2 3f 02 68 4b 14 54 2a c3 bf
       0.07110068982501458 -0.14972926131196124
0001d0 05 50 00 59 c6 88 a5 3f 91 f6 f7 66 c5 aa 9b 3f
       0.04205913387718855 0.027018627557473144
0001e0 a6 0e 43 24 d5 4e a2 bf db 1e 92 5c a1 42 a0 bf
       -0.03575769488955176 -0.03175834898962445
0001f0 8a 79 fe d0 68 e9 b2 bf 36 95 7c fb 8c a4 58 bf
       -0.07387404539483647 -0.0015040756970362119
000200 df ce 22 b7 42 f1 b3 bf 91 7e 3b 11 e5 f5 a0 bf
       -0.07790009471028324 -0.033126028398098424
000210 7d 16 ea ec 57 ca 76 bf 26 fa 7d 1a f1 65 a8 bf
       -0.005564063509728376 -0.047652754291437824
000220 00 73 12 29 0a f2 9a bf 30 46 61 4b a2 83 b4 bf
       -0.026313933140602153 -0.08013357487040973
000230 ec 24 5e 1b 66 ee b6 3f ee d0 50 10 27 1f c2 bf
       0.08957517784269314 -0.14157570168175176
000240 7d bf 8d ee f2 26 b3 bf 58 b7 4e 14 a5 fb 94 3f
       -0.07481306385102289 0.020491198887320067
000250 09 85 56 68 49 c2 95 3f 30 f9 7d 0a ff 36 a8 3f
       0.02124895762756743 0.047294588118335645
000260 98 86 2f a8 65 71 a1 bf 98 57 b7 bb d0 23 78 3f
       -0.034068276195978686 0.005893531193086242
000270 6a 45 53 ee 9b ea a0 bf f3 11 56 05 d1 c7 be bf
       -0.03303992542499652 -0.12023645763662909
000280 cc 0d 0c 52 37 70 b7 3f 54 1a cc fa b3 1f 98 bf
       0.09155603173353838 -0.023558437521410916
000290 c3 00 c7 25 8e af 85 bf 94 ff e1 5f 04 40 4d 3f
       -0.010588751342652697 0.0008926411972112074
0002a0 4e 9c ce f8 f2 78 80 bf b7 12 02 37 a1 d1 a9 bf
       -0.00804319211768081 -0.05042747303472111
0002b0 24 45 95 92 9e 23 ae bf cb e1 fe 22 2f f2 bb bf
       -0.058865504640048166 -0.10916418651948516
0002c0 25 1c 33 6c 56 13 b9 bf 18 a8 50 bb f2 b5 a8 bf
       -0.09795131818383192 -0.048263154378517636
0002d0 0f 09 29 e3 52 58 b6 bf 40 a1 cb 11 04 1e 82 bf
       -0.08728521390824916 -0.008846313279221918
0002e0 e7 2f 31 34 9c 00 86 bf 10 bf 68 d3 7b 1f a1 bf
       -0.010743351309564232 -0.03344332652738846
0002f0 c8 c5 67 ec 8d 72 b6 3f 15 1e e4 25 5d f1 b2 bf
       0.08768546125045085 -0.07399542021823209
000300 ca 36 31 7d a8 2b c3 bf 35 07 c7 15 03 32 8e 3f
       -0.14976984131720023 0.014743827917189737
000310 f7 bb 18 b9 6d 73 b2 bf 1d b8 9a 7b ae 40 b4 3f
       -0.07207380074463275 0.07911196248707637

weight f8 [1, 100]
000000 be f9 d9 3f e8 1b a3 bf 6f 87 30 a3 89 1e 9b 3f
       -0.03732229022442678 0.02648367937593526
000010 79 c8 04 95 7e f3 b2 bf 99 3a 4a 37 8d 6c a1 bf
       -0.0740279306235453 -0.03403130817342976
000020 42 50 0e 30 21 d4 a0 bf c8 53 56 93 8b 78 99 3f
       -0.03286842071170827 0.024873906009435648
000030 c9 5e 9b 31 77 be a7 bf 00 6c 1b 6f c5 9b ad bf
       -0.04637501221230662 -0.057829065144424874
000040 9d af af ea 5b 51 43 bf b2 43 34 d8 27 1b 39 bf
       -0.0005895327388976028 -0.0003830883290030742
000050 ce a7 87 8a cc 12 5e 3f 39 00 63 49 1e 24 a5 bf
       0.0018355367156979055 -0.04129118581613551
000060 24 ec a8 66 71 3e 95 3f b6 79 bf e9 3c b0 9d bf
       0.02074601353727358 -0.028992606894343097
000070 54 3d 51 8f eb f3 b3 bf e0 61 7e fe 12 ff 95 bf
       -0.07794067620237871 -0.02148084333711775
000080 66 51 64 c8 b8 77 a4 3f a1 fa db eb 8d f0 a0 3f
       0.03997590490522178 0.03308528427259217
000090 1e 02 7a 50 81 e2 99 bf ee c3 92 13 89 f7 47 3f
       -0.0252781110161796 0.0007314128225940333
0000a0 41 85 33 2f ab f4 6c 3f 74 1d 0f 17 2e 50 40 bf
       0.00353463587235639 -0.0004978394555274338
0000b0 eb 1a 12 97 a1 b7 a1 bf c7 b1 df 34 c5 cb 74 bf
       -0.03460411996007003 -0.0050771430378344145
0000c0 bf 6e 98 55 2d 5a a4 bf ca 12 7d dc c9 46 a1 bf
       -0.039750496576940623 -0.033743198552235024
0000d0 88 43 b5 48 97 56 91 bf c4 81 4b 86 59 14 a2 bf
       -0.016931880772350222 -0.03531150593130719
0000e0 14 e8 04 7e 51 c1 9d 3f 9c 91 84 df c9 4c b8 bf
       0.029057763401603223 -0.094921700544154
0000f0 01 80 b7 ec 0b a3 5d bf 5a 3f 63 47 45 e7 ac bf
       -0.001808892865362566 -0.05645195480758387
000100 d4 69 5d 1d 0b 6b 40 bf 07 f7 0d 31 3b a5 43 bf
       -0.0005010418196705287 -0.0005995310803965378
000110 18 75 60 13 53 74 68 bf 00 b2 d1 e4 5a 96 65 3f
       -0.0029851553508836275 0.002635171439172135
000120 20 28 46 bc bc 9b 93 3f f9 34 02 ef 2f c8 b1 bf
       0.019148777953468366 -0.06946086487933546
000130 ee 47 c1 b7 74 36 a0 bf 9c e3 dc b6 a9 9f 7c bf
       -0.03166546576598238 -0.006988203951373697
000140 3b 2d f3 15 b9 b3 85 bf 28 bc f4 67 d8 45 84 bf
       -0.010596700651510296 -0.009898844406590682
000150 8a 08 8b ff b1 4b 94 bf ea c7 3c 9d 8d d4 ab 3f
       -0.019820004675019244 0.05435602707292715
000160 e0 af ab d2 0c 99 75 3f e8 a2 ac 8e 7f 2a ab bf
       0.0052729130645552125 -0.05305861107473736
000170 4a dc cc fe eb 31 38 bf ae 0e 06 f9 69 31 a0 3f
       -0.00036918651203471777 0.03162699856605165
000180 59 07 e7 ee fc e7 60 3f 4c 03 eb 70 95 f3 9d 3f
       0.002063745508366671 0.029249510781258523
000190 3f 78 2e d8 4d 87 4f bf 63 a1 0e ac 1d dd b1 3f
       -0.0009621744251153765 0.06978021097768798
0001a0 24 d6 6b b8 b2 dc 9b bf e8 80 ed 3b 7e 8c 81 bf
       -0.02720908403985879 -0.008568750575875986
0001b0 3c 66 79 6a 55 57 53 3f 9a a1 77 16 6c 1d 77 3f
       0.0011804899349016204 0.0056432935884704
0001c0 53 51 9c c3 e7 4c b6 3f 0f 03 43 a9 47 05 a1 bf
       0.08711098218583872 -0.03324340764220867
0001d0 b8 79 7b 28 b6 9a a0 3f c8 45 4b ea 6d d8 93 3f
       0.032430355493250074 0.019380299973652787
0001e0 57 30 46 80 ec 39 b8 bf 4c 80 cf 78 ce ce 68 bf
       -0.09463384753888825 -0.0030283005385030367
0001f0 2d 15 4c 78 e9 b3 95 bf 7e da 80 6c 37 53 93 3f
       -0.02119412228332356 0.018872133252637806
000200 e6 70 32 63 31 45 a9 bf ec 46 ad 4c 9e e9 7a bf
       -0.04935602508450802 -0.00657045207738503
000210 3d ba b9 ed 53 b0 a0 3f aa 8e 4f 7e 0b 36 67 bf
       0.03259527470514854 -0.0028333878021714236
000220 a0 63 e2 43 7b f2 7e bf b8 4d e5 2e 7b a0 89 3f
       -0.0075554671331240775 0.012513124817508423
000230 6e 66 c1 e4 18 67 a6 3f ae 5e b5 5e 56 d4 56 3f
       0.04375531952309762 0.0013933986145583765
000240 0e b3 26 fe 1a bb ab 3f 57 70 b3 f0 37 2a 54 bf
       0.05416187622481604 -0.0012307688037287623
000250 20 45 a5 35 77 61 a2 3f e5 53 57 f2 4a 85 b4 3f
       0.035899853991063546 0.08015888611346574
000260 7a 5f af fa a6 c3 a0 3f da 30 d8 2c cf d5 ac 3f
       0.03274270830269095 0.05631873533647687
000270 9e 5f 6f db 0f 13 96 bf f2 de 18 c1 79 90 95 bf
       -0.021557090538265926 -0.021058943186487995
000280 6c c2 71 11 12 c8 9c 3f c0 87 9a 9a 89 ce 67 bf
       0.02810695868942263 -0.0029061019493647755
000290 8e f8 ad 87 9e 49 92 3f 29 9f 8f cb 39 2f 9c bf
       0.017858960181449883 -0.027523901986483388
0002a0 d8 e5 13 23 43 66 65 3f b0 d2 19 9e 87 17 7c bf
       0.002612239005085764 -0.00685837722413811
0002b0 8c 9b 85 b3 a7 bc 79 bf 9e c6 a0 40 90 61 9e 3f
       -0.006283431132351757 0.029669050163824033
0002c0 0c 3d 87 fc 7e be 93 bf 24 b8 69 a3 7e c8 a8 bf
       -0.01928137222585939 -0.04840465302264388
0002d0 cc d4 67 15 d5 2f 9e 3f 7a 04 ec 58 7f 8f a5 3f
       0.029479340964788034 0.042110423664788635
0002e0 1b 4d 58 df 70 6e 71 bf ed ce 9e 7d 1a 59 a3 3f
       -0.004255715282414553 0.037789180597796214
0002f0 b7 ff 3e ee a7 10 73 bf 6f 55 fe 67 69 0a b1 3f
       -0.0046545562544792396 0.06656512059119789
000300 26 ee 51 57 15 b8 98 3f f4 62 13 8a 6c f5 93 bf
       0.024139722303955356 -0.019490905692552254
000310 c4 14 12 a9 98 aa 9b bf a4 19 30 c8 7c f6 bc bf
       -0.02701796085286358 -0.11313609969520272

bias f8 [1]
000000 8b 82 66 f5 f8 47 b3 bf
       -0.07531696311208173
