WeakLossExample/Models/F7_3_model.pt (torch, 86063 bytes, 6 tensors)

weight f8 [100, 1]
00000000: 5251 12f6 58d2 dcbf b0ae 4ac7 c81a d6bf
00000010: 302b 7503 92ed ad3f 2385 365d 4f15 d4bf
00000020: 7700 8897 916f ecbf 5351 a917 465d b6bf
00000030: dc96 5a08 dab0 ccbf 1974 0319 8853 b4bf
00000040: 4344 280f c953 08c0 344b 9bea 3a29 e3bf
00000050: d408 ff04 cea4 b8bf ea31 f6e4 9f87 dcbf
00000060: 154a 5aa8 eb9e ecbf ab42 d78a e344 d6bf
00000070: 9102 e902 1dbe e8bf f5fe 52be e9d7 d9bf
00000080: 91dd 9238 fea2 efbf b72a 0ea3 c153 72bf
00000090: 3da9 623a cc92 dbbf 9d46 fc93 eeae 1ec0
000000a0: df7e 7865 b1fb e2bf 0a05 0ac3 8380 d53f
000000b0: 780d 0a0b 193b c6bf 6c66 4832 0fc7 b6bf
000000c0: 9ff4 56c4 1e06 d63f 5e03 d329 cdec 21c0
000000d0: cd27 b8b0 864d cebf 41f7 8858 7cf0 edbf
000000e0: dcb9 eda6 29f4 e3bf a306 f372 324d a4bf
000000f0: 8436 3983 b9e8 01c0 d8ee 2983 f27c 56bf
00000100: 9ad2 3b7d 1a1a f6bf dcf3 570f 7b64 e9bf
00000110: 0829 ed08 660e edbf 66eb 1739 14f8 ac3f
00000120: e832 c8f3 43d3 ddbf 06b9 d530 7c31 1bc0
00000130: a4bb 04bc d889 d4bf 1403 cc0c 05e6 d6bf
00000140: 6eac 1a8d 5d27 5c3f f126 4f4c bc8f acbf
00000150: 0937 8216 d82e 7e3f bd4d cfa2 87f9 efbf
00000160: 2298 831e c24d 96bf 43e7 5700 2869 8d3f
00000170: 14d8 3032 9908 d7bf 9259 d723 68b0 d1bf
00000180: a0fa 18a9 df9f debf f01c 4b31 5f32 d5bf
00000190: 20a3 c259 5621 10c0 2469 12ac cce3 bb3f
000001a0: 902c 8f16 7fe0 a73f bd3e 9fc8 ba9a 923f
000001b0: 64ff 1f18 c9d7 c53f b4d8 457b d843 f1bf
000001c0: 019d 38f3 e2c4 d5bf fe72 d19e 5935 e8bf
000001d0: 894e 3d02 0a8e c73f 5369 8eb5 24b2 00c0
000001e0: 5f09 3261 1b89 f0bf 0458 8c0a 0dbf c23f
000001f0: 3ac4 5271 0876 ccbf 1cb4 7438 3506 dcbf
00000200: 4140 dc27 9991 c1bf 2e66 483c 2c83 f5bf
00000210: d68f 014f 11bb acbf c0cd 14e5 c5d1 c8bf
00000220: c32b 7515 9c37 e1bf 8848 b5c2 431a e6bf
00000230: 60db fb16 1be3 a6bf f71e 5909 5f84 f9bf
00000240: 7f8c 8119 1616 ebbf a0c8 c664 98ea dfbf
00000250: 2f07 e301 c20e d4bf 8313 224a 272e debf
00000260: 3f29 d0e8 0a18 8c3f 6c05 602c 6f90 d1bf
00000270: 8aec b352 c628 9cbf db2e 25cd e238 97bf
00000280: f358 c7ab ad90 f23f b305 2ffe 0b51 d7bf
00000290: e76e 8907 0f11 c6bf 934d fe9a 260a b4bf
000002a0: c996 aed4 813d d1bf 9096 03db 2b3e c23f
000002b0: d936 3660 0ea7 c4bf ca58 5ad3 a3a8 f23f
000002c0: 674d 257a 0b33 8f3f 7b4a b337 330c b6bf
000002d0: e05b b12a 338c f1bf 9b04 ecfa eb6c e9bf
000002e0: 76ed ed95 e701 663f 6e4a b9e2 369f b1bf
000002f0: aa9e dd55 c526 d7bf 49f6 353f b882 09c0
00000300: 409f 1919 2add b1bf 8788 8c6c e0d8 50bf
00000310: 4e1e aa40 b5d7 9fbf 7d60 c10f 46aa eabf
-0.45033859281945354 -0.34538478338320555 0.058453143045502975 -0.3138006601603413 -0.8886192283244004 -0.08736074521704511 -0.22414708526519334 -0.07939959154778399
-3.040910833755818 -0.5987829763565515 -0.09626472112634882 -0.44577786788502627 -0.8943994796885045 -0.3479546409480842 -0.7732071930732493 -0.40380328737590726
-0.9886466126398991 -0.004474407572056797 -0.430834824578273 -7.6708319781043 -0.5932242376183828 0.33596891447821575 -0.17367852248217353 -0.08897490480048881
0.3441235463504401 -8.962502772339288 -0.23674090985178822 -0.9356061677169479 -0.6235550175022655 -0.03965146687688772 -2.2386350871882446 -0.001372563198542778
-1.3813729183140482 -0.7935157108000754 -0.908007638391866 0.05658019253674844 -0.4660196190532546 -6.798325312656976 -0.3209134899251984 -0.3577892899484578
0.001718369825918466 -0.05578411513813631 0.007368892758803155 -0.9992101840857043 -0.02178099929087563 0.014360725889662645 -0.3598998060364249 -0.276392016411955
-0.47850791467127785 -0.33119945348558044 -4.0325559639975666 0.10894469452833683 0.04663464689618835 0.018168371672628626 0.17064775159814893 -1.0790638747544508
-0.34014199974122056 -0.7565124608914571 0.18402218922948446 -2.086984079750587 -1.0334733769128304 0.14645541205453594 -0.22235208066334328 -0.4378788997008216
-0.1372558064108507 -1.344524608115886 -0.056114712614345016 -0.19390176473244303 -0.5380382937522586 -0.6907061388867684 -0.04470142989696657 -1.5948171963845519
-0.8464460848012009 -0.49869356004195176 -0.31340074714909155 -0.47156698455392404 0.013717732648747314 -0.27444056828979657 -0.027499293134479554 -0.02267794015032974
1.1603218755822666 -0.36432170698762006 -0.17239559047708683 -0.07827988895433284 -0.269379098603491 0.14252231782954938 -0.16134814927902744 1.1661718612645466
0.015234079041568106 -0.0861236582743831 -1.0967284839332407 -0.7945461178607219 0.0026864550740676686 -0.06883566890000178 -0.3617413843662499 -3.1888279856055175
-0.0697809516219623 -0.001028269924241461 -0.0310962982862562 -0.8332853610727536

bias f8 [100]
00000000: b26b 0f58 f4a2 b8bf b0bd 4606 e983 bcbf
00000010: 042d e9fb 2196 dabf 9d45 4c72 4641 70bf
00000020: 626f 805f 0f94 e8bf 14ce 3f08 3995 87bf
00000030: 46c6 159e 05ea 153f fbe5 cd4b ad86 a6bf
00000040: 008c 487f c68b f43f 3800 f91e c633 debf
00000050: 7efb f86b 9a2e b4bf 31ef 21ce c18e f43f
00000060: 6d41 9670 329f 4bbf 8b0d edb8 8510 b8bf
00000070: e614 4761 a6a5 e0bf b6db 30bc db60 b9bf
00000080: 8429 afaf 4e02 d0bf 14ba a038 b541 aebf
00000090: 2c1c 88d7 fa71 533f dd77 e362 2f7f f63f
000000a0: 1394 b534 4908 a0bf e874 51c8 fc9e f1bf
000000b0: bc36 27cc fd4f e4bf f2d6 6b8c cc67 cabf
000000c0: d67c d9a8 289d f1bf 0b5f cb19 9f54 0240
000000d0: 5f13 2533 3e90 463f c84a 588c e214 c5bf
000000e0: 6e44 2b86 8ff9 5b3f 17ed 56ff ffdb d2bf
000000f0: bad3 c5f1 cf3b f73f 999d 5087 cb35 81bf
00000100: 40c8 afff 05cb acbf cf5f 81aa 6b92 77bf
00000110: 6d18 446f 9620 86bf 61d6 d938 9ee5 d1bf
00000120: fc2e 85f0 c56c d3bf abf7 24d2 ca03 0240
00000130: 1241 72f8 153e e3bf acfd c450 19f8 4c3f
00000140: ee0d 9067 298a 76bf 08b8 faba 9166 203f
00000150: b1fe 5b8e 1796 cfbf 8cfe 2eff 0fe6 7cbf
00000160: 2288 a715 f488 a2bf 67e1 bd5d 8f8a b7bf
00000170: cc5b a134 dd06 d6bf a463 b8cf 7874 c1bf
00000180: 5062 eada 9548 c3bf c446 957b e80b 4d3f
00000190: 47d3 a00d 8145 de3f 1e47 0eaa 849f d9bf
000001a0: e074 59c8 1d73 e0bf 1e3d fab1 c4ae cbbf
000001b0: d40f 8fde 7abb efbf 1054 51ef 09c7 8abf
000001c0: 36cd a6b8 a2a5 a9bf 75de f862 bc2a ed3f
000001d0: dcf8 e347 cf1e e6bf a17f f97a 4764 0040
000001e0: 572f dedd e449 7abf d463 fe75 f5ba e6bf
000001f0: e3e6 e20c 792c 65bf a698 22de fff1 e0bf
00000200: 6c26 7755 a582 333f ece6 0fe3 c932 f13f
00000210: ac1f c660 4504 c2bf 1e1a 62e8 e259 eebf
00000220: 1717 aaa1 f559 f63f 0cfe d376 c337 eebf
00000230: 5c0f 467c 5cdc d8bf 87d3 2b34 77cd 6c3f
00000240: b68f 59fb a836 e0bf ace8 e35c 6189 e7bf
00000250: 54dd ee4a f547 4c3f e378 db08 f6ef 5fbf
00000260: f93a 29c3 a70f b0bf ecc7 a9d0 5302 d3bf
00000270: 4e8c 58a2 d1a5 c8bf 8be7 9e3e 53de 63bf
00000280: 5471 e8c8 ef73 fbbf a584 97a0 92c5 b0bf
00000290: 251d 2808 e0b5 3f3f 448b 48ed e0ec cabf
000002a0: 9f95 ddb6 46f4 48bf aa62 37d0 5daf dfbf
000002b0: e9d1 ee32 bf56 373f b11b 62f1 d640 00c0
000002c0: 9f7c 4deb f83b b4bf 25e6 fc8c 8be0 adbf
000002d0: c78b 5a14 f10c 503f fd0f 276c 32cf 89bf
000002e0: 3e5c 608e 4d8c b3bf 5359 2e09 6da8 91bf
000002f0: 2951 51e4 4fa6 84bf 3d62 e849 12af fa3f
00000300: e0e0 4437 312f ecbf cfb5 1daa cdc1 c7bf
00000310: cbd7 1a96 bb88 c2bf 78b0 fb72 cbe6 cebf
-0.09623648786457187 -0.11138779071074256 -0.41541337586086535 -0.003968501264141192 -0.7680737366931505 -0.011515088619467519 8.359584128017028e-05 -0.04399625349374144
1.2841248485572123 -0.4719100286929492 -0.07883610855149745 1.2848527957966775 -0.0008429523742723828 -0.09400211109919192 -0.5202209377245282 -0.09913419098380313
-0.25014083058035674 -0.05909506145723156 0.001186842882931814 1.4060510504564185 -0.03131321686195334 -1.1013152909211446 -0.6347645747534538 -0.20629269463068273
-1.100868854111288 2.291319085616015 0.0006885818204770236 -0.16469985821512112 0.0017074491121784846 -0.29467773375991285 1.4521026081322206 -0.008403387133582284
-0.056236445867299256 -0.0057548719124369116 -0.010804343481606271 -0.27963977386330013 -0.3035139893370198 2.251851693871648 -0.6013288357226279 0.0008840678797596333
-0.005502855049602113 0.00012512711463358328 -0.2467679448236502 -0.007055342185537616 -0.036201121943818984 -0.09195800818077303 -0.3441689504592744 -0.1363669409045346
-0.15065262974964577 0.0008864293260250834 0.4729921944702266 -0.40036121947297143 -0.5140522873949998 -0.21627100649173142 -0.9916357371189357 -0.013074948898216504
-0.05009182457015486 0.9114667828607269 -0.691260948573269 2.048964462985126 -0.006418127069888722 -0.7103221230091727 -0.0025846828712844257 -0.529540952546786
0.00029770409079485946 1.0748995656599005 -0.14075534081734753 -0.9484724558577147 1.3969627680793957 -0.9443070717679247 -0.3884497846231534 0.003515942401799813
-0.5066723736931553 -0.7355200590384547 0.0008630702703759465 -0.001949301021731347 -0.0627388812510893 -0.29701705338732043 -0.19256039073033765 -0.0024253488417941885
-1.715804848477167 -0.06551472111415764 0.0004838630631244948 -0.21035396181204125 -0.0007615418705710259 -0.4950785191881929 0.0003561226648643155 -2.0316599710526693
-0.07904010529226689 -0.0583537683109621 0.0009796480457360133 -0.01260222809367661 -0.0763596031759883 -0.017244056401602603 -0.010082840113832052 1.6677420508405156
-0.8807607726548916 -0.18560190969894427 -0.14479775266016612 -0.2414182959977358

weight f8 [100, 100]
00000000: c8c9 0c4c f700 c4bf e0c5 e009 f1b8 94bf
00000010: d652 f3b7 14b3 a0bf 9548 59ca b816 933f
00000020: 9ad5 8cd2 d4f8 aa3f 547e 56ea e0a7 953f
00000030: 22b9 8e92 01d8 aebf eb10 2956 139c c2bf
00000040: 10c1 adfc 078e 863f 6429 9a72 8362 b9bf
00000050: dd1e 690e f96c afbf 68b0 9420 2663 aebf
00000060: 842c 551a 307e b4bf 2fb7 ff41 14a0 983f
00000070: 157d 93a0 02ee b33f 1fd3 a8ab 747f bbbf
00000080: 9f6a be5f 1f4c b23f ea57 b7a2 a268 c1bf
00000090: 78a2 d08f 8a26 c2bf b1e8 3d6a 4df8 b63f
000000a0: 9cf7 2b88 7b96 a23f 8e6c 7b94 57ca 603f
000000b0: 0663 1b05 9c1e abbf 5f6e 25b1 4f68 c3bf
000000c0: c67c 67d2 83ba babf 2293 70ed 989a c2bf
000000d0: e750 a033 f1a1 b0bf 5990 fe90 dee4 b6bf
000000e0: 679c 7a53 dae6 afbf 7047 aeb4 c5fd 903f
000000f0: e9db acb4 30ce c2bf 4a96 4590 5c14 843f
00000100: 69a5 bf67 7e33 a43f d28e df61 1f87 bebf
00000110: 9b31 d19a a28e 843f cb98 b167 921e babf
00000120: 0533 6f0a 63d2 b43f 2fb2 b42e d85f a9bf
00000130: b1d9 b8d6 10b1 b13f 07f4 214e aad2 bfbf
00000140: 3186 521c 1809 55bf 05f6 be4f 2f6b c0bf
00000150: 3c09 c78f e77a 93bf b040 f3e6 8a06 8cbf
00000160: 4832 cf81 7e64 c2bf bc01 3b3c a7e2 b5bf
00000170: 23a6 9f94 8449 b43f 2301 30f0 10c5 b83f
00000180: 95b6 45c0 de8f b33f dbcd 3e15 1466 a1bf
00000190: 509f c87c 1a7e 993f a870 24ef 62a9 babf
000001a0: 0bdb 884f b4cb b1bf 961c 3e69 55bf 7a3f
000001b0: b6e1 9e62 1c23 b9bf 77b5 ae5b b3b1 c0bf
000001c0: e193 5072 e66b c1bf d623 d2cc 130c aabf
000001d0: 8ba5 a8fb d9a1 c1bf 9189 098e 0929 bdbf
000001e0: 80eb 6601 6035 833f 629e 73d7 eda4 a03f
000001f0: 4bc1 4864 7142 b2bf 8483 462a 4091 b3bf
00000200: 1411 71fb 5961 afbf 9013 ecd1 9b82 813f
00000210: c0c0 bfdb c4d1 c2bf 4a47 c03b ad06 a2bf
00000220: 4c55 5cc3 7b5a b9bf 3310 42fd 6769 b63f
00000230: 38fa 49f9 8b16 983f 9b4f 8e68 4fc3 b33f
00000240: c785 a771 c5e1 b53f a107 020c 7952 b73f
00000250: 04b6 f66f 97a8 a4bf 4816 f1cb 7b45 a6bf
00000260: d986 25b2 7dbd bfbf 0bb2 ed04 8677 b8bf
00000270: 53bb ed57 11f9 90bf fe92 eac6 9518 9d3f
00000280: 3508 bdb0 f4d8 853f 676f df81 57de bbbf
00000290: dab2 e68f 209a b3bf da73 4ea1 d009 c0bf
000002a0: 38ec 8250 e011 abbf c1f2 da21 b878 bcbf
000002b0: 6848 15d5 b10d a03f 9b08 c0ce bdcb aebf
000002c0: beda 8987 d69d bebf 9f81 ce1a e5c2 34bf
000002d0: df00 818b 48b2 c1bf 229c 3dda a1c1 b6bf
000002e0: 1a7a 79b1 478d a1bf f95b 7362 1b81 90bf
000002f0: decb 4e33 366d b5bf bc26 1d35 040e 9f3f
00000300: 5315 ce4c 7619 b9bf 21dd 1432 66b6 c3bf
00000310: 9a4d 6a6e 0815 9e3f cffb 4753 3f79 b83f
00000320: d505 d467 651e b9bf 4ce2 792e b871 a1bf
00000330: 5df8 087d 0269 b73f a744 8d16 a9f7 bcbf
00000340: 7cfc 109b dafa a0bf 7e14 63a7 f6cc b43f
00000350: 1bed c4f2 51df c3bf fb4f c756 796b c13f
00000360: 2422 24f6 d94f cbbf c3c8 a243 df6f b0bf
00000370: a89e 0112 803a 753f 0439 fad0 9f0a c93f
00000380: 29b7 8166 f3b1 c0bf d538 5974 9946 b6bf
00000390: 4be6 ed44 8f64 b4bf f3fb 3c1b dad3 b9bf
000003a0: 6321 f419 5a90 a3bf fcc9 b52d 6f81 a33f
000003b0: 0a54 e178 4c95 b1bf d9eb 7d03 ada7 cdbf
000003c0: ae2e 2060 b9ee a2bf 22d6 a739 8773 a43f
000003d0: d8b7 3639 5984 9ebf 7d49 78c0 b1e0 84bf
000003e0: 81ab 51d7 b8e7 bbbf d8ed 5dfb f3d3 c6bf
000003f0: e488 a36f 7874 7dbf 294d c009 7a6c a3bf
00000400: 73f1 72dd 65a3 cdbf 44b1 2c8a ce08 b13f
00000410: 001e 1bcb ba01 a3bf b4c7 fa42 ceec 73bf
00000420: 5c5a 9e91 d203 a6bf 7c87 eddd 823c cdbf
00000430: 988d e2ab 2841 b3bf af2a 056c 3f1c a43f
00000440: a80a a7d3 bd1e 893f eb1f b057 8e78 b03f
00000450: fdba 41e4 f3f0 b43f 9f9b b156 061e 92bf
00000460: 08bd 37b5 3259 a8bf 28fa 1ce5 cfb9 a4bf
00000470: 5a39 5b39 1fa8 debf 39c7 68a0 75c6 bcbf
00000480: 163d 1bb3 2627 d8bf 0e5d 1505 d801 b3bf
00000490: 7c61 c24e 0346 b4bf 99d5 64b0 873c a6bf
000004a0: 40a8 9518 03b8 96bf 838c 2a33 d0b7 5abf
000004b0: 1378 b25b 71a5 b4bf 3fa2 3608 c1ec 6c3f
000004c0: 0180 c288 c0a5 b5bf 4e4c 31d6 5cb3 a93f
000004d0: c923 381b f66f aabf e7eb e64b 1d8c c8bf
000004e0: 216d e2f1 ad14 b5bf 6527 348f aea8 edbf
000004f0: 3768 aefc f207 ac3f 7c64 602d f561 c6bf
00000500: 3165 c205 57e9 d33f 7492 d548 d8aa 963f
00000510: 2a95 2805 8328 aabf 987b 0a46 deae 82bf
00000520: 9f18 8e2d dab4 81bf 0035 635a 18a8 c8bf
00000530: 0c46 7249 a3a7 bd3f 94fd 1dfd 158e 973f
00000540: 92d6 5e42 e119 e3bf c4a9 29e1 39ad 9d3f
00000550: a823 086a 745c 80bf dd2d b66b 33c0 a03f
00000560: 4b29 8281 8bcf b1bf 1861 79dc 736a 893f
00000570: 518e 7124 5548 bebf 7558 3804 7d71 b9bf
00000580: 4ef1 f6a4 14fd b7bf a014 69a1 15ca 68bf
00000590: 9534 3ecc a9b0 af3f ffb5 598a b4f9 633f
000005a0: 9f72 7446 3d85 d4bf 49a3 35ac bd99 c9bf
000005b0: 148a 0c74 9374 7b3f 2b42 6935 e63a c1bf
000005c0: 6b2e 956c 034c c2bf 51ce d529 8294 bc3f
000005d0: cdba 36a1 f9be 9fbf a243 3707 5f37 d9bf
000005e0: 053d 93b7 5efd b93f 6fef a485 6aff 88bf
000005f0: c744 56dd 23d2 c1bf a584 8101 b16a b53f
00000600: a9be a7b0 2bd2 ddbf 6c23 f317 e95a 923f
00000610: 873a 57e0 c6af b7bf 57f2 7b44 93c4 cbbf
00000620: 5643 e0a0 d8ac ae3f fe67 5790 a50a c33f
00000630: 284c 23fe 16cf 993f f58b 4871 f8e4 b23f
00000640: e02c af11 3191 b6bf feda 3fe6 09ba ad3f
00000650: e653 15d2 58dd b0bf f31d 57fe 25c1 b8bf
00000660: d25b 6ff0 53cb aebf 59bf bf46 eb2c 983f
00000670: b992 39f3 77d4 a03f ca60 565d 9600 a6bf
00000680: 7c6c 3d2c 096c a6bf 2425 386e 56fb b0bf
00000690: 90f6 d21d 49f2 c1bf f7ea 4607 7a1b c7bf
000006a0: 3bcc c503 2200 6e3f db2a 472c 5652 993f
000006b0: fc27 a552 54ae b8bf 829a da36 c0f0 6ebf
000006c0: d59b ec3d 94ec b83f 6a2e 8b73 6397 a23f
000006d0: e46b 6433 c557 9b3f c680 c633 8ec6 993f
000006e0: 4918 b64b 95d2 8d3f 8984 3745 3b81 b8bf
000006f0: e305 43bd a653 a3bf fcc8 05c5 ef39 bdbf
00000700: 9096 560f ac71 98bf c18e 0f54 d993 b5bf
00000710: 550b 5b9d 9776 bebf 02b7 05b6 232f a2bf
00000720: d9a9 394f c36a b1bf 0e64 e5d0 d01c babf
00000730: e49a 0db6 eba0 a83f 526d d356 fade 9bbf
00000740: df38 1627 8006 91bf 0410 846a 6d13 bcbf
00000750: b8e4 705d cf22 b5bf 5089 8652 4361 a6bf
00000760: feb2 d066 dac5 b1bf 405f dd52 b1c7 bcbf
00000770: 2204 d0f8 652c a2bf 29ae d922 e66c b6bf
00000780: 3f22 c274 2945 bcbf 8667 4d5a dffb b4bf
00000790: 39a2 091f 9382 bcbf f665 5237 18cc a43f
000007a0: 4100 084b c26c a23f 56c0 5dfa a709 c1bf
000007b0: 9855 e086 68fa 86bf 05b0 1591 ba66 b4bf
000007c0: 803c 1567 4a6c 59bf 851a 6dd9 ef28 adbf
000007d0: 8e96 327d 988c b63f fb4f 22e7 628c c2bf
000007e0: 05c7 b095 99d4 b03f 9678 b2f9 8048 a0bf
000007f0: c5ac c10d 1872 b63f 416f dfd7 f4ad ae3f
-0.1562794801080385 -0.020236746051699117 -0.03261627908219615 0.018641364431751645 0.05267968244735784 0.02114821844372579 -0.06024174608261236 -0.14538804728557095
0.011013090513842388 -0.09915944621949319 -0.06137827206526734 -0.05935019633975075 -0.08005047457588615 0.024048153427364823 0.07785049839320764 -0.10741357031731667
0.07147403800483197 -0.1360057158005355 -0.1418011858197763 0.0897262939815018 0.036304340717818934 0.0020496092364346635 -0.05296790659276067 -0.1516208281490092
-0.10440849196264698 -0.14534293740975907 -0.06497104177862277 -0.0894297698965273 -0.06230814236669673 0.016593064453963746 -0.14691742727310889 0.009804461624933886
0.03945536629164332 -0.11924930705532269 0.010037680005688545 -0.1020289900930919 0.08133524899239937 -0.04955936021938034 0.06910805933225707 -0.1243082466844073
-0.0012839065032398506 -0.12827102083058164 -0.019023531103593103 -0.013684353993454884 -0.14369183863017754 -0.08548970432730746 0.079246794018808 0.09675699104264317
0.07641403383396501 -0.03398192176191702 0.024895109049025976 -0.10414713228641637 -0.0695145315338374 0.006530126225590701 -0.09819199950914634 -0.13042299248392528
-0.13610535222792833 -0.05087339282278662 -0.1377518156817071 -0.11390742986399106 0.009379148524080838 0.032508308935402366 -0.07132633875221932 -0.07643509895434702
-0.06128960794788632 0.008549897521797495 -0.14702664117749542 -0.035207189124902685 -0.09903691787288443 0.08754587109621141 0.02352350911177778 0.07719894697794276
0.08547624611630687 0.09110218566095664 -0.04034875146622244 -0.04349886765025396 -0.12398515319139437 -0.09557378406834276 -0.01657511805700136 0.02841409708584574
0.010667716640117767 -0.10886141701433659 -0.07657054436885904 -0.12529952884952317 -0.052870759800008604 -0.11121702982468219 0.031354481946110735 -0.0601481737976581
-0.11959591683430923 -0.00031679242493434264 -0.13825327693667241 -0.08889209344998553 -0.034281006254549065 -0.01611750400919829 -0.08369768860465807 0.030326905957997793
-0.09804477095720658 -0.15400388188729955 0.02937710927888091 0.0956000879595955 -0.09812005791538721 -0.0340707356198818 0.09144607117284083 -0.11315399933416136
-0.03316386359119236 0.08125249468419501 -0.1552526889225668 0.13609234559282854 -0.2133743717061104 -0.06420703316942693 0.005182743334536312 0.1956367273709888
-0.1304306269188882 -0.08701476183452724 -0.07965941841930506 -0.1008888546466407 -0.0382106930429156 0.03809688027367383 -0.06868436766792754 -0.23167956038000062
-0.036977570518584954 0.03994391039661262 -0.02980174457268689 -0.010194195448126159 -0.10900454766094293 -0.17834329389357495 -0.007191153005097404 -0.03793698662789275
-0.23154900849284452 0.0665406310406001 -0.03712257127113716 -0.004864507398154961 -0.04299791362352742 -0.22840915523834926 -0.07521299549494243 0.03927801316838974
0.012265666028615854 0.06433953896350857 0.08180164644884864 -0.01769266037117811 -0.04755552732592078 -0.040480133741301494 -0.47901135064321 -0.11240325132601194
-0.3773895978055902 -0.07424688457591719 -0.07919331238588784 -0.04343055752034814 -0.022186325431370557 -0.001630738563712681 -0.08064945687007734 0.0035308618696101852
-0.08456042612897365 0.050196553370050453 -0.05163544733301923 -0.19177595335153727 -0.08234679370291477 -0.9268410489032531 0.054748147339708834 -0.17486443248415984
0.3111169391864506 0.022136096425486376 -0.05109033048601426 -0.009122597229461779 -0.008645729556303215 -0.19262985623792162 0.11583920043110413 0.02300295216946109
-0.596909169797714 0.028981117599337983 -0.00798884342749935 0.032716376207726695 -0.06957313453509532 0.012410073438488697 -0.11829120769248759 -0.09938794472722796
-0.09370545413452655 -0.0030260488959209103 0.06189470880699691 0.0024384046726513282 -0.3206322849307898 -0.20000430020015816 0.006702972402111946 -0.13460996253935895
-0.14294474412814692 0.11164105912558255 -0.031001949753483516 -0.3940045900790726 0.10152236921134168 -0.012205917552470883 -0.13922546679945055 0.08365923201337695
-0.4659527993344264 0.01792492111852388 -0.09252589203900118 -0.21693650096848913 0.059912461889445254 0.14876241252824224 0.02520404745230223 0.07380631223399788
-0.08815294915909844 0.0580599874082761 -0.06587748650538536 -0.09669721087913512 -0.06014501867291923 0.02360885257070264 0.03287100643209357 -0.04297323121426329
-0.043792997980482945 -0.06633510771657264 -0.14020647007230425 -0.180526021531328 0.0036621727323846976 0.024728151752962595 -0.09641005532935759 -0.0037769083199522
0.0973599101240404 0.03631125245518947 0.026702004682288463 0.025171491537208344 0.01456181180288864 -0.09572191657891173 -0.03774758396458446 -0.11416529235956213
-0.023871124683543743 -0.08428724577202741 -0.11899707404795141 -0.035515895814439716 -0.06803532299242167 -0.10200219249726691 0.04810272786453654 -0.027217780637198992
-0.01662636030737807 -0.10967143869862644 -0.08256240874551934 -0.043710807632367676 -0.06942524919641 -0.11242206833901225 -0.03549498235953076 -0.08759916640126932
-0.1104303274206666 -0.08196826891562922 -0.11136741168741872 0.04061961818042541 0.03598601499470578 -0.13310718274033445 -0.01121980344400235 -0.07969251672847129
-0.0015516974056770938 -0.056952948848040065 0.08808281952459593 -0.14490925107804728 0.06574401764444467 -0.03180316017208999 0.08767843566754425 0.059920932151469326

bias f8 [100]
00000000: 4b05 f3a2 0a62 79bf 7973 3468 018c 94bf
00000010: 68db 7fa4 f5fb dbbf 5e48 6ba7 076b e2bf
00000020: 496c 30ad 1706 b2bf a602 300a 304b dcbf
00000030: 3838 51b6 defe c6bf 366a 8f44 5345 bebf
00000040: c1a7 7102 c2d7 b6bf d777 850d 6011 c5bf
00000050: 22d7 8217 5e23 d1bf 4e4f 42f6 9d56 d3bf
00000060: 558f a135 cdbe 9bbf 2877 4de6 9c10 bcbf
00000070: 69ba 997b 7e3a cebf 9786 a96b b021 cebf
00000080: 83de 0051 ec64 cbbf e79a f974 d0a4 cfbf
00000090: 9948 6245 812a cbbf ce4a d672 cb69 c4bf
000000a0: bc7d ca93 4ba3 d8bf 00a2 f4a9 7f63 d3bf
000000b0: d4da de12 b2a4 b2bf fb66 5ffd e0a1 e3bf
000000c0: e1d4 84a0 e051 653f 1d8f 189d 5ea1 d9bf
000000d0: 3db7 959f fdd2 c3bf 1774 698c 3e29 d8bf
000000e0: ed33 4604 7c76 e1bf 81ea 5610 4a73 afbf
000000f0: bc2f beea b866 c0bf bdfc 0a66 8c9f c8bf
00000100: 3e31 743b 8124 d7bf 069e a952 bcb2 e53f
00000110: 96da 8be0 0963 c4bf c906 5900 35c3 91bf
00000120: e2e2 62eb ed2b babf 4c27 3737 61e7 d5bf
00000130: ee86 db84 4e33 b3bf fb5a 3075 03fa d2bf
00000140: ee08 4074 fe7e c1bf af0a 698d de38 b33f
00000150: 993c f261 5fd6 bfbf 53b3 d47d 6254 b1bf
00000160: c5dd 9793 d33a c2bf 6da7 4c7e 8ac8 e4bf
00000170: 9960 73b4 a909 d0bf 84bf 94cc 5987 08c0
00000180: 2596 ad26 06a1 c4bf df29 6277 2c5b d2bf
00000190: b795 787c 89e6 11c0 b59a a8d3 2ece 7fbf
000001a0: 4f24 d5d1 e9d2 a13f 2fc0 236b 59dc d0bf
000001b0: d0d8 c699 53bb cfbf 073d 101a 9c1f dabf
000001c0: dbcd fe50 898d b0bf 43c2 1f66 f8c5 b0bf
000001d0: 273a 8fbb 7f65 9bbf 803c 0942 eb7e cebf
000001e0: 4785 bf4c 0fd3 d6bf 75b3 d8ae 338d 9dbf
000001f0: d930 31e4 931e 80bf dac9 4cbe 569c d8bf
00000200: 51fa 5667 6965 8cbf 5369 2b9c fd4b 95bf
00000210: 9150 8fbd 0dfe d4bf f473 e27e b9ae c1bf
00000220: 9268 4fcd 5fe8 a8bf 74fb ca7f 4167 cabf
00000230: 29cc 99dd 3c19 d2bf e9b6 d9e5 1b05 c5bf
00000240: afe1 f193 b9c9 c0bf cacb d1a0 10b4 c0bf
00000250: deb9 b33a 0ad2 e1bf 44df 4c72 cced a6bf
00000260: c5e7 b0cb eff9 c1bf c9fe 4e0c 2cd3 d1bf
00000270: 75f8 e070 39ec bbbf 5c1f 7f43 8c07 b8bf
00000280: 2fd8 ef4b ada2 08c0 1b11 46f8 1293 bbbf
00000290: 589b 0b83 83dc e5bf 84f8 82e3 f9dc dabf
000002a0: 793a 2436 625b dbbf f39e 4603 5d19 b3bf
000002b0: 1350 c836 d28b d6bf c33b 0fc5 f7f5 c9bf
000002c0: 112c 72c9 679f 813f 1160 7379 c805 a03f
000002d0: 7b8d 0084 8532 a2bf 64c4 469c 2c46 b6bf
000002e0: 2f89 7a8c e89c d8bf bc45 73bf 92c0 cabf
000002f0: 5397 839e 2670 c7bf aeb5 a655 451e d5bf
00000300: 3c75 8a95 9e88 c0bf b305 208f 04df cabf
00000310: 0dc7 f423 f43d dabf 43b2 c66a 87fb cdbf
-0.00619701533213519 -0.02006532858387142 -0.4372533899726734 -0.5755651731399316 -0.07040546396494664 -0.44208909029843324 -0.17965301420412216 -0.1182453195937477
-0.0892297035185541 -0.16459274921629571 -0.26778366371159923 -0.3021616845010059 -0.027095037840253983 -0.10962849257108742 -0.23616009745770164 -0.2354031110472092
-0.2140174289249793 -0.2472172328154649 -0.21223464858900767 -0.1594785986640858 -0.3849667495032596 -0.30294791791178 -0.07282555542665686 -0.6135106037793031
0.002602518772756399 -0.400474217809675 -0.15487642566898244 -0.37751735412695225 -0.5457134326439906 -0.061426462645120423 -0.12813483678871573 -0.19236903173984912
-0.3616030769924413 0.6780683149817726 -0.159272417680502 -0.017346218248582432 -0.10223280903563706 -0.34224729911931173 -0.07500162833778365 -0.2965096134588944
-0.136688048136484 0.07508650734329579 -0.1243648161055141 -0.06769385883371841 -0.14242024141979762 -0.6494801012788521 -0.2505897772039219 -3.066089247025902
-0.16116406334474323 -0.2868148008207338 -4.475133843288339 -0.007764990727571576 0.03481226622040678 -0.2634490534101159 -0.24790425308828512 -0.4081793074155517
-0.06465967395234122 -0.06552078717482694 -0.02675437528869842 -0.23824825977724018 -0.35663206572470013 -0.028858954951079114 -0.007870822335597815 -0.3845421656034468
-0.013865302530459507 -0.020797693878969636 -0.3280062056703708 -0.1381446713975546 -0.0486478746531286 -0.20627611865890183 -0.28279039040279713 -0.16421841357389802
-0.13115615581388115 -0.13049514629855558 -0.5568896433376798 -0.044783009483977426 -0.14043996282435792 -0.2785139198494844 -0.1090732479651438 -0.09386517188897642
-3.079432099587414 -0.10771292268151848 -0.6831681785086898 -0.4197373124878896 -0.42745261466271917 -0.07460576372124787 -0.35228400564051404 -0.20281884309812712
0.008604822955268461 0.031294121575854324 -0.035541698802513864 -0.08700827422468788 -0.3845769283162949 -0.20900186870725956 -0.18311007251684916 -0.32997258533836316
-0.12916929532813437 -0.20993096340684544 -0.4100313521513364 -0.23423855508498734

weight f8 [1, 100]
00000000: 31f4 8a5b 6fda 63bf 60be b68f b5ad d8bf
00000010: 69b2 3e06 9b43 a9bf 2a5a e15a 3e5f bb3f
00000020: c55b cbb0 9bbb 96bf de63 0945 7e1b d1bf
00000030: 47fb 4890 f8bd 953f 3f81 864f f1e7 c8bf
00000040: 06b9 058a 5458 68bf 2888 3cd7 d6c0 c3bf
00000050: eabc 36a7 99c8 ce3f 1881 d07d 78c5 c6bf
00000060: 9b32 00a7 f2a2 8cbf fb6f 9294 26a7 a0bf
00000070: a337 367c a8ef 7bbf eaa0 352f 4306 ca3f
00000080: 6f45 0eff 74c0 7c3f fa76 806c 54fb a63f
00000090: a5dd 0714 901d a53f 9d60 0dec 1aec a6bf
000000a0: 1ca5 f804 d586 d23f e9e7 fb35 774a cdbf
000000b0: 6e32 69c5 135a 883f 523b 0691 4aab d4bf
000000c0: 1294 090c d1e2 70bf bc0c 0dc1 e5c2 b93f
000000d0: 25f9 a817 1475 bcbf c92b a637 c255 d1bf
000000e0: 0d00 2aa1 a783 96bf c457 17e3 69f2 91bf
000000f0: bd04 ade2 1bfb a3bf 5176 a0dd 9af3 b7bf
00000100: 80c6 ec67 9732 ce3f 3888 e42d 40b2 bc3f
00000110: 55fb 4caa abd4 c9bf 5a3d 17df 5f49 a0bf
00000120: 3f69 0605 a72b 93bf 12ea 50e3 62f1 ad3f
00000130: a55b 2ba2 b682 ae3f 7110 c039 afcb bebf
00000140: 93f9 d6ce 942c 94bf e88c e732 5b30 43bf
00000150: e521 c679 ea91 96bf 1ae9 781c e28a a1bf
00000160: a016 36c3 1608 a4bf 0447 15a6 3662 b3bf
00000170: 3556 d08d 98d2 c6bf 05a5 ede8 fe97 b6bf
00000180: 70ff 5c59 dff4 b4bf d7af c73c 6752 bfbf
00000190: 3168 c5da ac9f e8bf 0593 5728 d032 78bf
000001a0: 052f 4734 0574 a0bf c1cd f529 ac72 cbbf
000001b0: 40b1 9735 cbeb cabf 6959 a0d2 1460 b9bf
000001c0: fe91 d879 cb83 80bf 7d90 0869 5c45 cebf
000001d0: 028d c005 72eb 9ebf e77b 1bb6 b117 b53f
000001e0: 9626 2442 8ea1 cebf 7ba1 266a ac9d ab3f
000001f0: 99e8 d627 0c17 9c3f a692 31b9 20e1 c6bf
00000200: 2cfa 16c9 b874 093f ae5d b471 acb5 613f
00000210: 7b4e 6803 a1f6 ca3f a70c 7e6b baf0 a43f
00000220: 499f 61e6 4fa4 03bf dd10 a5dc 0069 cfbf
00000230: 95de d614 e8f3 a13f 4b44 f443 2a6d 91bf
00000240: 8ad9 5ce8 2968 9ebf b035 fa2d 3231 a1bf
00000250: abbe 91f5 80ea b2bf 4715 92de a8aa 4d3f
00000260: 6428 273e 85dd b7bf c17c 0a8f c50a ca3f
00000270: 93d5 f2e3 4eba a73f 975c d89d 2931 afbf
00000280: 121d 547f 27b7 f3bf e2c3 53fd 50fa a23f
00000290: 103b 0673 7ef6 c9bf 4bc0 7ca6 1502 b93f
000002a0: 6887 722d a926 d6bf 990d 2ea8 deb6 9cbf
000002b0: 3e67 1614 d2f3 c83f 1ce8 3c3e 17ec cbbf
000002c0: 0bd7 1827 9ecd b7bf ed71 69a2 f3ef 8bbf
000002d0: 98dc dec6 8d1e 57bf 3ad1 eb9d 2ebe 84bf
000002e0: 1cfd 3e7d 10e8 c5bf ec84 7f13 0c41 88bf
000002f0: adb2 3e97 0d12 bdbf c03c 34be 6667 c4bf
00000300: f7eb 778a dadc c53f a511 a78f 222f 94bf
00000310: 5097 62a8 fff9 c9bf 0eee 1577 e06a c0bf
-0.0024234938576612954 -0.3856023696380131 -0.04934391452056703 0.10692205160862814 -0.022200043359443606 -0.26730305425513545 0.021232494169676455 -0.19457832701756136
-0.0029718066363592114 -0.15432248601524745 0.240496832511304 -0.17790132659229907 -0.01398267337938224 -0.03252525867102914 -0.006820352692910622 0.2033161144747802
0.00701947881397423 0.04488624405369808 0.041241171307713466 -0.044770089449856366 0.289479498724704 -0.22883501182496893 0.01189055868339858 -0.3229547897580477
-0.004122559156347643 0.10063014948996146 -0.11116147592199306 -0.270859293312864 -0.021986598216699394 -0.017526297078653177 -0.03902518407859066 -0.09356086645899465
0.2359189279027767 0.11209488983561833 -0.20180269065346104 -0.03180980299259302 -0.01872120826883727 0.05848225617269888 0.059591014190736126 -0.12029547843855128
-0.01970131409120197 -0.0005855984980453173 -0.022041000063412048 -0.034262720084784884 -0.03912421353292683 -0.0757173686481814 -0.17830187725546556 -0.08825677096105629
-0.0818614571735432 -0.12235112413298964 -0.7694916031716784 -0.005907834163257024 -0.03213516486320426 -0.2144370274432799 -0.21032085530112887 -0.09912233488316748
-0.008063878684944289 -0.2364917290552774 -0.030195027924617264 0.08239279457073644 -0.23930528859664396 0.053937328298448294 0.02743166917000703 -0.17874535601290126
4.855336113561803e-05 0.002161824040409952 0.21065151850108407 0.04089911043322419 -3.7463844635264735e-05 -0.24539194844886128 0.03506398443590545 -0.01701799430617638
-0.02969422798852287 -0.03357846080062232 -0.07389074321121807 0.0009053539807985311 -0.09322388427168132 0.2034537266199319 0.04634329350066504 -0.06092195560284457
-1.232215402009221 0.037066012309771926 -0.20283489815161504 0.09768805803901263 -0.34610967100353784 -0.028041342749487084 0.19494081478915776 -0.21814241923294808
-0.09298122839467397 -0.013641265291135485 -0.0014110931910929266 -0.010128368563052537 -0.17114454379586952 -0.011842817635570012 -0.11355671827795773 -0.15940555846507287
0.1708024192920161 -0.019711055772647552 -0.20294185373239282 -0.12826162161569282

bias f8 [1]
00000000: 22f9 d7e3 662c 66bf
-0.0027067193575468643
